checkpoints/MLE_space_False_length_3_preTrainG_epoch_311.pth (torch_old, 36090 bytes, 7 tensors)

emb.weight f4 [5, 32]
0	0x3e43f680	0.19137001
1	0x3e89dc30	0.26925802
2	0x3df2265e	0.11823724
3	0x3e89382a	0.26800662
4	0xbe7c20a6	-0.2462183
5	0x3e864376	0.26223344
6	0x3e610e6b	0.21978156
7	0x3e82d7eb	0.25555357
8	0x3e1f8aa3	0.1558023
9	0x3d3eed03	0.04661275
10	0xbe8e2ae2	-0.27767092
11	0x3e91ad5b	0.28452572
12	0xbe430473	-0.19044666
13	0x3e1a197e	0.15048787
14	0xbe1dda35	-0.1541527
15	0xbe2d6d35	-0.1693619
16	0xbe212bd4	-0.15739375
17	0x3e5b1c56	0.21397528
18	0x3e6d0d6e	0.23149654
19	0xbec0be6a	-0.37645274
20	0xbe76a74f	-0.2408726
21	0xbe25dd2a	-0.16197649
22	0xbe21025a	-0.15723553
23	0xbebfb44b	-0.3744224
24	0xbe87ec3b	-0.26547417
25	0x3e8c67f4	0.2742306
26	0x3de69919	0.1125967
27	0x3e86d166	0.26331633
28	0x3e0804f2	0.13283136
29	0x3e39b7f0	0.18136573
30	0x3e1bbbba	0.15208331
31	0xbe485edf	-0.1956744
32	0xbe522da2	-0.2052522
33	0xbe1c7b3a	-0.15281382
34	0xbe69caa4	-0.22831208
35	0xbe5fe808	-0.21865857
36	0x3e494848	0.1965648
37	0xbe4b848e	-0.19874784
38	0xbe4bf721	-0.19918491
39	0xbe4b4287	-0.19849597
40	0xbe21ab84	-0.15788084
41	0xbe2aff97	-0.16699062
42	0x3e30ae13	0.17253904
43	0xbe39432f	-0.18092035
44	0x3e413d19	0.18870963
45	0xbe351b03	-0.17686085
46	0x3e5b3a73	0.21409015
47	0x3e388112	0.18017986
48	0x3e11f63f	0.14254092
49	0xbe683889	-0.22677816
50	0xbe352042	-0.17688087
51	0xbe3458d1	-0.17612006
52	0x3e614bae	0.22001526
53	0x3e5f65e7	0.21816216
54	0x3e5b612e	0.2142379
55	0xbe2d5c3d	-0.16929717
56	0x3e386049	0.1800548
57	0xbe2087f6	-0.15676865
58	0xbe291a03	-0.16513829
59	0xbe13b92a	-0.14426103
60	0xbe30e1ea	-0.1727368
61	0xbe6542b5	-0.22388728
62	0xbe512f7c	-0.2042827
63	0x3e62d24f	0.22150539
64	0xbe659381	-0.2241955
65	0xbe463c6d	-0.19358988
66	0xbe67dc74	-0.2264269
67	0xbe39bd7f	-0.18138693
68	0x3e582772	0.21108797
69	0xbdd61866	-0.104538724
70	0xbe4bb34e	-0.19892618
71	0xbe22370a	-0.15841308
72	0xbe62fc57	-0.22166573
73	0xbe41bf5b	-0.18920653
74	0x3e64dad3	0.223491
75	0xbe22ed4a	-0.15910831
76	0x3e476eeb	0.19475906
77	0xbe400c82	-0.18754771
78	0x3e6b021e	0.22950026
79	0x3e478e3a	0.19487849
80	0x3e5f3339	0.21796884
81	0xbe2ed2ce	-0.17072603
82	0xbe123144	-0.14276606
83	0xbe56ab14	-0.20963699
84	0x3e41017b	0.18848221
85	0x3e4cc2b5	0.1999615
86	0x3e2bd946	0.16782102
87	0xbe58500d	-0.21124287
88	0x3e35508d	0.17706509
89	0xbe50bbf0	-0.20384192
90	0xbe69678a	-0.22793403
91	0xbe56b671	-0.20968033
92	0xbe54ffd3	-0.20800714
93	0xbe170617	-0.14748417
94	0xbe6c2d92	-0.23064259
95	0x3e2c2008	0.16809094
96	0xbe550a86	-0.20804796
97	0xbe29b560	-0.16573095
98	0xbe42ab49	-0.19010653
99	0xbe37a424	-0.17933708
100	0x3e534a76	0.20633873
101	0xbe3699cf	-0.17832111
102	0xbe29f3d1	-0.16596915
103	0xbe568523	-0.20949225
104	0xbe46229f	-0.19349144
105	0xbe750c41	-0.23930456
106	0x3e482dce	0.19548723
107	0xbe4c3e96	-0.1994575
108	0x3e296f69	0.16546406
109	0xbe4401de	-0.19141337
110	0x3e40259c	0.18764347
111	0x3e5c5dc7	0.21520148
112	0x3e30e814	0.17276031
113	0xbe203a63	-0.15647273
114	0xbe41c0a4	-0.18921143
115	0xbe45cf9e	-0.19317481
116	0x3e20b9fb	0.15695946
117	0x3e2e29bb	0.17008106
118	0x3e27ef63	0.16399913
119	0xbe482331	-0.19544674
120	0x3e4836c5	0.19552143
121	0xbe2942a0	-0.16529322
122	0xbe6dd580	-0.23225975
123	0xbe4f6b82	-0.20255855
124	0xbe1cd3ca	-0.15315166
125	0xbe32704e	-0.17425653
126	0xbe3dc664	-0.18532711
127	0x3e689bc5	0.22715671
128	0xbe19f3f8	-0.15034473
129	0xbe23db29	-0.16001572
130	0xbe59649b	-0.21229784
131	0xbe33e9b6	-0.17569622
132	0x3e5bc84a	0.21463123
133	0xbe3d95ab	-0.18514125
134	0xbe4a490d	-0.19754429
135	0xbdfc5299	-0.12320442
136	0xbe62260f	-0.2208483
137	0xbe34a731	-0.17641903
138	0x3e111495	0.14168008
139	0xbe08a249	-0.13343157
140	0x3e23b416	0.15986666
141	0xbe5e4e13	-0.2170947
142	0x3e3cb75d	0.18429323
143	0x3e2443a2	0.16041425
144	0x3e69fc1b	0.22850077
145	0xbe1383fe	-0.1440582
146	0xbe5e707d	-0.21722598
147	0xbe5c7baa	-0.21531549
148	0x3e36851c	0.17824215
149	0x3e5a4265	0.2131439
150	0x3e5bf27d	0.2147922
151	0xbe581ec9	-0.21105494
152	0x3e1cc23d	0.15308471
153	0xbe66fe2e	-0.225579
154	0xbe25adff	-0.16179655
155	0xbe4e8cb3	-0.2017086
156	0xbe4492d0	-0.1919663
157	0xbe5b076e	-0.21389553
158	0xbe53279e	-0.20620582
159	0x3e19caa5	0.15018709

lstm.weight_ih_l0 f4 [128, 32]
0	0xbe15bf01	-0.14623643
1	0xbe08ed63	-0.13371806
2	0xbe338e6f	-0.17534803
3	0xbe38b361	-0.18037178
4	0x3dfa65a8	0.12226421
5	0xbe07523e	-0.13214967
6	0xbe09afef	-0.1344602
7	0xbe22fa08	-0.15915692
8	0xbe19cbae	-0.15019104
9	0xbe14b376	-0.14521584
10	0x3dcc35c3	0.09971192
11	0xbde3b9fe	-0.111194596
12	0x3e337500	0.175251
13	0xbe1c399f	-0.15256356
14	0x3e1d2963	0.15347819
15	0x3e387411	0.18013026
16	0x3e1acfbd	0.15118308
17	0xbe0e7253	-0.13910799
18	0xbe497bfe	-0.19676206
19	0xbe8fb6cc	-0.2806915
20	0x3ded564e	0.11588727
21	0x3e177df3	0.1479414
22	0x3e16fd10	0.14744973
23	0xbe83771d	-0.25676814
24	0x3e37b840	0.1794138
25	0xbdd8ccd9	-0.105859466
26	0xbe28178e	-0.16415235
27	0xbe10f32d	-0.14155264
28	0xbe4b1707	-0.19833003
29	0xbe4a559b	-0.19759218
30	0xbe30fc8b	-0.17283837
31	0x3e41bf16	0.1892055
32	0xbe52393f	-0.2052965
33	0xbe41c39a	-0.18922272
34	0xbe3dd3ba	-0.18537799
35	0xbdf8a66d	-0.12141118
36	0x3df449c6	0.11928134
37	0xbe1e7ae7	-0.15476571
38	0xbe25f0f0	-0.16205192
39	0xbdfef1c0	-0.12448454
40	0xbe5d1e05	-0.21593483
41	0xbe15312a	-0.14569536
42	0x3e1bf544	0.1523028
43	0xbe061b16	-0.1309627
44	0x3e2571ec	0.16156739
45	0xbe6af380	-0.2294445
46	0x3e2d5630	0.16927409
47	0x3e369b35	0.17832644
48	0x3e1fb7d7	0.15597473
49	0xbe280d05	-0.16411217
50	0xbe32e433	-0.17469864
51	0xbe62a974	-0.22134954
52	0x3e17587b	0.14779846
53	0x3e544d30	0.2073257
54	0x3e325208	0.17414105
55	0xbe91ea69	-0.28499153
56	0x3e40fa39	0.18845452
57	0xbe2b852d	-0.16750021
58	0xbe42e8af	-0.19034074
59	0xbe3d93f0	-0.18513465
60	0xbe4de7cc	-0.20107955
61	0xbe5c2dc4	-0.21501833
62	0xbe622d99	-0.22087707
63	0x3e57f744	0.21090418
64	0x3dfa963f	0.122356884
65	0x3e7e7775	0.24850257
66	0x3e193ca4	0.14964539
67	0x3e5788fd	0.2104835
68	0xbe1a8aac	-0.15091962
69	0x3e5a34c3	0.2130919
70	0x3e0f7b99	0.14011993
71	0x3e2e5380	0.1702404
72	0x3e3d6d38	0.18498695
73	0x3d78bef9	0.060729
74	0xbe322701	-0.17397691
75	0x3e74462e	0.23854896
76	0xbe03a502	-0.12855914
77	0x3e38dccd	0.18052979
78	0xbdefd92c	-0.11711344
79	0xbe221f77	-0.15832315
80	0xbe37afd8	-0.17938173
81	0x3e4503f0	0.19239783
82	0x3e3c86c0	0.18410778
83	0xbe8741b0	-0.26417303
84	0xbe2d515f	-0.16925572
85	0xbde93b61	-0.11388279
86	0xbe3a636c	-0.18201989
87	0xbe9f0a5f	-0.310626
88	0xbe7342ba	-0.23755923
89	0x3e4b5980	0.1985836
90	0x3e0ae92d	0.13565512
91	0x3e4fb8bb	0.20285313
92	0x3e0b2fde	0.13592479
93	0x3e52cb84	0.20585448
94	0x3e234a91	0.15946414
95	0xbe4a8e9a	-0.1978096
96	0x3c8dab8c	0.017293714
97	0x3deabc1f	0.114616625
98	0xbd7b1255	-0.06129678
99	0x3c40ab50	0.011759594
100	0xbcea7c53	-0.028623736
101	0x3dfef055	0.124481834
102	0x3cfdf03b	0.03099834
103	0x3cf1e8f7	0.029530032
104	0xbd0a9ba8	-0.03383985
105	0xbded079a	-0.115737155
106	0xbda8896c	-0.08229336
107	0x3daaae8e	0.08334075
108	0x3cc7f5c7	0.024409188
109	0xbdc61d2f	-0.09673535
110	0x3dceb22f	0.100925796
111	0x3da6df21	0.08148027
112	0x3c8f8382	0.017518762
113	0xbc93d5e6	-0.01804633
114	0x3d8107b0	0.063002944
115	0xbea368ca	-0.31915885
116	0xbd1ad48b	-0.037800353
117	0x3d2e1650	0.042501748
118	0x3d473197	0.048631277
119	0xbe948b35	-0.29012457
120	0xbcf7e771	-0.030261727
121	0x3d287564	0.041127577
122	0xbdbc02c3	-0.09180214
123	0x3d0453ac	0.03230636
124	0xbdcb07b2	-0.09913577
125	0xbd2b88cf	-0.041878518
126	0xbdb7d8ff	-0.089769356
127	0x3c6d87b1	0.014497683
128	0xbe365941	-0.17807485
129	0xbdb42d42	-0.08797695
130	0xbe30ddc9	-0.17272104
131	0xbdc47a22	-0.095936075
132	0x3e365f55	0.17809804
133	0xbe09db2a	-0.1346251
134	0xbe2dfaf0	-0.16990256
135	0xbe2d6a3c	-0.16935056
136	0xbe44e1fc	-0.19226831
137	0xbe5772fa	-0.21039954
138	0x3e281e17	0.16417728
139	0xbdde096c	-0.10841641
140	0x3e09a069	0.13440098
141	0xbe27cd63	-0.16386943
142	0x3e0dfaf3	0.13865261
143	0x3e4e7391	0.20161273
144	0x3e0b1f83	0.1358624
145	0xbddc5e87	-0.10760217
146	0xbe0a42da	-0.13502064
147	0xbe76de47	-0.2410823
148	0x3df16264	0.11786345
149	0x3e24b4a3	0.16084532
150	0x3e54d78a	0.20785347
151	0xbe90d800	-0.28289795
152	0x3dca93d6	0.09891479
153	0xbdc892f4	-0.09793654
154	0xbe2d8333	-0.1694458
155	0xbe446b93	-0.19181661
156	0xbe21f786	-0.15817079
157	0xbe5d6d77	-0.21623789
158	0xbe2920a4	-0.16516358
159	0x3e1f11c5	0.15534122
160	0xbe44acb0	-0.192065
161	0xbe2c1118	-0.16803396
162	0xbe1f4a4c	-0.15555686
163	0xbe0bf2e0	-0.13666868
164	0x3e4ab36c	0.19795007
165	0xbdef6dd3	-0.11690869
166	0xbe31f8d4	-0.17380077
167	0xbe2b10f4	-0.16705686
168	0xbe5acfe3	-0.21368365
169	0xbe3c3e1d	-0.1838307
170	0x3e2b6919	0.1673931
171	0xbd86e17f	-0.06585979
172	0x3e5643e4	0.20924336
173	0xbe50f454	-0.20405704
174	0x3e1ed900	0.15512466
175	0x3e46e858	0.1942457
176	0x3e48e9ba	0.1962041
177	0xbdd22893	-0.10261645
178	0xbe233b09	-0.15940489
179	0xbea1e65e	-0.3162107
180	0x3e302e53	0.17205171
181	0x3e0ff946	0.14059934
182	0x3e258944	0.16165644
183	0xbe83f529	-0.2577298
184	0x3e22bccc	0.15892333
185	0xbde6d570	-0.11271179
186	0xbe0c983d	-0.1372995
187	0xbdc0ecd5	-0.09420172
188	0xbe3af45b	-0.18257277
189	0xbe25e0fd	-0.16199107
190	0xbe1e260b	-0.154442
191	0x3e45adc3	0.19304566
192	0x3e604813	0.21902494
193	0x3e443f40	0.19164753
194	0x3e4ce3d4	0.20008785
195	0x3e4c1230	0.19928813
196	0xbe8f8ad7	-0.28035614
197	0x3e5a0cff	0.2129402
198	0x3e6e8bb2	0.23295477
199	0x3e700f09	0.23443235
200	0x3e2899fd	0.16464992
201	0x3db775a9	0.08957989
202	0xbe462702	-0.19350818
203	0x3e3f7625	0.18697412
204	0xbe3a7e2d	-0.18212195
205	0x3e7064c5	0.2347594
206	0xbe4ac73f	-0.19802569
207	0xbe84f92f	-0.25971362
208	0xbe44af7d	-0.19207568
209	0x3e8b65fa	0.2722624
210	0x3e818d98	0.2530334
211	0xbe446dde	-0.19182536
212	0xbe6d164f	-0.23153041
213	0xbe7096bb	-0.23494999
214	0xbe0b1d8e	-0.13585493
215	0xbe84c988	-0.25935006
216	0xbe79f8e1	-0.24411346
217	0x3e88e4c2	0.26737028
218	0x3e19fb3b	0.15037243
219	0x3e85a293	0.26100597
220	0x3def350e	0.11680041
221	0x3e5a6861	0.2132888
222	0x3e386ff7	0.18011461
223	0xbe6cbfe1	-0.23120071
224	0xbe0b4eee	-0.13604328
225	0xbe060d0a	-0.13090912
226	0xbe35127b	-0.17682831
227	0xbe11d51c	-0.14241451
228	0x3e50e95e	0.20401523
229	0xbe48ed3c	-0.19621748
230	0xbe4c5672	-0.19954851
231	0xbe42e931	-0.19034268
232	0xbe5af2e2	-0.21381715
233	0xbe2a0fe9	-0.16607632
234	0x3e26ce9f	0.16289757
235	0xbe3341ad	-0.17505522
236	0x3e48347e	0.19551274
237	0xbe5d2528	-0.21596205
238	0x3e1b8095	0.15185769
239	0x3e69c2c9	0.22828211
240	0x3e1a4424	0.15065056
241	0xbe3552c9	-0.17707361
242	0xbe53a922	-0.20669988
243	0xbe590b4c	-0.21195716
244	0x3e418c0b	0.18901078
245	0x3e1800ff	0.1484413
246	0x3e269de2	0.16271165
247	0xbe64ca50	-0.22342801
248	0x3e4e2584	0.20131499
249	0xbe53efa2	-0.20696881
250	0xbe27c23c	-0.16382688
251	0xbe4f7695	-0.20260079
252	0xbe22e32b	-0.1590697
253	0xbe2804f3	-0.16408138
254	0xbe42f2cd	-0.19037934
255	0x3e15f46f	0.14644025

lstm.weight_hh_l0 f4 [128, 32]
0	0xbe01744d	-0.12642021
1	0x3e1127cb	0.14175336
2	0xbe9b53fb	-0.3033751
3	0x3eb17368	0.3465836
4	0x3e2ef3b2	0.1708515
5	0xbe5007e7	-0.20315515
6	0x3e9488c3	0.2901059
7	0x3e523c74	0.20530874
8	0x3db5d651	0.08878768
9	0x3b500ac3	0.0031744696
10	0xbdbe7613	-0.092998646
11	0xbdccc575	-0.099985994
12	0x3eb28a38	0.34871078
13	0x3e01104a	0.1260387
14	0xbe0dbeeb	-0.1384236
15	0x3e2bde37	0.16783987
16	0xbe4c05ef	-0.19924138
17	0x3e924086	0.28564852
18	0x3e7f3363	0.24921946
19	0xbe45849a	-0.19288865
20	0x3dcfda3b	0.10149046
21	0x3e4cba74	0.19993001
22	0xbb82fb8a	-0.003997271
23	0xbdddb0e5	-0.108247556
24	0x3e31819b	0.17334597
25	0xbe4c555c	-0.19954437
26	0xbe477dbb	-0.19481556
27	0xbdcfbcb0	-0.10143411
28	0x3e992f01	0.29918674
29	0xbeb0f2ba	-0.34560186
30	0xbdd82fd9	-0.10556001
31	0xbe4e2045	-0.20129497
32	0xbe366d09	-0.17815031
33	0x3e198935	0.14993747
34	0xbe9abaa4	-0.3022052
35	0x3e956264	0.2917663
36	0x3e00a876	0.12564263
37	0xbe589a0e	-0.21152517
38	0x3e6becdb	0.23039572
39	0x3e2f60a9	0.17126717
40	0x3e2ecd24	0.17070442
41	0x3c7e120a	0.015507231
42	0xbdf4be1b	-0.11950322
43	0xbd4cf727	-0.05004039
44	0x3eb199a3	0.34687528
45	0x3e32ceb4	0.17461663
46	0xbda9f1aa	-0.08298047
47	0x3e416dd6	0.18889555
48	0xbe2cfee8	-0.16894114
49	0x3e98c1ec	0.2983545
50	0x3e6ebfa0	0.23315287
51	0xbe616dc4	-0.22014529
52	0x3db7855b	0.089609824
53	0x3e41b971	0.18918397
54	0x3abeefab	0.0014567276
55	0xbde73384	-0.11289123
56	0x3e2c9bcf	0.16856311
57	0xbe5b0e9d	-0.21392293
58	0xbdf30dcf	-0.11867868
59	0xbd4182eb	-0.047243994
60	0x3e9e5532	0.30924374
61	0xbe999ce8	-0.30002522
62	0xbd8ef567	-0.069804005
63	0xbe5fa483	-0.218401
64	0xbe1b0774	-0.15139562
65	0x3e00cf01	0.12578966
66	0xbe84762d	-0.2587141
67	0x3c1cfc83	0.009581688
68	0x3d99be44	0.075069934
69	0xbe17e2d9	-0.1483263
70	0x3e3e9cdc	0.18614525
71	0x3e14c4be	0.14528176
72	0x3e05ac88	0.13054097
73	0x3de6f975	0.11278049
74	0xbe02e7e3	-0.1278377
75	0x3e02e77f	0.12783621
76	0x3e4fcd6f	0.2029321
77	0x3db199a6	0.08671884
78	0xbdae1e2d	-0.08501849
79	0x3d7e892f	0.062142547
80	0xbdd0c073	-0.10192957
81	0x3e69bb4d	0.22825356
82	0x3ea218aa	0.31659442
83	0xbde4ad93	-0.11165919
84	0x3ddc19b7	0.10747092
85	0x3e0d8a09	0.13822187
86	0x3d0e3350	0.034716904
87	0x3d3dc21a	0.046327688
88	0x3d9c9340	0.07645273
89	0xbdd5d71a	-0.10441418
90	0xbd7c84af	-0.061649974
91	0xbe14cc86	-0.14531144
92	0xbd73d798	-0.059531778
93	0xbbae4a55	-0.0053189197
94	0xbe0ec712	-0.13943127
95	0xbe112e6e	-0.14177868
96	0xbe12a00e	-0.14318869
97	0x3e19508c	0.14972132
98	0xbe92d52b	-0.2867826
99	0x3e753c61	0.23948814
100	0x3e0afdf6	0.13573441
101	0xbe3b9ea0	-0.1832223
102	0x3e520c16	0.20512423
103	0x3e1eafae	0.15496704
104	0x3dddba6e	0.10826574
105	0x3de0a2c3	0.10968544
106	0xbd9cd312	-0.07657446
107	0x3d294b05	0.04133131
108	0x3ead86ae	0.33891815
109	0x3e368980	0.1782589
110	0xbe134f60	-0.14385748
111	0x3e1d0abb	0.15336125
112	0xbdeecdaf	-0.11660325
113	0x3e931c97	0.2873275
114	0x3e8c5239	0.2740648
115	0xbe0b1713	-0.13583021
116	0x3d987ab7	0.07445281
117	0x3e4ae797	0.19814907
118	0x3dcd40fa	0.10022159
119	0xbc010ec3	-0.007877055
120	0x3e31db2f	0.17368768
121	0xbe48b9ef	-0.19602178
122	0xbdb89d6a	-0.09014399
123	0xbe135b44	-0.14390284
124	0x3e413258	0.18866861
125	0xbe909318	-0.28237224
126	0xbdc2bcdb	-0.095086776
127	0xbe3463cc	-0.17616194
128	0xbe2b25f5	-0.16713698
129	0x3e35ed23	0.17766242
130	0xbe84af99	-0.2591522
131	0x3eb1d466	0.3473236
132	0x3e40471f	0.1877713
133	0xbe1f6d3d	-0.15569015
134	0x3e638c95	0.22221597
135	0x3e09f545	0.13472469
136	0x3e14c75d	0.14529176
137	0x3bf7daa1	0.0075639044
138	0xbe090599	-0.13381042
139	0xbd815149	-0.06314332
140	0x3eae2285	0.3401071
141	0x3e30c54b	0.17262761
142	0xbd7f5dc2	-0.062345274
143	0x3e05c232	0.13062361
144	0xbe2b3657	-0.16719948
145	0x3e4d5a62	0.2005401
146	0x3e912c9f	0.28354356
147	0xbdfd8f04	-0.12380794
148	0x3dcdd2fc	0.10050008
149	0x3e26a4d9	0.16273822
150	0xbdac43a7	-0.08411341
151	0xbd54f925	-0.051995415
152	0x3df45644	0.11930516
153	0xbe6c973e	-0.2310457
154	0xbe0f3be8	-0.13987696
155	0xbdb7547e	-0.089516625
156	0x3e89ff68	0.26952672
157	0xbe996c5f	-0.29965493
158	0xbe123707	-0.14278804
159	0xbe23b8a0	-0.15988398
160	0xbe58bd7b	-0.21166031
161	0x3e6c2ff4	0.23065168
162	0xbe713981	-0.23557092
163	0x3e8e0bd2	0.27743393
164	0x3e235769	0.15951313
165	0xbe531f73	-0.20617466
166	0x3e8b9cbf	0.27268025
167	0x3e312b82	0.17301753
168	0x3df475db	0.11936542
169	0x3d4764eb	0.048680227
170	0xbd910d3a	-0.07082601
171	0xbd80ff90	-0.06298745
172	0x3eb7d1a6	0.35902137
173	0x3e0a1365	0.13483961
174	0xbdbeff27	-0.0932601
175	0x3de81ef7	0.11334031
176	0xbe1f5218	-0.1555866
177	0x3e80388d	0.25043145
178	0x3e81b125	0.25330463
179	0xbe1b636c	-0.15174645
180	0x3d3e7ba9	0.04650465
181	0x3e6f4b8c	0.23368663
182	0xbd6d0f1c	-0.057875738
183	0xbe10057c	-0.14064592
184	0x3e2f9145	0.1714526
185	0xbe24bdf6	-0.1608809
186	0xbe4586d0	-0.19289708
187	0xbd388628	-0.045049816
188	0x3e9028c5	0.28156105
189	0xbeb6d98c	-0.3571285
190	0xbde6da37	-0.1127209
191	0xbe37ecba	-0.17961398
192	0x3bb6d4a3	0.0055795475
193	0xbd5901d4	-0.05298026
194	0xbe385c4d	-0.1800396
195	0x3d5d79f7	0.054071393
196	0xbc1f4892	-0.009721892
197	0x3cb26cb5	0.021780351
198	0x3e163621	0.14669086
199	0x3c8e42d0	0.017365843
200	0xbd881651	-0.066448815
201	0xbd119ce0	-0.03555
202	0x3b1527bc	0.002275928
203	0x3c131ace	0.008978559
204	0xbb047c6a	-0.0020215758
205	0xbd5c4024	-0.053772107
206	0x3d32103b	0.04347251
207	0x3ce1fbbe	0.02758586
208	0x3c83c8d8	0.01608698
209	0x3d9e094a	0.077166155
210	0x3e1302da	0.14356557
211	0x3ce51793	0.027965343
212	0xbd789f41	-0.06069875
213	0x3ca16640	0.019702077
214	0xbd69af0c	-0.057051703
215	0xbcb18788	-0.021671072
216	0xbd842c45	-0.06453756
217	0xbc2a609e	-0.010399012
218	0x3d24f274	0.040270284
219	0x3ce87e7e	0.028380629
220	0xb963c459	-0.00021721552
221	0xbcd89cca	-0.02644195
222	0x3c1b3ffb	0.009475703
223	0xbca711dd	-0.02039426
224	0xbe49c56c	-0.19704217
225	0x3e1e0205	0.15430458
226	0xbe8a03ef	-0.26956126
227	0x3e8decba	0.2771967
228	0x3dd8ce6d	0.105862476
229	0xbe2b587d	-0.16732974
230	0x3e5cab34	0.21549684
231	0x3e4eaa30	0.20182109
232	0x3daf0a08	0.08546835
233	0x3d303bad	0.04302566
234	0xbdf4c82e	-0.11952244
235	0xbcd768b3	-0.026295042
236	0x3e8bff36	0.27343148
237	0x3e5a0dd0	0.21294332
238	0xbcc8e6e2	-0.024524156
239	0x3e30d342	0.17268088
240	0xbe6983ed	-0.22804232
241	0x3e4d5b56	0.20054373
242	0x3e6a49a9	0.22879662
243	0xbe363b79	-0.17796125
244	0x3cab5c83	0.020918136
245	0x3e2bf3d0	0.16792226
246	0xbc2bd498	-0.010487698
247	0xbdccdd85	-0.10003189
248	0x3e148387	0.14503299
249	0xbe17991f	-0.14804505
250	0xbe440df8	-0.19145954
251	0xbd8a0c51	-0.067406304
252	0x3e811223	0.2520915
253	0xbec7fa69	-0.39058235
254	0xbd98b1ca	-0.074557856
255	0xbe019263	-0.12653498

lstm.bias_ih_l0 f4 [128]
0	0x3e6acf74	0.229307
1	0x3e7b1abe	0.2452192
2	0x3e7068cd	0.23477478
3	0x3e747e34	0.23876268
4	0x3e86a999	0.26301268
5	0x3e826731	0.25469354
6	0x3e6500cd	0.22363587
7	0x3e42b902	0.19015887
8	0x3e3c22b6	0.18372616
9	0x3e86a110	0.26294756
10	0x3e7ff586	0.24996004
11	0x3e490a84	0.19632918
12	0x3e8bec28	0.2732861
13	0x3e5ce0c0	0.2157011
14	0x3e89b9cf	0.26899573
15	0x3e387a00	0.1801529
16	0x3e520e77	0.2051333
17	0x3e5bb6f3	0.21456508
18	0x3e4e2188	0.20129979
19	0x3e4afb3f	0.19822405
20	0x3e7e3d53	0.24828081
21	0x3e5dd911	0.21664836
22	0x3e6fbbc8	0.23411477
23	0x3e81be2f	0.2534041
24	0x3e3cb953	0.1843007
25	0x3e6facdd	0.23405786
26	0x3e6f9043	0.23394875
27	0x3e63184a	0.22177234
28	0x3e92b760	0.2865553
29	0x3e5d5128	0.2161299
30	0x3e6053f2	0.21907023
31	0x3e7531b9	0.23944749
32	0xbe0610a8	-0.13092291
33	0xbe2146ab	-0.15749614
34	0xbe75db32	-0.24009398
35	0xbe2f6bc3	-0.17130952
36	0xbe0c8ffe	-0.13726804
37	0xbe384c9f	-0.17997979
38	0x3e0ed176	0.1394709
39	0xbe01ab33	-0.12662964
40	0xbe332cb2	-0.17497519
41	0xbe4add57	-0.19810997
42	0xbe2b3e62	-0.16723016
43	0xbde804db	-0.11329051
44	0xbe372293	-0.17884283
45	0xbe700bc0	-0.23441982
46	0xbe183897	-0.14865337
47	0xbe1d86bf	-0.15383433
48	0xbe364b80	-0.17802238
49	0x3e0a623d	0.13514037
50	0xbe379f82	-0.17931941
51	0xbe36d07d	-0.1785297
52	0xbde1439e	-0.10999225
53	0xbe0a1e09	-0.1348802
54	0xbe1c2fac	-0.1525256
55	0xbe28adea	-0.16472593
56	0xbe0607a8	-0.13088858
57	0xbda64fc1	-0.081206806
58	0xbe20987e	-0.15683171
59	0xbdf9141e	-0.1216204
60	0xbe7d623b	-0.24744503
61	0xbe473317	-0.19453083
62	0xbe28276c	-0.16421288
63	0xbe038d06	-0.12846765
64	0xbe1f002c	-0.1552741
65	0x3e0d1477	0.13777338
66	0xbded7132	-0.11593856
67	0x3ca3f535	0.020014385
68	0x3e10589e	0.14096305
69	0xbe23cf38	-0.15997016
70	0x3e3e52c1	0.18586256
71	0x3e22aee4	0.15887028
72	0x3db62af5	0.08894912
73	0x3d943017	0.07235735
74	0xbe1c9caf	-0.15294145
75	0x3d055360	0.032550216
76	0x3ddef8e7	0.10887318
77	0x3e12defa	0.14342871
78	0xbdd22df0	-0.10262668
79	0x3e1277ba	0.14303485
80	0xbe0ad762	-0.13558725
81	0x3e28b53d	0.16475387
82	0x3de54779	0.11195273
83	0xbdb1bd1d	-0.086786486
84	0x3deaff7b	0.1147451
85	0x3e09f76e	0.13473293
86	0x3d86911a	0.06570645
87	0x3db9c7b5	0.09071294
88	0x3df6e368	0.12055093
89	0xbddc20fc	-0.10748479
90	0xbdff60ab	-0.1246961
91	0xbe01ea76	-0.12687096
92	0xbd80dba2	-0.06291892
93	0x3bf3a0ca	0.007434939
94	0xbe1072a1	-0.14106227
95	0xbe1fbc22	-0.1559911
96	0x3e758033	0.23974685
97	0x3e7a0d50	0.24419141
98	0x3e66ec1c	0.22551006
99	0x3e54264c	0.20717734
100	0x3e5a024f	0.21289943
101	0x3e697ede	0.22802302
102	0x3e72c94c	0.23709601
103	0x3e861b75	0.26192823
104	0x3e4779f5	0.19480117
105	0x3e85e530	0.2615142
106	0x3e52f381	0.20600702
107	0x3e775f9f	0.2415757
108	0x3e96b33d	0.29433623
109	0x3e8304db	0.25589642
110	0x3e8416d4	0.25798666
111	0x3e84dbba	0.25948888
112	0x3e867927	0.26264307
113	0x3e2bfe5f	0.16796254
114	0x3e7757f5	0.24154647
115	0x3e5af2cc	0.21381682
116	0x3e9119f6	0.2834012
117	0x3e88524c	0.26625288
118	0x3e656f49	0.22405733
119	0x3e68545a	0.22688428
120	0x3e8f27dd	0.279601
121	0x3e530253	0.20606355
122	0x3e845975	0.258495
123	0x3e8ddfd7	0.2770984
124	0x3e5b530c	0.21418399
125	0x3e90fd52	0.28318268
126	0x3e6f186e	0.23349163
127	0x3e6bbc4e	0.23021051

lstm.bias_hh_l0 f4 [128]
0	0x3e83ba7a	0.25728208
1	0x3e4cafb4	0.199889
2	0x3e2e0678	0.16994655
3	0x3e60050e	0.21876928
4	0x3e630142	0.22168449
5	0x3e391538	0.180745
6	0x3e1d7c62	0.1537948
7	0x3e8201dd	0.25392047
8	0x3e475ddf	0.19469403
9	0x3e6e1b52	0.2325261
10	0x3e6c6de4	0.23088795
11	0x3e51528b	0.20441644
12	0x3e63c471	0.22242905
13	0x3e3e18b2	0.18564108
14	0x3e502047	0.20324813
15	0x3e4bc93b	0.19900982
16	0x3e5026c3	0.20327286
17	0x3e4e93f6	0.2017363
18	0x3e4109ac	0.18851346
19	0x3e869618	0.26286387
20	0x3e8ab607	0.27092
21	0x3e560ba2	0.20902875
22	0x3e78347c	0.24238771
23	0x3e8fa511	0.28055623
24	0x3e862ff6	0.26208466
25	0x3e2fce3a	0.17168513
26	0x3e83c70c	0.25737798
27	0x3e44498a	0.19168678
28	0x3e8f1a60	0.2794981
29	0x3e8534a0	0.26016712
30	0x3e5105e4	0.20412403
31	0x3e3f5f5d	0.18688722
32	0xbe19b7cd	-0.1501152
33	0xbdd43f2b	-0.10363611
34	0xbe6f5b48	-0.23374665
35	0xbe616ba7	-0.22013722
36	0xbdc95757	-0.09831112
37	0xbe10fd49	-0.1415912
38	0x3d83ab07	0.06429105
39	0xbda306f3	-0.0796031
40	0xbe36c155	-0.17847188
41	0xbe1f1bb3	-0.1553791
42	0xbe0b205b	-0.13586561
43	0xbe317a50	-0.17331815
44	0xbe54981e	-0.20761153
45	0xbe590394	-0.21192771
46	0xbe21264f	-0.1573727
47	0xbe0c24e1	-0.13685943
48	0xbdf9f0bf	-0.12204122
49	0x3e15eb00	0.14640427
50	0xbe5bbd11	-0.21458842
51	0xbe101d76	-0.14073738
52	0xbe53e46f	-0.20692609
53	0xbe31fb13	-0.17380933
54	0xbe267b76	-0.16258034
55	0xbe03a4b6	-0.12855801
56	0xbdda3480	-0.10654545
57	0xbe291ec9	-0.1651565
58	0xbe1fac35	-0.15593036
59	0xbdee13f9	-0.11624903
60	0xbe343a5b	-0.17600386
61	0xbe778673	-0.24172382
62	0xbde93429	-0.11386902
63	0xbe1f727f	-0.1557102
64	0xbe16b6f8	-0.14718235
65	0x3de909ec	0.113788456
66	0xbe1fcacc	-0.15604705
67	0xbce07b29	-0.027402477
68	0x3e0594bf	0.13045023
69	0xbda2f8fc	-0.07957646
70	0x3e3f6eb2	0.1869457
71	0x3dcf38ed	0.101182796
72	0x3e03095e	0.12796542
73	0x3e03dee5	0.12877996
74	0xbd8eb857	-0.06968754
75	0x3e04014c	0.1289112
76	0x3d37962e	0.044820957
77	0x3da0332e	0.07822262
78	0xbe0eb8f6	-0.13937744
79	0x3db9e051	0.09075988
80	0xbe1a7c40	-0.1508646
81	0x3e27dab2	0.1639202
82	0x3e1c418d	0.1525938
83	0xbe22f197	-0.15912472
84	0x3de72f8f	0.11288368
85	0x3e0fc99b	0.1404175
86	0x3de8321a	0.11337681
87	0x3d9841bc	0.07434413
88	0x3de5a60d	0.11213312
89	0xbe179374	-0.14802343
90	0xbe1128db	-0.14175741
91	0xbdb779fe	-0.08958815
92	0xbc5028b1	-0.012705014
93	0xbd92c99b	-0.071673594
94	0xbdbf73fb	-0.093482934
95	0xbdc45fc2	-0.09588577
96	0x3e857c4a	0.26071388
97	0x3e4c30ed	0.19940539
98	0x3e7d6768	0.24746478
99	0x3e86b4ca	0.26309806
100	0x3e4bfd38	0.19920814
101	0x3e6dfe10	0.23241448
102	0x3e49da3e	0.19712159
103	0x3e84b274	0.259174
104	0x3e84ea96	0.25960225
105	0x3e912d95	0.2835509
106	0x3e63c93b	0.22244732
107	0x3e4e2a99	0.20133437
108	0x3e4d6bd7	0.20060669
109	0x3e30aa45	0.17252453
110	0x3e86010a	0.26172668
111	0x3e701895	0.23446877
112	0x3e5cd819	0.2156681
113	0x3e791b65	0.24326856
114	0x3e6a9de9	0.229118
115	0x3e48b261	0.19599296
116	0x3e538815	0.2065738
117	0x3e8745f1	0.2642055
118	0x3e7c385f	0.24630879
119	0x3e84d0f3	0.25940666
120	0x3e460011	0.19335963
121	0x3e84fa2c	0.25972116
122	0x3e6cfcf6	0.23143372
123	0x3e59630f	0.21229194
124	0x3e924fcb	0.28576502
125	0x3e7335fa	0.23751059
126	0x3e5df8ec	0.21676987
127	0x3e6baaa6	0.23014316

lin.weight f4 [5, 32]
0	0xbe805578	-0.25065207
1	0x3e786340	0.24256611
2	0x3e8726e1	0.2639685
3	0xbe7f3575	-0.24922736
4	0x3e583f8d	0.21117993
5	0xbe7a0c52	-0.24418762
6	0xbe0f6b59	-0.14005794
7	0x3e694bb0	0.22782779
8	0x3e69f70d	0.22848149
9	0x3e806185	0.25074401
10	0xbe71133e	-0.23542497
11	0x3e5a9af2	0.2134817
12	0xbe89c881	-0.26910785
13	0x3e4b021d	0.19825025
14	0xbe80c079	-0.25146845
15	0x3e7d5ff1	0.2474363
16	0xbe50bebc	-0.2038526
17	0xbdfec200	-0.12439346
18	0xbe87c006	-0.2651369
19	0xbe79d344	-0.24396998
20	0x3e514e29	0.20439972
21	0x3e583193	0.21112661
22	0x3e7f026e	0.2490327
23	0x3e873ef7	0.26415226
24	0x3e78aa47	0.24283706
25	0xbe799097	-0.24371563
26	0xbe74a153	-0.23889665
27	0xbe6092fa	-0.21931067
28	0xbe84deaa	-0.2595113
29	0x3e80d976	0.2516591
30	0xbe78f6e6	-0.24312934
31	0xbe66ed44	-0.22551447
32	0x3e3b08d5	0.18265088
33	0xbe512a8f	-0.20426391
34	0xbe1a8663	-0.15090327
35	0x3e4c93c2	0.1997824
36	0xbe502c08	-0.20329297
37	0x3e241a19	0.1602558
38	0x3d0ebf5b	0.03485046
39	0xbe4f7793	-0.20260458
40	0xbe629e17	-0.22130619
41	0xbe726069	-0.2366959
42	0x3e3c97a9	0.18417229
43	0xbe3920e9	-0.1807896
44	0x3e5b2b61	0.21403266
45	0xbe5ea268	-0.2174164
46	0x3e0ef467	0.1396042
47	0xbe332874	-0.174959
48	0x3e5cf49b	0.21577685
49	0xbd6187c8	-0.05506113
50	0x3e43d509	0.19124235
51	0x3e55dce9	0.20885052
52	0xbe68ff6c	-0.22753686
53	0xbe32c5f6	-0.17458329
54	0xbe1eaa7b	-0.1549472
55	0xbe66ccf6	-0.22539124
56	0xbe25d594	-0.16194755
57	0x3e4e77ac	0.20162839
58	0x3e60a369	0.21937336
59	0x3e5c270f	0.21499275
60	0x3e4c3969	0.19943775
61	0xbe623821	-0.22091724
62	0x3e60ae77	0.21941553
63	0x3e2f7d41	0.17137624
64	0x3e17a116	0.14807543
65	0xbe6db776	-0.23214516
66	0xbe48d7c7	-0.19613563
67	0x3e43b19e	0.19110724
68	0xbe5aa433	-0.213517
69	0x3e781cbf	0.24229716
70	0xbd0b6699	-0.03403339
71	0xbe5c0458	-0.21486032
72	0xbe20e240	-0.15711308
73	0xbe255f68	-0.16149676
74	0x3e3942ae	0.18091843
75	0xbe7b537c	-0.24543566
76	0x3e2edcdb	0.17076437
77	0xbe2c5dc7	-0.16832648
78	0x3e1dd4fe	0.15413281
79	0xbe2823ca	-0.16419902
80	0x3e606b0e	0.21915838
81	0xbcef1a89	-0.029187458
82	0x3e1da29b	0.1539406
83	0x3e37884d	0.17923088
84	0xbe79e6f8	-0.24404514
85	0xbe6b9903	-0.23007588
86	0xbe7633c2	-0.24043182
87	0xbe43e0e2	-0.19128755
88	0xbe313cea	-0.17308393
89	0x3e7e1ab1	0.2481487
90	0x3e56e8b4	0.20987207
91	0x3e2be32a	0.16785875
92	0x3e81ccef	0.25351664
93	0xbe691761	-0.22762825
94	0x3e45f57a	0.19331923
95	0x3e8104fb	0.25199112
96	0x3e593dab	0.2121493
97	0xbe7a730b	-0.24457948
98	0xbe364b0a	-0.17802063
99	0x3e2c0698	0.1679939
100	0xbe2ea333	-0.17054443
101	0x3e480de5	0.1953655
102	0x3d0bfe3f	0.034178015
103	0xbe4f3385	-0.20234497
104	0xbe2bb723	-0.1676908
105	0xbe6b86b6	-0.23000607
106	0x3e40e53f	0.1883745
107	0xbe6f76f6	-0.23385224
108	0x3e4251b0	0.18976474
109	0xbe7ec860	-0.24881124
110	0x3e342f6a	0.17596212
111	0xbe26bc6a	-0.16282812
112	0x3e3a0255	0.18164952
113	0xbd78bf89	-0.060729537
114	0x3e511730	0.20419002
115	0x3e305aa4	0.17222077
116	0xbe2e84e7	-0.17042886
117	0xbe8073b8	-0.25088286
118	0xbe454198	-0.19263303
119	0xbe4b9b81	-0.19883539
120	0xbe5b084f	-0.21389888
121	0x3e71c000	0.23608398
122	0x3e2d62c9	0.16932215
123	0x3e6c1b43	0.23057275
124	0x3e848fdc	0.25891006
125	0xbe3c4d5d	-0.18388887
126	0x3e3313c2	0.17488006
127	0x3e265ed8	0.16247118
128	0x3e33288f	0.1749594
129	0xbe30d785	-0.17269714
130	0xbe444a62	-0.19169
131	0x3e74f9cb	0.23923413
132	0xbe656210	-0.22400689
133	0x3e2e9d10	0.17052102
134	0xbc39d3a7	-0.011341966
135	0xbe1b8897	-0.15188824
136	0xbe24a3ea	-0.16078153
137	0xbe38d1e9	-0.18048824
138	0x3e433827	0.19064389
139	0xbe6d8c79	-0.23198117
140	0x3e1504b2	0.14552572
141	0xbe32ae02	-0.17449191
142	0x3e652d5c	0.22380584
143	0xbe51182b	-0.20419376
144	0x3e7de40c	0.24794024
145	0xbd50ba59	-0.050958965
146	0x3e4aeed4	0.19817668
147	0x3e7777d1	0.241668
148	0xbe551d0b	-0.2081186
149	0xbe34d1f8	-0.17658222
150	0xbe78034e	-0.2422001
151	0xbe334ed3	-0.17510538
152	0xbe64b10e	-0.22333166
153	0x3e597871	0.21237351
154	0x3e623e6a	0.22094122
155	0x3e5208f1	0.20511223
156	0x3e4597c4	0.19296175
157	0xbe147a44	-0.14499766
158	0x3e68412f	0.22681116
159	0x3e65e47f	0.22450446

lin.bias f4 [5]
0	0x3d8ce636	0.06879847
1	0xbd923669	-0.07139284
2	0xbc9163b4	-0.017747737
3	0xbcc38dd2	-0.023871336
4	0xbc7e612c	-0.015526097
