checkpoints/MLE_space_False_length_3_preTrainG_epoch_219.pth (torch_old, 36090 bytes, 7 tensors)

emb.weight f4 [5, 32]
000000 7b c2 4c 3e 79 9d 85 3e 4c 0c 09 3e 01 70 90 3e
       0.19996063 0.26096705 0.13383597 0.28210452
000010 ad d1 82 be 2f 4b 88 3e ae d1 65 3e 90 d4 82 3e
       -0.25550595 0.2661986 0.22443268 0.25552797
000020 4a 7b 25 3e 18 62 21 be f0 0f 8e be 50 7e 91 3e
       0.16160312 -0.15760076 -0.27746534 0.2841668
000030 1d 80 42 be 48 4a 17 3e 6b 77 20 be 3c 66 2f be
       -0.18994184 0.1477443 -0.15670554 -0.17128843
000040 66 da 2a be 74 6b 59 3e 53 ed 6d 3e 43 db ae be
       -0.16684875 0.21232396 0.23235063 -0.34151658
000050 be b6 76 be 38 5f 28 be d4 c1 28 be 28 24 be be
       -0.24093148 -0.16442573 -0.1648019 -0.3713696
000060 77 ff 86 be 73 e7 8c 3e 1b 28 f9 3d 89 f0 86 3e
       -0.2636678 0.27520332 0.12165853 0.2635539
000070 49 46 bd 3d b2 f3 3a 3e 33 17 20 3e c3 89 4a be
       0.092419215 0.18257025 0.1563385 -0.19779114
000080 e7 9d 52 be 09 22 1e be bb 0e 68 be 29 5b 60 be
       -0.20568047 -0.15442671 -0.22661869 -0.21909775
000090 11 d2 48 3e 1b 9e 4c be ea 66 4c be 98 e3 4b be
       0.19611384 -0.19982187 -0.19961134 -0.19911039
0000a0 61 42 22 be aa 39 32 be dc 82 31 3e 8e 31 3a be
       -0.15845634 -0.1740481 0.17335075 -0.18182966
0000b0 b3 67 41 3e be 84 34 be 3a db 5b 3e 8e 55 39 3e
       0.18887214 -0.17628762 0.21470347 0.18099043
0000c0 97 10 12 3e 1b e1 68 be eb f2 35 be cc 43 34 be
       0.14264141 -0.22742121 -0.17768447 -0.17603987
0000d0 dd f9 61 3e 1a 11 60 3e 40 39 5b 3e 8b e1 30 be
       0.22067972 0.21881524 0.21408558 -0.17273538
0000e0 4c 65 39 3e 55 42 21 be 88 80 29 be 88 69 14 be
       0.18105048 -0.1574796 -0.16552937 -0.14493382
0000f0 9b a3 32 be 4b b3 65 be 1a d4 51 be 51 a1 63 3e
       -0.17445223 -0.22431676 -0.20491067 0.22229506
000100 eb de 62 be 2e f6 44 be cf 29 5f be 0d 18 37 be
       -0.22155349 -0.19234535 -0.21793292 -0.17880268
000110 63 d1 54 3e fd c3 d2 bd 9e f6 48 be 11 7d 1f be
       0.20783 -0.10291288 -0.19625327 -0.15575053
000120 d8 75 60 be 82 b1 45 be 10 b6 62 3e 4d 01 21 be
       -0.21919954 -0.19305995 0.22139764 -0.15723152
000130 de 45 45 3e c4 f2 3d be 16 c6 68 3e 33 a5 45 3e
       0.19264933 -0.18549639 0.22731814 0.193013
000140 de 4b 5c 3e 19 15 2c be ff 81 0f be 47 d7 54 be
       0.21513316 -0.16804923 -0.14014433 -0.20785247
000150 0b 2f 3f 3e 6b 5a 4a 3e 1e b0 28 3e 56 42 59 be
       0.18670289 0.19761054 0.16473433 -0.21216711
000160 ea 87 33 3e cc 2f 4e be df c9 66 be be 6e 54 be
       0.17532316 -0.2013542 -0.22537945 -0.2074537
000170 f1 9c 54 be 24 54 14 be 0b 9c 69 be 51 fa 29 3e
       -0.20762993 -0.14485222 -0.22813432 0.16599394
000180 e6 60 52 be fb 91 27 be e3 7e 3f be 01 22 35 be
       -0.20544776 -0.16364281 -0.18700747 -0.17688753
000190 a9 c8 4f 3e ab d6 33 be f7 ed 26 be 0f 8c 50 be
       0.2029139 -0.17562358 -0.16301714 -0.20365928
0001a0 4a e1 43 be 50 b1 79 be e4 37 46 3e be 68 4a be
       -0.1912891 -0.24384046 0.19357258 -0.19766518
0001b0 0b de 26 3e 5f a8 43 be bd 06 3e 3e 78 f3 59 3e
       0.1629564 -0.19107197 0.18557258 0.21284282
0001c0 bb 4b 2e 3e 43 df 1d be d8 d1 3f be d3 78 43 be
       0.17021076 -0.15417199 -0.18732393 -0.1908906
0001d0 fd e5 1e 3e 8b 21 2c 3e d1 17 25 3e e7 0e 49 be
       0.15517421 0.1680967 0.16122366 -0.19634591
0001e0 02 9f 46 3e 08 f4 26 be 37 77 6b be 12 61 4d be
       0.19396594 -0.16304028 -0.22994696 -0.2005656
0001f0 da da 1b be 07 21 30 be 58 80 3b be f9 86 66 3e
       -0.15220204 -0.17200099 -0.18310678 0.22512425
000200 84 9c 18 be 11 b3 23 be 07 0f 54 be c1 55 32 be
       -0.14903456 -0.15986277 -0.20708857 -0.17415525
000210 05 bb 59 3e 69 e5 3c be d8 38 49 be 3a 49 00 be
       0.21262749 -0.18446888 -0.1965059 -0.12527934
000220 82 6b 61 be 74 05 3b be 07 2c 10 3e 26 ec 07 be
       -0.22013667 -0.18263799 0.14079295 -0.13273677
000230 09 bf 22 3e 61 65 5d be 25 ed 3b 3e 82 3a 24 3e
       0.15893187 -0.21620704 0.18352182 0.16037944
000240 fc ce 68 3e 64 70 12 be b2 2a 5d be c2 5e 5c be
       0.22735208 -0.14300686 -0.21598318 -0.21520522
000250 85 8f 35 3e a8 73 59 3e c3 62 5a 3e d7 54 5c be
       0.1773053 0.21235526 0.21326737 -0.21516739
000260 92 83 1d 3e 57 02 66 be e2 ba 24 be d1 80 4d be
       0.15382221 -0.2246183 -0.16086915 -0.20068671
000270 12 0d 46 be b0 e4 59 be 2f 50 52 be 14 ef 18 3e
       -0.19340923 -0.21278644 -0.205384 0.14934951

lstm.weight_ih_l0 f4 [128, 32]
000000 9a 92 11 be 08 86 08 be ad 58 2f be 6a 51 32 be
       -0.1421608 -0.13332379 -0.17123671 -0.1741387
000010 07 ce f0 3d 6a 39 02 be bc 22 06 be 25 5b 20 be
       0.117580466 -0.12717214 -0.13099188 -0.15659769
000020 22 80 16 be 66 a0 2b be 7c 98 c6 3d 75 1e e7 bd
       -0.14697316 -0.16760406 0.09697053 -0.11285106
000030 6a 15 31 3e 2f bf 1a be e5 ac 1a 3e 4d aa 35 3e
       0.17293325 -0.15111993 0.15105017 0.17740746
000040 d0 76 10 3e 1f 6b 10 be 24 83 46 be 75 cd 8c be
       0.14107823 -0.14103363 -0.19385964 -0.275005
000050 e9 95 e8 3d 1d 29 15 3e d2 15 14 3e d0 8a 81 be
       0.11356718 0.14566465 0.14461449 -0.25301218
000060 92 5f 35 3e a9 3d d1 bd e8 65 23 be eb c1 0d be
       0.17712238 -0.10216839 -0.15956843 -0.13843505
000070 84 be 4c be b1 74 48 be 69 3f 2e be 0f 20 3f 3e
       -0.19994551 -0.19575764 -0.17016377 0.18664573
000080 70 75 4f be 40 9f 45 be 5e 19 3a be 06 07 f2 bd
       -0.20259643 -0.1929903 -0.1817374 -0.11817746
000090 fb 9c ee 3d 1c b5 1d be e1 4f 24 be b8 de 00 be
       0.116510354 -0.15401119 -0.16046096 -0.1258496
0000a0 79 da 5a be 9e 38 30 be 56 ea 1c 3e 30 ae 05 be
       -0.21372403 -0.17209098 0.15323767 -0.13054729
0000b0 09 db 24 3e 47 e0 6a be 13 cb 2b 3e 20 57 35 3e
       0.1609918 -0.22937118 0.16776685 0.17709017
0000c0 25 a3 1c 3e b7 af 27 be 5c 28 32 be b1 76 5b be
       0.1529661 -0.16375624 -0.17398208 -0.21431996
0000d0 a5 5b 17 3e 76 03 53 3e f0 73 30 3e 67 e8 8f be
       0.14781053 0.20606789 0.17231727 -0.28106996
0000e0 71 27 42 3e 1d 11 2b be fb c0 3d be 8a 29 3d be
       0.18960358 -0.16705747 -0.18530647 -0.18472877
0000f0 5b b8 53 be 9f a3 5b be 56 51 60 be 25 2b 57 3e
       -0.20675795 -0.21449135 -0.21906027 0.21012552
000100 98 4b f3 3d 1f 35 72 3e 12 40 23 3e 1a 48 56 3e
       0.11879653 0.23653077 0.1594241 0.20925942
000110 50 cd 17 be 1e e9 55 3e 27 f3 0a 3e 53 bf 26 3e
       -0.14824414 0.20889708 0.13569318 0.16283922
000120 5e ee 39 3e 09 79 7c be b7 fd 2a be 7f a9 73 3e
       0.18157336 -0.24655546 -0.16698347 0.23795126
000130 0b 46 f8 bd d8 ea 30 3e c7 02 e6 bd b1 97 1b be
       -0.12122735 0.17277086 -0.112309985 -0.15194584
000140 38 96 33 be 42 65 3d 3e 10 17 38 3e ae 6f 8b be
       -0.17537773 0.18495658 0.17977548 -0.27233642
000150 ef 76 26 be 50 9e e0 bd c6 79 3a be 0e 3e 9f be
       -0.16256307 -0.10967696 -0.18210515 -0.3110203
000160 fd bf 6a be 72 80 47 3e 72 12 06 3e 76 ff 49 3e
       -0.229248 0.19482592 0.13092974 0.19726357
000170 08 88 d7 3d 99 f9 4e 3e 40 97 1f 3e 9b 41 45 be
       0.10523993 0.20212401 0.15585041 -0.19263308
000180 ab ee 11 3d 2b 59 ef 3d 69 6c 12 bd 29 57 08 3d
       0.035628002 0.11686929 -0.03574792 0.033286247
000190 3c 79 4c bd a8 f8 0a 3e a6 96 40 3d a3 cc 1e 3d
       -0.049920306 0.13571417 0.04701867 0.038769376
0001a0 4f b9 66 bc 0d 12 5d be 3e b9 bc bd af 79 bb 3d
       -0.014082267 -0.21588917 -0.0921502 0.09154069
0001b0 d3 21 72 3c 42 f2 b3 bd 93 0e b5 3d 9c c5 90 3d
       0.014778572 -0.087864414 0.088406704 0.07068941
0001c0 41 aa ad bb 9e 17 2c bc 83 bd 9b 3d 77 28 9d be
       -0.005299837 -0.010503678 0.07604506 -0.30694935
0001d0 1e dc 44 bd 50 7c f5 3c e8 27 03 3d a6 86 8f be
       -0.048061483 0.029966503 0.03202048 -0.28032416
0001e0 c5 ee 1b bd ed 1d 5f 3d 45 d5 9d bd 4c ce 38 3d
       -0.038069505 0.0544719 -0.077066936 0.045118615
0001f0 7c fe fc bd be 4f ee bc 1e 90 9b bd 16 d5 5f 3b
       -0.123532265 -0.029090758 -0.075958475 0.0034154109
000200 6f 7f 32 be af 98 b5 bd 27 7f 2c be eb b2 b7 bd
       -0.17431425 -0.08867013 -0.1684538 -0.08969673
000210 fe b3 31 3e d4 8a 08 be 78 e1 2a be bb e5 28 be
       0.17353818 -0.13334209 -0.16687572 -0.16493885
000220 7c cd 44 be 56 4b 77 be cc 5a 21 3e 96 ba cd bd
       -0.19219011 -0.24149832 0.15757293 -0.10045354
000230 45 12 08 3e e6 2a 27 be 37 60 0c 3e 69 41 4c 3e
       0.1328822 -0.16324958 0.13708578 0.19946827
000240 8a 2c 0d 3e 16 78 e1 bd 49 64 08 be 8e aa 6e be
       0.13786522 -0.11009233 -0.13319506 -0.23307249
000250 ea 7d ee 3d ec 59 23 3e a2 56 55 3e a6 a4 8f be
       0.1164511 0.15952271 0.20833829 -0.28055304
000260 6c 86 c8 3d 91 8f c2 bd 0d df 2d be 3c 2e 41 be
       0.09791264 -0.09500039 -0.16979618 -0.18865293
000270 75 21 2b be c6 62 5c be 38 eb 26 be 2a bb 1c 3e
       -0.16711982 -0.21522054 -0.16300666 0.15305772
000280 6d 39 41 be 5a a1 34 be 17 f7 1a be 35 f4 0b be
       -0.18869562 -0.17639676 -0.1513332 -0.13667376
000290 a8 33 48 3e 2c aa ee bd ad df 30 be e4 84 2e be
       0.19550955 -0.116535515 -0.17272826 -0.17042881
0002a0 76 01 56 be f9 a7 58 be e5 42 2d 3e f2 09 85 bd
       -0.20898995 -0.21157826 0.1692005 -0.064960375
0002b0 72 6c 56 3e bb b3 50 be ac 36 1b 3e 53 65 45 3e
       0.20939806 -0.20381062 0.15157574 0.19276933
0002c0 5b 38 40 3e 53 c9 d6 bd 48 06 23 be a2 a5 9d be
       0.18771498 -0.10487618 -0.15920365 -0.3079043
0002d0 bc d4 30 3e e3 99 0e 3e 78 3b 23 3e 71 97 7f be
       0.17268652 0.1392589 0.15940654 -0.24960114
0002e0 c1 d3 27 3e 69 d9 ec bd a3 dd 07 be 94 de c9 bd
       0.16389371 -0.11564905 -0.13268141 -0.098569065
0002f0 45 a4 41 be 5a 41 25 be 56 2a 1c be 92 f7 44 3e
       -0.1891032 -0.16138211 -0.15250525 0.19235066
000300 be 78 45 3e 59 7f 31 3e b3 6a 34 3e 98 df 37 3e
       0.1928434 0.17333736 0.17618828 0.17956388
000310 b4 bb 84 be 7c c0 45 3e fa 55 57 3e b8 6f 5c 3e
       -0.25924456 0.19311708 0.21028891 0.21526992
000320 71 8e 06 3e 1d af 90 be 24 6d 33 be b2 2c 30 3e
       0.13140275 -0.282586 -0.17522103 0.1720455
000330 27 5b 1c be 16 13 4b 3e d7 40 27 be e3 da 65 be
       -0.15269147 0.198315 -0.16333328 -0.2244678
000340 df b9 26 be a2 83 7e 3e 1d 96 6b 3e 7d 8e 40 be
       -0.16281842 0.24854901 0.23006482 -0.18804355
000350 72 49 56 be eb b7 4e be d4 89 e2 bd 55 a1 79 be
       -0.20926455 -0.20187347 -0.11061445 -0.2437795
000360 0b 9b 65 be 3a 17 7e 3e ce 03 f4 3d 2e 17 77 3e
       -0.22422425 0.24813548 0.11914788 0.24129936
000370 6b 4f 85 3d 56 b2 39 3e 1f cd 16 3e 23 08 4b be
       0.065092884 0.18134436 0.14726685 -0.19827323
000380 e3 2f 06 be cc 56 06 be ed 02 35 be 95 17 0a be
       -0.13104205 -0.13119048 -0.17676897 -0.13485558
000390 50 07 4b 3e 7f 6e 44 be 88 5f 47 be fd 62 3c be
       0.19827008 -0.19182776 -0.19470036 -0.18397136
0003a0 9e a6 5a be 0d a0 45 be 9a 45 22 3e 47 5a 29 be
       -0.21352622 -0.19299336 0.15846863 -0.16538344
0003b0 ff 10 44 3e d2 9d 60 be f9 22 1c 3e c8 e8 66 3e
       0.19147108 -0.21935204 0.15247716 0.22549736
0003c0 34 a5 1b 3e 88 58 2f be 34 b0 4f be de 52 5b be
       0.15199739 -0.17123616 -0.2028206 -0.2141833
0003d0 5e e7 3d 3e 53 74 1b 3e 2b 41 27 3e 8b 83 68 be
       0.18545291 0.15181093 0.16333453 -0.2270643
0003e0 ac b4 4b 3e 03 9a 4f be c2 0f 2a be fb 65 4b be
       0.1989314 -0.20273595 -0.16607574 -0.19863121
0003f0 eb a1 29 be 8f 6e 29 be 52 5b 41 be 12 37 14 3e
       -0.16565673 -0.16546081 -0.18882492 0.14474133

lstm.weight_hh_l0 f4 [128, 32]
000000 e3 13 f2 bd 36 9b 0d 3e 6a 76 9a be 2d 95 be 3e
       -0.11820199 0.1382874 -0.30168468 0.37223187
000010 86 11 28 3e aa 2e 52 be 3d 7c 92 3e d9 1b 4b 3e
       0.16412935 -0.20525613 0.2861041 0.19834842
000020 e7 9e cd 3d 96 7f 3c bc ca 1b d6 bd 17 0d 01 be
       0.10040074 -0.011505028 -0.10454519 -0.1260265
000030 b0 21 af 3e 14 50 e9 3d 45 cd 07 be f0 a9 37 3e
       0.3420539 0.11392227 -0.13261898 0.1793592
000040 39 cd 43 be 76 fa 8f 3e 52 69 7b 3e 14 41 43 be
       -0.19121255 0.28120774 0.24551895 -0.19067794
000050 41 e0 0c 3e 49 16 40 3e 7c bc 67 3c 84 f0 03 be
       0.13757421 0.18758501 0.014144059 -0.12884718
000060 b6 3b 2b 3e 70 cc 47 be c5 b7 43 be d9 64 cf bd
       0.16721997 -0.1951158 -0.19113071 -0.10126657
000070 b4 91 a0 3e c7 b7 ae be b3 de e2 bd bb 1a 48 be
       0.31361163 -0.34124586 -0.11077633 -0.19541447
000080 87 34 35 be 16 1d 20 3e 18 93 97 be b0 7b 97 3e
       -0.17695819 0.15636095 -0.2960441 0.29586554
000090 8a 7c 00 3e 2d cd 5c be c3 de 67 3e 95 98 32 3e
       0.12547508 -0.21562643 0.2264357 0.17441018
0000a0 33 df 2a 3e 1c 63 de bb c3 ea eb bd ba 8f c0 bd
       0.16686706 -0.006786717 -0.115193866 -0.09402414
0000b0 fe 26 a8 3e c7 e4 30 3e df 3a 86 bd bc 06 47 3e
       0.3284225 0.17274772 -0.065541975 0.19436163
0000c0 04 8a 2d be 06 52 96 3e c1 e8 65 3e 9b 6a 65 be
       -0.1694718 0.29359454 0.2245207 -0.22403948
0000d0 55 ff e8 3d de 18 3f 3e ac c4 f9 ba d7 d4 1c be
       0.11376826 0.1866183 -0.0019055805 -0.15315567
0000e0 fe ae 1b 3e 94 42 60 be 7e 2d f4 bd 1d 4d 22 bd
       0.15203473 -0.21900398 -0.119227394 -0.039624322
0000f0 1d 88 a0 3e a9 cc 90 be 9c 12 86 bd fe 8f 5f be
       0.31353846 -0.28281143 -0.06546518 -0.21832272
000100 df c9 18 be 62 98 00 3e de 8b 85 be 5b c0 e9 3c
       -0.14920758 0.1255813 -0.26083273 0.028534105
000110 69 9a 95 3d 4a d9 16 be 98 f4 3a 3e c6 a6 13 3e
       0.07304842 -0.14731327 0.18257368 0.14419088
000120 42 51 07 3e 3c 1e dc 3d 53 8d 01 be 5b 1f fa 3d
       0.13214591 0.10747954 -0.12651567 0.12213012
000130 0c 54 83 3e 97 90 aa 3d 20 09 a8 bd ff 2a 75 3d
       0.2565006 0.083283596 -0.082048655 0.059855457
000140 e2 96 cd bd 58 7b 67 3e 77 17 a0 3e 32 0b e2 bd
       -0.10038544 0.22605646 0.31267902 -0.110372916
000150 e5 e3 e0 3d 47 e3 08 3e 6e 0a 15 3d 5a 16 2a 3d
       0.109809674 0.1336795 0.0363869 0.041525222
000160 e3 63 91 3d a1 4f d4 bd 91 6b 7a bd d4 17 12 be
       0.0709913 -0.103667505 -0.06113774 -0.14266902
000170 51 ec 75 bd 15 2c 21 ba b4 0c 0c be c5 9b 0e be
       -0.060039822 -0.00061482313 -0.13676721 -0.13926609
000180 bd 2e 0c be 0d 12 17 3e 75 95 91 be 05 0f 74 3e
       -0.13689704 0.1475298 -0.2843434 0.23833854
000190 6d 55 07 3e a0 c8 3a be a4 0a 49 3e 9f f4 1a 3e
       0.13216181 -0.18240595 0.19632965 0.15132378
0001a0 15 70 df 3d 19 32 da 3d cd 5c a3 bd 0c ea 60 3d
       0.1091005 0.106540866 -0.07976685 0.054910704
0001b0 67 59 aa 3e b2 48 2e 3e 24 b9 10 be fb 77 17 3e
       0.33271334 0.17019919 -0.14133126 0.14791863
0001c0 0c d3 e3 bd be 93 8e 3e a8 78 89 3e f3 c9 08 be
       -0.11124238 0.27847093 0.26849866 -0.13358288
0001d0 d9 3e ad 3d 56 39 41 3e 40 5b f9 3d 94 1d fc 3b
       0.08459253 0.18869528 0.12175608 0.0076939557
0001e0 da c9 2e 3e c3 4b 44 be 1e eb b5 bd 57 ab 12 be
       0.17069188 -0.19169526 -0.08882736 -0.14323173
0001f0 cd a0 00 3e 09 0e 69 be a8 61 bc bd 15 60 2f be
       0.1256134 -0.2275926 -0.09198314 -0.17126496
000200 05 11 2c be b3 68 39 3e 9e 47 84 be 98 eb b6 3e
       -0.16803367 0.18106346 -0.2583589 0.3572662
000210 01 8f 42 3e 6f 1c 23 be 18 2c 62 3e 59 d0 0a 3e
       0.18999864 -0.15928815 0.22087133 0.13556041
000220 61 d5 1b 3e 7f 0b 8b bc c9 e9 0a be 67 c3 bf bd
       0.15218116 -0.016973255 -0.13565744 -0.09363442
000230 2f 4c a9 3e 1f 41 31 3e 21 b8 35 bd 8e 46 09 3e
       0.33065936 0.17309998 -0.044365052 0.1340582
000240 b4 3d 2e be f3 c6 4b 3e 56 6e 8f 3e 0a 04 00 be
       -0.17015725 0.19900112 0.28013867 -0.12501541
000250 2b ef ff 3d 63 c1 22 3e e7 83 8b bd 44 30 9d bd
       0.124967895 0.15894084 -0.06812268 -0.076752216
000260 86 22 e2 3d f7 1b 6f be f6 13 13 be 2f 2e a6 bd
       0.11041741 -0.23350511 -0.14363083 -0.081142776
000270 ee d6 8b 3e 66 df 92 be 3e 7d 0f be af 76 25 be
       0.27312416 -0.28686064 -0.1401262 -0.16158555
000280 d9 c4 51 be 9c 95 70 3e 3f c4 66 be 43 8f 8a 3e
       -0.20485248 0.23494571 -0.225358 0.27062425
000290 7c ad 1b 3e f5 2b 4f be 93 3c 87 3e 18 33 34 3e
       0.15202898 -0.20231612 0.26413402 0.17597616
0002a0 ff 08 c8 3d 5b 00 d7 ba cd bf 4a bd e8 b2 cc bd
       0.09767341 -0.0016403304 -0.04949932 -0.09995061
0002b0 46 32 ad 3e 51 2f 03 3e 29 ea 72 bd 34 c7 d5 3d
       0.33827418 0.12811019 -0.059305344 0.104383856
0002c0 af cb 1b be 18 f6 76 3e f7 c1 76 3e d4 b9 16 be
       -0.15214418 0.24117315 0.24097429 -0.14719325
0002d0 32 8c 83 3d 14 20 6b 3e 29 9e 8b bd ae a3 30 be
       0.064232245 0.22961456 -0.06817276 -0.17249939
0002e0 73 09 11 3e f9 46 25 be 05 d4 3d be d1 60 ba bc
       0.14163761 -0.16140355 -0.1853791 -0.022751244
0002f0 c2 45 89 3e 2a 5f a7 be 3e 27 bb bd 10 41 2f be
       0.26811033 -0.32689792 -0.09138344 -0.17114663
000300 e4 eb 52 ba 00 44 2b bd 74 df 74 be 7a 3b b8 3d
       -0.00080460147 -0.041812897 -0.23913366 0.08995719
000310 fe bf a5 bb 52 b6 51 3c 7a 1b 47 3e a1 01 e7 3c
       -0.0050582876 0.012799816 0.19444075 0.028199019
000320 83 4e 87 bd 2f 0f 21 bd 1d 1f d7 3a 74 16 0d 3b
       -0.06606772 -0.03932112 0.0016412471 0.0021528276
000330 19 c6 b7 3d 22 ea 61 bd 81 40 38 3d ae cb 06 3d
       0.08973331 -0.055154927 0.04498339 0.032909088
000340 3f ba 9f 3b 52 83 06 3e a2 d0 61 3e 06 51 a3 3c
       0.004874497 0.13136032 0.22052243 0.019936096
000350 39 5e 73 bd 1a e8 d6 3c 7c b7 79 bd 9d 2d 0c bd
       -0.05941603 0.026233722 -0.060966 -0.034223188
000360 7c d8 64 bd 1a 05 aa bc fc 0b 13 3d c1 8d f3 3c
       -0.055870518 -0.020754386 0.0359001 0.02973068
000370 53 1f 90 3c b7 71 80 bd 43 61 00 3c 68 97 de bc
       0.017593062 -0.062716894 0.007835689 -0.027171806
000380 4e 2b 4f be d4 8b 29 3e ce 66 8c be 09 9a 8a 3e
       -0.20231363 0.16557246 -0.27422184 0.27070644
000390 ae 45 e5 3d 90 17 36 be f8 0e 61 3e 62 bc 57 3e
       0.11194931 -0.17782426 0.21978366 0.21067956
0003a0 c4 4b c9 3d 42 84 2b 3d a1 67 06 be 95 10 1d bd
       0.09828904 0.041874178 -0.13125469 -0.038345892
0003b0 89 33 87 3e da 98 69 3e fa 99 ae bc 0c 36 43 3e
       0.26406506 0.22812214 -0.021313656 0.19063586
0003c0 2e 36 77 be 6e c3 52 3e 12 17 6b 3e dd dc 40 be
       -0.24141762 0.20582363 0.2295802 -0.18834253
0003d0 0f 91 7f 3d e5 bf 2f 3e 0d 59 7e 3c da 3a d6 bd
       0.062394198 0.17163046 0.015524161 -0.10460444
0003e0 e4 97 ff 3d b2 0c 22 be 43 56 4d be 22 ef 9f bd
       0.12480143 -0.15825155 -0.20052437 -0.07809283
0003f0 4b ce 6b 3e 0a be bf be 8e b6 aa bd 45 79 0a be
       0.23027913 -0.37449676 -0.08335601 -0.13522823

lstm.bias_ih_l0 f4 [128]
000000 2e 03 6a 3e a7 2a 79 3e 74 4e 70 3e 2e 02 71 3e
       0.22852775 0.24332677 0.23467427 0.23535988
000010 8b ce 85 3e b7 52 81 3e 6a ff 5d 3e bf 96 45 3e
       0.26134142 0.2525842 0.21679464 0.19295786
000020 e9 37 3a 3e 03 f8 85 3e 82 17 7d 3e 17 b4 47 3e
       0.1818539 0.2616578 0.24715999 0.19502293
000030 9b 55 88 3e 12 99 59 3e c2 f7 88 3e fa 6b 36 3e
       0.26627812 0.21249798 0.26751524 0.17814627
000040 2a 2f 50 3e d5 d8 54 3e 51 90 4b 3e d9 2b 48 3e
       0.20330492 0.2078584 0.19879271 0.19547977
000050 c3 06 7a 3e 87 b7 5c 3e 49 d3 6b 3e 32 cc 80 3e
       0.24416642 0.21554385 0.23029818 0.2515579
000060 17 07 3a 3e e6 97 6d 3e 25 5f 6d 3e 72 e3 60 3e
       0.18166767 0.23202476 0.23180826 0.21961764
000070 a5 33 91 3e 14 d5 56 3e c3 13 5e 3e 36 30 74 3e
       0.28359714 0.2097972 0.21687226 0.23846516
000080 4e 61 01 be d1 b2 1b be 22 85 78 be bf ca 2d be
       -0.12634775 -0.15204932 -0.24269536 -0.16971873
000090 e2 31 0c be c3 bf 34 be fb 5a 31 3e 09 4f ff bd
       -0.13690904 -0.17651276 0.17319863 -0.12466247
0000a0 aa 2c 2d be ee 93 50 be 14 81 2a be c5 15 e4 bd
       -0.16911569 -0.2036893 -0.16650802 -0.11136965
0000b0 db dc 32 be 93 05 6a be 10 7b 1a be 3a d0 1a be
       -0.17467062 -0.22853689 -0.15086007 -0.15118495
0000c0 fb 61 37 be 1f 35 17 3e 14 ac 35 be ef f2 38 be
       -0.1790847 0.14766358 -0.17741424 -0.18061422
0000d0 83 03 d5 bd dc 9b 09 be f0 90 16 be ae e6 29 be
       -0.104010604 -0.13438362 -0.14703727 -0.16591904
0000e0 0d 57 03 be 1b 57 9f bd 2d 6d 23 be 5b 2f fb bd
       -0.12826176 -0.07780286 -0.15959616 -0.12264892
0000f0 0b 4f 80 be a7 1e 43 be 5c 11 2c be dd 1b 09 be
       -0.25060305 -0.19054662 -0.16803497 -0.13389535
000100 12 da 1c be 16 89 0c 3e 1d 23 e7 bd 4a 4b 05 3d
       -0.15317562 0.13724169 -0.11285994 0.032542504
000110 15 4c 10 3e 48 ea 23 be d9 d1 3c 3e d1 29 22 3e
       0.14091523 -0.1600734 0.18439426 0.15836264
000120 f6 8a b6 3d ad 62 8b 3d 7d 6f 1c be 92 b4 e6 3c
       0.089132234 0.0680593 -0.15276904 0.028162275
000130 ee 2f f6 3d cc d6 0c 3e 9a bc ce bd 6c fd 12 3e
       0.120208606 0.13753814 -0.10094567 0.14354485
000140 02 40 0e be a7 9f 25 3e 69 f1 e4 3d 99 a7 b0 bd
       -0.13891605 0.16174184 0.11178858 -0.08625717
000150 92 29 f7 3d 4d 92 02 3e 82 10 8b 3d e8 1e b5 3d
       0.12068476 0.12751122 0.06790258 0.088437855
000160 01 24 f1 3d 95 6d db bd 1a bb fe bd cd c1 ff bd
       0.11774445 -0.107142605 -0.124380305 -0.124881364
000170 05 99 77 bd 67 bd c0 3b 3f da 0f be 17 c3 1f be
       -0.060448665 0.0058819535 -0.14048098 -0.15601765
000180 ee 67 73 3e 26 57 77 3e c6 54 66 3e f5 b4 4f 3e
       0.23770115 0.24154338 0.22493276 0.20283873
000190 30 da 57 3e 79 72 66 3e d4 71 6d 3e 7d 4f 87 3e
       0.21079326 0.22504605 0.23187953 0.26427832
0001a0 11 66 45 3e 0f ac 84 3e 0b c5 4f 3e f5 52 75 3e
       0.19277216 0.2591252 0.2029001 0.23957427
0001b0 cb 17 93 3e cf 18 81 3e ef a6 82 3e c8 5c 83 3e
       0.2872909 0.2521424 0.25517985 0.25656724
0001c0 70 50 85 3e 3d 2f 24 3e fe 08 75 3e 7f 77 57 3e
       0.2603793 0.16033645 0.23929211 0.21041678
0001d0 9f 74 8f 3e 69 f9 86 3e 42 ff 60 3e 8f be 65 3e
       0.28018662 0.2636216 0.21972373 0.22435974
0001e0 ef 06 8d 3e 4e f6 4f 3e 2d f3 82 3e 34 37 8c 3e
       0.27544352 0.20308802 0.25576153 0.27385867
0001f0 4f 45 58 3e bd b1 8d 3e f2 31 6c 3e 91 e4 69 3e
       0.21120189 0.27674666 0.23065928 0.22841097

lstm.bias_hh_l0 f4 [128]
000000 5d 54 83 3e 9e bf 4a 3e 25 ec 2d 3e 09 89 5c 3e
       0.25650302 0.19799659 0.16984613 0.2153665
000010 2f 4b 61 3e 3f ec 36 3e fd 7a 16 3e bd 70 83 3e
       0.22001337 0.17863558 0.14695354 0.2567195
000020 10 73 45 3e 34 c9 6c 3e e0 8f 69 3e 1e fc 4f 3e
       0.19282174 0.23123628 0.2280879 0.20311019
000030 5c 97 5c 3e ff d0 3a 3e 1f 9c 4e 3e 34 bb 49 3e
       0.21542114 0.18243788 0.20176743 0.19700319
000040 77 47 4e 3e d9 b5 47 3e 7a 78 3e 3e 66 2e 85 3e
       0.20144449 0.19502963 0.18600646 0.26011962
000050 c4 9a 88 3e 16 ea 54 3e fd 4b 74 3e 0f b3 8e 3e
       0.26680577 0.20792422 0.23857112 0.27870986
000060 d9 d6 84 3e 42 b9 2d 3e 7d ae 82 3e b1 14 42 3e
       0.25945166 0.16965201 0.2552375 0.18953206
000070 a7 96 8d 3e 94 f6 81 3e b2 c5 4e 3e d5 5d 3e 3e
       0.27654 0.25383437 0.20192602 0.18590482
000080 72 08 15 be 74 17 c9 bd 39 05 72 be a0 ca 5f be
       -0.14554003 -0.098189265 -0.23634805 -0.21854639
000090 20 9b c8 bd 72 70 0d be fa bd c8 3d 99 ff 9e bd
       -0.09795213 -0.13812426 0.0980186 -0.07763595
0000a0 4d c1 30 be 46 d2 24 be 10 63 0a be ca 82 2f be
       -0.17261238 -0.16095838 -0.13514352 -0.17139736
0000b0 64 52 50 be 69 fd 52 be c9 68 23 be 61 6e 09 be
       -0.2034393 -0.20604481 -0.15957941 -0.13421012
0000c0 b5 1d fc bd e4 bd 22 3e a3 c9 59 be e1 3f 12 be
       -0.12310354 0.1589275 -0.21268325 -0.1428218
0000d0 67 c4 4d be ed 78 31 be b8 dc 20 be 82 dd 04 be
       -0.20094453 -0.17331286 -0.15709198 -0.12975124
0000e0 46 d3 d4 bd 72 a2 25 be e3 80 22 be 37 2f f0 bd
       -0.1039186 -0.16175249 -0.15869479 -0.117277555
0000f0 36 76 37 be 01 72 73 be 0a 08 f1 bd 50 01 25 be
       -0.17916188 -0.23773958 -0.117691115 -0.16113782
000100 df 90 14 be 21 f3 e7 3d bf a3 1c be 75 b3 73 bc
       -0.14508389 0.1132567 -0.15296839 -0.014874329
000110 34 88 05 3e 11 2f a3 bd ca ed 3d 3e a2 2e ce 3d
       0.13040239 -0.079679616 0.1854774 0.10067488
000120 5e 39 03 3e 63 f0 fe 3d dc 5d 8e bd 0a 06 ff 3d
       0.12814853 0.12448194 -0.06951496 0.12452324
000130 3e 04 66 3d bd 22 94 3d 51 00 0d be b2 eb ba 3d
       0.05615639 0.07233188 -0.13769652 0.091269866
000140 de e4 1d be 1d c5 24 3e 91 16 1c 3e e3 66 22 be
       -0.15419337 0.16090818 0.15242983 -0.1585956
000150 a3 59 f3 3d 7b 64 08 3e 84 b1 ec 3d ef 98 93 3d
       0.11882331 0.1331958 0.11557296 0.07206904
000160 aa e6 df 3d aa 39 17 be 0f d6 10 be e3 66 b3 bd
       0.109326676 -0.14768091 -0.14144157 -0.087598585
000170 da af 27 bc d8 f7 95 bd 3c 43 be bd c6 6d c4 bd
       -0.010234797 -0.07322663 -0.09290168 -0.0959125
000180 2d 70 84 3e c7 7a 49 3e 13 d0 7c 3e 20 7c 84 3e
       0.25866833 0.19675742 0.24688749 0.2587595
000190 1b d5 49 3e ac f1 6a 3e c5 82 44 3e 7d e6 85 3e
       0.197102 0.22943753 0.1919051 0.2615241
0001a0 a2 e0 83 3e 70 f4 8f 3e c6 9a 60 3e f1 1d 4c 3e
       0.2575732 0.2811618 0.21934041 0.19933297
0001b0 f5 34 46 3e 30 d2 2c 3e 24 91 84 3e b4 1a 6d 3e
       0.19356139 0.16877055 0.25891984 0.23154718
0001c0 a5 86 5a 3e 40 4c 71 3e f3 4e 68 3e 13 37 45 3e
       0.21340425 0.23564243 0.22686367 0.1925929
0001d0 63 3d 50 3e 10 ed 85 3e 58 c8 77 3e 0a 86 83 3e
       0.20335917 0.26157427 0.24197519 0.256882
0001e0 3c be 41 3e 2b 74 83 3e 67 30 6a 3e c2 11 56 3e
       0.18920225 0.25674567 0.22870027 0.20905212
0001f0 e9 c8 90 3e cf 9e 6c 3e 6c 12 5b 3e e9 d2 69 3e
       0.28278282 0.23107456 0.21393746 0.22834362

lin.weight f4 [5, 32]
000000 b1 be 7e be 80 d4 75 3e 72 1c 86 3e a4 36 7e be
       -0.2487743 0.24006844 0.26193577 -0.24825531
000010 59 d5 55 3e 71 d4 77 be e9 d1 b0 bd ad 99 65 3e
       0.20882167 -0.24202134 -0.08633787 0.22421904
000020 36 35 67 3e 6e 18 7e 3e 14 6c 6e be bb ac 58 3e
       0.22578892 0.24814007 -0.23283416 0.21159641
000030 e4 4f 88 be 2d f7 47 3e ce 54 7f be 06 d0 7a 3e
       -0.26623452 0.19527884 -0.24934694 0.24493417
000040 ac 03 4d be 84 0d de bd d9 81 86 be 8f f4 76 be
       -0.20020932 -0.10842422 -0.2627094 -0.24116729
000050 e6 66 4e 3e 53 64 57 3e b5 2b 7c 3e da e2 85 3e
       0.2015644 0.21034364 0.24626048 0.26149637
000060 3d 95 76 3e c0 49 77 be 29 46 72 be bc fa 5d be
       0.24080367 -0.24149227 -0.23659576 -0.21677679
000070 6a 83 83 be 1f 2f 7d 3e 65 57 76 be b4 7f 64 be
       -0.25686198 0.24725007 -0.24056776 -0.2231434
000080 04 a8 41 3e c7 52 5e be be 9b 1c be cb 57 49 3e
       0.18911749 -0.21711265 -0.15293786 0.19662397
000090 95 34 56 be 70 b4 30 3e 11 cc d5 3c e1 2c 5c be
       -0.20918496 0.17256331 0.026098283 -0.21501495
0000a0 4d ab 69 be b2 a1 7a be 30 2b 45 3e 4d 30 40 be
       -0.22819252 -0.24475744 0.19254756 -0.18768425
0000b0 25 ba 57 3e 7c af 66 be aa 30 15 3e 21 4e 3b be
       0.21067102 -0.2252788 0.14569345 -0.18291523
0000c0 20 5e 5c 3e 88 47 67 bd b7 6f 44 3e 42 f2 60 3e
       0.21520281 -0.056464702 0.19183241 0.21967414
0000d0 35 7c 6f be cb 1a 3e be 8f 06 26 be 5c 06 6d be
       -0.23387225 -0.18564908 -0.1621344 -0.23146957
0000e0 a3 56 2c be 5c e2 56 3e db b1 68 3e d5 61 63 3e
       -0.16829924 0.20984787 0.22724096 0.22205289
0000f0 ab ce 51 3e bb 86 61 be 7d cb 66 3e 1d 1b 35 3e
       0.20488994 -0.22024052 0.22538562 0.17686124
000100 64 ce 17 3e 5b b6 6c be 11 97 48 be 21 a9 45 3e
       0.14824826 -0.23116438 -0.19588877 0.19302799
000110 76 28 5b be fb c9 77 3e 50 7d 8f bd 44 31 5a be
       -0.21402153 0.24198143 -0.07006323 -0.21307856
000120 23 7e 23 be 71 3a 25 be ab 89 39 3e 62 17 7d be
       -0.15966086 -0.16135575 0.18118922 -0.24715951
000130 3e 89 2e 3e 89 62 2e be 4b 9c 1e 3e 71 09 2a be
       0.17044541 -0.17029776 0.15489309 -0.16605164
000140 27 45 5e 3e 1b 46 50 bd 24 23 1c 3e 85 21 37 3e
       0.21706067 -0.050848108 0.1524778 0.1788388
000150 18 7b 7a be 69 16 6c be ea 8b 76 be 8e 6c 44 be
       -0.24461019 -0.23055424 -0.2407681 -0.19182035
000160 a4 34 33 be 14 d6 7b 3e 35 49 57 3e 35 f9 2b 3e
       -0.1750055 0.24593383 0.2102402 0.16794284
000170 f7 3c 82 3e af 4a 68 be 5e 3d 46 3e 67 a2 80 3e
       0.25437137 -0.2268474 0.19359347 0.25123903
000180 07 ea 55 3e ee cf 76 be 9c 68 39 be 8a ec 2d 3e
       0.20890056 -0.24102756 -0.18106312 0.16984764
000190 16 71 2b be 78 f4 44 3e c5 7e e8 3c 13 1f 49 be
       -0.16742358 0.19233882 0.02838076 -0.1964076
0001a0 5e 0a 29 be 16 86 67 be 6f 49 3d 3e bc a9 6c be
       -0.16507861 -0.22609743 0.18485044 -0.23111624
0001b0 94 38 43 3e 98 7b 7d be d1 97 30 3e fb 26 24 be
       0.19064552 -0.24754179 0.17245413 -0.16030495
0001c0 62 c6 39 3e 8f 9c 5e bd a3 27 52 3e 12 d4 2a 3e
       0.18142083 -0.054348525 0.20522933 0.16682461
0001d0 17 c8 2a be f9 8e 7f be 95 11 42 be 18 ee 47 be
       -0.1667789 -0.24956883 -0.1895202 -0.1952442
0001e0 4a 04 58 be c4 ec 70 3e 92 7f 29 3e 44 09 68 3e
       -0.21095386 0.23527819 0.1655257 0.22659785
0001f0 2a e3 83 3e 6e 18 3c be a4 92 2e 3e 51 bc 23 3e
       0.2575925 -0.18368694 0.17048126 0.15989806
000200 b7 75 2a 3e 90 0b 28 be 40 58 4c be 1b aa 6c 3e
       0.16646467 -0.1641066 -0.1995554 0.23111765
000210 ca 4c 5c be f0 ad 26 3e f8 f7 3b bd b0 0a 11 be
       -0.21513668 0.1627729 -0.04589078 -0.14164233
000220 03 8c 1e be a3 36 2e be fc 8b 39 3e 73 77 64 be
       -0.15483098 -0.1701303 0.18119806 -0.22311191
000230 87 93 12 3e 75 a1 2c be 9e cd 5b 3e 1b 88 46 be
       0.1431409 -0.16858466 0.21465155 -0.19387858
000240 cf f2 75 3e 9f c2 89 bd 45 bd 4f 3e 5c db 6c 3e
       0.24018405 -0.06726574 0.20287044 0.23130554
000250 72 1d 4c be b8 3d 2a be 08 68 6e be 0d 4c 29 be
       -0.19933107 -0.16625106 -0.23281872 -0.16532917
000260 88 3c 59 be 63 f8 52 3e 4b 0b 59 3e 11 24 48 3e
       -0.21214497 0.20602565 0.21195714 0.19545008
000270 e1 42 3d 3e 38 3e 0d be ba ba 5d 3e 1d 23 5c 3e
       0.18482544 -0.13793266 0.21653262 0.2149777

lin.bias f4 [5]
000000 67 07 8f 3d 8d d5 73 bd 1f d8 91 bc 04 e6 d0 bc
       0.06983834 -0.05952983 -0.01780325 -0.025500305
000010 b5 10 de bc
       -0.027107576
