checkpoints/MLE_space_False_length_3_preTrainG_epoch_6.pth (torch_old, 36090 bytes, 7 tensors)

emb.weight f4 [5, 32]
00000000: a053 443e 7ac3 7a3e bc34 083e 00e9 883e
00000010: 969f 79be a7a6 7e3e e65f 5a3e 7f18 763e
00000020: 6b02 213e 2773 cfbd 88ed 86be 4ffd 883e
00000030: f32d 37be 04e4 133e 1a4a 1dbe 07ee 28be
00000040: 0242 23be 8693 4b3e 12aa 603e d381 97be
00000050: 366c 6abe 21d2 22be 1116 22be e208 abbe
00000060: 44c2 7ebe c1e8 853e f7dd f93d f443 803e
00000070: 77b0 c83d 026b 323e e9ff 1c3e 2914 42be
00000080: 6cf6 4fbe 2057 1cbe d0c9 64be f58f 5ebe
00000090: 50ae 463e 5aef 4abe d916 4abe 5dfd 49be
000000a0: 1f5f 1fbe 84a4 2cbe 3ad7 2f3e 10b6 38be
000000b0: 56b3 3e3e 0460 31be 16d6 583e d37d 363e
000000c0: 1c1c 0f3e c97e 66be 31d7 33be 7c84 2dbe
000000d0: 0101 603e b133 5d3e 0b58 583e dddf 29be
000000e0: aa96 373e 327f 1fbe bf1f 26be 4494 12be
000000f0: b7c5 2ebe ec05 63be 79d3 4ebe 6813 613e
00000100: 611a 61be 6a05 44be fede 5cbe 320d 36be
00000110: ee86 533e 631a d1bd fb7c 47be 5e63 1ebe
00000120: a478 5ebe 836b 41be 13c1 613e 2b44 20be
00000130: 2b85 433e a1cc 3bbe 6caa 663e cdba 433e
00000140: 2849 5a3e 3b94 2abe 2830 0ebe 7a9c 4fbe
00000150: e6e8 3d3e ec5d 483e 0fb1 263e a2c5 53be
00000160: a187 323e 4f2f 4dbe a964 64be d253 53be
00000170: 5bea 51be 6084 12be d188 67be f344 283e
00000180: 6992 50be a4a4 26be 002b 3dbe 1815 34be
00000190: 717a 4e3e 290a 33be f56e 25be cf71 4fbe
000001a0: b8da 41be 605e 75be 373d 453e beae 49be
000001b0: f01b 253e 077d 41be e0e0 3b3e 2002 583e
000001c0: bf45 2c3e 585b 1cbe 9a79 3ebe e237 3ebe
000001d0: f394 1d3e 5e1c 2a3e 1612 233e b98f 43be
000001e0: 4ea1 453e 0aef 25be 5d09 69be 623e 4cbe
000001f0: a627 19be 7f4b 2ebe 9063 39be 5eca 643e
00000200: 0852 16be c74a 22be 2e10 51be a50a 31be
00000210: bafe 573e fd96 3bbe 2353 47be 27a3 fdbd
00000220: 67e4 5ebe 5342 35be 910c 0f3e 6bf3 06be
00000230: 2952 203e 857d 5abe da3e 393e 6bb1 213e
00000240: c926 663e da68 10be 928a 5bbe 2f31 55be
00000250: 2b29 343e 2df8 563e 36e0 573e 03e8 54be
00000260: 5f28 1c3e 05bd 64be 1a9a 21be 2434 4cbe
00000270: 8a32 42be ac9a 57be 81a1 4fbe 40ca 163e
0.19172525 0.24488631 0.13301367 0.26740265 -0.24377283 0.2486826 0.21325645 0.24032782
0.15723579 -0.101293854 -0.26353097 0.2675576 -0.17888622 0.1444245 -0.15360299 -0.1649705
-0.15943149 0.19880494 0.21939877 -0.29591236 -0.22892842 -0.1590047 -0.1582873 -0.33405215
-0.24878794 0.2615414 0.122005396 0.25051844 0.09799283 0.17423633 0.15331997 -0.18953003
-0.20308846 -0.1526761 -0.2234261 -0.21734603 0.19402432 -0.19817868 -0.19735278 -0.19725557
-0.1556363 -0.16859633 0.17171946 -0.18038201 0.18623099 -0.17321783 0.21175417 0.17821436
0.13975567 -0.22509302 -0.17562558 -0.1694507 0.21875383 0.2160175 0.21127336 -0.16589303
0.17928568 -0.15575865 -0.16223048 -0.14314371 -0.1706761 -0.22170228 -0.20197858 0.21980059
-0.21982719 -0.1914269 -0.2156944 -0.17778471 0.2065694 -0.10210111 -0.1948127 -0.15467593
-0.21725708 -0.18888669 0.22046308 -0.15651004 0.19093768 -0.18339778 0.22525948 0.19114228
0.2131697 -0.16658108 -0.13885558 -0.20274535 0.18545875 0.19567078 0.1627848 -0.2068086
0.17434551 -0.20037578 -0.22304024 -0.20637444 -0.20499556 -0.1430831 -0.22610785 0.16432552
-0.20368351 -0.16273743 -0.18473434 -0.17586172 0.20163895 -0.17484345 -0.16155608 -0.20258258
-0.18931091 -0.23961782 0.19261633 -0.19695565 0.16123939 -0.1889535 0.18347502 0.2109456
0.16823481 -0.1526922 -0.18601075 -0.18576005 0.15388851 0.16612384 0.15924868 -0.19097795
0.19299814 -0.16204467 -0.22757478 -0.19945672 -0.14956531 -0.17020987 -0.18104386 0.22342822
-0.1467973 -0.15848838 -0.20416328 -0.17289217 0.21093264 -0.18319316 -0.19465308 -0.123846345
-0.21766816 -0.17701082 0.13969637 -0.13178794 0.15656342 -0.21336944 0.18090382 0.15790336
0.22475733 -0.14102498 -0.21439579 -0.20819543 0.1759383 0.20993109 0.21081623 -0.2079163
0.15249775 -0.2233773 -0.15781441 -0.19941765 -0.18964592 -0.21055096 -0.20276453 0.1472559

lstm.weight_ih_l0 f4 [128, 32]
00000000: 3731 17be 6c35 15be a402 31be 7659 3dbe
00000010: fc54 003e 1d90 0fbe 64a4 0dbe 74b5 2bbe
00000020: 1a1c 1abe c68e 20be 5520 dd3d c097 01be
00000030: 1cae 373e 29e7 1dbe 3db3 1d3e 9760 3a3e
00000040: 94ca 143e d370 18be 8c49 4fbe c771 83be
00000050: c9b6 f93d b79c 183e 5a1e 183e 3b63 70be
00000060: 9dc0 403e f74b e7bd 782a 25be a4a6 17be
00000070: 5a72 4dbe bc6e 4dbe 7627 31be f9dd 443e
00000080: cce2 54be 8c11 52be e571 3bbe 1be3 03be
00000090: 6d29 fe3d 2cc4 2abe 18a0 2bbe d905 0cbe
000000a0: 6331 5ebe 1c46 24be 9607 283e c975 13be
000000b0: 1e39 2b3e 6fb9 6dbe 3c8c 2e3e b0cf 393e
000000c0: 41b4 203e 3d83 2fbe 5abb 3abe 48e8 47be
000000d0: 0cc2 1f3e 2832 563e 9435 343e e62c 86be
000000e0: 0957 4d3e 11ea 35be ef36 3fbe 22e7 46be
000000f0: c8fe 53be 6d5d 60be 2df2 62be d0b4 5c3e
00000100: 3e17 cd3d 82f1 5e3e 0d32 123e b7e9 433e
00000110: 7d89 05be 65b8 423e be02 f03d 6761 133e
00000120: ae70 273e 60be 4ebe 5298 18be 12f9 603e
00000130: 12a2 cfbd 7b70 1e3e 37e7 c1bd 1a31 08be
00000140: 4960 1fbe 3262 283e 90fc 243e afc9 7dbe
00000150: 0c99 13be 65c2 b9bd fb50 26be bae1 94be
00000160: 70dc 57be 109a 353e 6155 eb3d 5ea3 373e
00000170: e2f5 b83d 1dc5 3a3e c985 0d3e 51f9 31be
00000180: dd6a e83b 9b00 a23d 6459 56bd 832b 46bb
00000190: 5631 88bc 0af6 c43d 8f09 5d3c 33e1 1a3b
000001a0: c8bf 1abd 19db 3fbe 8e37 69bd 870c 5f3d
000001b0: 57c8 403d b7c1 e2bd 6800 e13d 0e5a c73d
000001c0: a331 ad3c 547b 39bd 8c33 243d b319 8cbe
000001d0: 4670 5cbc 09f8 5a3d 71c0 6d3d bec1 7fbe
000001e0: 6059 d0ba 06c6 913c 32d1 bebd 1455 213c
000001f0: 6082 0dbe ebeb 6cbd 80ee c6bd a20f 053d
00000200: 3e1e 3abe 0404 d6bd 3929 2fbe 5035 d4bd
00000210: 2330 3c3e 847f 19be 7fd9 34be 2b7d 37be
00000220: bfe4 49be 6254 6abe 19e3 2f3e 963c f1bd
00000230: dde6 103e 2ab5 2bbe dac1 103e 72b8 523e
00000240: cf26 133e ad9d f6bd 07e2 13be a8ae 58be
00000250: a883 023e 6141 283e a7f9 5a3e 1598 84be
00000260: c7d1 e53d 4a18 dfbd 6fa1 30be cb0d 4ebe
00000270: d1aa 2cbe 9e31 63be d924 2bbe 9f7c 243e
00000280: 0649 48be 54a8 43be 995d 1dbe 9b2a 19be
00000290: a7ed 513e 9a18 07be 6d23 3abe 550f 3cbe
000002a0: 93b4 5abe 29c5 4bbe bfb1 3a3e 92e0 a5bd
000002b0: d7a5 5e3e bae0 54be c23b 1f3e 1363 4b3e
000002c0: 60c9 453e 608c eabd 5dba 2dbe 77df 92be
000002d0: cd4d 3b3e 7923 133e 0578 283e b40c 6abe
000002e0: 7f67 353e d2a1 03be 585b 0abe e5b9 e1bd
000002f0: feec 42be 9799 2bbe 100b 20be 162a 4c3e
00000300: 328a 383e eae2 243e 4d10 263e f015 2c3e
00000310: ad82 7dbe 1103 393e 95aa 4a3e ded8 4f3e
00000320: 3fc4 f13d 1a3a 6bbe f5bc 27be 5036 243e
00000330: c24f 0ebe 6b1c 3d3e 38c0 19be 3bf8 57be
00000340: e18f 17be d716 703e e1a5 5e3e 167e 2ebe
00000350: 7cdd 49be 0b6f 40be 7b22 c5bd 4b34 6cbe
00000360: e455 59be 3177 723e 4b30 d63d be28 6b3e
00000370: 8684 533d 903d 2b3e d223 093e 33d9 3dbe
00000380: 2379 0abe 02f0 10be 1388 35be 4b51 13be
00000390: 3070 513e dc7e 4fbe 054b 4dbe 20df 45be
000003a0: a5fa 5cbe 7516 3abe b3cc 2b3e 9f42 35be
000003b0: 8218 493e 1575 62be cef3 1d3e 5a49 6a3e
000003c0: 5e96 1e3e d5b1 35be a8ba 56be cfc6 48be
000003d0: 3cd6 443e 749d 1d3e 3ee4 293e 8603 56be
000003e0: eb36 553e fbc3 58be 68bb 2abe 249e 53be
000003f0: 3c14 29be cef3 2cbe 060c 43be bf95 183e
-0.14764868 -0.1457116 -0.17286164 -0.18491158 0.12532419 -0.14019819 -0.13832241 -0.16768438
-0.15049782 -0.15679464 0.107971825 -0.12655544 0.17937511 -0.15420212 0.15400405 0.18200909
0.14530402 -0.14886789 -0.202429 -0.25672743 0.121930666 0.14903532 0.14855328 -0.23475353
0.18823476 -0.11293786 -0.16129482 -0.14809662 -0.20063153 -0.20061773 -0.1730021 0.19225301
-0.20789641 -0.20514506 -0.18305166 -0.12879603 0.12410245 -0.16676396 -0.1676029 -0.13674106
-0.21698527 -0.1604237 0.16409144 -0.144004 0.16721007 -0.23215269 0.17045683 0.18145633
0.15693761 -0.17139907 -0.18235531 -0.19522202 0.15601367 0.2091757 0.17598563 -0.2620613
0.20052733 -0.1776507 -0.18673299 -0.19424108 -0.2070266 -0.21910639 -0.22162695 0.2155335
0.10014199 0.21771815 0.14276905 0.19132124 -0.13040729 0.19015653 0.11719273 0.14392625
0.16351578 -0.2018981 -0.14901856 0.21970013 -0.10138334 0.15472595 -0.09467929 -0.13299981
-0.15564074 0.16443709 0.1611197 -0.24783967 -0.14413851 -0.09070281 -0.16241829 -0.29078466
-0.21080184 0.17734551 0.11490894 0.17933413 0.090312734 0.18239255 0.13820566 -0.17380263
0.007092817 0.07910272 -0.052331343 -0.0030238337 -0.016625088 0.09617241 0.0134910485 0.0023632764
-0.037780553 -0.18735923 -0.056937747 0.054455306 0.04706606 -0.110721044 0.109864056 0.097339734
0.021141833 -0.04528363 0.04008822 -0.27363357 -0.013454502 0.0534592 0.058044855 -0.2497625
-0.0015895776 0.01779462 -0.093172446 0.009846944 -0.13819265 -0.057842176 -0.09713459 0.03248561
-0.18175599 -0.10449985 -0.17105569 -0.10361731 0.18377738 -0.1499005 -0.17661093 -0.17918842
-0.19716166 -0.22883752 0.17176475 -0.11779134 0.14150567 -0.16768327 0.14136449 0.20578173
0.14370273 -0.12041793 -0.14441691 -0.21160376 0.12745535 0.1643119 0.21384297 -0.2589728
0.112216525 -0.10893305 -0.17249082 -0.20122449 -0.16862036 -0.22186896 -0.16713275 0.16063164
-0.19559106 -0.19107181 -0.15367736 -0.14957659 0.20500813 -0.13192979 -0.18177576 -0.18365224
-0.21357946 -0.1989943 0.18231867 -0.08099474 0.2174295 -0.20788851 0.1555014 0.19862013
0.193151 -0.11452556 -0.16965623 -0.28686115 0.18291397 0.14369 0.16452034 -0.22856408
0.17715262 -0.12854698 -0.13511407 -0.11021785 -0.19035718 -0.16757809 -0.1562922 0.1993793
0.18021467 0.16102186 0.16217156 0.16805243 -0.2475688 0.18067576 0.19791634 0.20297572
0.11805009 -0.22971383 -0.16380675 0.16036344 -0.13897613 0.18467872 -0.15014732 -0.21090786
-0.14800979 0.23446213 0.21742965 -0.17040285 -0.19713396 -0.1879236 -0.09625717 -0.23066823
-0.21224171 0.2367828 0.1045843 0.2296476 0.051640056 0.16722703 0.1339257 -0.18539886
-0.13522772 -0.14154056 -0.1772769 -0.1438648 0.20452952 -0.20263237 -0.20048149 -0.19323397
-0.21579988 -0.18172629 0.16777305 -0.17701195 0.19638255 -0.22114976 0.15425035 0.22879544
0.15487048 -0.17743619 -0.20969641 -0.1960709 0.19222349 0.15392095 0.16590974 -0.20899782
0.20821731 -0.2116851 -0.16673052 -0.20665795 -0.16511625 -0.16889879 -0.19047555 0.14900874

lstm.weight_hh_l0 f4 [128, 32]
00000000: 4341 f3bd f1df 0b3e 5ba0 93be fe2d af3e
00000010: dfed 293e 36c7 51be c57b 8d3e 9d9c 493e
00000020: 3ef8 d33d dd06 c2ba dabc e2bd 4044 e1bd
00000030: b0ad a23e 9ba4 ec3d 2f5b 0dbe 7c2f 383e
00000040: 0279 42be 090d 8b3e f9cd 6c3e 8dd2 42be
00000050: e781 103e 2cdd 403e 8278 e73c a38c e7bd
00000060: dbb6 2d3e 1bce 45be 5dc5 45be 9781 dbbd
00000070: 0bfa 933e 4ba7 9ebe 11e9 e6bd 7c52 48be
00000080: 81b0 34be 7e60 1d3e da56 90be bda2 893e
00000090: baf3 003e 7f08 5bbe 5aed 5c3e 4020 303e
000000a0: 8451 2b3e 6eea 4abb 2965 f0bd 75b5 b3bd
000000b0: 8586 9b3e b52a 303e e0b0 8abd c50c 463e
000000c0: ee6b 2bbe 69ee 903e 9579 563e 9aef 63be
000000d0: b110 ec3d 4762 3e3e d4f1 2e3b 22a6 16be
000000e0: 57fb 1b3e 3354 5dbe d23b f5bd f0ca 2abd
000000f0: c2c7 963e 87fd 81be c421 86bd 3e7f 5ebe
00000100: 3702 22be 7e73 083e 853d 67be c813 83bc
00000110: cf2b ac3d b78e 20be 2596 283e 85fa 1a3e
00000120: 7e17 153e ca27 003e e34c 11be 5332 143e
00000130: f9e2 4f3e 10dc c53d 1201 c5bd 62c4 913d
00000140: a08f ddbd a5d2 543e 1232 8d3e 851b f5bd
00000150: 2cd6 f93d f191 133e 9354 683d 99f6 843d
00000160: db92 ab3d 14eb e3bd 155d 93bd 9411 21be
00000170: e5c3 c3bd dee0 3c3d 141e 18be 96d1 18be
00000180: 6608 15be c2ba 1d3e 3701 86be 8a75 3c3e
00000190: 1da1 123e fbaa 43be 115d 3b3e fb26 213e
000001a0: 14af fb3d 7d0c 023e 3f1e c6bd faa8 a73d
000001b0: a094 943e b06c 3b3e 6de4 20be 2e5e 223e
000001c0: 5ac5 f0bd 55b7 873e 6946 7a3e 488f 11be
000001d0: 40c7 c73d e55c 4b3e d354 153e e183 133d
000001e0: 44cf 3b3e 3fd7 4abe 75d5 ccbd b74e 23be
000001f0: b83a ad3d 2b7b 2ebe 22ee d4bd 49fd 38be
00000200: f725 2dbe 785c 373e e9d2 79be 329a a53e
00000210: 6ff2 443e 013d 22be 2938 573e 9f0c 093e
00000220: 8a9b 1e3e b49e dabb 7b62 11be e583 95bd
00000230: 853d 9c3e 3aab 323e e899 4ebd 3855 093e
00000240: f2fa 2cbe 97f9 403e 8b93 873e da96 febd
00000250: 05de 033e d0ab 233e 7531 5bbd d32c 57bd
00000260: 5f69 e63d b3d7 6cbe e7d8 15be 03ca b1bd
00000270: 25c0 733e bc05 81be 763d 11be f382 25be
00000280: 4fbc 55be f813 733e 6244 58be 6023 7a3e
00000290: ab62 213e 919a 53be 8d16 823e 7452 363e
000002a0: 41fe d73d 75ce 043c b670 71bd d64b bfbd
000002b0: 4ebc a03e 6d00 0a3e fca0 8bbd a8fa e13d
000002c0: 93c1 1dbe 22c8 6c3e 0e4b 673e 2729 1bbe
000002d0: c9b0 923d a8f2 6f3e ebea 83bd 80cd 2abe
000002e0: 8476 183e 6f9b 27be 6c92 43be eda1 04bd
000002f0: 18e1 7e3e 5f03 99be e12b c9bd 5239 34be
00000300: e50b 91bb 465e 1abd b3a1 6bbe 863e bf3d
00000310: c271 d8ba 8125 143c 99cb 4e3e 3392 043d
00000320: be97 81bd cbd1 19bd 2d9c 5eba 9d61 633b
00000330: d76e bd3d 1af7 54bd 331a 2e3d 10cd 153d
00000340: 887f f7b8 c8a7 0d3e f0fa 573e 9be6 843c
00000350: 849d 67bd e71a f53c f32e 73bd 10eb 08bd
00000360: c34f 57bd 918f ccbc e3a8 063d fcd4 df3c
00000370: d3ca 973c f1c0 88bd ba07 9c3b 2e23 fdbc
00000380: 6117 4cbe 50b1 233e 8228 85be 2ceb 7c3e
00000390: 207a e03d 86e8 30be ce17 553e 4b5b 523e
000003a0: 9982 c33d 58a2 333d 1edc 05be 341d f1bc
000003b0: b68f 763e 9655 653e 4db2 abbc 6296 3e3e
000003c0: ed54 72be cb03 473e e8aa 5b3e 2421 3cbe
000003d0: e5b7 793d f8ec 2b3e 2099 a93c 12ef c1bd
000003e0: 8e1c f93d 6c00 1cbe da2d 4bbe e263 9ebd
000003f0: 9aa4 593e 7a93 b2be 642c a4bd e120 06be
-0.11877682 0.13659646 -0.2883328 0.34214777 0.16594647 -0.20486149 0.2763349 0.1968865
0.10350083 -0.0014803071 -0.11071177 -0.10999346 0.31773138 0.115548335 -0.13804315 0.17986864
-0.18991473 0.27158383 0.23125447 -0.19025631 0.14112054 0.1883437 0.028255705 -0.11306121
0.16964285 -0.19316904 -0.1931357 -0.10718077 0.28901705 -0.3098701 -0.11274923 -0.19562715
-0.17645456 0.1536884 -0.28191262 0.26881972 0.12592974 -0.2138996 0.21574917 0.17199802
0.16730314 -0.0030962485 -0.11738045 -0.087748446 0.30376068 0.17203791 -0.067720175 0.19340809
-0.1674039 0.28306893 0.20944817 -0.2225937 0.11526621 0.18592177 0.0026694434 -0.14711812
0.15232597 -0.2161415 -0.119743004 -0.041697443 0.29449278 -0.2538874 -0.06549409 -0.21728227
-0.15821157 0.13325307 -0.22582062 -0.016000643 0.08406793 -0.15679441 0.16463526 0.15134628
0.14559743 0.12515178 -0.14189486 0.14472322 0.20301427 0.09661114 -0.09619345 0.07117535
-0.1081841 0.2078348 0.27577263 -0.119681396 0.12199053 0.14411141 0.05672128 0.06492347
0.0837762 -0.11128822 -0.07195488 -0.15729362 -0.09558848 0.046112888 -0.14855224 -0.149237
-0.14553985 0.15403274 -0.26172802 0.18404213 0.14319272 -0.19108193 0.18297221 0.15737526
0.12289253 0.12700076 -0.09673738 0.081865266 0.29019642 0.1830318 -0.15712138 0.15856239
-0.11756392 0.2650706 0.24440922 -0.14214814 0.09754801 0.19859655 0.14583139 0.03601444
0.18340784 -0.19808672 -0.10001651 -0.15947996 0.08458465 -0.17039172 -0.10396983 -0.1806537
-0.16909014 0.17906368 -0.24396862 0.32344204 0.19233106 -0.15843584 0.21017517 0.13383721
0.15489021 -0.006671751 -0.14197724 -0.073005475 0.30515686 0.1744813 -0.050439745 0.13411415
-0.16892603 0.18845211 0.26479754 -0.124311164 0.12877662 0.1598351 -0.053513963 -0.052532982
0.11250567 -0.23129158 -0.14633523 -0.08681109 0.23803766 -0.25199687 -0.14183602 -0.16163234
-0.20872615 0.23738086 -0.21119836 0.24427557 0.15760295 -0.20664431 0.2540783 0.17804891
0.10546542 0.008105864 -0.05894538 -0.093406364 0.31393665 0.13476725 -0.06817815 0.11034137
-0.15405874 0.2312322 0.22587225 -0.15152417 0.07162625 0.2343241 -0.064412914 -0.16679955
0.1488896 -0.16367887 -0.19098824 -0.032380987 0.24890554 -0.29885384 -0.09822822 -0.17599991
-0.0044264668 -0.037687562 -0.23010902 0.09338097 -0.0016513395 0.009042145 0.20194854 0.03236599
-0.06327771 -0.03755359 -0.00084919 0.0034695633 0.09249657 -0.051993467 0.042505454 0.036572516
-0.00011801632 0.13833535 0.21091819 0.016223243 -0.056546703 0.029920055 -0.059370946 -0.033427298
-0.0525663 -0.024970802 0.032875907 0.027323239 0.018529331 -0.06677426 0.0047616633 -0.030900564
-0.19930793 0.15985608 -0.26007468 0.24699086 0.109607935 -0.172762 0.20809862 0.20542638
0.09546394 0.043855995 -0.1307225 -0.02943287 0.24078259 0.2239593 -0.020959044 0.18612054
-0.23665209 0.1943504 0.21451914 -0.18372017 0.06096639 0.16789615 0.020702899 -0.09469427
0.121636495 -0.15234536 -0.1984171 -0.07733895 0.21254197 -0.3487814 -0.08016279 -0.1309848

lstm.bias_ih_l0 f4 [128]
00000000: 5158 623e 49e0 703e c7d7 643e 0020 613e
00000010: 0606 813e 0b60 793e 57c8 573e 7a8b 3d3e
00000020: 67ff 2f3e c045 803e 56e7 713e 488f 3a3e
00000030: 1d13 813e 4aa9 4e3e cbb0 833e 4a2c 2c3e
00000040: 538a 473e 7250 4e3e 99a7 3f3e 9591 3f3e
00000050: 171b 703e c8cd 523e ee2a 5f3e a0f1 743e
00000060: 4067 2f3e 33d2 653e 14d0 643e 0940 563e
00000070: 361b 8a3e e1ae 463e 269b 543e e9fa 6a3e
00000080: dbcf ecbd 6fed 10be deaa 72be 2d02 24be
00000090: 6a84 febd 7c83 29be 2098 303e 7e32 e8bd
000000a0: b960 21be 299b 45be 7d7c 1ebe 83dd d0bd
000000b0: 3dea 29be 1810 5ebe e5a7 10be feda 0ebe
000000c0: b6b7 25be 5285 153e 2a08 2fbe 7778 2dbe
000000d0: 2d66 bdbd 49bf f9bd 58c9 0cbe a24a 1fbe
000000e0: 64d7 eebd 56f2 8abd 2c7a 18be 0ab4 e5bd
000000f0: 47d9 77be 4cfa 37be 82e3 20be 6a09 fabd
00000100: 3f43 1fbe 2cac 0e3e 2ee6 d9bd 843d b73c
00000110: 9015 133e 36c7 26be 1976 3a3e a546 243e
00000120: 97a7 bd3d c6e7 933d 7c61 20be 731b 0b3d
00000130: 8e45 e13d cb6d 103e 655b d6bd f51d 163e
00000140: c8e7 0fbe 5402 233e 3848 d73d 8b47 b5bd
00000150: 386e fd3d 5953 053e e421 943d a1d1 be3d
00000160: 2725 f83d d9a2 dfbd 39d2 01be 25fa 03be
00000170: 2a62 8bbd 3b80 8c3c dfb5 12be f969 22be
00000180: a8b1 693e a46c 6d3e cbc2 593e c6e9 3f3e
00000190: 0534 4d3e 34ee 5b3e 0fdd 653e d467 823e
000001a0: be92 3a3e c80a 7d3e 1285 433e f621 683e
000001b0: 2410 8b3e b178 763e d46c 7a3e 0466 7b3e
000001c0: a51a 803e bdf2 1b3e c408 683e 6d39 4d3e
000001d0: bef7 893e 094d 813e e0f5 533e 84cd 583e
000001e0: 162d 873e f56d 463e c2c9 7b3e 5e63 863e
000001f0: 53a0 493e 4455 853e 6793 613e 5231 5f3e
0.22104003 0.23523058 0.22347938 0.21984863 0.25199908 0.24353044 0.21072517 0.18510237
0.17187272 0.25053215 0.23623404 0.1821872 0.25209895 0.20181766 0.2572082 0.1681377
0.1948636 0.20147875 0.18716277 0.18707879 0.23447834 0.20586312 0.2179372 0.23920298
0.1712923 0.22443466 0.22345 0.20922865 0.26973885 0.19402649 0.2076231 0.22947277
-0.11563083 -0.14153074 -0.23697993 -0.16016455 -0.124276 -0.16554064 0.17245531 -0.113377556
-0.15759553 -0.1929747 -0.15477176 -0.101985 -0.16593261 -0.21685827 -0.14126547 -0.13950726
-0.16183361 0.14601639 -0.17092958 -0.16940485 -0.09248004 -0.12194688 -0.13748682 -0.15555814
-0.11662176 -0.06784503 -0.14890355 -0.1121598 -0.24203978 -0.17966574 -0.15711787 -0.12208827
-0.15552996 0.13932866 -0.106396064 0.0223682 0.14363694 -0.1628693 0.18209113 0.16042574
0.09260481 0.07221942 -0.15662187 0.033961724 0.10999595 0.14104383 -0.10466651 0.14659865
-0.14053261 0.15918857 0.105118215 -0.08851536 0.12374538 0.13020076 0.072330266 0.09317327
0.12116461 -0.109197326 -0.1267785 -0.12888391 -0.06805833 0.017150989 -0.14327191 -0.15860738
0.22821677 0.23185974 0.21265714 0.18741521 0.20039375 0.21477586 0.22447608 0.2546984
0.1822004 0.24711144 0.19093731 0.22669205 0.27160752 0.24069478 0.24455577 0.24550635
0.25020328 0.15229316 0.22659594 0.20041437 0.26946825 0.25254086 0.20699263 0.21172148
0.26401585 0.19377883 0.24588683 0.26247686 0.19690065 0.26041615 0.22028886 0.21796158

lstm.bias_hh_l0 f4 [128]
00000000: dbfd 7e3e 4075 423e 6e75 223e dba6 4c3e
00000010: 2aba 573e e0a6 2d3e ea43 103e 30d6 7e3e
00000020: 903a 3b3e ab64 613e b35f 5e3e 4fd7 423e
00000030: 6412 4e3e 3be1 2f3e 430e 443e 847b 3f3e
00000040: a0a2 453e 762d 413e c28f 323e 47e1 803e
00000050: eda4 833e 5700 4b3e a1a3 673e b25f 883e
00000060: d50d 7f3e 8bf3 253e eacd 7c3e 4671 373e
00000070: 367e 863e f6c6 733e 174d 453e 8828 353e
00000080: 130f 0abe b68c b3bd f52a 6cbe 0e02 56be
00000090: c7bb aebd 2934 02be 4c38 c73d 0ce3 87bd
000000a0: 5cf5 24be 85d9 19be ecbc fcbd 9ee6 25be
000000b0: c75f 47be ed07 47be a095 19be 4df2 fabd
000000c0: 29c9 d8bd 190e 213e b725 53be 6fc5 06be
000000d0: b3f5 41be b2bc 24be 1f15 17be e682 f4bd
000000e0: 8efc bcbd 1470 1bbe e28d 17be e5b3 dabd
000000f0: 6bb1 2ebe a74d 68be 60ac dabd 27ea 18be
00000100: 0cfa 16be 4439 ec3d 4a05 16be bb32 cdbc
00000110: af51 083e f3e8 a8bd 0a92 3b3e 6068 d23d
00000120: b4c7 063e c0ba 033e e041 96bd 5073 053e
00000130: 8a2f 3c3d c150 9b3d afcf 10be c92c c13d
00000140: a58c 1fbe c927 223e f441 153e dfb6 24be
00000150: 539e f93d 8525 0b3e dbc2 f53d a84b 9d3d
00000160: d5e7 e63d 4954 19be ba4a 13be 4999 bbbd
00000170: 642e 92bc 3fc7 7dbd 72fa c3bd 84bb c9bd
00000180: 0c2a 7f3e 4490 3f3e 183e 703e 1b2d 793e
00000190: ef2e 3f3e 666d 603e 01ee 3c3e d4fe 803e
000001a0: f0ed 7c3e c5cd 893e cc5a 543e f0ec 3e3e
000001b0: b425 363e 3c19 213e 4141 7e3e 25c7 613e
000001c0: 0d1b 503e c40f 693e b74e 5b3e fff8 3a3e
000001d0: 9643 453e af40 803e f7be 6a3e 0d1b 7a3e
000001e0: 9b0a 363e f55f 7d3e cb13 603e 146a 4a3e
000001f0: 6f76 893e e3e5 5b3e e473 503e a91f 5f3e
0.24901526 0.1899004 0.15865108 0.19985525 0.2106711 0.16958189 0.14088407 0.24886394
0.18284059 0.22011058 0.21716194 0.19027446 0.20124203 0.17175762 0.19146065 0.18699461
0.19300318 0.18864998 0.17437652 0.25171873 0.25711766 0.19824348 0.22621013 0.2663551
0.2490762 0.16206186 0.24687925 0.17914304 0.26268166 0.23806366 0.19267689 0.17691243
-0.13482313 -0.08767073 -0.23063262 -0.20899221 -0.085319094 -0.1271521 0.09727535 -0.06635103
-0.16109222 -0.15024383 -0.123407215 -0.16201255 -0.1947013 -0.19436617 -0.14998484 -0.122532465
-0.10585243 0.15728034 -0.20619856 -0.13161252 -0.18941383 -0.16087607 -0.14754151 -0.119390294
-0.092278585 -0.15179473 -0.14800218 -0.106788434 -0.17059867 -0.22685872 -0.10677409 -0.14933072
-0.14743823 0.1153436 -0.14650455 -0.025048604 0.1331241 -0.082475565 0.18317428 0.10273814
0.13162118 0.12864208 -0.073367834 0.1303227 0.045943774 0.07583762 -0.14141725 0.0943237
-0.15580995 0.1583549 0.1457594 -0.16085385 0.12188401 0.13588531 0.12000056 0.07680446
0.11274687 -0.14973558 -0.14383975 -0.09160096 -0.017844386 -0.061957594 -0.09569253 -0.09850219
0.24918383 0.18707377 0.23461187 0.24333613 0.18670247 0.21916732 0.18450166 0.25194418
0.24700141 0.26914802 0.20737761 0.18645072 0.1778782 0.15732282 0.2482958 0.22048624
0.20322819 0.2275992 0.21416746 0.18259047 0.19264063 0.2504935 0.2292441 0.24424382
0.17777483 0.24743636 0.2188255 0.19767028 0.2684817 0.21474414 0.20356709 0.21789421

lin.weight f4 [5, 32]
00000000: 4887 76be faeb 6c3e e9c8 793e 57fd 6fbe
00000010: 73be 4c3e bf69 6ebe 29f2 79bd f61e 5d3e
00000020: dbf7 5d3e 4621 743e 4088 64be c316 4e3e
00000030: f947 7fbe 6b4b 3e3e 1b18 76be 89c9 703e
00000040: ad39 43be aa1f a7bd 39df 79be 73f9 6dbe
00000050: d66f 453e ffc7 4d3e 83c2 713e 64a7 803e
00000060: a66d 6c3e 1453 6ebe f3c5 69be 48a4 54be
00000070: 8e8e 7abe 15f5 6d3e 3724 6dbe c01b 5bbe
00000080: 45e5 383e 9cc8 54be e9bd 18be b220 433e
00000090: 37ca 4dbe 2d80 273e aaca c73c 27e3 52be
000000a0: b7c8 60be 13ee 71be 8a66 3c3e efbd 37be
000000b0: 0d80 523e 207f 5dbe 4edc 0c3e 6bbc 31be
000000c0: 2aaa 543e 8b5d 83bd d651 403e 771f 583e
000000d0: 4dd7 66be 78a4 34be e5ce 1dbe 53ea 64be
000000e0: ee18 23be 32e7 4e3e e96e 603e 06a1 5a3e
000000f0: a770 4a3e 625c 5bbe 4a17 5e3e cac4 2c3e
00000100: 001d 133e d8ac 67be 6354 41be ca85 3f3e
00000110: a37e 55be d73e 723e db87 acbd 7978 55be
00000120: 9b66 20be c117 20be 0d88 343e bfc9 78be
00000130: c9d4 263e e1d1 2bbe 461f 193e 0697 24be
00000140: 0e86 553e 921d 7cbd 444a 143e 2df5 303e
00000150: 97fd 75be ef6d 67be b354 71be 4ecd 3fbe
00000160: 0848 2dbe 2a8a 743e 2612 523e 60d9 263e
00000170: 7e08 7f3e 0500 62be b08d 403e 10c6 7a3e
00000180: 6567 4f3e 8aaf 6fbe 83d9 2fbe 8339 253e
00000190: d4af 23be fd04 3d3e 270a 413c a941 42be
000001a0: d271 23be d112 60be 7cd2 353e 0e90 65be
000001b0: bd16 3a3e 99cd 77be 8d53 293e 2599 1cbe
000001c0: 3b5f 2f3e 8048 91bd 04a2 483e 590f 233e
000001d0: 4a04 24be 775b 78be 1e56 3abe 119d 40be
000001e0: e817 50be 32d6 673e d850 223e 7bcb 603e
000001f0: 4161 7f3e 7feb 32be cceb 263e 344c 1b3e
00000200: 2a8b 273e a008 24be c5e6 3fbe f299 673e
00000210: 49c3 58be ffd9 213e 32ee 57bd bd76 0dbe
00000220: f684 1bbe 5bd0 2abe fa3a 363e 3799 61be
00000230: 28a5 0a3e 2722 29be e59f 583e cb4d 43be
00000240: e429 6f3e fb03 8dbd 452a 433e e72a 693e
00000250: 1d5c 49be 8caa 26be 5c1b 6bbe d0fe 25be
00000260: d54a 55be 8647 4c3e c1e9 553e 15d3 443e
00000270: c518 393e 108e 07be 0445 5a3e fc3d 573e
-0.24075043 0.23136893 0.24393047 -0.23436485 0.19994526 -0.23282526 -0.061021958 0.21593842
0.2167658 0.23840818 -0.223176 0.2012587 -0.24929799 0.18583457 -0.24032633 0.2351438
-0.1906497 -0.08160336 -0.24401559 -0.23239689 0.19280943 0.20095824 0.23609357 0.2512771
0.23088703 -0.2327388 -0.22829418 -0.20765793 -0.24468443 0.23238023 -0.23158346 -0.21397305
0.1805621 -0.20779651 -0.14916195 0.19055441 -0.2009667 0.16357489 0.02438863 -0.20594464
-0.21951567 -0.23625974 0.1839849 -0.17943548 0.2055666 -0.21630526 0.13755915 -0.17357032
0.20768037 -0.06414326 0.18781218 0.21105753 -0.22543068 -0.17640865 -0.15410955 -0.22355013
-0.15927479 0.20205382 0.21917309 0.21350488 0.19769536 -0.2142196 0.21688572 0.16871944
0.14366531 -0.22624528 -0.18879847 0.1870338 -0.2084909 0.23656784 -0.0842435 -0.20846738
-0.15664141 -0.15634061 0.17630024 -0.2429571 0.16292109 -0.16779281 0.14953336 -0.16073236
0.20851919 -0.061551638 0.14481455 0.17281027 -0.24022518 -0.2260053 -0.23567466 -0.18730661
-0.16922009 0.2388083 0.20514736 0.1629386 0.24905583 -0.2207032 0.1880405 0.24489617
0.20254286 -0.23406807 -0.17172818 0.1613522 -0.15985042 0.18458934 0.011782206 -0.1897036
-0.15961388 -0.21882178 0.17756075 -0.22418234 0.18172736 -0.24199523 0.16535778 -0.15292795
0.17126171 -0.070939064 0.19593054 0.15923823 -0.16017261 -0.24253641 -0.18196914 -0.18809916
-0.2032162 0.22640303 0.15851152 0.21952622 0.24939443 -0.17472647 0.16300887 0.15165788
0.1636168 -0.16018915 -0.18740375 0.22617319 -0.21168245 0.15805815 -0.052717395 -0.13814826
-0.1518744 -0.16681044 0.17795935 -0.22031103 0.13539565 -0.16516934 0.21154745 -0.19072644
0.23355824 -0.06885525 0.19059093 0.22770272 -0.19664045 -0.16275996 -0.22959656 -0.16210485
-0.20829327 0.19949159 0.20889951 0.19221146 0.18075855 -0.13237786 0.2131539 0.21019739

lin.bias f4 [5]
00000000: 1d6c 9a3d d50e 6bbd 0e87 b8bc f861 0bbd
00000010: bb7a e8bc
0.07540152 -0.05738719 -0.022525337 -0.034028977 -0.028378835
