checkpoints/MLE_space_False_length_3_preTrainG_epoch_173.pth (torch_old, 36090 bytes, 7 tensors)

emb.weight f4 [5, 32]
0.19320148 0.24779512 0.13338387 0.27000353 -0.24597828 0.2520091 0.21536127 0.24299508
0.15821901 -0.1114484 -0.26589108 0.27043888 -0.1808646 0.14523497 -0.15426445 -0.16613078
-0.16098796 0.20111318 0.22185108 -0.30389935 -0.23109302 -0.16011818 -0.15957965 -0.3405943
-0.25136393 0.26405692 0.121910885 0.25288832 0.09734359 0.17584392 0.15401311 -0.1910296
-0.20403044 -0.15347028 -0.22445418 -0.2181075 0.19485079 -0.19892909 -0.1982002 -0.19807816
-0.15657648 -0.17004257 0.1724754 -0.1811266 0.18718727 -0.17422299 0.21273771 0.17917664
0.14070934 -0.22598639 -0.17641887 -0.1711328 0.2195264 0.21695362 0.21220894 -0.16762401
0.18008314 -0.1564876 -0.16328233 -0.14389355 -0.17182943 -0.22260256 -0.20295021 0.22071517
-0.21998544 -0.19143783 -0.21587883 -0.17786022 0.20663235 -0.10206436 -0.1949122 -0.15476651
-0.21741651 -0.18921511 0.22056866 -0.15656386 0.19104464 -0.18353099 0.22544986 0.19128534
0.21329528 -0.16668308 -0.13894582 -0.20313339 0.18560724 0.19584133 0.16294794 -0.20725106
0.17440598 -0.20041333 -0.22324124 -0.20646681 -0.20512581 -0.1432225 -0.2262715 0.16449249
-0.2037104 -0.16262664 -0.18474123 -0.17583801 0.20158084 -0.17467472 -0.16153188 -0.2025618
-0.18931763 -0.23963422 0.19264232 -0.19691437 0.16118121 -0.18890245 0.18351032 0.21093492
0.16818625 -0.15265816 -0.185991 -0.1857453 0.15395673 0.16614737 0.15925597 -0.19099267
0.19294073 -0.16198783 -0.22759113 -0.19946408 -0.14945114 -0.17020127 -0.18105085 0.22346315
-0.14733176 -0.15885712 -0.20487633 -0.1731161 0.21131645 -0.18352766 -0.19504558 -0.124193504
-0.21820854 -0.17857331 0.13986896 -0.13198651 0.15719259 -0.21408923 0.18150544 0.15851316
0.22537266 -0.14152017 -0.21467036 -0.2102522 0.17610233 0.21044683 0.21134111 -0.21000758
0.15280677 -0.22357653 -0.1585727 -0.19959725 -0.19073683 -0.21102321 -0.20337313 0.1477196
00000000: 9cd6 453e 01be 7d3e c895 083e e73d 8a3e
00000010: bbe1 7bbe 5607 813e aa87 5c3e b4d3 783e
00000020: 2a04 223e 0f3f e4bd e022 88be f776 8a3e
00000030: 9234 39be 7ab8 143e 80f7 1dbe 301e 2abe
00000040: 07da 24be 9df0 4d3e ee2c 633e b298 9bbe
00000050: a6a3 6cbe 05f6 23be d968 23be 6062 aebe
00000060: c6b2 80be 7832 873e 6aac f93d 947a 813e
00000070: 135c c73d 6e10 343e 9db5 1d3e 439d 43be
00000080: 5bed 50be 5027 1dbe 51d7 65be 9357 5fbe
00000090: f786 473e 11b4 4bbe fef4 4abe 00d5 4abe
000000a0: 9655 20be a41f 2ebe 649d 303e 4079 39be
000000b0: 05ae 3f3e 8367 32be ead7 593e 157a 373e
000000c0: 1c16 103e fa68 67be 26a7 34be 703d 2fbe
000000d0: 87cb 603e 1729 5e3e 4d4d 593e a1a5 2bbe
000000e0: b767 383e 493e 20be 7c33 27be d558 13be
000000f0: 0ef4 2fbe edf1 63be 2ed2 4fbe 2803 623e
00000100: dd43 61be 4708 44be 570f 5dbe fd20 36be
00000110: 6e97 533e 1f07 d1bd 1097 47be 1d7b 1ebe
00000120: 6fa2 5ebe 9bc1 41be c0dc 613e 4752 20be
00000130: 35a1 433e 8cef 3bbe 54dc 663e 4ee0 433e
00000140: 146a 5a3e f8ae 2abe d047 0ebe 3302 50be
00000150: d30f 3e3e a18a 483e d3db 263e 9f39 54be
00000160: 7b97 323e 2739 4dbe 5a99 64be 096c 53be
00000170: 800c 52be eba8 12be b7b3 67be b870 283e
00000180: 7699 50be 9987 26be ce2c 3dbe e10e 34be
00000190: 356b 4e3e eedd 32be 9d68 25be 5c6c 4fbe
000001a0: 7bdc 41be ac62 75be 0744 453e eca3 49be
000001b0: b00c 253e a56f 41be 21ea 3b3e 53ff 573e
000001c0: 0439 2c3e 6c52 1cbe 6d74 3ebe 0434 3ebe
000001d0: d5a6 1d3e 8922 2a3e ff13 233e 9593 43be
000001e0: 4192 453e 23e0 25be a60d 69be 5040 4cbe
000001f0: b809 19be 3e49 2ebe 6565 39be 86d3 643e
00000200: 23de 16be 71ab 22be 1acb 51be 5945 31be
00000210: 5763 583e adee 3bbe 07ba 47be 2a59 febd
00000220: 0f72 5fbe ecdb 36be cf39 0f3e 7927 07be
00000230: 18f7 203e 353a 5bbe 90dc 393e 4651 223e
00000240: 17c8 663e aaea 10be 8cd2 5bbe 5a4c 57be
00000250: 2b54 343e 607f 573e ce69 583e 3a0c 57be
00000260: 6179 1c3e 3ff1 64be e260 22be 3963 4cbe
00000270: 8450 43be 7816 58be 0c41 50be cf43 173e

lstm.weight_ih_l0 f4 [128, 32]
-0.14679271 -0.14373104 -0.17264777 -0.18326497 0.12407224 -0.13811113 -0.13719381 -0.16603
-0.14989609 -0.15839541 0.10628918 -0.12447249 0.17840095 -0.15370445 0.15356241 0.18123928
0.14459832 -0.14776587 -0.20102653 -0.2597318 0.12068592 0.14857112 0.14802481 -0.23770836
0.18650183 -0.111121215 -0.16090895 -0.14646822 -0.20056207 -0.19993702 -0.17257196 0.19139558
-0.20768644 -0.2042645 -0.18329374 -0.12813146 0.123635195 -0.16583061 -0.1672562 -0.13609457
-0.21694116 -0.16192034 0.16339277 -0.14310673 0.16697398 -0.23221004 0.17053449 0.18129455
0.1568374 -0.17111386 -0.18180907 -0.19768122 0.15560551 0.2092709 0.17606589 -0.26441082
0.19980077 -0.17681633 -0.18678004 -0.19350693 -0.20742223 -0.21908182 -0.22171457 0.21533778
0.10497199 0.22229512 0.14694175 0.19563541 -0.13475485 0.19449201 0.12167227 0.14863811
0.16804132 -0.21086003 -0.15351386 0.2241645 -0.10632676 0.15931822 -0.09908554 -0.13778834
-0.16050401 0.16946673 0.16545536 -0.25311232 -0.148582 -0.095469266 -0.16735119 -0.29523325
-0.21532087 0.18145703 0.118457146 0.18369615 0.09446116 0.18724276 0.14261562 -0.17861183
0.012318727 0.08589997 -0.048594594 0.0038199066 -0.023273736 0.10418924 0.020383568 0.008450257
-0.032536846 -0.19257855 -0.06277172 0.060612112 0.040728174 -0.10553018 0.10539258 0.092188336
0.01512844 -0.038590103 0.04780031 -0.28065076 -0.020327203 0.048265453 0.052184947 -0.25637615
-0.008053725 0.0252786 -0.08990528 0.016601413 -0.13461104 -0.0514336 -0.092526734 0.027078427
-0.18031487 -0.10155346 -0.17051026 -0.10110097 0.18180427 -0.14681014 -0.1747745 -0.17667472
-0.19609937 -0.23074712 0.16921519 -0.114742704 0.13988468 -0.16674988 0.14049424 0.20449045
0.14250194 -0.11860532 -0.1422445 -0.21552518 0.12545192 0.16340831 0.21283859 -0.26303
0.109601185 -0.10620808 -0.17177272 -0.1987706 -0.1682425 -0.22065498 -0.16628565 0.15919554
-0.1948849 -0.18928072 -0.15359515 -0.14808208 0.20388198 -0.12998892 -0.18077199 -0.1822189
-0.21310562 -0.20075458 0.18083496 -0.079155445 0.21660963 -0.20752788 0.15519018 0.19800688
0.1925718 -0.11358478 -0.16837485 -0.2899861 0.18179813 0.14335494 0.16412483 -0.23163518
0.17560898 -0.12684341 -0.1348746 -0.10873124 -0.19043633 -0.16702835 -0.15598944 0.19868274
0.18195099 0.16257437 0.1642467 0.16951588 -0.24911615 0.18222454 0.19952951 0.20454887
0.11992589 -0.23613165 -0.1652782 0.16183881 -0.14077318 0.18661472 -0.15202889 -0.21277969
-0.14998634 0.23623496 0.21905018 -0.17175825 -0.19868703 -0.18982683 -0.09815115 -0.2317448
-0.2137749 0.23823294 0.10677915 0.23116426 0.053675443 0.16906612 0.13582388 -0.18715295
-0.13539937 -0.14139515 -0.17778744 -0.14388956 0.20459883 -0.20254612 -0.20067234 -0.19321598
-0.21610498 -0.18293552 0.16769615 -0.17687954 0.19661628 -0.22155277 0.15463665 0.22898911
0.155175 -0.17769194 -0.20976527 -0.19805542 0.19239736 0.15438035 0.16639975 -0.21093947
0.20814924 -0.21157365 -0.16699852 -0.20653303 -0.16577256 -0.1693255 -0.19087975 0.1492089
00000000: d450 16be 3b2e 13be 94ca 30be d0a9 3bbe
00000010: 9619 fe3d 016d 0dbe 897c 0cbe c503 2abe
00000020: 5c7e 19be 6832 22be 24ae d93d 6feb febd
00000030: bdae 363e b364 1dbe 773f 1d3e ca96 393e
00000040: 9511 143e f04f 17be e6d9 4dbe 91fb 84be
00000050: 2e2a f73d 0723 183e d193 173e d269 73be
00000060: 56fa 3e3e 8593 e3bd 51c5 24be c4fb 15be
00000070: 2560 4dbe 4abc 4cbe b4b6 30be 34fd 433e
00000080: c1ab 54be b72a 51be 5bb1 3bbe e534 03be
00000090: 7334 fd3d 80cf 29be 3645 2bbe 605c 0bbe
000000a0: d325 5ebe 72ce 25be 6f50 273e 928a 12be
000000b0: 3afb 2a3e 78c8 6dbe 98a0 2e3e 47a5 393e
000000c0: fc99 203e 7938 2fbe 282c 3abe f26c 4abe
000000d0: 0d57 1f3e 1c4b 563e 9e4a 343e db60 87be
000000e0: 9398 4c3e 570f 35be 4443 3fbe ae26 46be
000000f0: 7e66 54be fc56 60be 2509 63be 8281 5c3e
00000100: 8efb d63d 55a1 633e e677 163e a654 483e
00000110: 2dfd 09be ea28 473e 502f f93d 9734 183e
00000120: 0613 2c3e b1eb 57be bd32 1dbe 618b 653e
00000130: d8c1 d9bd 5124 233e 5ced cabd 6318 0dbe
00000140: 2a5b 24be b088 2d3e 216d 293e f097 81be
00000150: e125 18be 6485 c3bd 1c5e 2bbe d028 97be
00000160: 137d 5cbe dfcf 393e a999 f23d d81a 3c3e
00000170: da74 c13d 91bc 3f3e d409 123e 05e6 36be
00000180: 7cd4 493c 53ec af3d 200b 47bd 6657 7a3b
00000190: 90a8 bebc 2b61 d53d 71fb a63c f272 0a3c
000001a0: 5b45 05bd 5033 45be 768e 80bd 6844 783d
000001b0: 96d2 263d 3520 d8bd 11d8 d73d 3dcd bc3d
000001c0: 47dd 773c a810 1ebd 42ca 433d 75b1 8fbe
000001d0: 3c85 a6bc ffb1 453d e2bf 553d bc43 83be
000001e0: c5f3 03bc 1115 cf3c 4220 b8bd b0ff 873c
000001f0: 7ad7 09be 0aac 52bd a87e bdbd 94d3 dd3c
00000200: 76a4 38be 43fb cfbd 3e9a 2ebe 060e cfbd
00000210: e62a 3a3e 6655 16be 16f8 32be 38ea 34be
00000220: 46ce 48be f948 6cbe bf46 2d3e 39fe eabd
00000230: ee3d 0f3e 7bc0 2abe b9dd 0f3e f265 513e
00000240: 07ec 113e 59e7 f2bd 8ba8 11be a2b2 5cbe
00000250: 7876 003e 8254 273e 5cf2 593e deab 86be
00000260: 9676 e03d 9f83 d9bd 30e5 2fbe 858a 4bbe
00000270: c347 2cbe 61f3 61be c946 2abe 2804 233e
00000280: e88f 47be ced2 41be 0c48 1dbe d4a2 17be
00000290: 70c6 503e d11b 05be 4b1c 39be 9797 3abe
000002a0: 5c38 5abe 9c92 4dbe cd2c 393e 401c a2bd
000002b0: eace 5d3e 3082 54be 2dea 1e3e 51c2 4a3e
000002c0: 8b31 453e 239f e8bd 756a 2cbe 0f79 94be
000002d0: 4a29 3a3e a3cb 123e 5710 283e c631 6dbe
000002e0: d7d2 333e 3de3 01be 911c 0abe 7cae debd
000002f0: be01 43be 7b09 2bbe b2bb 1fbe 7d73 4b3e
00000300: 5c51 3a3e e579 263e 4930 283e 9295 2d3e
00000310: 4e18 7fbe 1299 3a3e 7751 4c3e 4275 513e
00000320: b49b f53d 7fcc 71be b03e 29be 13b9 253e
00000330: d826 10be ee17 3f3e 76ad 1bbe ebe2 59be
00000340: 0596 19be 94e7 713e b14e 603e 65e1 2fbe
00000350: 9d74 4bbe f761 42be 7803 c9bd 824e 6dbe
00000360: cfe7 5abe 56f3 733e 07af da3d 53b6 6c3e
00000370: c8da 5b3d ab1f 2d3e 6a15 0b3e 06a5 3fbe
00000380: 22a6 0abe e4c9 10be e90d 36be c957 13be
00000390: 5b82 513e 4068 4fbe 0d7d 4dbe 69da 45be
000003a0: a04a 5dbe 7353 3bbe 8ab8 2b3e e91f 35be
000003b0: c755 493e bbde 62be 1259 1e3e 1f7c 6a3e
000003c0: 32e6 1e3e e0f4 35be b5cc 56be 0acf 4abe
000003d0: d003 453e e215 1e3e b264 2a3e 8400 58be
000003e0: 1325 553e c3a6 58be a901 2bbe 657d 53be
000003f0: 48c0 29be aa63 2dbe fb75 43be 38ca 183e

lstm.weight_hh_l0 f4 [128, 32]
-0.121948935 0.1402901 -0.29069453 0.3453518 0.16942106 -0.2086805 0.2788004 0.20019835
0.1075587 0.0010783199 -0.1140781 -0.10925246 0.321491 0.120106876 -0.14149396 0.18397601
-0.193076 0.27395085 0.2337745 -0.1941879 0.14445694 0.19190733 0.029115155 -0.11023895
0.17344189 -0.19699396 -0.19674937 -0.11051932 0.28920653 -0.31352386 -0.11675206 -0.19931918
-0.17731823 0.15475763 -0.28466463 0.27171025 0.12682101 -0.21499366 0.21795942 0.17293546
0.16903055 -7.839656e-05 -0.119328134 -0.08395629 0.30809674 0.1740205 -0.06930518 0.19449748
-0.16818963 0.28522035 0.21238148 -0.22359882 0.11624152 0.18697281 0.0065257126 -0.14115681
0.15355091 -0.21725564 -0.12085579 -0.04359721 0.2942228 -0.25728077 -0.066830635 -0.21816051
-0.15710267 0.1323508 -0.23301858 -0.010005562 0.08265729 -0.15564784 0.16819277 0.15048447
0.14393994 0.12292185 -0.13994023 0.14163817 0.21375921 0.0951014 -0.09439297 0.06977334
-0.107162 0.21145281 0.2833946 -0.1185841 0.120417856 0.14284737 0.054028787 0.061944652
0.08219867 -0.11039544 -0.07060708 -0.15547775 -0.090143494 0.03922233 -0.14711922 -0.1479699
-0.14413887 0.15310289 -0.266094 0.1984533 0.14150594 -0.18994465 0.18547039 0.1564305
0.12136859 0.12468234 -0.09462131 0.07904054 0.29973945 0.1817798 -0.15504685 0.15725765
-0.116409905 0.2675825 0.24907136 -0.14105883 0.09573151 0.19719845 0.14331076 0.033312682
0.18188089 -0.19715399 -0.09835128 -0.15757987 0.090118416 -0.18756013 -0.10253042 -0.17929137
-0.16550659 0.17598455 -0.24696036 0.33479387 0.18808684 -0.15492086 0.21160838 0.13092095
0.15051821 -0.013258823 -0.1363326 -0.086008266 0.31123492 0.17041303 -0.04470257 0.13018169
-0.16591 0.18990241 0.26799852 -0.12085586 0.12411514 0.15596318 -0.06251366 -0.0668862
0.108224675 -0.22820182 -0.14201874 -0.08169766 0.25537968 -0.26297563 -0.1376818 -0.15773581
-0.20581026 0.23393309 -0.21414629 0.24885342 0.15400416 -0.20233612 0.25570616 0.17502703
0.10043937 0.0052712704 -0.054115668 -0.09039223 0.31896198 0.13003355 -0.06359039 0.105188124
-0.15134723 0.23286259 0.22901833 -0.14737692 0.067333475 0.23061796 -0.059978798 -0.16124566
0.14379327 -0.16024393 -0.1876539 -0.02723168 0.25091618 -0.30357486 -0.09338466 -0.1716191
-0.005157474 -0.037561078 -0.231713 0.08313977 -0.0005526443 0.00842737 0.19479565 0.03238633
-0.061419435 -0.034437634 -0.0031644471 0.0072824517 0.08120389 -0.05050219 0.040313207 0.037437942
0.0005759845 0.13155471 0.21274541 0.015565615 -0.054882105 0.030688949 -0.055977322 -0.029024027
-0.05126631 -0.02501786 0.031422902 0.025013363 0.011674453 -0.055544183 0.0032907624 -0.03158494
-0.1976117 0.15864985 -0.2629219 0.25094664 0.10761456 -0.17140739 0.20995785 0.20421693
0.09387209 0.041558832 -0.12856388 -0.03567842 0.2452505 0.22287308 -0.018486112 0.18454535
-0.23533109 0.19617948 0.21755226 -0.18217345 0.05880893 0.16633724 0.016606472 -0.09991732
0.11999335 -0.15114592 -0.19643112 -0.07536161 0.21719201 -0.3528895 -0.07842252 -0.12925746
00000000: 5dc0 f9bd 35a8 0f3e ead5 94be f3d1 b03e
00000010: b77c 2d3e 57b0 55be edbe 8e3e cc00 4d3e
00000020: bc47 dc3d 6956 8d3a c7a1 e9bd c1bf dfbd
00000030: 789a a43e 98fa f53d cbe3 10be 3564 3c3e
00000040: b7b5 45be 4943 8c3e 9562 6f3e 31d9 46be
00000050: 85ec 133e 5b83 443e e882 ee3c f5c4 e1bd
00000060: c09a 313e c9b8 49be ab78 49be f457 e2bd
00000070: e112 943e 3386 a0be b41b efbd 541a 4cbe
00000080: e992 35be c978 1e3e 90bf 91be 9b1d 8b3e
00000090: 5edd 013e 4c27 5cbe c130 5f3e fe15 313e
000000a0: 5816 2d3e d568 a4b8 4f62 f4bd 46f1 abbd
000000b0: dbbe 9d3e 6e32 323e e0ef 8dbd 592a 473e
000000c0: e739 2cbe 6708 923e 887a 593e 17f7 64be
000000d0: 0910 ee3d cd75 3f3e a5d5 d53b 698b 10be
000000e0: 733c 1d3e 4378 5ebe 3e83 f7bd fd92 32bd
000000f0: 5fa4 963e 4eba 83be 80de 88bd 7865 5fbe
00000100: 86df 20be f886 073e 6c9c 6ebe 5eee 23bc
00000110: 3a48 a93d 2662 1fbe ba3a 2c3e 9a18 1a3e
00000120: fe64 133e 73be fb3d 7e4c 0fbe 9909 113e
00000130: b2e3 5a3e 86c4 c23d 1a51 c1bd 53e5 8e3d
00000140: c077 dbbd 1687 583e 1919 913e 38dc f2bd
00000150: a39d f63d 9546 123e 4a4d 5d3d adb9 7d3d
00000160: c757 a83d 0117 e2bd 729a 90bd 8f35 1fbe
00000170: 279d b8bd 98a7 203d 6ca6 16be 6c85 17be
00000180: 2499 13be 01c7 1c3e 793d 88be 5837 4b3e
00000190: efe6 103e da80 42be f3eb 3d3e 512f 203e
000001a0: 1890 f83d 7459 ff3d d1c8 c1bd 02e0 a13d
000001b0: 7377 993e 7c24 3a3e 9ac4 1ebe 2608 213e
000001c0: 5168 eebd 9300 893e 900c 7f3e ba71 10be
000001d0: e20e c43d 64ee 493e 0ec0 123e e172 083d
000001e0: fc3e 3a3e bce2 49be 656c c9bd 9e5c 21be
000001f0: 0190 b83d c30f 40be 78fb d1bd 2898 37be
00000200: 8f7a 29be 4b35 343e 2de3 7cbe 1a6a ab3e
00000210: d699 403e 93a3 1ebe deaf 583e 2410 063e
00000220: 7221 1a3e 893b 59bc c69a 0bbe 1a25 b0bd
00000230: 2f5a 9f3e c180 2e3e 0b1a 37bd 594e 053e
00000240: 50e4 29be c775 423e 1a37 893e 4783 f7bd
00000250: 1430 fe3d d0b4 1f3e 2907 80bd a2fb 88bd
00000260: e6a4 dd3d bdad 69be 5c6d 11be 1a51 a7bd
00000270: 20c1 823e bea4 86be 75fc 0cbe 7f85 21be
00000280: edbf 52be 288c 6f3e 2a49 5bbe 6ed3 7e3e
00000290: 44b3 1d3e 3331 4fbe ebeb 823e 493a 333e
000002a0: 28b3 cd3d 9fba ac3b 64a8 5dbd 901f b9bd
000002b0: fc4e a33e 8427 053e ae3b 82bd df6c d73d
000002c0: c5fa 1abe 8873 6e3e c883 6a3e fae9 16be
000002d0: 22e6 893d 1d27 6c3e 54ac 75bd 951d 25be
000002e0: 8b3e 133e fc16 24be 5828 40be f914 dfbc
000002f0: 1678 803e 2a6e 9bbe 7540 bfbd ebbc 2fbe
00000300: 0700 a9bb a5d9 19bd 2c46 6dbe 2f45 aa3d
00000310: 55df 10ba f412 0a3c 8378 473e 87a7 043d
00000320: f292 7bbd 7a0e 0dbd 9d62 4fbb a2a1 ee3b
00000330: 3a4e a63d 62db 4ebd 761f 253d 8758 193d
00000340: aafd 163a 47b6 063e efd9 593e ec06 7f3c
00000350: 0fcc 60bd 6467 fb3c 7a48 65bd ccc3 edbc
00000360: 9ffc 51bd 41f2 ccbc 4db5 003d d3e8 cc3c
00000370: 3446 3f3c 4c82 63bd d5a9 573b 365f 01bd
00000380: b95a 4abe 1b75 223e b39d 86be 147c 803e
00000390: 0665 dc3d 6b85 2fbe 31ff 563e 3e1e 513e
000003a0: 0340 c03d 9839 2a3d 40a6 03be 8923 12bd
000003b0: f222 7b3e d738 643e 3070 97bc 75f9 3c3e
000003c0: a2fa 70be 46e3 483e 05c6 5e3e ad8b 3abe
000003d0: a2e1 703d 4f54 2a3e 4c0a 883c 74a1 ccbd
000003e0: 13bf f53d ffc5 1abe 3d25 49be 3057 9abd
000003f0: 9567 5e3e efad b4be fc9b a0bd 115c 04be

lstm.bias_ih_l0 f4 [128]
0.22220138 0.23622671 0.22600445 0.22325146 0.2537719 0.24485058 0.21124735 0.18597859
0.17342028 0.2520376 0.23809119 0.18452989 0.25469345 0.20317912 0.25947195 0.17009942
0.19667043 0.20263328 0.18969591 0.18879369 0.23610197 0.20710419 0.22047713 0.24102004
0.17332065 0.22562659 0.22492293 0.21087645 0.27201894 0.19670108 0.20932908 0.23128295
-0.11754378 -0.14332321 -0.23823442 -0.16187872 -0.12639983 -0.16723844 0.1719041 -0.115254015
-0.15967554 -0.19496702 -0.15684205 -0.103699975 -0.16768195 -0.2190713 -0.14302054 -0.14156236
-0.16507263 0.14602116 -0.17249528 -0.17133203 -0.0943384 -0.12401404 -0.13912874 -0.15734603
-0.11877916 -0.06948329 -0.15064093 -0.11412788 -0.24369353 -0.18161504 -0.15891291 -0.12395279
-0.15519027 0.13902615 -0.10798528 0.024440994 0.14312768 -0.16236876 0.18225558 0.16016704
0.09224961 0.071771726 -0.15601252 0.032785047 0.11167955 0.14069518 -0.10388409 0.14601685
-0.14010878 0.15969369 0.10659089 -0.08811283 0.12325734 0.12980503 0.07138525 0.09260358
0.12049452 -0.108819455 -0.12640983 -0.12832452 -0.06655937 0.015409334 -0.14284295 -0.15800458
0.2298761 0.23327154 0.21541294 0.19076839 0.20227492 0.21627606 0.22482091 0.2558909
0.18391617 0.24892312 0.19301505 0.22906074 0.27444005 0.24230291 0.24692756 0.24764688
0.2523249 0.15366207 0.2293396 0.20232506 0.27115887 0.2542279 0.20957837 0.21367706
0.26636654 0.19531848 0.24753988 0.26443255 0.19926134 0.26319155 0.22212504 0.21995744
00000000: c288 633e 6ae5 713e b66d 673e 089c 643e
00000010: 64ee 813e 1cba 7a3e 3a51 583e 2c71 3e3e
00000020: 1695 313e 130b 813e 2dce 733e 67f5 3c3e
00000030: 2e67 823e 300e 503e 82d9 843e 8b2e 2e3e
00000040: f963 493e 197f 4f3e a53f 423e 2253 413e
00000050: b7c4 713e 1f13 543e c2c4 613e f5cd 763e
00000060: f87a 313e a80a 673e 3252 663e ffef 573e
00000070: 1146 8b3e 026c 493e 5d5a 563e 70d5 6c3e
00000080: cbba f0bd 52c3 12be b9f3 73be 89c3 25be
00000090: f56e 01be 8e40 2bbe a107 303e 4c0a ecbd
000000a0: fc81 23be 6fa5 47be 349b 20be a760 d4bd
000000b0: d1b4 2bbe 3a54 60be fa73 12be b9f5 10be
000000c0: cd08 29be 9286 153e 9aa2 30be aa71 2fbe
000000d0: 7e34 c1bd 13fb fdbd c477 0ebe 511f 21be
000000e0: 7d42 f3bd 414d 8ebd 9e41 1abe e1bb e9bd
000000f0: cc8a 79be 4bf9 39be 11ba 22be f6da fdbd
00000100: 33ea 1ebe df5c 0e3e 6327 ddbd 7b38 c83c
00000110: 1090 123e ff43 26be 35a1 3a3e d402 243e
00000120: 5ded bc3d 0efd 923d bfc1 1fbe 9d49 063d
00000130: 3fb8 e43d 6612 103e 2fc1 d4bd 7185 153e
00000140: ad78 0fbe be86 233e 534c da3d 8074 b4bd
00000150: 586e fc3d 9ceb 043e 6e32 923d f2a6 bd3d
00000160: d5c5 f63d bcdc debd 9471 01be 8167 03be
00000170: 4750 88bd 6e77 7c3c 6c45 12be f4cb 21be
00000180: a464 6b3e bcde 6e3e 3695 5c3e ca58 433e
00000190: 2821 4f3e 7977 5d3e 7437 663e 2204 833e
000001a0: 8554 3c3e b4e5 7e3e bda5 453e e68e 6a3e
000001b0: 6883 8c3e 411e 783e 94da 7c3e 2597 7d3e
000001c0: bb30 813e 9759 1d3e 00d8 6a3e 4d2e 4f3e
000001d0: 56d5 8a3e 292a 823e b69b 563e 29ce 5a3e
000001e0: 3261 883e 9101 483e 187b 7d3e b463 873e
000001f0: 2a0b 4c3e 0bc1 863e bf74 633e 863c 613e

lstm.bias_hh_l0 f4 [128]
0.2501766 0.19089653 0.16117631 0.20325808 0.2124439 0.170902 0.14140625 0.24974015
0.18438812 0.22161601 0.2190191 0.19261715 0.20383647 0.17311902 0.19372433 0.18895634
0.19481 0.18980451 0.17690966 0.25343364 0.25874132 0.19948456 0.22875008 0.26817217
0.25110456 0.16325384 0.24835217 0.18079087 0.2649618 0.24073826 0.19438285 0.1787226
-0.13673608 -0.08946311 -0.2318871 -0.21070638 -0.08744295 -0.12884994 0.09672411 -0.0682275
-0.16317223 -0.15223609 -0.12547755 -0.1637277 -0.19645062 -0.19657922 -0.15173988 -0.12458754
-0.10909147 0.15728508 -0.20776428 -0.13353962 -0.19127227 -0.16294327 -0.14918345 -0.12117819
-0.09443598 -0.15343294 -0.14973956 -0.10875652 -0.1722524 -0.228808 -0.10856904 -0.15119526
-0.14709854 0.115041204 -0.14809377 -0.022975843 0.13261484 -0.081975035 0.18333873 0.10247927
0.13126591 0.12819438 -0.07275843 0.12914594 0.04762734 0.07548898 -0.14063494 0.093741834
-0.1553861 0.15886003 0.14723217 -0.16045123 0.12139589 0.13548961 0.11905563 0.076234765
0.112076744 -0.14935778 -0.14347109 -0.0910417 -0.016345507 -0.06369925 -0.0952636 -0.097899385
0.25084317 0.18848558 0.23736767 0.24668919 0.18858366 0.22066754 0.18484648 0.2531367
0.24871716 0.27095968 0.20945537 0.18881944 0.18071052 0.15893099 0.2506676 0.22262679
0.20534979 0.22896805 0.21691115 0.18450119 0.19433145 0.25218058 0.23182982 0.24619938
0.18012531 0.24897602 0.22047853 0.19962607 0.2708423 0.21751945 0.20540322 0.21989009
00000000: 2617 803e 617a 433e 670b 253e e322 503e
00000010: e58a 593e ef00 2f3e cdcc 103e e2bb 7f3e
00000020: 3dd0 3c3e 4fef 623e 8b46 603e 6e3d 453e
00000030: 82ba 503e 1d46 313e ac5f 463e c57d 413e
00000040: 467c 473e 1d5c 423e ce27 353e 0ec2 813e
00000050: be79 843e ae45 4c3e 763d 6a3e dd4d 893e
00000060: c790 803e 042c 273e 0850 7e3e 3e21 393e
00000070: 13a9 873e 1784 763e 4c0c 473e 0f03 373e
00000080: 8b04 0cbe 6f38 b7bd d073 6dbe 6ac3 57be
00000090: 4a15 b3bd 3df1 03be 4a17 c63d dcba 8bbd
000000a0: 9f16 27be c7e3 1bbe 307d 00be 3ca8 27be
000000b0: 5a2a 49be 104c 49be b361 1bbe c127 ffbd
000000c0: 596b dfbd 570f 213e 29c0 54be 9cbe 08be
000000d0: e1dc 43be 9ada 26be 8cc3 18be 452c f8bd
000000e0: a767 c1bd 861d 1dbe 5455 19be bdbb debd
000000f0: ef62 30be a54c 6abe 7259 debd eed2 1abe
00000100: 00a1 16be b99a eb3d e5a5 17be d637 bcbc
00000110: 2fcc 073e 87e2 a7bd 26bd 3b3e a7e0 d13d
00000120: 926a 063e 6345 033e 5f02 95bd d53e 043e
00000130: e314 433d f799 9a3d 9b02 10be b8fb bf3d
00000140: 891d 1fbe 34ac 223e 08c4 163e 544d 24be
00000150: 699e f83d cabd 0a3e 70d3 f33d f920 9c3d
00000160: 7e88 e53d 3ff1 18be 16ea 12be 1274 babd
00000170: 03e7 85bc c174 82bd 9019 c3bd 797f c8bd
00000180: 846e 803e 5d02 413e 8310 733e 179c 7c3e
00000190: 131c 413e acf6 613e 6548 3d3e 229b 813e
000001a0: b6af 7e3e 3abb 8a3e 787b 563e e259 413e
000001b0: 2e0c 393e cebe 223e 8157 803e 47f8 633e
000001c0: 3747 523e 9a76 6a3e f51d 5e3e e1ed 3c3e
000001d0: d3fe 463e d01d 813e cc64 6d3e b11b 7c3e
000001e0: c572 383e 92f3 7e3e 20c5 613e c76a 4c3e
000001f0: d8ab 8a3e 6bbd 5e3e 3955 523e de2a 613e

lin.weight f4 [5, 32]
-0.24214764 0.23290654 0.24731602 -0.23678057 0.20153925 -0.23444505 -0.06665093 0.21741505
0.21838182 0.24009164 -0.22486359 0.20305717 -0.25239933 0.1874584 -0.24191101 0.23688677
-0.19239517 -0.08759112 -0.24754462 -0.23395957 0.19439122 0.2025782 0.23788422 0.25305057
0.23261604 -0.23428757 -0.22977108 -0.2092306 -0.24683085 0.23503779 -0.23317814 -0.21562764
0.17852958 -0.20609134 -0.14519067 0.18685593 -0.19889878 0.16175587 0.036483385 -0.20427255
-0.21739115 -0.23395526 0.1818438 -0.17689839 0.20178121 -0.2142076 0.13520636 -0.17182046
0.20662405 -0.044384077 0.18400082 0.20936012 -0.22323975 -0.1742861 -0.15141968 -0.2209356
-0.15722376 0.20090863 0.217087 0.2113383 0.19463685 -0.21056613 0.21494937 0.16688289
0.14189269 -0.22428553 -0.18807851 0.18527497 -0.20709294 0.23472525 -0.075822175 -0.20647548
-0.15380253 -0.15429781 0.17421412 -0.24031627 0.16234139 -0.16444622 0.14800762 -0.15893161
0.20917441 -0.054946274 0.1445404 0.17182256 -0.23805802 -0.22354048 -0.2335326 -0.18491337
-0.16758932 0.23859149 0.20365436 0.16103983 0.24684097 -0.2189223 0.1866101 0.24391179
0.20698346 -0.2383361 -0.17363687 0.1645323 -0.1637335 0.18841124 0.006133321 -0.19401297
-0.16485594 -0.2232564 0.18192646 -0.22867148 0.1837885 -0.24774139 0.16924526 -0.15735862
0.1734405 -0.07576479 0.19765127 0.1630095 -0.16447285 -0.2471241 -0.18590213 -0.19247982
-0.20735136 0.22881286 0.16246255 0.22391641 0.25326097 -0.17798664 0.167008 0.15470682
0.16702524 -0.16369808 -0.20199388 0.23345806 -0.21552613 0.16223899 -0.045170944 -0.1415079
-0.15650013 -0.17141762 0.18213579 -0.22481364 0.14548013 -0.17022814 0.21544486 -0.19434203
0.2377103 -0.067936696 0.20531303 0.23127098 -0.20037845 -0.16652288 -0.23406374 -0.16712743
-0.21240063 0.2037134 0.21257584 0.19642554 0.18680133 -0.14027931 0.21701062 0.21423796
00000000: 8df5 77be 0d7f 6e3e 6940 7d3e 9b76 72be
00000010: 4e60 4e3e 5d12 70be 4880 88bd 0da2 5e3e
00000020: 7c9f 5f3e 95da 753e a442 66be 38ee 4f3e
00000030: 7c3a 81be 18f5 3f3e 85b7 77be 7292 723e
00000040: 3d03 45be f962 b3bd 567c 7dbe 1993 6fbe
00000050: 7e0e 473e a970 4f3e ec97 733e d88f 813e
00000060: e632 6e3e 15e9 6fbe 1c49 6bbe 8c40 56be
00000070: 3ac1 7cbe bfad 703e 40c6 6ebe 7ecd 5cbe
00000080: 75d0 363e 9c09 53be ddac 14be 2957 3f3e
00000090: 1fac 4bbe 55a3 253e 9a6f 153d d32c 51be
000000a0: c99b 5ebe f891 6fbe 4335 3a3e da24 35be
000000b0: bc9f 4e3e 3d59 5bbe 8973 0a3e b4f1 2fbe
000000c0: 4195 533e 14cc 35bd b66a 3c3e 8062 563e
000000d0: f698 64be 0e78 32be c30d 1bbe f13c 62be
000000e0: 44ff 20be feba 4d3e 0e4c 5e3e 1169 583e
000000f0: e24e 473e a69e 57be b01b 5c3e 59e3 2a3e
00000100: 514c 113e 1bab 65be a797 40be b9b8 3d3e
00000110: 2c10 54be d15b 703e a848 9bbd 4f6e 53be
00000120: 697e 1dbe 3f00 1ebe 3065 323e 7815 76be
00000130: d23c 263e 9764 28be 4f8f 173e f8be 22be
00000140: d131 563e 580f 61bd 6602 143e 41f2 2f3e
00000150: 7bc5 73be cce7 64be 2b23 6fbe ee59 3dbe
00000160: 899c 2bbe 5451 743e c58a 503e a0e7 243e
00000170: e1c3 7c3e 2b2d 60be b816 3f3e 03c4 793e
00000180: 79f3 533e 610e 74be ddcd 31be 287b 283e
00000190: c1a9 27be e0ee 403e 07fa c83b 56ab 46be
000001a0: ffcf 28be 539d 64be ee4a 3a3e db28 6abe
000001b0: 0d33 3c3e ebaf 7dbe a14e 2d3e 9e22 21be
000001c0: 639a 313e 922a 9bbd 1865 4a3e f6eb 263e
000001d0: 926b 28be 1a0e 7dbe 215d 3ebe 6e19 45be
000001e0: ea53 54be eb4d 6a3e 955c 263e 584a 653e
000001f0: 6cab 813e 2142 36be 2504 2b3e 776b 1e3e
00000200: aa08 2b3e 78a0 27be 7cd7 4ebe a10f 6f3e
00000210: e2b2 5cbe fa21 263e 2b05 39bd 72e7 10be
00000220: 9241 20be 1a88 2fbe ce81 3a3e 8c35 66be
00000230: bef8 143e 4950 2ebe 949d 5c3e 9901 47be
00000240: 546a 733e 6522 8bbd 943d 523e 4dd2 6c3e
00000250: 0230 4dbe f984 2abe 68ae 6fbe 7423 2bbe
00000260: 8d7f 59be 3f9a 503e 7bad 593e c723 493e
00000270: d948 3f3e 61a5 0fbe 0838 5e3e 3261 5b3e

lin.bias f4 [5]
0.07438505 -0.06320974 -0.021789182 -0.030654037 -0.024244683
00000000: 3057 983d 1c74 81bd 3a7f b2bc 2d1e fbbc
00000010: c99c c6bc
