checkpoints/MLE_space_False_length_15_preTrainG_epoch_131.pth (torch_old, 36090 bytes, 7 tensors)

emb.weight f4 [5, 32]
0	0x3dd7fef7	0.105466776
1	0x3e7ba1e6	0.24573478
2	0x3d8bf5f1	0.06834019
3	0x3e89c634	0.2690903
4	0xbe582585	-0.21108063
5	0x3e747095	0.23871072
6	0x3e222d22	0.1583753
7	0x3c7a96e2	0.015294762
8	0x3d5b8ee4	0.053603068
9	0x3d22b562	0.03972376
10	0xbe8c9538	-0.27457595
11	0x3d18e5ec	0.037328646
12	0xbe389729	-0.18026413
13	0x3da65094	0.08120838
14	0xbd6af196	-0.0573593
15	0xbdf8c068	-0.121460736
16	0xbd5fa477	-0.054600205
17	0x3de62c4b	0.11238917
18	0x3de9a819	0.11409015
19	0x3da49ee7	0.08038121
20	0xbe02288a	-0.12710777
21	0xbd2e00a0	-0.042481065
22	0xbcd8c599	-0.02646141
23	0x3cca1397	0.024667544
24	0xbe7b5fe8	-0.24548304
25	0x3e735319	0.23762168
26	0xbc11533b	-0.008869941
27	0x3e26dcb3	0.16295128
28	0x3b409848	0.0029387642
29	0x3d579a0a	0.052637137
30	0x3d8c550b	0.06852158
31	0xbdc7a1d3	-0.097476624
32	0xbeb10557	-0.34574386
33	0x3e31e9a8	0.17374289
34	0xbeb4f4ba	-0.35342962
35	0xbe8a428e	-0.27003902
36	0x3eb531af	0.35389468
37	0x3e14fe34	0.14550096
38	0xbeb3167a	-0.34978086
39	0x3e7c18b3	0.24618797
40	0xbe91af2b	-0.28453955
41	0xbe8bad50	-0.27280664
42	0x3e69b80f	0.22824119
43	0x3e775186	0.24152192
44	0x3eb27bfc	0.34860218
45	0xbe9ec37d	-0.3100852
46	0x3eafd2fd	0.3434066
47	0x3ea48412	0.32132012
48	0x3e858e48	0.26085114
49	0xbebb8d57	-0.3663127
50	0xbea1deb9	-0.31615236
51	0xbe966601	-0.29374698
52	0x3eb7d735	0.35906377
53	0x3ead41cc	0.33839262
54	0x3ea66851	0.32501462
55	0xbe8ea54a	-0.2786048
56	0x3debf16b	0.11520656
57	0x3e2b1b76	0.16709694
58	0xbe8adab8	-0.27119994
59	0xbe976406	-0.295685
60	0xbe88cab1	-0.2671714
61	0xbeaedb46	-0.34151667
62	0xbeabf566	-0.33585662
63	0x3eb63bfc	0.3559264
64	0xbeb8d08d	-0.36096612
65	0x3e0134a4	0.12617737
66	0xbeb1588d	-0.3463787
67	0xbe6c656e	-0.23085567
68	0x3ebafa8c	0.36519277
69	0x3e6cfced	0.23143359
70	0xbeb154b3	-0.34634933
71	0x3e8e0dd4	0.27744925
72	0xbeb011c1	-0.34388545
73	0xbe94b742	-0.29046065
74	0x3e8e074b	0.2773994
75	0x3e832b5e	0.25619024
76	0x3eb45889	0.35223797
77	0xbea247fb	-0.31695542
78	0x3eb5a146	0.35474604
79	0x3eaa97cf	0.33318946
80	0x3ea9db20	0.33174992
81	0xbe9c7eb1	-0.30565408
82	0xbe8e3971	-0.277782
83	0xbea63285	-0.32460418
84	0x3ea5b07f	0.32361218
85	0x3ea1a1c3	0.31568727
86	0x3e8c3cde	0.27390188
87	0xbea23385	-0.3167993
88	0x3de1f753	0.110335015
89	0x3de82080	0.11334324
90	0xbea86d79	-0.3289602
91	0xbeb6fce8	-0.35739827
92	0xbe983081	-0.29724506
93	0xbe8558c3	-0.26044282
94	0xbeb76539	-0.35819414
95	0x3e98e08b	0.29858813
96	0xbeb2e23a	-0.34938222
97	0x3e2b5e43	0.16735177
98	0xbea3e1da	-0.3200825
99	0xbe6a674f	-0.22890972
100	0x3ebab894	0.36468947
101	0x3e306834	0.1722725
102	0xbea2776c	-0.31731737
103	0x3e7796bf	0.24178599
104	0xbea48c5c	-0.32138336
105	0xbeb1a9ce	-0.34699863
106	0x3e7f7831	0.24948193
107	0x3e6ab1cd	0.22919388
108	0x3ea705c4	0.32621586
109	0xbea7e2a8	-0.32790112
110	0x3ea2ea66	0.31819457
111	0x3eb6fd00	0.357399
112	0x3e95d247	0.2926199
113	0xbe97d713	-0.29656276
114	0xbea8c66f	-0.32963893
115	0xbe9f95b8	-0.31168914
116	0x3e9826ee	0.297172
117	0x3e9577b1	0.2919288
118	0x3e8da1e0	0.27662563
119	0xbe9c7913	-0.30561122
120	0x3e048f21	0.12945224
121	0x3e28965d	0.16463609
122	0xbeae2524	-0.3401271
123	0xbeb5b31b	-0.3548821
124	0xbe7ed751	-0.24886824
125	0xbe964b54	-0.29354346
126	0xbea2f056	-0.31823987
127	0x3eb9b45b	0.36270413
128	0xbe939c45	-0.28830162
129	0x3e29da83	0.16587262
130	0xbeacb53c	-0.3373202
131	0xbe66efd0	-0.22552419
132	0x3ebc9792	0.3683439
133	0x3e23a8f9	0.15982427
134	0xbeb09c09	-0.34494045
135	0x3ea64762	0.32476336
136	0xbeb0b4bb	-0.34512886
137	0xbe8f7ba0	-0.28024006
138	0x3e48f24a	0.19623676
139	0x3e953957	0.2914531
140	0x3ea20cff	0.3165054
141	0xbeb2eaea	-0.3494485
142	0x3e9f560c	0.31120336
143	0x3e993eed	0.2993082
144	0x3eb060dc	0.34448898
145	0xbe8fbe1a	-0.28074723
146	0xbeb5252a	-0.35379916
147	0xbea9d333	-0.33168945
148	0x3ea10320	0.31447697
149	0x3ea98492	0.33108956
150	0x3ea589b4	0.32331622
151	0xbea39795	-0.31951585
152	0x3db736f5	0.08946029
153	0x3dce704f	0.10080015
154	0xbe87e733	-0.26543579
155	0xbeb368f0	-0.35040998
156	0xbe91080f	-0.2832646
157	0xbea88fbf	-0.3292217
158	0xbeabdc38	-0.3356645
159	0x3e907f51	0.28222135

lstm.weight_ih_l0 f4 [128, 32]
0	0xbe5ff019	-0.21868934
1	0x3e592fbc	0.21209615
2	0xbe70c847	-0.235139
3	0xbd876723	-0.06611469
4	0x3e42a530	0.19008327
5	0x3e710262	0.23536065
6	0xbe537500	-0.206501
7	0x3e71c330	0.23609614
8	0xbe5fc1aa	-0.2185122
9	0xbe4baacb	-0.19889371
10	0xbc922f74	-0.017844893
11	0x3e8f2472	0.27957493
12	0x3e752ed5	0.23943646
13	0xbe5f4e12	-0.21807125
14	0x3e62479e	0.22097632
15	0x3e7b739b	0.24555819
16	0x3e5a9e12	0.21349362
17	0xbe5be723	-0.2147489
18	0xbe8e21e6	-0.27760237
19	0xbe8572ae	-0.26064056
20	0x3e483910	0.19553018
21	0x3e5d0018	0.21582067
22	0x3e5be4d0	0.21474004
23	0xbe798f6a	-0.24371114
24	0xbd3e2e6a	-0.046430983
25	0x3e57f3f2	0.21089152
26	0xbe656fd5	-0.22405942
27	0xbe627e27	-0.22118436
28	0xbe90e1a7	-0.2829716
29	0xbe892c54	-0.26791632
30	0xbe77e78a	-0.24209419
31	0x3e867970	0.26264524
32	0xbea244d2	-0.3169313
33	0x3e017ca1	0.12645198
34	0xbe853008	-0.26013207
35	0xbcf2e300	-0.029649258
36	0x3e932c61	0.28744796
37	0x3e32346c	0.1740281
38	0xbe9fecd3	-0.3123537
39	0x3e8165c5	0.25272956
40	0xbe975b45	-0.2956182
41	0xbe5085d7	-0.20363556
42	0x3d83f449	0.06443078
43	0x3e71f990	0.23630357
44	0x3ea065a2	0.3132754
45	0xbea4373b	-0.32073388
46	0x3e7efd5d	0.24901338
47	0x3e97d177	0.29651996
48	0x3e6b3fb1	0.22973515
49	0xbe94b744	-0.2904607
50	0xbe9c81df	-0.30567834
51	0xbe617a6c	-0.22019356
52	0x3e8fcf4a	0.28087837
53	0x3e8fe20d	0.2810215
54	0x3e77e089	0.24206747
55	0xbe892f17	-0.2679374
56	0xbce4080c	-0.027835868
57	0x3df57816	0.11985795
58	0xbe76133a	-0.24030772
59	0xbea831b4	-0.3285042
60	0xbe8caefe	-0.27477258
61	0xbe976a0f	-0.29573104
62	0xbe9d91b9	-0.3077524
63	0x3ea3ad0e	0.31967968
64	0xbe62563c	-0.22103208
65	0x3ea208ca	0.3164733
66	0xbe1a45d0	-0.15065694
67	0x3e8d7944	0.2763158
68	0x3e5399ba	0.20664111
69	0x3e90b75e	0.28264898
70	0xbe6071d1	-0.21918418
71	0x3e35f74c	0.17770118
72	0xbe1f97f8	-0.15585315
73	0xbe212a6b	-0.15738837
74	0xbe64ae61	-0.22332145
75	0x3e835a37	0.25654766
76	0x3e528c3f	0.20561312
77	0xbe144a64	-0.14481503
78	0x3e622ff6	0.22088608
79	0x3e2cd332	0.1687744
80	0x3e159ca1	0.1461053
81	0xbe154c56	-0.14579901
82	0xbe2eb78e	-0.17062208
83	0xbe2c9952	-0.16855362
84	0x3e4729ed	0.19449587
85	0x3e6e9b27	0.23301373
86	0x3e26b12f	0.16278528
87	0xbe7141cd	-0.23560257
88	0xbea997f3	-0.3312374
89	0x3e903d41	0.28171733
90	0xbe3bd046	-0.18341169
91	0xbe340494	-0.17579871
92	0xbe34ed04	-0.1766854
93	0xbe130d8a	-0.14360633
94	0xbe3443f8	-0.17604053
95	0x3e1549c1	0.14578916
96	0xbddd922f	-0.10818898
97	0x3e73b73d	0.23800369
98	0xbe40917b	-0.18805496
99	0xbe0c7a9e	-0.1371865
100	0x3e377d16	0.1791881
101	0x3e872551	0.26395658
102	0xbe1fc198	-0.15601194
103	0x3e63c77f	0.2224407
104	0xbe73006f	-0.23730634
105	0xbe7f97de	-0.24960276
106	0x3da923b1	0.08258761
107	0x3e7dcc34	0.24784929
108	0x3e51d299	0.20490493
109	0xbe3f1fd5	-0.18664487
110	0x3e965a5a	0.29365808
111	0x3e4bde60	0.19909048
112	0x3e585915	0.21127732
113	0xbe37230c	-0.17884463
114	0xbdf499c6	-0.119433925
115	0xbe089c21	-0.13340808
116	0x3e24092b	0.16019122
117	0x3e8558eb	0.26044402
118	0x3e894d11	0.2681661
119	0xbe8002cc	-0.25002134
120	0xbd49ef8a	-0.049300708
121	0x3e131ae5	0.14365728
122	0xbe856892	-0.26056343
123	0xbe460651	-0.19338347
124	0xbe9eb4f0	-0.3099742
125	0xbe8a445a	-0.27005273
126	0xbe6f7092	-0.23382786
127	0x3e13d92b	0.14438312
128	0xbe91d49c	-0.2848252
129	0x3e619d0c	0.22032565
130	0xbe781728	-0.24227583
131	0xbc024105	-0.007950072
132	0x3eaed5b4	0.34147418
133	0x3e3e76fb	0.18600075
134	0xbea17cbb	-0.31540474
135	0x3e4aea4c	0.1981594
136	0xbe8abf76	-0.27099198
137	0xbe856d8b	-0.26060137
138	0x3da226b5	0.07917539
139	0x3e7c8d6f	0.24663328
140	0x3e91fcf8	0.28513312
141	0xbe8079c6	-0.25092906
142	0x3e5bd31d	0.21467252
143	0x3ea0d8e4	0.31415474
144	0x3e5908b3	0.21194725
145	0xbe686eca	-0.22698513
146	0xbe86ddba	-0.2634104
147	0xbe65800d	-0.22412129
148	0x3e81579d	0.25262156
149	0x3e6d8da8	0.23198569
150	0x3e8d8b6d	0.27645436
151	0xbe8204c1	-0.25394252
152	0xbdeb98bb	-0.115037404
153	0x3e40c8b6	0.18826565
154	0xbe612a20	-0.21988726
155	0xbeada8fe	-0.33917993
156	0xbe6932b5	-0.2277325
157	0xbe970a61	-0.29500106
158	0xbe7d7771	-0.24752595
159	0x3e84ca1d	0.2593545
160	0xbea3ee68	-0.32017827
161	0x3e16a116	0.14709887
162	0xbe7bc106	-0.24585351
163	0xbd377669	-0.04479066
164	0x3ebbe6cd	0.36699525
165	0x3e5d75b6	0.21626934
166	0xbea98edb	-0.33116803
167	0x3e55d149	0.20880617
168	0xbe9f5419	-0.3111885
169	0xbe834a3a	-0.25642568
170	0x3da86be0	0.082237005
171	0x3e9b38df	0.30316827
172	0x3ebc90bb	0.3682917
173	0xbe9ecd4e	-0.3101601
174	0x3e814045	0.25244346
175	0x3ea55d0d	0.32297555
176	0x3e937f35	0.2880799
177	0xbe74a67a	-0.23891631
178	0xbe9b75e8	-0.30363393
179	0xbea303c5	-0.31838813
180	0x3ea4ef71	0.3221393
181	0x3e6e976f	0.23299955
182	0x3e7e84e2	0.24855378
183	0xbe800e9e	-0.25011152
184	0xbd4ea366	-0.050448798
185	0x3e2b34f5	0.1671942
186	0xbe5a704b	-0.21331899
187	0xbe842eef	-0.25817057
188	0xbe8ca7e5	-0.27471843
189	0xbe856206	-0.26051348
190	0xbe83ecc8	-0.25766587
191	0x3ea1d420	0.3160715
192	0xbda3eadd	-0.08003781
193	0x3e475c92	0.19468907
194	0xbde43fd0	-0.11144984
195	0x3e054e3d	0.13018127
196	0x3c2fc93d	0.010729131
197	0x3e5b0e7e	0.21392247
198	0xbd867b81	-0.06566525
199	0x3e611566	0.21980819
200	0xbe613bc6	-0.21995458
201	0xbe67128a	-0.22565666
202	0xbdf9a336	-0.12189333
203	0x3e40336a	0.18769613
204	0x3ddb813f	0.10718011
205	0xbcdc8560	-0.026919067
206	0x3e38de76	0.18053612
207	0x3ca2a6dc	0.019854955
208	0x3e248406	0.16065988
209	0xbd43d0cf	-0.047806557
210	0xbd7a6b48	-0.061137468
211	0xbcb161cb	-0.021653077
212	0x3d93cf6b	0.07217296
213	0x3e2e8321	0.17042209
214	0x3e82fa79	0.2558172
215	0xbe71c5f9	-0.23610677
216	0xbe7a05fd	-0.24416347
217	0x3e867360	0.262599
218	0xbe5e245a	-0.21693555
219	0xbd34acd1	-0.044110123
220	0xbe82589d	-0.25458232
221	0xbe3adb32	-0.18247679
222	0xbe0c1ad8	-0.13682115
223	0x3d92295a	0.071367934
224	0xbe796fca	-0.2435905
225	0x3e60f5c7	0.21968757
226	0xbe8574e0	-0.2606573
227	0xbd38167f	-0.04494333
228	0x3eb1482f	0.34625384
229	0x3e26eb80	0.16300774
230	0xbeabab90	-0.3352933
231	0x3e58cc0e	0.2117159
232	0xbe9a7da5	-0.30173984
233	0xbe73b01f	-0.23797654
234	0x3d8e30fd	0.069429375
235	0x3e68bff7	0.22729479
236	0x3ea6076a	0.3242753
237	0xbea0d61c	-0.31413352
238	0x3e764d83	0.24053006
239	0x3eae905b	0.3409451
240	0x3e70e0ef	0.23523305
241	0xbe967d2a	-0.29392368
242	0xbea7aa55	-0.3274714
243	0xbe70ff12	-0.23534802
244	0x3e9e74f9	0.30948618
245	0x3e70dba3	0.23521285
246	0x3e7de934	0.24795991
247	0xbe73cdce	-0.23808977
248	0xbd1ce270	-0.038301885
249	0x3de5a96c	0.11213955
250	0xbe6e8855	-0.23294194
251	0xbeaaa605	-0.33329788
252	0xbe73c06a	-0.23803869
253	0xbe854469	-0.26028755
254	0xbe8ff6a2	-0.28117853
255	0x3e84c213	0.25929317

lstm.weight_hh_l0 f4 [128, 32]
0	0xbd761637	-0.06007978
1	0x3da9b967	0.08287316
2	0xbe8259ef	-0.2545924
3	0x3d466ad8	0.048441738
4	0x3e0a8ef2	0.13531092
5	0xbe20b025	-0.15692194
6	0xbb5053e2	-0.003178828
7	0x3e0eb449	0.13935961
8	0x3bde5c15	0.0067858794
9	0x3da0fb5d	0.07860444
10	0xbe0adec9	-0.13561548
11	0x3d63b471	0.055592004
12	0xbccbe49e	-0.024889287
13	0xbc10b753	-0.00883277
14	0xbe19d4a9	-0.1502253
15	0x3e132044	0.14367777
16	0xbe139f07	-0.14416133
17	0x3dbd1704	0.092329055
18	0x3e15685a	0.14590588
19	0xbe138c37	-0.14408956
20	0x3e01cf47	0.12676726
21	0x3e10a76b	0.14126365
22	0x3e306013	0.1722415
23	0x3dac06fc	0.0839977
24	0x3e191062	0.14947656
25	0xbe13066b	-0.14357917
26	0xbe1ab091	-0.15106417
27	0xbe272bc0	-0.16325283
28	0xbdaac7d4	-0.083388954
29	0x3d814637	0.063122205
30	0xbddbfe6c	-0.107418865
31	0xbe1aec1b	-0.1512913
32	0xbcc7450d	-0.024324918
33	0x3bb8ae9b	0.005636049
34	0xbe999fb6	-0.30004662
35	0x3da60854	0.08107057
36	0x3bb69f6d	0.0055732043
37	0xbdb61cc0	-0.088922024
38	0xbde54dcf	-0.111964814
39	0x3c983cdc	0.018583708
40	0xbcbbbc49	-0.02291693
41	0x3b97199f	0.0046112086
42	0xbda2950b	-0.07938584
43	0xbaa5d6f8	-0.0012652567
44	0x3d699838	0.057029933
45	0xbd91e1d5	-0.07123152
46	0xbca09ee2	-0.019607011
47	0x3db62ecb	0.08895644
48	0xbd026eb4	-0.031843856
49	0x3bd552a6	0.0065100966
50	0x3e2a5a87	0.16636096
51	0xbdb5a4c0	-0.08869314
52	0x3d395d26	0.04525485
53	0x3d2bdf51	0.041961018
54	0x3d8757d5	0.066085495
55	0xbc742bd9	-0.014903032
56	0x3d92c01a	0.07165547
57	0xbd9830fc	-0.07431218
58	0x3c5c1793	0.013433355
59	0xbd0e4a44	-0.034738794
60	0x3c2b5514	0.010457296
61	0x3cdc47d9	0.026889728
62	0xbbb4200b	-0.005496984
63	0xbdb18860	-0.086685896
64	0xbe862508	-0.26200128
65	0x3e71501c	0.23565716
66	0xbcd5d420	-0.026102126
67	0xbe559505	-0.20857628
68	0x3e490f9c	0.19634861
69	0xbe84cba4	-0.25936615
70	0x3dfd5aeb	0.12370857
71	0x3e822929	0.25422028
72	0x3e823867	0.25433657
73	0x3e80300e	0.25036663
74	0xbe8297b0	-0.25506353
75	0x3e887292	0.2664991
76	0xbe708ce3	-0.23491244
77	0x3e5316fb	0.20614235
78	0xbe54d509	-0.20784391
79	0x3e37e77b	0.17959397
80	0xbe58b5fe	-0.21163175
81	0x3e6a9aa1	0.22910549
82	0xbe06138f	-0.13093399
83	0xbe66fcbf	-0.22557352
84	0x3e6b8d49	0.23003115
85	0x3e802010	0.25024462
86	0x3e3e3247	0.18573867
87	0x3e443d10	0.19163918
88	0x3e49fef8	0.19726169
89	0xbe5dc8d3	-0.2165864
90	0xbe3b53ed	-0.18293734
91	0xbe8d3ab4	-0.2758385
92	0xbe729e52	-0.23693207
93	0x3e82172f	0.25408313
94	0xbe8516f5	-0.25994077
95	0xbe82b487	-0.25528356
96	0xbdffe97d	-0.12495706
97	0x3e0ec241	0.1394129
98	0xbdf49eb7	-0.11944335
99	0xbe0179af	-0.12644075
100	0x3e0e9acf	0.13926242
101	0xbe38b106	-0.18036279
102	0x3c8a1f9a	0.016860772
103	0x3e1052b1	0.14094044
104	0x3dcfa175	0.10138217
105	0x3e1a84a9	0.15089668
106	0xbde0e934	-0.1098198
107	0x3e00d63c	0.12581724
108	0xbe2d428a	-0.16919914
109	0x3e1df6cc	0.15426177
110	0xbe200789	-0.15627874
111	0x3e19e532	0.15028837
112	0xbdd0d653	-0.10197129
113	0x3e1d57ac	0.15365475
114	0x3d0839a0	0.03325808
115	0xbe07008e	-0.13183805
116	0x3dbe707a	0.09298797
117	0x3e44a338	0.19202888
118	0x3e3ef9e7	0.18650018
119	0x3db13305	0.08652309
120	0x3e4a1781	0.19735529
121	0xbe3dae1a	-0.18523446
122	0xbdbaf0e2	-0.09127976
123	0xbe2fd17d	-0.17169757
124	0xbe11f6a4	-0.14254242
125	0x3e3ab62d	0.18233557
126	0xbdd0f953	-0.10203805
127	0xbe2cc139	-0.16870584
128	0xbd09120a	-0.03346447
129	0x3d54ad90	0.051923335
130	0xbe829a1a	-0.25508195
131	0x3e0ccc8e	0.13749906
132	0x3db95ad3	0.090505265
133	0xbd10cba9	-0.035350475
134	0xbdf79f8b	-0.12090977
135	0x3b10b9f8	0.0022083502
136	0xbd6319cb	-0.05544452
137	0x3b699472	0.0035641459
138	0xbdb0a646	-0.08625464
139	0x3d0e4889	0.034737144
140	0x3d45fac8	0.048334867
141	0xbd4d406f	-0.050110277
142	0x3c9c0b23	0.01904828
143	0x3c9b7ada	0.018979479
144	0xbd544a2d	-0.051828552
145	0xbdb780d5	-0.0896012
146	0x3e5df3fd	0.21675105
147	0xbb354b20	-0.0027663186
148	0x3d1a1d22	0.03762544
149	0x3d1e35d8	0.03862557
150	0x3d04063f	0.03223252
151	0x3daeca97	0.08534735
152	0x3c820ca5	0.01587517
153	0xbde0867d	-0.109631516
154	0xbce6e941	-0.028187396
155	0xbd953965	-0.07286338
156	0xbd63aab4	-0.055582717
157	0x3cf6f295	0.030144969
158	0xbd788c16	-0.06068047
159	0xbd3448cf	-0.04401475
160	0xbd8f96b8	-0.07011169
161	0x3dcab247	0.09897285
162	0xbe84a296	-0.25905293
163	0x3dcef261	0.10104824
164	0x3d58908f	0.052872237
165	0xbdb22929	-0.08699257
166	0xbdc7fe73	-0.09765329
167	0x3d0ac8b7	0.033882823
168	0xbda6b6e1	-0.0814035
169	0x3d90325d	0.07040856
170	0xbd4fb599	-0.050710294
171	0x3d69ea30	0.057108104
172	0x3d945135	0.072420515
173	0xbde8b8c7	-0.113633685
174	0xbd213b69	-0.0393633
175	0x3c826ef0	0.01592204
176	0xbd086d27	-0.03330722
177	0xbd1d8e2c	-0.038465664
178	0x3e5f50fe	0.2180824
179	0xbce0c14f	-0.027435927
180	0x3c2796d6	0.010228833
181	0x3dd0b764	0.10191229
182	0x3db44507	0.088022284
183	0x3cc00724	0.023440905
184	0x3da2845d	0.079354025
185	0xbd08ed68	-0.033429533
186	0xbd934ef4	-0.071927935
187	0xbd67e57a	-0.05661533
188	0xbcdb1b6b	-0.026746472
189	0xbd1786cf	-0.036993798
190	0xbd523dd8	-0.05132851
191	0xbd66382f	-0.056205925
192	0xbe00b059	-0.12567271
193	0x3dbf37b1	0.09336794
194	0xbd5336b9	-0.05156586
195	0xbde00675	-0.109387316
196	0x3e06c50b	0.13161103
197	0xbe053d24	-0.13011605
198	0x3e0f6678	0.14003932
199	0x3e274e0e	0.16338369
200	0x3db59693	0.088666104
201	0x3dedbb38	0.11607975
202	0xbe0da09a	-0.13830796
203	0x3e280e85	0.16411789
204	0xbe5bc8ac	-0.21463269
205	0x3db921d9	0.09039659
206	0xbdc229a2	-0.09480597
207	0x3e3796cf	0.17928623
208	0xbdf42592	-0.119212285
209	0x3dc6113f	0.09671258
210	0xbd63cc85	-0.055614967
211	0xbdf7af21	-0.1209395
212	0x3d9cb5d2	0.07651867
213	0x3e2b3a8e	0.16721556
214	0x3dc84ff1	0.097808726
215	0x3df592b3	0.11990871
216	0x3dc57544	0.09641507
217	0xbe20fbb5	-0.15721019
218	0xbdcc125f	-0.099644415
219	0xbdf15758	-0.117842376
220	0xbe1ba026	-0.1519781
221	0x3e205318	0.15656698
222	0xbe0882f8	-0.1333121
223	0xbe2c5155	-0.168279
224	0xbd992f60	-0.07479739
225	0x3d27282d	0.0408098
226	0xbe8e2a0a	-0.27766448
227	0x3d0c7080	0.034286976
228	0x3cacd0a0	0.021095574
229	0xbd921192	-0.071322575
230	0xbdf5055d	-0.119639136
231	0x3d9fddda	0.07805987
232	0xbdad4089	-0.08459575
233	0x3d96d928	0.07365638
234	0xbdeb9018	-0.11502093
235	0x3d7a54b9	0.061115954
236	0xbcd8ca64	-0.026463695
237	0x3ac4da75	0.0015018719
238	0x3bc94124	0.0061417986
239	0x3dc84a69	0.097798176
240	0xbe022465	-0.12709196
241	0xbd8426a4	-0.064526826
242	0x3e32ca96	0.17460093
243	0xbd971fd9	-0.07379121
244	0x3c2f42cf	0.010697081
245	0x3d58b505	0.05290701
246	0x3dd094fb	0.10184666
247	0x3d08a8bd	0.033364046
248	0x3d9263fc	0.07147977
249	0xbd25b2c8	-0.040453702
250	0xbdb8c35b	-0.09021636
251	0xbdc46e04	-0.09591296
252	0xbdb64e1c	-0.08901617
253	0xbd4501bb	-0.048097353
254	0xbd327447	-0.043567922
255	0xbccb2cfb	-0.024801722

lstm.bias_ih_l0 f4 [128]
0	0x3e6c2d76	0.23064217
1	0x3e544e36	0.2073296
2	0x3e93e4a8	0.28885388
3	0x3e5e32f0	0.21699119
4	0x3e638cbd	0.22221656
5	0x3e6d6e81	0.23186685
6	0x3e7325da	0.23744908
7	0x3e34e849	0.17666735
8	0x3e42ed27	0.19035779
9	0x3e7ab121	0.24481632
10	0x3e3d456f	0.18483518
11	0x3e3f59b5	0.18686564
12	0x3e84ef86	0.25963992
13	0x3e52310b	0.20526521
14	0x3e83671c	0.25664604
15	0x3e17bd40	0.14818287
16	0x3e133f48	0.14379609
17	0x3e74af0e	0.23894903
18	0x3e7f9ee7	0.2496296
19	0x3e315467	0.17317353
20	0x3e5772e0	0.21039915
21	0x3e391343	0.18073754
22	0x3e36742b	0.17817752
23	0x3e607d23	0.21922736
24	0x3e1fda6e	0.15610668
25	0x3e4a02bb	0.19727604
26	0x3e67c0e0	0.2263217
27	0x3e30ae4f	0.17253993
28	0x3e7c63a0	0.24647379
29	0x3e3afdde	0.18260905
30	0x3e305ece	0.17223665
31	0x3e59f6b7	0.2128552
32	0xbcdeddfb	-0.027205458
33	0xbc264699	-0.010148668
34	0xbea37a39	-0.31929186
35	0xbdb0b7fd	-0.08628843
36	0x3ccbc78b	0.024875423
37	0xbcea7412	-0.0286198
38	0xbde40af6	-0.11134903
39	0x3c793d4e	0.01521237
40	0xbdc45d38	-0.095880926
41	0xbd4e0b62	-0.050303824
42	0xbb653e69	-0.0034979826
43	0x3c33518f	0.010944738
44	0xbd97a4d4	-0.07404485
45	0xbe074795	-0.132109
46	0xbd137f0a	-0.036009826
47	0x3c39ceee	0.01134084
48	0x3beb2684	0.0071762223
49	0xbd9efce5	-0.077630796
50	0xbe64da32	-0.2234886
51	0xbd2957fb	-0.04134367
52	0x3d3a6426	0.045505665
53	0x3c7f97f5	0.015600194
54	0x3c7169d5	0.014734705
55	0xbc0821f3	-0.008308875
56	0x3d7232e6	0.05913057
57	0x3d9520a9	0.0728162
58	0xbd709945	-0.05873992
59	0x3d885957	0.06657665
60	0xbd7bfacd	-0.06151848
61	0xbd65482d	-0.055977035
62	0xb9ea54f9	-0.00044695268
63	0x3ca4be96	0.02011041
64	0xbd336773	-0.04379983
65	0x3d34e991	0.04416806
66	0xbcf5b9bb	-0.02999579
67	0x3d0f6545	0.035008688
68	0x3d504b54	0.05085309
69	0xbd87a1e7	-0.06622677
70	0xbcd3a1c0	-0.025833964
71	0x3d695640	0.05696702
72	0xbcb8d15a	-0.022560764
73	0xbc256315	-0.010094424
74	0xbd8fe83f	-0.07026719
75	0xbd362dcf	-0.04447728
76	0x3d92484e	0.07142697
77	0x3ca15ecb	0.019698521
78	0xbbd9bad3	-0.0066445856
79	0x3d4f1863	0.050560366
80	0xbd1be986	-0.038064502
81	0xbcc84e29	-0.024451332
82	0x3d53ee8c	0.051741168
83	0x3c18e862	0.009332748
84	0x3d049d07	0.032376315
85	0x3ccd817e	0.02508616
86	0x3bf7dde9	0.0075642955
87	0x3ccac25c	0.02475088
88	0x3d0bd2cd	0.034136582
89	0xbc6b1498	-0.014348172
90	0xbc914e5b	-0.017737558
91	0xbd51483b	-0.051094275
92	0xbd1a08b9	-0.037605975
93	0x3c3e381a	0.011610055
94	0xbd7acc2a	-0.061229862
95	0xbd828b50	-0.06374228
96	0x3e3708d5	0.17874463
97	0x3dba23a8	0.09088832
98	0x3e8ddd57	0.2770793
99	0x3e2874ec	0.16450852
100	0x3d919a30	0.07109487
101	0x3de0bdd1	0.109737046
102	0x3e74b101	0.23895647
103	0x3e12828a	0.14307609
104	0x3e3d08a9	0.18460335
105	0x3e2aec26	0.16691646
106	0x3d2f2f3d	0.04276966
107	0x3e48a547	0.19594298
108	0x3e847393	0.25869426
109	0x3e671ca9	0.22569527
110	0x3e4e729a	0.20160905
111	0x3e07bfad	0.13256712
112	0x3d9cdbc5	0.07659105
113	0x3e284de9	0.1643597
114	0x3e916483	0.28396997
115	0x3dcfaef6	0.10140793
116	0x3e2cb64d	0.16866417
117	0x3e14024e	0.14454004
118	0x3d5f31fc	0.05449103
119	0x3e006381	0.12537958
120	0x3dddb834	0.108261496
121	0x3cc6789a	0.02422743
122	0x3e4c8926	0.19974193
123	0x3dc16fc1	0.094451435
124	0x3dec761d	0.11545966
125	0x3e72244b	0.23646657
126	0x3d7825f4	0.06058307
127	0x3dd0ec8c	0.10201368

lstm.bias_hh_l0 f4 [128]
0	0x3e84697d	0.2586173
1	0x3e25e32e	0.16199943
2	0x3e6566fe	0.2240257
3	0x3e49b9cd	0.19699784
4	0x3e393ada	0.18088856
5	0x3e21b54e	0.15791818
6	0x3e2ba16e	0.167608
7	0x3e763305	0.240429
8	0x3e4e2852	0.20132568
9	0x3e5b8a4b	0.21439473
10	0x3e29bdcc	0.16576308
11	0x3e47a1bc	0.1949529
12	0x3e55cb34	0.20878297
13	0x3e3368fd	0.17520519
14	0x3e437ae4	0.19089848
15	0x3e2b0c7c	0.16703981
16	0x3e115794	0.14193565
17	0x3e678c10	0.22612023
18	0x3e72870b	0.23684327
19	0x3e738562	0.2378135
20	0x3e6ea1a8	0.23303854
21	0x3e3145d2	0.1731179
22	0x3e3eecdf	0.18645047
23	0x3e7c4ae9	0.24637951
24	0x3e6f8104	0.2338906
25	0x3e0a241a	0.13490334
26	0x3e7fbeb8	0.24975097
27	0x3e11df90	0.14245439
28	0x3e75299d	0.23941655
29	0x3e6815f1	0.2266462
30	0x3e2110c0	0.15729046
31	0x3e242455	0.16029485
32	0xbd3e0b91	-0.04639775
33	0x3d330abe	0.043711416
34	0xbea03a44	-0.31294453
35	0xbe0a5be2	-0.13511613
36	0x3d82ba85	0.06383232
37	0x3c200d50	0.009768799
38	0xbe3f017c	-0.1865291
39	0x3d7eee37	0.062238898
40	0xbdcb867e	-0.09937762
41	0xbbf82637	-0.007572915
42	0x3ce4486b	0.027866563
43	0xbd490b2d	-0.049082924
44	0xbdd28fe5	-0.10281352
45	0xbde07ed0	-0.109616876
46	0xbd3735f1	-0.044729177
47	0x3ce7f649	0.02831568
48	0x3d8158a6	0.063157365
49	0xbd87eb59	-0.06636686
50	0xbe847bdf	-0.25875756
51	0xbb68be4b	-0.0035513814
52	0xbd52a651	-0.051428143
53	0xbcbf1c58	-0.023328945
54	0x3b995ad0	0.004680015
55	0x3ce4388d	0.027858997
56	0x3daaf448	0.08347374
57	0xbc366950	-0.011133507
58	0xbd6ce81c	-0.057838544
59	0x3d93597d	0.07194803
60	0x3c2292cf	0.009922697
61	0xbdd34ad0	-0.10317004
62	0x3d4c60a6	0.04989686
63	0xbbe9b461	-0.0071320985
64	0xbd1242a1	-0.035708074
65	0x3ca556c4	0.020182975
66	0xbd8f92d5	-0.07010428
67	0xbc4b4b00	-0.012408018
68	0x3d253bdd	0.040340293
69	0x3c681c5e	0.0141669195
70	0xbccac23b	-0.02475082
71	0xba3ce256	-0.00072053575
72	0x3c86cdb9	0.016455518
73	0x3d3dc2a4	0.046328202
74	0x3c54c685	0.012986784
75	0x3d5483fe	0.05188369
76	0x3bf1a7b4	0.007374728
77	0xbd3a663c	-0.045507655
78	0xbd31bf52	-0.043395348
79	0xbae0c09a	-0.0017147243
80	0xbd5a7cec	-0.05334179
81	0xbccf2276	-0.025284987
82	0x3dbd32fd	0.09238241
83	0xbd810916	-0.06300561
84	0x3cf9fa5b	0.030514887
85	0x3cfc12d2	0.030770693
86	0x3d623dbe	0.055234663
87	0x3c0954f5	0.008382072
88	0x3cd2b051	0.02571884
89	0xbd60d0b4	-0.054886535
90	0xbd0e8929	-0.034798775
91	0xbc624973	-0.013811457
92	0x3c4e9177	0.012607924
93	0xbd8a3cb0	-0.067498565
94	0xbc5fa67e	-0.013650535
95	0xbb6e5ac4	-0.0036370018
96	0x3e4c8139	0.1997117
97	0x3d3cd5d8	0.046102375
98	0x3e991afe	0.29903406
99	0x3e61b83d	0.22042938
100	0x3d6b200a	0.0574036
101	0x3de9bc35	0.11412851
102	0x3e4bc1f0	0.198982
103	0x3e0fb08b	0.1403219
104	0x3e7f63dd	0.24940439
105	0x3e417cef	0.18895315
106	0x3d72862d	0.05920999
107	0x3e1f703b	0.15570156
108	0x3e28ec8e	0.16496488
109	0x3e11bd3b	0.14232342
110	0x3e524707	0.20534907
111	0x3ddc419e	0.10754703
112	0x3cf29d35	0.029615978
113	0x3e756aec	0.23966569
114	0x3e8b0780	0.2715416
115	0x3dab2e1f	0.08358406
116	0x3dbc14e4	0.09183672
117	0x3e11e996	0.14249262
118	0x3d9d2b27	0.07674246
119	0x3e21b110	0.157902
120	0x3cb46429	0.022020416
121	0x3d9f821f	0.077884905
122	0x3e30d330	0.17268062
123	0x3cf2d9f3	0.029644942
124	0x3e3f879c	0.18704075
125	0x3e435fa4	0.19079453
126	0x3d33a7e6	0.043861292
127	0x3dd0c93b	0.10194632

lin.weight f4 [5, 32]
0	0xbe96594c	-0.29365003
1	0x3e825cf3	0.2546154
2	0x3ea72d37	0.32651684
3	0xbe8a2bc3	-0.26986513
4	0x3e62e27c	0.2215671
5	0xbe86df25	-0.2634212
6	0x3e53b52f	0.20674585
7	0x3e7f30ef	0.2492101
8	0x3e8ef05f	0.27917764
9	0x3e8fbe0f	0.2807469
10	0xbe5d31fd	-0.216011
11	0x3e85c52d	0.26126996
12	0xbe9a82e1	-0.30177978
13	0x3e77a83d	0.24185272
14	0xbe95603d	-0.29174986
15	0x3e7bbf00	0.2458458
16	0xbe34f0d8	-0.1767
17	0x3e65914a	0.22418705
18	0xbe9bb8e3	-0.30414495
19	0xbe865315	-0.26235262
20	0x3e5c2be9	0.21501125
21	0x3e672d0a	0.22575775
22	0x3e83f616	0.25773686
23	0x3e92ca9f	0.28670213
24	0x3e83b154	0.25721228
25	0xbe8261c2	-0.25465208
26	0xbe913abc	-0.28365123
27	0xbe6d07a1	-0.23147441
28	0xbe8feded	-0.2811121
29	0x3e92a3a1	0.28640464
30	0xbe821fb6	-0.2541482
31	0xbe773aa7	-0.24143468
32	0x3e5a9cdd	0.21348901
33	0xbe613a86	-0.21994981
34	0xbe8b116a	-0.27161723
35	0x3e62e8f7	0.22159182
36	0xbe57ebe4	-0.21086079
37	0x3e3dcdb9	0.18535508
38	0xbe4cd9a4	-0.20004898
39	0xbe6f52fd	-0.23371501
40	0xbe880aac	-0.26570642
41	0xbe89cc8e	-0.26913875
42	0x3e24f6de	0.16109797
43	0xbe5e6b3b	-0.21720593
44	0x3e80dcdd	0.25168505
45	0xbe829519	-0.25504377
46	0x3e2995cd	0.1656105
47	0xbe2f9640	-0.1714716
48	0x3e31cd05	0.17363365
49	0xbe850072	-0.25976902
50	0x3e927e93	0.28612193
51	0x3e6b5a67	0.22983705
52	0xbe6f47b5	-0.23367198
53	0xbe4531ab	-0.19257228
54	0xbe27c5ce	-0.1638405
55	0xbe7c17c2	-0.24618438
56	0xbe307f6b	-0.17236106
57	0x3e56cbd7	0.20976196
58	0x3e819fbb	0.25317177
59	0x3e64e8c5	0.2235442
60	0x3e65a55c	0.22426361
61	0xbe819998	-0.25312495
62	0x3e65b7c6	0.22433385
63	0x3e3de8b0	0.18545794
64	0x3e3ba2ff	0.18323897
65	0xbe7863e1	-0.24256851
66	0xbe9abecb	-0.30223688
67	0x3e5d79ad	0.21628447
68	0xbe64e868	-0.22354281
69	0x3e85c38c	0.26125753
70	0xbe8c6d75	-0.2742726
71	0xbe7291d1	-0.23688437
72	0xbe5208a2	-0.20511106
73	0xbe442ef2	-0.19158533
74	0x3e238e11	0.15972163
75	0xbe91e9b2	-0.28498608
76	0x3e55004a	0.20800892
77	0xbe567e2a	-0.20946565
78	0x3e3c7960	0.18405676
79	0xbe27344e	-0.16328546
80	0x3e3c2c54	0.18376285
81	0xbe7f0b37	-0.24906622
82	0x3e7131bf	0.23554133
83	0x3e493a68	0.19651186
84	0xbe8256df	-0.25456902
85	0xbe7b0a74	-0.24515706
86	0xbe7dab20	-0.2477231
87	0xbe597d65	-0.2123924
88	0xbe3ae247	-0.1825038
89	0x3e8135b3	0.25236282
90	0x3e7c2d9d	0.24626775
91	0x3e33620c	0.1751787
92	0x3e8de16a	0.2771104
93	0xbe847b03	-0.258751
94	0x3e4ca639	0.19985284
95	0x3e889db9	0.26682833
96	0x3e7b29fe	0.24527737
97	0xbe86e228	-0.2634442
98	0xbe9124b9	-0.2834833
99	0x3e449c2b	0.19200198
100	0xbe3b595b	-0.18295805
101	0x3e6637bf	0.22482203
102	0xbe3280e6	-0.17431983
103	0xbe6e14d7	-0.23250137
104	0xbe59c563	-0.21266703
105	0xbe8608ef	-0.2617869
106	0x3e329b91	0.17442156
107	0xbe8c788d	-0.27435723
108	0x3e68eb48	0.22746003
109	0xbe93ecba	-0.28891546
110	0x3e4fffb7	0.20312391
111	0xbe2b4419	-0.16725196
112	0x3e258721	0.16164829
113	0xbe88566a	-0.2662843
114	0x3e90fbe1	0.28317168
115	0x3e460d6e	0.1934106
116	0xbe37ff41	-0.17968465
117	0xbe8bd62c	-0.27311838
118	0xbe540982	-0.20706752
119	0xbe641b8a	-0.2227613
120	0xbe71b934	-0.23605806
121	0x3e808947	0.25104734
122	0x3e4c034c	0.19923133
123	0x3e7bb486	0.24580583
124	0x3e94fe48	0.2910025
125	0xbe5be268	-0.21473086
126	0x3e3fbcc4	0.18724352
127	0x3e3aeb27	0.18253766
128	0x3e5a08e3	0.21292453
129	0xbe41771a	-0.1889309
130	0xbe9826ce	-0.29717106
131	0x3e83d8e6	0.25751418
132	0xbe768bbb	-0.2407674
133	0x3e4694fc	0.1939277
134	0xbe546514	-0.20741683
135	0xbe371bd7	-0.17881714
136	0xbe50982a	-0.20370546
137	0xbe5df012	-0.21673611
138	0x3e3cc3f5	0.18434127
139	0xbe8dac70	-0.27670622
140	0x3e417c98	0.18895185
141	0xbe589e6f	-0.21154188
142	0x3e8424ef	0.25809428
143	0xbe56dfc1	-0.20983793
144	0x3e653a10	0.2238543
145	0xbe83bcd1	-0.25729993
146	0x3e8b992d	0.272653
147	0x3e86b456	0.2630946
148	0xbe669ff3	-0.22521953
149	0xbe4775c7	-0.19478522
150	0xbe84eb6c	-0.25960863
151	0xbe524c41	-0.20536901
152	0xbe752086	-0.23938188
153	0x3e62155f	0.22078465
154	0x3e84f0bd	0.2596492
155	0x3e645a82	0.22300151
156	0x3e688a5c	0.2270903
157	0xbe3986ca	-0.18117824
158	0x3e7797cb	0.24178998
159	0x3e76d591	0.24104907

lin.bias f4 [5]
0	0x3c01efa2	0.007930668
1	0xbbf95a0c	-0.0076096114
2	0x3d1a050b	0.037602466
3	0x3ca92e3d	0.020651931
4	0x3d1b4a9a	0.037912942
