checkpoints/MLE_space_False_length_3_preTrainG_epoch_89.pth (torch_old, 36090 bytes, 7 tensors)

emb.weight f4 [5, 32]
000000 7e bd 30 3e 16 3a 5a 3e 2a da 00 3e 84 d6 72 3e
       0.17259786 0.2131122 0.12583223 0.23714644
000010 b3 23 60 be 31 55 5c 3e bb 25 42 3e cb b8 56 3e
       -0.21888618 0.21516873 0.18959706 0.2096893
000020 95 ef 13 3e 19 f5 59 bc 1f 17 70 be 9c fe 6f 3e
       0.14446862 -0.013303065 -0.2344632 0.2343697
000030 53 dc 1f be 83 c9 08 3e 53 ec 11 be de 55 18 be
       -0.15611391 0.1335812 -0.14250307 -0.14876506
000040 1d 08 11 be 72 e4 2e 3e 95 85 45 3e f0 cb 54 be
       -0.14163251 0.17079332 0.19289239 -0.20780921
000050 57 08 50 be 0a 52 13 be 72 d6 10 be db 14 86 be
       -0.20315681 -0.14386764 -0.14144304 -0.26187786
000060 ed e0 5f be e9 47 6f 3e 83 e3 ec 3d 05 a9 64 3e
       -0.21863146 0.23367275 0.11566832 0.22330101
000070 ce 8d cb 3d 03 0f 1e 3e 72 bf 11 3e 51 1c 2e be
       0.099391565 0.15435414 0.14233187 -0.1700299
000080 05 d9 49 be 6a 69 17 be 6c 9a 5d be 22 cc 59 be
       -0.19711693 -0.14786306 -0.21640939 -0.21269277
000090 04 46 41 3e 87 08 46 be f8 69 44 be ed 0d 45 be
       0.18874365 -0.1933919 -0.19181049 -0.19243594
0000a0 8b cb 18 be 53 ec 21 be 92 6f 2b 3e 1f 76 34 be
       -0.14921395 -0.15812807 0.1674178 -0.17623185
0000b0 63 55 38 3e 8a 46 2a be 80 18 52 3e bd fb 2f 3e
       0.18001322 -0.16628471 0.20517159 0.17185874
0000c0 c0 4b 08 3e 00 b5 60 be ac 81 2e be 4b d2 20 be
       0.13310146 -0.21944046 -0.17041653 -0.1570522
0000d0 4b 13 5b 3e 56 b0 56 3e 17 c3 51 3e 6f ae 1c be
       0.21394078 0.20965704 0.20484577 -0.15300916
0000e0 36 c8 32 3e d1 b2 1a be 52 c5 1e be cd ca 0d be
       0.17459187 -0.15107276 -0.15504959 -0.13846894
0000f0 7a 59 26 be dd c0 5c be c2 11 48 be 59 23 5b 3e
       -0.1624507 -0.21557947 -0.19538024 0.21400203
000100 d6 72 5a be 6d 7c 3e be 56 1f 55 be 9b c6 30 be
       -0.21332869 -0.18602152 -0.20812735 -0.17263262
000110 2d 90 4d 3e c9 0d c6 bd 20 48 41 be a8 e6 18 be
       0.2007453 -0.09670598 -0.1887517 -0.14931738
000120 a3 60 57 be 4e f2 35 be d1 df 5c 3e 1c 79 1b be
       -0.21032958 -0.17768213 0.21569754 -0.15182918
000130 0c 8a 3c 3e a6 18 34 be 9e 65 5f 3e a6 a5 3c 3e
       0.18412036 -0.17587528 0.21816108 0.18422565
000140 18 e5 52 3e 69 36 24 be 5f 5c 08 be 0e 04 42 be
       0.20595205 -0.16036381 -0.13316487 -0.18946859
000150 b1 8d 38 3e e0 56 41 3e ae 95 1f 3e 12 b2 45 be
       0.18022801 0.18880796 0.15584442 -0.1930621
000160 d0 28 2d 3e 71 e1 47 be bb 77 5c be 7d 12 4e be
       0.169101 -0.19519593 -0.21530049 -0.2012424
000170 a3 c1 48 be 0b b9 0b be d4 3c 60 be e4 cf 21 3e
       -0.19605117 -0.13644807 -0.21898204 0.1580196
000180 e1 58 49 be e3 96 20 be 9c c5 34 be d4 57 2e be
       -0.19662811 -0.15682559 -0.17653507 -0.17025691
000190 cf fb 47 3e 4b fe 2c be 10 b2 1e be cd 76 49 be
       0.19529651 -0.1689388 -0.15497613 -0.19674225
0001a0 0f 29 3a be 75 00 69 be f3 ec 3f 3e ff 71 44 be
       -0.18179725 -0.2275408 0.18742733 -0.19184111
0001b0 4e 84 1d 3e 85 20 39 be c5 00 34 3e 36 53 50 3e
       0.15382501 -0.18078811 0.17578419 0.20344242
0001c0 89 42 24 3e 21 70 15 be cc 24 38 be 7f 97 2f be
       0.16041006 -0.14593555 -0.17982787 -0.17147635
0001d0 d2 c7 17 3e 44 81 22 3e 0a 61 1b 3e 86 6f 34 be
       0.14822319 0.15869623 0.15173736 -0.17620668
0001e0 31 c3 3f 3e b8 28 20 be 3e 74 60 be dc 88 46 be
       0.18726803 -0.15640533 -0.21919343 -0.19388145
0001f0 a5 3a 0f be 4d ed 26 be d2 7b 31 be 0b c8 5d 3e
       -0.13987215 -0.1630146 -0.1733239 0.21658342
000200 7e 41 0f be 70 70 1c be 07 fb 48 be 0b 42 2b be
       -0.13989827 -0.15277267 -0.1962701 -0.16724412
000210 5f a3 51 3e 4f c6 35 be 67 ac 40 be e3 d1 f1 bd
       0.20472477 -0.1775143 -0.18815766 -0.11807611
000220 17 5d 57 be 22 ee 29 be 4c 99 09 3e e4 b0 01 be
       -0.21031605 -0.16594747 0.13437384 -0.12665135
000230 4f 10 19 3e ba 84 52 be f7 8e 31 3e 76 45 1a 3e
       0.14947627 -0.20558444 0.17339693 0.1506556
000240 a1 6e 5e 3e 66 b1 09 be 13 30 55 be 42 1a 48 be
       0.21721889 -0.13446578 -0.2081912 -0.19541267
000250 5f 24 2e 3e 88 7c 4f 3e 92 53 50 3e 46 48 47 be
       0.17006062 0.20262349 0.2034438 -0.19461164
000260 70 5e 16 3e 40 ed 5e be 69 5e 19 be 84 5e 46 be
       0.14684463 -0.21770191 -0.14977421 -0.19371992
000270 52 12 39 be 0b 5c 50 be 6f f2 47 be 8c dd 0f 3e
       -0.18073395 -0.20347612 -0.19526075 0.14049357

lstm.weight_ih_l0 f4 [128, 32]
000000 75 d0 1c be e7 6b 26 be 3b 18 30 be ce b5 4c be
       -0.15313895 -0.16252099 -0.17196743 -0.19991228
000010 df 05 0a 3e 7a ad 21 be 49 67 16 be f1 2b 3b be
       0.13478802 -0.15788832 -0.14687838 -0.18278481
000020 3f 11 1c be 94 13 0e be 5e e9 fc 3d 8c 05 16 be
       -0.15240954 -0.13874656 0.12349199 -0.14650553
000030 72 44 3e 3e a0 1c 1f be 44 0d 1f 3e 03 0e 3e 3e
       0.18580797 -0.15538263 0.15532404 0.18560033
000040 9f 7f 17 3e 48 b4 21 be 06 c4 59 be 4d 8b 63 be
       0.14794777 -0.15791428 -0.21266183 -0.22221108
000050 9f cc 07 3e 0d 8c 1a 3e bc e8 1a 3e a1 49 4b be
       0.1326165 0.15092488 0.15127844 -0.19852306
000060 97 36 50 3e 59 76 02 be 6a e3 23 be e1 77 24 be
       0.20333324 -0.12740459 -0.1600472 -0.16061355
000070 48 17 4b be ac c9 51 be a8 42 32 be 7e b4 4a 3e
       -0.198331 -0.20487088 -0.1740824 0.19795415
000080 78 42 5a be 20 39 63 be 52 13 3a be 3b 48 13 be
       -0.21314418 -0.2218976 -0.18171433 -0.14383022
000090 0b b2 08 3e ed ca 3c be 49 41 34 be f4 67 1b be
       0.13349168 -0.18436785 -0.1760303 -0.15176374
0000a0 b6 cc 5f be b2 8e 10 be 4c f1 37 3e bc dc 27 be
       -0.21855435 -0.14116934 0.17963141 -0.16392797
0000b0 af 8e 31 3e c8 89 6e be d0 85 2f 3e 50 26 3d 3e
       0.17339586 -0.23294747 0.17140889 0.18471646
0000c0 3e 16 23 3e b7 9b 38 be d6 17 45 be c4 0f 23 be
       0.15926453 -0.1802815 -0.19247374 -0.15923983
0000d0 85 a5 2a 3e 22 cc 57 3e fe ae 36 3e e5 b9 65 be
       0.16664703 0.21073964 0.17840192 -0.22434194
0000e0 21 c1 5c 3e 2f bf 44 be 0a 6c 3d be 1e b1 53 be
       0.21558048 -0.19213556 -0.18498245 -0.20673034
0000f0 c9 16 51 be 7b 74 64 be 24 ad 63 be e5 49 62 3e
       -0.20418848 -0.22310059 -0.22234017 0.22098501
000100 c9 c1 44 3d a1 9c 2b 3e a7 1d b4 3d a0 e0 11 3e
       0.04803637 0.16758968 0.08794718 0.14245844
000110 41 3a a5 bd 52 00 0f 3e ae 6d 86 3d 77 20 c0 3d
       -0.08067752 0.13964966 0.065638885 0.09381192
000120 ff 59 df 3d 8e 88 10 be b1 50 ce bd 1f 5e 2f 3e
       0.10905837 -0.14114591 -0.100739844 0.17125748
000130 74 57 40 bd f3 d7 cb 3d 00 a0 25 bd 3f 13 a0 bd
       -0.0469584 0.099532984 -0.04043579 -0.07816171
000140 a3 25 c9 bd 88 ce df 3d d2 79 df 3d 78 cc 45 be
       -0.09821632 0.109280646 0.10911907 -0.1931628
000150 8e 0d bf bd 05 ce 0d bd d3 c4 d7 bd 39 ec 78 be
       -0.09328757 -0.034620304 -0.10535588 -0.24308862
000160 f4 1d 25 be 5a f1 03 3e 78 be 6d 3d 7f 31 05 3e
       -0.16124707 0.12885037 0.058042973 0.13007163
000170 3e bf 0a 3d 94 3d 01 3e 6b 58 ab 3d 64 fd f7 bd
       0.03387379 0.12621146 0.08366474 -0.12108877
000180 f0 ea 6e bd 99 18 44 bc 76 b9 b2 bd 24 6c b7 bd
       -0.058329523 -0.011968755 -0.0872678 -0.08956173
000190 fc 2e 74 3d ae 02 9a 3b 0d cd 7b bd 55 12 b2 bd
       0.05961512 0.0047000265 -0.06147485 -0.08694903
0001a0 ba dd b3 bd e6 09 1b be dd ca fb 3c c0 bb 1b bd
       -0.08782525 -0.15140495 0.030736381 -0.03802085
0001b0 6c 3a f2 3d c4 7c 22 be cb 2b 20 3e be 7f 20 3e
       0.11827549 -0.15867907 0.15641706 0.1567373
0001c0 c0 31 99 3d c5 fe fb bd e8 9f 21 bd 49 a1 56 be
       0.07480192 -0.12304453 -0.03945914 -0.20959963
0001d0 48 d0 86 3d 04 ec d0 3d 65 14 e4 3d 6c db 40 be
       0.06582695 0.102012664 0.111367024 -0.18833703
0001e0 ed bb b1 3d 36 77 8a bd 54 47 04 be cf 31 96 bd
       0.08678422 -0.06761019 -0.12917835 -0.07333719
0001f0 66 3e 30 be 98 6e f0 bd 4e 9c 11 be 49 64 ca 3d
       -0.17211303 -0.11739844 -0.14219782 0.09882409
000200 8f c4 42 be dc 16 02 be 2d 9e 2f be 48 b4 fd bd
       -0.19020294 -0.12704033 -0.17150183 -0.123879015
000210 5d eb 49 3e 89 9b 31 be d0 69 41 be 6d 62 4c be
       0.1971869 -0.17344488 -0.1888802 -0.19959421
000220 20 ff 4d be 12 30 55 be 98 56 45 3e 94 9d 13 be
       -0.20116854 -0.20819119 0.19271314 -0.1441558
000230 53 d5 1a 3e 81 ea 2e be bd 0c 14 3e 76 03 59 3e
       0.15120439 -0.17081644 0.14457984 0.21192726
000240 55 3f 18 3e 5c 80 08 be 68 9d 22 be 85 ff 2f be
       0.14867909 -0.13330215 -0.15880358 -0.17187317
000250 f7 be 11 3e 66 49 2c 3e ea 1c 60 3e b1 b9 5e be
       0.14233004 0.16824874 0.2188603 -0.21750523
000260 3d d2 07 3e 37 ac 03 be 01 bd 30 be 4b b9 5f be
       0.13263793 -0.12858663 -0.172596 -0.21848027
000270 a4 8a 2b be fc 44 6a be 11 22 2e be 27 69 2d 3e
       -0.16752106 -0.22877878 -0.17005183 0.16934644
000280 d4 5f 50 be bc df 58 be 56 c2 1d be cc 38 2c be
       -0.20349056 -0.21179098 -0.15406165 -0.16818541
000290 c8 9d 5e 3e a5 2e 1d be ba cb 45 be 2a 5a 4f be
       0.21739876 -0.15349825 -0.19315997 -0.20249239
0002a0 a4 83 5e be e9 7c 37 be a8 69 4e 3e 09 3d d7 bd
       -0.21729904 -0.17918743 0.20157492 -0.105096884
0002b0 be ed 67 3e 10 d9 57 be e7 4e 22 3e 46 45 51 3e
       0.22649285 -0.21078897 0.15850411 0.20436582
0002c0 4b 84 4a 3e 39 9a 01 be 84 54 3b be ea 28 7e be
       0.19777028 -0.12656488 -0.18293959 -0.24820295
0002d0 8a 6a 49 3e aa e4 16 3e 2b 41 2d 3e 44 65 40 be
       0.19669548 0.14735666 0.16919391 -0.1878863
0002e0 db a6 48 3e fc 0b 16 be b3 6a 0a be 1d 1c 01 be
       0.195949 -0.14653009 -0.13517265 -0.1260838
0002f0 ef cd 41 be 18 32 32 be b7 d2 22 be 6e 81 54 3e
       -0.18926214 -0.17401922 -0.15900694 0.20752499
000300 1f 06 21 3e d7 9c 0d 3e 41 3a 0c 3e 33 14 16 3e
       0.15724991 0.13829361 0.13694097 0.14656143
000310 dc 6a 67 be cc 8e 21 3e 7b 65 33 3e b2 af 38 3e
       -0.22599357 0.15777129 0.1751918 0.18035772
000320 de 2a c0 3d 3d 28 22 be 29 e6 11 be 47 f3 0d 3e
       0.09383176 -0.15835662 -0.14247955 0.13862334
000330 28 21 ea bd d9 cd 23 3e 83 3a 01 be 77 d2 3e be
       -0.11432105 0.15996493 -0.12619977 -0.18634973
000340 c5 90 f8 bd 2e f8 55 3e ad ea 46 3e f0 2f 0b be
       -0.121369876 0.20895454 0.19425459 -0.13592505
000350 a5 d7 32 be 29 a2 26 be 5c d7 8f bd 2b d0 50 be
       -0.17465074 -0.16272797 -0.070234984 -0.2039191
000360 ee a1 42 be f2 b1 5c 3e 24 55 a0 3d 50 ff 54 3e
       -0.19007084 0.21552256 0.07828739 0.20800519
000370 74 64 d4 3c af fe 10 3e 0a a9 e0 3d 3b da 25 be
       0.025926806 0.14159654 0.10969742 -0.1619653
000380 26 78 0d be 84 aa 1e be 5b 74 32 be 6f af 1f be
       -0.13815364 -0.15494734 -0.17427199 -0.15594266
000390 35 76 58 3e 52 1b 5e be 5e 55 53 be 5f fe 51 be
       0.21138842 -0.2169011 -0.20638034 -0.20507191
0003a0 9e 92 5c be a8 fb 25 be 00 8f 38 3e c8 18 46 be
       -0.21540305 -0.1620928 0.180233 -0.19345391
0003b0 e2 dd 4c 3e 4c 48 61 be cd fa 1c 3e 27 5c 6b 3e
       0.20006517 -0.22000235 0.15330048 0.22984372
0003c0 67 de 1e 3e 9b 0b 3c be 3d 5c 5e be 0e 48 25 be
       0.15514527 -0.18363802 -0.21714874 -0.16140768
0003d0 19 03 4d 3e c2 42 1d 3e 09 4d 2a 3e 78 16 31 be
       0.20020713 0.15357497 0.16630949 -0.17293727
0003e0 d6 6d 61 3e 33 9b 64 be 12 24 27 be b3 86 5d be
       0.22014555 -0.22324829 -0.16322353 -0.21633415
0003f0 c6 66 24 be 8e d9 2e be 2c df 41 be f7 c5 1b 3e
       -0.1605483 -0.17075178 -0.1893279 0.15212236

lstm.weight_hh_l0 f4 [128, 32]
000000 24 8f fd bd 5a 81 0b 3e 80 00 83 be 63 94 8d 3e
       -0.123808175 0.13623562 -0.2558632 0.27652273
000010 c1 3a 32 3e 3f 31 54 be fb 4e 82 3e 44 56 49 3e
       0.17405225 -0.20721911 0.25450882 0.19661814
000020 a2 81 ed 3d 0d b7 d8 3c f2 b8 04 be a0 fc 91 bd
       0.11596991 0.026454473 -0.12961176 -0.071282625
000030 22 ea 86 3e c1 7b ff 3d 37 46 1f be 39 f7 3c 3e
       0.26350504 0.12474776 -0.15554129 0.18453683
000040 5b e2 41 be ab f5 7f 3e 3c 87 49 3e 2e 10 46 be
       -0.18934004 0.24996059 0.19680494 -0.1934211
000050 28 9b 1c 3e db e2 45 3e d7 93 7d 3d 69 05 86 bd
       0.15293562 0.1932482 0.06190857 -0.06544001
000060 84 7f 36 3e d0 17 45 be b6 fd 4f be ed ce ff bd
       0.17822081 -0.19247365 -0.20311627 -0.1249064
000070 0b 56 67 3e b9 b2 75 be 6b 4f fa bd 28 34 4c be
       0.22591417 -0.23993959 -0.12222179 -0.19941771
000080 f8 7a 35 be f3 63 18 3e 45 62 7e be 64 b8 51 3e
       -0.1772269 0.14881878 -0.24842174 0.20480496
000090 ae 37 04 3e 28 80 58 be e2 b6 44 3e 7c 84 2b 3e
       0.12911865 -0.21142638 0.1921039 0.16749758
0000a0 15 4e 32 3e 9f fd 9c 3c 88 9d 05 be 86 f8 61 bd
       0.17412598 0.019163905 -0.13048375 -0.05516865
0000b0 22 97 7e 3e 01 fa 33 3e 29 c7 a2 bd f8 68 45 3e
       0.2486234 0.17575838 -0.07948143 0.19278324
0000c0 f3 8c 26 be 7a fc 84 3e 51 1f 32 3e ef 16 62 be
       -0.16264705 0.25973874 0.17394759 -0.22079061
0000d0 2c 91 f9 3d e3 87 3e 3e 81 ae fd 3c 7e 0e d9 bd
       0.121858925 0.18606524 0.030966999 -0.10598467
0000e0 82 4f 1f 3e 60 ee 57 be b2 9c ff bd 06 9f 5c bd
       0.15557674 -0.21087027 -0.12481059 -0.053862594
0000f0 0a 44 73 3e dc 46 3d be 3e 6a 8e bd 6e 41 5d be
       0.23756424 -0.18484062 -0.06953858 -0.2160699
000100 f6 04 2f be a5 17 13 3e ad f1 25 be 4e 5c b8 bd
       -0.17091736 0.14364488 -0.16205473 -0.09001981
000110 91 6b cb 3d 9b bc 2d be 63 8c 07 3e b9 e9 24 3e
       0.09932626 -0.16966479 0.13237147 0.16104783
000120 64 9a 28 3e 7b 38 1a 3e f6 71 27 be 08 3a 34 3e
       0.16465145 0.15060608 -0.16352066 0.17600262
000130 1b 67 d9 3d 76 10 ec 3d 3f 5b ee bd e3 d0 b0 3d
       0.10615369 0.11526577 -0.116384976 0.08633592
000140 da 4d f1 bd 7c 65 33 3e b6 94 55 3e 46 bb 07 be
       -0.11782427 0.17519182 0.2085751 -0.13255033
000150 93 70 0e 3e d7 21 22 3e 03 bf ae 3d 16 26 ca 3d
       0.13910131 0.15833221 0.08532526 0.098705456
000160 48 f4 ce 3d ca e9 f8 bd b3 80 b3 bd fd 3d 36 be
       0.10105187 -0.12153967 -0.08764782 -0.17797084
000170 da 20 18 be 88 48 00 3e 46 32 29 be 41 ac 26 be
       -0.14856282 0.12527668 -0.16523084 -0.16276647
000180 21 df 23 be 7a 0a 29 3e e4 3d 5c be 5f 74 c4 3d
       -0.16003086 0.16507903 -0.21507984 0.095925085
000190 c9 a6 25 3e 8d 08 53 be 35 84 1f 3e c4 71 2b 3e
       0.16176905 -0.2060873 0.15577777 0.16742617
0001a0 dd 2f 18 3e c0 6d 29 3e f0 7c 02 be 31 30 08 3e
       0.14862008 0.16545773 -0.12742972 0.13299634
0001b0 4c a7 57 3e 03 ce 53 3e 7d 24 3e be 9f 51 35 3e
       0.21059912 0.20684056 -0.18568607 0.17706917
0001c0 a6 ad 01 be 2d 93 73 3e 69 98 47 3e 63 0a 21 be
       -0.12663898 0.23786612 0.19491734 -0.15726618
0001d0 17 22 f6 3d 1e 60 5c 3e f9 50 44 3e b3 df bb 3d
       0.12018221 0.21521041 0.19171514 0.091735266
0001e0 6c 70 52 3e ae d9 55 be 89 71 f5 bd 65 b0 41 be
       0.20550698 -0.2088382 -0.11984546 -0.18914945
0001f0 c6 0b b9 3a f5 1b a8 bd 27 e7 00 be 71 55 49 be
       0.0014117889 -0.082084574 -0.12588178 -0.196615
000200 2a c6 30 be 2e 41 35 3e 6b 80 56 be ca 67 86 3e
       -0.17263094 0.17700645 -0.20947425 0.2625106
000210 e9 b1 4b 3e 29 50 23 be b6 7d 3e 3e 8a 11 07 3e
       0.19892086 -0.15948547 0.18602642 0.13190284
000220 d3 cb 2a 3e 50 15 a9 3c 5a 0f 24 be a5 41 25 bd
       0.16679315 0.020640045 -0.16021481 -0.040345807
000230 a4 b5 7f 3e 4f 30 3b 3e 4e 03 89 bd 7e f2 0c 3e
       0.24971634 0.18280147 -0.066900834 0.13764378
000240 85 53 2a be 58 9a 28 3e 8a c1 69 3e f4 0c 01 be
       -0.16633423 0.16465127 0.22827736 -0.12602597
000250 03 08 0f 3e ff 4e 27 3e 54 8c b2 bc 79 19 76 bc
       0.139679 0.16338728 -0.02179543 -0.015020722
000260 1e ab f6 3d a3 3a 6a be 6c 8b 1e be c3 04 d6 bd
       0.12044357 -0.2287393 -0.15482873 -0.10450127
000270 3e 61 40 3e 6a d7 3e be 70 0d 1a be 1a da 27 be
       0.18787095 -0.18636861 -0.15044188 -0.16391793
000280 d6 42 56 be 59 78 6c 3e b4 a3 36 be 57 3c 3f 3e
       -0.20923933 0.23092784 -0.17835885 0.18675362
000290 2a 8c 24 3e b7 5a 4f be 47 93 6b 3e 60 5c 30 3e
       0.16069093 -0.20249449 0.230054 0.17222738
0002a0 dd 88 e3 3d 4f 5d fd 3c ef 8c 92 bd 8e 01 6d bd
       0.11110089 0.030928282 -0.07155787 -0.05786281
0002b0 39 21 86 3e 5e 34 0c 3e ea db a3 bd 77 f1 dc 3d
       0.26197222 0.13691851 -0.0800093 0.10788243
0002c0 ed bb 17 be c1 97 54 3e 12 ac 43 3e 19 e2 17 be
       -0.14817782 0.20761015 0.19108608 -0.14832343
0002d0 90 49 a0 3d 96 3d 6f 3e b8 67 fb bc 56 8f fb bd
       0.07826531 0.23363337 -0.030689105 -0.122831985
0002e0 8c 6b 1a 3e 9e 85 20 be 24 27 49 be 4d f1 32 bd
       0.15080088 -0.15675971 -0.19643837 -0.043687154
0002f0 2d 5b 4a 3e 07 80 71 be 60 47 cf bd 16 97 31 be
       0.19761343 -0.23583995 -0.101210356 -0.17342791
000300 39 01 66 bc b5 92 f2 bc a0 e6 44 be c8 cf 75 3d
       -0.014038377 -0.029610971 -0.19228601 0.06001261
000310 4c 59 11 3c 50 a0 c5 b8 4a 7b 37 3e 38 ae 24 3d
       0.008871388 -9.4235525e-05 0.17918125 0.04020521
000320 2b 9d 52 bd 9d a9 ba bc bf 8d 64 bc f0 88 a3 3c
       -0.05141942 -0.022785956 -0.0139498105 0.019962758
000330 dd 18 34 3d 68 f9 26 bd 10 19 f4 3c f6 54 3e 3d
       0.043969024 -0.040765196 0.029797107 0.046467744
000340 64 bd ed bb 16 5a ec 3d 33 f7 2f 3e 97 cb e4 3b
       -0.007255243 0.1154062 0.17184143 0.0069822776
000350 9e 94 38 bd 7b 70 22 3d cf a3 33 bd 36 0f 80 bc
       -0.045063607 0.03965805 -0.043857392 -0.015632253
000360 96 d1 2a bd 3b eb 06 bd 30 8c b2 3c 00 d5 6c 3c
       -0.041703783 -0.032939177 0.021795362 0.01445508
000370 92 6f c9 bb d2 f5 f4 bc c0 62 cd bb 16 37 25 bd
       -0.0061473334 -0.029902373 -0.0062678754 -0.040335737
000380 ae 48 4b be f7 80 1d 3e 59 2d 67 be 59 42 3b 3e
       -0.19851944 0.15381227 -0.22575893 0.18287028
000390 1c 57 e3 3d 35 21 2d be 53 02 3c 3e f3 8a 4c 3e
       0.11100599 -0.16907199 0.18360262 0.1997488
0003a0 28 7e cd 3d 5c a0 7d 3d 5b 59 10 be ee 7b b3 bb
       0.10033828 0.06192051 -0.14096586 -0.00547742
0003b0 f1 df 3c 3e 50 81 67 3e 4e d4 f4 bc 17 a4 3c 3e
       0.18444802 0.22607923 -0.029886391 0.1842197
0003c0 a2 35 6c be 64 4b 2e 3e 64 72 36 3e ea ea 38 be
       -0.23067334 0.17020947 0.17817074 -0.18058363
0003d0 9c 43 86 3d f7 99 2a 3e 39 4c 2d 3d d4 47 82 bd
       0.06555864 0.16660295 0.04230902 -0.063613564
0003e0 6d bb fc 3d 58 60 15 be d9 48 4e be 3c 0a b2 bd
       0.12340436 -0.14587533 -0.20144977 -0.08693358
0003f0 6d 2c 23 3e 0a 20 8f be 02 d6 a8 bd f2 75 03 be
       0.15934916 -0.2795413 -0.08243944 -0.12837961

lstm.bias_ih_l0 f4 [128]
000000 62 e8 4f 3e 77 0e 5d 3e 4d f8 45 3e 74 11 3d 3e
       0.20303491 0.21587549 0.19333 0.18463689
000010 67 57 6c 3e 34 f2 63 3e 5a 72 48 3e cb 4d 2a 3e
       0.23080216 0.22260362 0.19574872 0.16631238
000020 e0 78 19 3e 1c 16 67 3e 7e 22 59 3e 95 e3 1e 3e
       0.14987516 0.22567028 0.21204564 0.15516503
000030 89 1f 5c 3e a6 17 36 3e 2f 01 70 3e 81 52 15 3e
       0.21496405 0.17782459 0.23437952 0.14582254
000040 95 bb 33 3e 90 d9 3f 3e 1f 4b 1f 3e 3b 88 2b 3e
       0.17552026 0.18735337 0.15556 0.16751187
000050 f0 ba 59 3e 48 27 3c 3e 80 06 44 3e 3a fa 58 3e
       0.21262717 0.1837436 0.19143105 0.21189204
000060 18 d1 17 3e 07 f9 52 3e 5f b1 50 3e 4c 8f 3e 3e
       0.14825857 0.20602809 0.20380162 0.18609351
000070 ba 92 74 3e 15 27 20 3e f1 f6 3e 3e 30 07 56 3e
       0.23884097 0.15639909 0.18648888 0.2090118
000080 65 fd c2 bd 9f e3 f8 bd ce 07 64 be a5 8f 0e be
       -0.095209874 -0.1215279 -0.22268602 -0.13921984
000090 b3 a7 cf bd 53 10 13 be 1e fe 28 3e 8f 8c be bd
       -0.10139408 -0.14361696 0.16503188 -0.09304153
0000a0 92 a0 0c be 31 9b 30 be a7 23 07 be 93 7a a8 bd
       -0.13733128 -0.17246701 -0.13197194 -0.08226504
0000b0 eb e7 15 be 39 bb 45 be 0d 71 f8 bd 41 46 ef bd
       -0.14639251 -0.19309701 -0.12130938 -0.11683322
0000c0 7f 2a 07 be e6 a9 0d 3e 40 89 1f be 86 bb 17 be
       -0.13199805 0.13834342 -0.155797 -0.14817628
0000d0 50 6d 92 bd 9b d6 c5 bd 74 55 f0 bd 1d 15 0b be
       -0.07149756 -0.09660073 -0.11735049 -0.13582273
0000e0 ec db bd bd 1b 48 47 bd d9 16 04 be 41 84 bb bd
       -0.092704624 -0.04865275 -0.1289934 -0.09156085
0000f0 97 d0 64 be 4b 53 20 be 78 18 0c be e2 8f cb bd
       -0.22345196 -0.15656774 -0.13681209 -0.09939553
000100 e0 96 25 be 72 a1 13 3e 76 17 b1 bd cb fd c1 bb
       -0.16170835 0.14417055 -0.08647053 -0.005920147
000110 77 e0 1a 3e 08 5c 2d be 13 9d 33 3e 38 98 29 3e
       0.15124689 -0.16929638 0.17540388 0.16561973
000120 8e b6 d1 3d 22 67 aa 3d a5 64 2a be de 66 41 3d
       0.10239898 0.08320452 -0.16639955 0.047217242
000130 c3 97 a0 3d 3b f6 18 3e 3b 52 ea bd d6 f5 1d 3e
       0.07841446 0.1493768 -0.114414655 0.1542581
000140 64 11 14 be 36 9e 1c 3e 57 0b ac 3d dc 9c c2 bd
       -0.14459759 0.15294728 0.084006004 -0.09502575
000150 c2 77 07 3e 6b 48 0b 3e df ef a9 3d 2e 68 d8 3d
       0.13229278 0.13601844 0.08297705 0.10566746
000160 b9 33 04 3e 65 9c e9 bd 32 45 09 be 78 86 0e be
       0.12910356 -0.11406783 -0.13405302 -0.13918483
000170 1b 90 b0 bd d0 3f 48 3d ce ea 1a be 70 0f 29 be
       -0.08621236 0.04888898 -0.15128633 -0.16509795
000180 3c fb 52 3e c9 07 56 3e 13 af 38 3e 09 e1 1c 3e
       0.20603651 0.20901407 0.18035536 0.15320219
000190 57 f7 34 3e de 2f 43 3e 5d 64 51 3e 0a df 6d 3e
       0.17672478 0.19061229 0.20448442 0.23229614
0001a0 fc 62 22 3e a4 bb 61 3e 64 2f 28 3e ec 89 4b 3e
       0.15858072 0.22044235 0.16424328 0.19876832
0001b0 49 37 6e 3e af 9d 5b 3e 13 9e 61 3e 2b a4 61 3e
       0.23263277 0.2144687 0.22032957 0.22035281
0001c0 b9 56 68 3e df 3f 08 3e e0 a7 45 3e f6 8a 35 3e
       0.22689332 0.13305615 0.1930232 0.1772879
0001d0 04 4e 7b 3e 15 28 68 3e 9b 54 37 3e bc 4b 3c 3e
       0.2454148 0.2267154 0.17903368 0.18388265
0001e0 63 99 73 3e 22 be 2f 3e 8c 78 64 3e d7 86 72 3e
       0.23788981 0.17162374 0.2231161 0.2368425
0001f0 b3 8a 29 3e 3a ab 64 3e 98 4a 49 3e e1 bd 46 3e
       0.16556816 0.22330943 0.19657362 0.1940837

lstm.bias_hh_l0 f4 [128]
000000 ec 8d 6c 3e 6e a3 2e 3e fe 95 03 3e 4f 98 28 3e
       0.23101014 0.17054531 0.12850186 0.16464351
000010 81 05 42 3e 07 39 18 3e ed ed 00 3e 81 98 6b 3e
       0.18947412 0.14865504 0.12590761 0.23007394
000020 07 b4 24 3e 47 ef 47 3e dc 9a 45 3e 9c 2b 27 3e
       0.160843 0.19524871 0.19297355 0.1632523
000030 af 0b 28 3e 93 4f 17 3e db ad 2c 3e bb a1 28 3e
       0.16410707 0.14776449 0.16863196 0.16467945
000040 e2 d3 31 3e 94 b6 32 3e 48 33 12 3e 37 b9 6d 3e
       0.17365983 0.1745246 0.14277375 0.23215185
000050 b4 e9 70 3e d7 59 34 3e 34 7f 4c 3e fe c7 74 3e
       0.2352665 0.17612396 0.19970399 0.23904416
000060 ae 77 67 3e 63 1a 13 3e 35 af 68 3e 8b c0 1f 3e
       0.22604248 0.14365534 0.22723086 0.15600793
000070 b9 58 6d 3e 2a 3f 4d 3e e0 a8 2f 3e cf 34 20 3e
       0.23178376 0.20043626 0.17154264 0.15645145
000080 ae 4b ea bd 75 95 8a bd e5 87 5d be 86 8f 40 be
       -0.11440216 -0.06766788 -0.21633871 -0.1880475
000090 27 be 7f bd 03 82 d7 bd 44 04 b8 3d 3f 7a 3c bd
       -0.062437203 -0.10522845 0.089851886 -0.04601502
0000a0 35 35 10 be 89 d9 04 be 47 0b ce bd 2c b5 11 be
       -0.14082797 -0.12973608 -0.10060745 -0.14229268
0000b0 74 5d 33 be 0f b3 2e be 42 26 05 be 8e 82 cc bd
       -0.17516118 -0.17060493 -0.13002875 -0.09985839
0000c0 be ae 9b bd ab 32 19 3e cf a6 43 be f8 10 e2 bd
       -0.07601689 0.14960735 -0.19106601 -0.11038393
0000d0 4a 79 2c be 59 c8 0a be 81 76 02 be da 17 cc bd
       -0.16843143 -0.13552989 -0.12740518 -0.09965487
0000e0 16 01 8c bd ea c8 07 be 8f 2a 03 be 1d 84 b0 bd
       -0.068361446 -0.13260236 -0.12809204 -0.086189486
0000f0 ba a8 1b be a5 a6 50 be 48 16 b1 bd 67 ad 01 be
       -0.15201083 -0.2037607 -0.08646828 -0.12663804
000100 ad 4d 1d be de 23 f6 3d ef 9d 01 be e4 77 5a bd
       -0.15361662 0.1201856 -0.12657903 -0.053336993
000110 96 1c 10 3e 91 12 b6 bd 04 b9 34 3e 7c 0b dd 3d
       0.14073405 -0.0889026 0.17648703 0.10793206
000120 26 cf 10 3e 6b fa 0e 3e 33 48 aa bd 25 06 13 3e
       0.14141521 0.13962714 -0.08314552 0.14357813
000130 aa 4f 6b 3c a7 61 ac 3d 20 cb 1a be 7f dc d0 3d
       0.014362255 0.08417063 -0.15116549 0.10198306
000140 40 b6 23 be ac c3 1b 3e 0f 47 ff 3d 85 61 2b be
       -0.15987492 0.15211362 0.12464725 -0.1673642
000150 cd 8f 05 3e 99 1a 11 3e 72 c8 05 3e 35 e2 b6 3d
       0.13043137 0.14170302 0.13064745 0.08929864
000160 1f 2a f7 3d 14 51 1e be b4 bd 1a be fb b1 d0 bd
       0.12068581 -0.15460616 -0.15111428 -0.10190197
000170 21 73 13 bd 15 8f f7 bc 59 64 d4 bd 75 06 d7 bd
       -0.035998467 -0.030219594 -0.10370702 -0.104992785
000180 9f 73 68 3e 6a 2b 28 3e 60 2a 4f 3e 56 24 56 3e
       0.22700356 0.16422811 0.20231009 0.20912299
000190 42 f2 26 3e 11 af 47 3e 4e 75 28 3e 0a 0d 6b 3e
       0.16303352 0.19500376 0.16450998 0.22954193
0001a0 2d be 64 3e 69 4c 78 3e 1f 05 39 3e e8 54 22 3e
       0.22338171 0.24247898 0.1806836 0.15852702
0001b0 ac 3c 0e 3e 3c 3e 06 3e 80 72 65 3e 4d 05 48 3e
       0.13890332 0.13109678 0.2240696 0.19533272
0001c0 7d 3c 38 3e e2 5c 55 3e d5 ed 38 3e 8a 4a 23 3e
       0.17991824 0.20836213 0.18059476 0.15946403
0001d0 26 a2 2c 3e 60 0f 66 3e b1 1d 4e 3e 44 99 5d 3e
       0.1685873 0.22466803 0.20128514 0.21640497
0001e0 cb 49 1b 3e 23 b0 66 3e 94 c2 48 3e 36 2a 30 3e
       0.15164869 0.22528128 0.19605476 0.17203602
0001f0 3e d7 72 3e 92 e6 35 3e 12 2b 38 3e 39 ac 46 3e
       0.23714921 0.17763737 0.1798518 0.19401635

lin.weight f4 [5, 32]
000000 87 1b 64 be 1f dc 58 3e 27 4f 4f 3e 3a 8d 53 be
       -0.22276126 0.2117772 0.20245038 -0.20659342
000010 89 f1 38 3e 85 7f 59 be 34 2e b2 ba 7b f5 49 3e
       0.18060888 -0.21240051 -0.0013594092 0.1972255
000020 90 b7 49 3e e3 a9 5e 3e f5 49 4f be 1d fa 37 3e
       0.1969893 0.21744494 -0.20243056 0.17966504
000030 65 f0 5a be fb e7 28 3e fb fa 61 be 6f f1 5a 3e
       -0.21380766 0.16494744 -0.22068398 0.21381162
000040 27 cb 2d be ca c3 94 bc 42 10 4e be 99 12 5a be
       -0.16972028 -0.018159766 -0.2012339 -0.21296157
000050 48 e7 31 3e 15 80 38 3e f0 db 5b 3e 53 64 6b 3e
       0.17373383 0.1801761 0.21470618 0.2298749
000060 d2 63 56 3e 12 24 5a be 6b f1 56 be 17 55 40 be
       0.20936516 -0.21302822 -0.20990531 -0.18782459
000070 98 24 61 be 22 7f 4f 3e b2 f7 58 be 57 78 46 be
       -0.21986616 0.20263341 -0.21188238 -0.19381844
000080 6b 61 29 3e 7e 87 43 be b3 3a 0a be d8 a1 33 3e
       0.16541068 -0.19094655 -0.13498954 0.17542207
000090 a0 65 3d be 26 9e 15 3e 08 81 11 3d a2 8d 42 be
       -0.18495798 0.1461111 0.035523444 -0.18999341
0000a0 6d 32 53 be 99 46 62 be 20 8e 2c 3e df af 28 be
       -0.20624705 -0.22097243 0.16851091 -0.1647334
0000b0 99 17 43 3e b5 be 4f be 47 29 f9 3d 61 cc 20 be
       0.1905197 -0.20287593 0.12166076 -0.15702964
0000c0 73 41 41 3e 00 9c 38 bd 67 c0 31 3e 2e 45 47 3e
       0.18872623 -0.04507065 0.17358552 0.19459984
0000d0 a6 91 57 be 9f 67 23 be f5 66 0d be c9 20 56 be
       -0.21051654 -0.15957497 -0.13808806 -0.20910944
0000e0 e1 5b 11 be fc 51 3c 3e 50 dd 50 3e 69 eb 4a 3e
       -0.14195205 0.1839065 0.20396924 0.19816364
0000f0 c7 f5 3a 3e c4 df 4b be 51 ca 4d 3e 92 ce 1a 3e
       0.18257819 -0.19909579 0.20096709 0.15117863
000100 81 6c 02 3e d8 e1 54 be 75 51 2a be ab 31 2c 3e
       0.12736703 -0.20789278 -0.16632636 0.16815822
000110 d1 98 43 be e1 a0 5e 3e cf fc d5 bd 81 97 43 be
       -0.19101264 0.21741058 -0.1044861 -0.19100763
000120 85 2c 11 be ee af 0d be d6 59 22 3e 6e 32 67 be
       -0.14177139 -0.13836643 0.15854582 -0.22577831
000130 bb 96 11 3e 20 3f 1c be 1d 3c 07 3e 28 9d 11 be
       0.14217655 -0.15258455 0.13206525 -0.14220107
000140 97 d7 41 3e 83 17 a4 bd 39 8b fa 3d 2d b6 1e 3e
       0.18929897 -0.08012297 0.12233586 0.15499182
000150 79 c6 64 be 8f 39 54 be 7c 76 5e be 19 3d 2e be
       -0.22341336 -0.20725082 -0.21724886 -0.17015494
000160 c4 95 19 be 36 61 61 3e e0 fb 40 3e 60 de 14 3e
       -0.14998537 0.2200974 0.18846083 0.14537954
000170 5c ce 6b 3e 83 d3 4d be e8 5a 2e 3e 73 ab 67 3e
       0.23027939 -0.20100217 0.17026865 0.22623996
000180 b3 9c 41 3e fa 75 5f be b0 a4 1a be d4 09 14 3e
       0.18907432 -0.21822348 -0.15101886 0.14456874
000190 7c 89 13 be 91 5f 2b 3e d8 c8 5f bc 7a ac 32 be
       -0.14407915 0.16735674 -0.013658725 -0.17448607
0001a0 a6 92 17 be 7e c6 50 be f3 7c 26 3e a0 2a 57 be
       -0.14802036 -0.20388219 0.16258602 -0.21012354
0001b0 84 b9 25 3e 5a 9a 6c be a7 e1 19 3e 29 3f 0c be
       0.1618405 -0.23105755 0.15027486 -0.13695969
0001c0 65 1c 1b 3e f1 f0 ba bd 80 df 32 3e dd 7a 12 3e
       0.1514755 -0.09127987 0.17468071 0.14304681
0001d0 99 0e 15 be 77 7c 68 be 9c 18 2a be 67 0a 32 be
       -0.1455635 -0.2270373 -0.1661095 -0.1738678
0001e0 9f 5d 3f be 02 01 55 3e 0e 13 13 3e fa f0 51 3e
       -0.18688057 0.20801166 0.14362738 0.20502082
0001f0 d9 05 6f 3e 61 0d 21 be cd bf 16 3e 99 de 08 3e
       0.23342074 -0.1572776 0.14721604 0.13366164
000200 8a de 19 3e eb a5 13 be 9c 5b 31 be c0 5d 58 3e
       0.15026298 -0.14418761 -0.17320102 0.21129513
000210 8e 93 49 be 42 a7 10 3e 54 87 a8 bd 0c 15 fc bd
       -0.19685194 0.14126304 -0.08228937 -0.12308702
000220 19 35 11 be f1 0a 1c be fb 56 27 3e a1 a5 53 be
       -0.14180411 -0.15238549 0.16341774 -0.20668651
000230 91 9f f3 3d 2a 55 1f be 96 b9 49 3e 43 71 33 be
       0.11895669 -0.15559831 0.19699702 -0.17523675
000240 13 82 5b 3e 98 49 ca bd 58 50 34 3e c2 76 59 3e
       0.21436338 -0.09877318 0.17608774 0.21236709
000250 c2 4e 3b be 4d 5c 16 be ba 7a 5b be 2f 58 18 be
       -0.18291762 -0.14683647 -0.21433535 -0.1487739
000260 7f a6 44 be e9 d2 39 3e 27 a5 47 3e 36 57 36 3e
       -0.19204138 0.18146862 0.19496594 0.17806706
000270 72 80 29 3e 53 02 ef bd 5b 02 4b 3e 29 da 45 3e
       0.16552904 -0.11670365 0.19825117 0.19321503

lin.bias f4 [5]
000000 5c ea ba 3d 41 bb 86 bd fd d9 03 bd 10 13 2e bd
       0.09126732 -0.065786846 -0.03219031 -0.04249865
000010 82 b2 22 bd
       -0.03972102
