checkpoints/MLE_space_False_length_3_preTrainG_epoch_310.pth (torch_old, 36090 bytes, 7 tensors)

emb.weight f4 [5, 32]
0	0x3e43de7e	0.19127843
1	0x3e89bdf9	0.2690275
2	0x3df23bbc	0.118278
3	0x3e891f70	0.26781797
4	0xbe7bfb54	-0.24607593
5	0x3e862470	0.26199675
6	0x3e60e9eb	0.21964233
7	0x3e82bc29	0.2553418
8	0x3e1f821b	0.15576975
9	0x3d3fec0a	0.046855964
10	0xbe8e1140	-0.27747536
11	0x3e918ead	0.28429165
12	0xbe42dd4a	-0.19029728
13	0x3e1a1179	0.15045728
14	0xbe1dd431	-0.15412976
15	0xbe2d5a63	-0.16929011
16	0xbe2118c6	-0.15732107
17	0x3e5aea4d	0.21378441
18	0x3e6ce09f	0.23132561
19	0xbec071b1	-0.3758674
20	0xbe767d2c	-0.24071187
21	0xbe25cf2b	-0.1619231
22	0xbe20f2d0	-0.15717626
23	0xbebf6bc2	-0.373869
24	0xbe87d0ed	-0.26526585
25	0x3e8c500b	0.27404818
26	0x3de6b166	0.11264305
27	0x3e86ba7c	0.2631415
28	0x3e07fd0a	0.1328012
29	0x3e399eac	0.18126935
30	0x3e1bb7dc	0.15206856
31	0xbe484440	-0.19557285
32	0xbe522672	-0.20522478
33	0xbe1c780d	-0.1528017
34	0xbe69c0c9	-0.22827448
35	0xbe5fe3c8	-0.21864235
36	0x3e4942da	0.19654408
37	0xbe4b811f	-0.19873475
38	0xbe4bf136	-0.19916233
39	0xbe4b3e9c	-0.19848102
40	0xbe21a36a	-0.15784994
41	0xbe2af32d	-0.16694327
42	0x3e30aad3	0.17252664
43	0xbe3940c6	-0.18091115
44	0x3e413631	0.18868329
45	0xbe35125f	-0.1768279
46	0x3e5b3206	0.21405801
47	0x3e387971	0.18015076
48	0x3e11edad	0.14250822
49	0xbe6832ae	-0.22675583
50	0xbe351b1e	-0.17686126
51	0xbe3441ca	-0.17603222
52	0x3e614711	0.21999766
53	0x3e5f5def	0.21813177
54	0x3e5b58ed	0.21420641
55	0xbe2d4505	-0.1692086
56	0x3e385cc0	0.18004131
57	0xbe208416	-0.15675387
58	0xbe291020	-0.16510057
59	0xbe13b512	-0.14424542
60	0xbe30d7ec	-0.17269868
61	0xbe653b76	-0.22385964
62	0xbe51270b	-0.2042505
63	0x3e62cbb2	0.22148016
64	0xbe658c2a	-0.2241675
65	0xbe463956	-0.1935781
66	0xbe67d257	-0.22638832
67	0xbe39b93d	-0.18137069
68	0x3e5821fe	0.21106717
69	0xbdd611b7	-0.104525976
70	0xbe4bad51	-0.19890334
71	0xbe22331f	-0.15839814
72	0xbe62f410	-0.22163415
73	0xbe41b28a	-0.18915763
74	0x3e64d79a	0.2234787
75	0xbe22eaf9	-0.15909947
76	0x3e4767e6	0.19473228
77	0xbe4003a7	-0.18751393
78	0x3e6af97e	0.22946736
79	0x3e47866f	0.19484876
80	0x3e5f2a7f	0.21793555
81	0xbe2ecce0	-0.17070341
82	0xbe122c13	-0.14274625
83	0xbe569328	-0.20954573
84	0x3e40fcce	0.18846437
85	0x3e4cba95	0.1999305
86	0x3e2bd0d7	0.16778885
87	0xbe5837f3	-0.21115093
88	0x3e354d14	0.17705184
89	0xbe50b810	-0.20382714
90	0xbe695d61	-0.22789527
91	0xbe56b251	-0.2096646
92	0xbe54f59c	-0.20796818
93	0xbe16feb9	-0.14745606
94	0xbe6c24ed	-0.23060961
95	0x3e2c1953	0.16806535
96	0xbe550332	-0.20802
97	0xbe29b215	-0.16571839
98	0xbe42a144	-0.1900683
99	0xbe379fbe	-0.1793203
100	0x3e5344ea	0.20631757
101	0xbe369640	-0.17830753
102	0xbe29edc6	-0.1659461
103	0xbe56810e	-0.20947668
104	0xbe461a58	-0.19345987
105	0xbe74ffa9	-0.23925652
106	0x3e482a6d	0.19547434
107	0xbe4c3c06	-0.19944772
108	0x3e296855	0.16543706
109	0xbe43f909	-0.19137968
110	0x3e401d03	0.18761067
111	0x3e5c55fd	0.21517177
112	0x3e30df58	0.17272699
113	0xbe203461	-0.15644981
114	0xbe41bb5c	-0.18919128
115	0xbe45b869	-0.19308628
116	0x3e20b540	0.15694141
117	0x3e2e219e	0.17005011
118	0x3e27e6f2	0.16396692
119	0xbe480bd1	-0.19535758
120	0x3e483311	0.1955073
121	0xbe293e9e	-0.16527793
122	0xbe6dcb71	-0.23222138
123	0xbe4f674c	-0.20254248
124	0xbe1cc9a9	-0.15311302
125	0xbe3268df	-0.17422818
126	0xbe3dbdca	-0.1852943
127	0x3e6894ff	0.22713087
128	0xbe19ecc9	-0.15031733
129	0xbe23d7f5	-0.1600035
130	0xbe595ad0	-0.21226048
131	0xbe33e56f	-0.1756799
132	0x3e5bc2db	0.2146105
133	0xbe3d9238	-0.1851281
134	0xbe4a4320	-0.19752169
135	0xbdfc4ab0	-0.12318933
136	0xbe621dfd	-0.22081752
137	0xbe349ae3	-0.1763721
138	0x3e11114a	0.14166752
139	0xbe089fd5	-0.13342221
140	0x3e23ad32	0.15984038
141	0xbe5e4577	-0.21706186
142	0x3e3caef8	0.1842612
143	0x3e243c03	0.16038518
144	0x3e69f397	0.22846828
145	0xbe137e21	-0.14403583
146	0xbe5e6b55	-0.21720631
147	0xbe5c650e	-0.21522924
148	0x3e368073	0.17822437
149	0x3e5a3a74	0.2131136
150	0x3e5bea44	0.21476084
151	0xbe580804	-0.21096808
152	0x3e1cbeaf	0.15307115
153	0xbe66fa45	-0.22556408
154	0xbe25a42b	-0.16175906
155	0xbe4e888f	-0.2016928
156	0xbe4488e8	-0.1919285
157	0xbe5b0034	-0.21386796
158	0xbe531f34	-0.20617372
159	0x3e19c409	0.15016188

lstm.weight_ih_l0 f4 [128, 32]
0	0xbe15d644	-0.14632517
1	0xbe0925f4	-0.13393384
2	0xbe33945b	-0.17537062
3	0xbe38deb5	-0.18053706
4	0x3dfaa4e0	0.12238479
5	0xbe07894f	-0.13235973
6	0xbe09cf77	-0.13458048
7	0xbe232af1	-0.1593435
8	0xbe19db07	-0.15024959
9	0xbe14ad65	-0.1451927
10	0x3dcc95e6	0.09989528
11	0xbde43169	-0.11142237
12	0x3e3392c4	0.17536455
13	0xbe1c4935	-0.15262301
14	0x3e1d3779	0.15353192
15	0x3e3888f7	0.18020998
16	0x3e1ae13a	0.1512498
17	0xbe0e96f9	-0.13924779
18	0xbe49a117	-0.19690357
19	0xbe8f9115	-0.28040376
20	0x3deda0cb	0.116029344
21	0x3e178e13	0.14800291
22	0x3e170e7c	0.14751619
23	0xbe83516c	-0.25648057
24	0x3e37e9a1	0.17960216
25	0xbdd92783	-0.106032394
26	0xbe281e80	-0.16417885
27	0xbe111c72	-0.14171007
28	0xbe4b25ab	-0.19838588
29	0xbe4a6c41	-0.19767858
30	0xbe3109be	-0.17288873
31	0x3e41d86a	0.18930212
32	0xbe525402	-0.20539859
33	0xbe420386	-0.18946657
34	0xbe3dda96	-0.18540415
35	0xbdf90960	-0.12159991
36	0x3df4926d	0.11941991
37	0xbe1eb909	-0.15500273
38	0xbe261507	-0.16218959
39	0xbdff60e2	-0.12469651
40	0xbe5d2fb3	-0.21600227
41	0xbe152a71	-0.14566971
42	0x3e1c2c1d	0.15251203
43	0xbe065e91	-0.13122012
44	0x3e2593e2	0.16169694
45	0xbe6b0567	-0.2295128
46	0x3e2d666d	0.16933604
47	0x3e36b339	0.17841806
48	0x3e1fcbe6	0.15605125
49	0xbe2836b7	-0.16427122
50	0xbe330e88	-0.17486012
51	0xbe62568b	-0.22103326
52	0x3e178312	0.14796093
53	0x3e545fb4	0.20739633
54	0x3e3265f9	0.17421712
55	0xbe91c108	-0.28467584
56	0x3e413259	0.18866862
57	0xbe2bb8e3	-0.16769747
58	0xbe42f0cf	-0.19037174
59	0xbe3dc32a	-0.1853148
60	0xbe4df889	-0.2011434
61	0xbe5c47ad	-0.21511717
62	0xbe623cd0	-0.2209351
63	0x3e58145d	0.21101518
64	0x3dfa2028	0.122131646
65	0x3e7e39f4	0.24826795
66	0x3e190f22	0.14947179
67	0x3e574dae	0.21025726
68	0xbe1a506f	-0.15069745
69	0x3e59f59c	0.21285099
70	0x3e0f3fa4	0.1398912
71	0x3e2e1556	0.17000327
72	0x3e3d354d	0.18477364
73	0x3d78bc51	0.060726468
74	0xbe31ec9a	-0.17375413
75	0x3e7409b7	0.23831831
76	0xbe036526	-0.12831554
77	0x3e38a43d	0.18031402
78	0xbdef6bce	-0.11690484
79	0xbe21e36b	-0.1580941
80	0xbe377176	-0.17914376
81	0x3e44c097	0.19214092
82	0x3e3c488c	0.1838705
83	0xbe871b91	-0.2638822
84	0xbe2d1540	-0.16902637
85	0xbde8c4c2	-0.113656536
86	0xbe3a2646	-0.18178663
87	0xbe9ee58e	-0.3103451
88	0xbe7305ea	-0.23732725
89	0x3e4b1fc4	0.19836336
90	0x3e0ab95f	0.13547276
91	0x3e4f7e00	0.20262909
92	0x3e0af460	0.13569784
93	0x3e528beb	0.20561187
94	0x3e231444	0.159257
95	0xbe4a521e	-0.19757888
96	0x3c8aaf42	0.016929273
97	0x3de9a238	0.11407894
98	0xbd7bb7d7	-0.06145462
99	0x3c38a019	0.011268639
100	0xbce6f9a7	-0.028195215
101	0x3dfdd34c	0.12393817
102	0x3cfa6535	0.030565837
103	0x3ceda561	0.029009523
104	0xbd0bc02e	-0.034118824
105	0xbded0d56	-0.11574809
106	0xbda7820a	-0.081791
107	0x3da99420	0.08280206
108	0x3ccb79a9	0.024838286
109	0xbdc6b360	-0.09702182
110	0x3dcf3c48	0.101189196
111	0x3da7941d	0.08182547
112	0x3c91fe64	0.017821498
113	0xbc97bb12	-0.01852182
114	0x3d8010a1	0.06253172
115	0xbea32e22	-0.31871134
116	0xbd18ee53	-0.03733666
117	0x3d2f42e1	0.04278839
118	0x3d48718f	0.048936423
119	0xbe945182	-0.28968436
120	0xbcf3ab62	-0.029744808
121	0x3d266f55	0.04063352
122	0xbdbc5f92	-0.09197916
123	0x3d025bd8	0.03182587
124	0xbdcb9985	-0.09941391
125	0xbd2d02ad	-0.04223888
126	0xbdb85cda	-0.09002085
127	0x3c73d92d	0.014883322
128	0xbe366f1d	-0.17815824
129	0xbdb49c3a	-0.0881886
130	0xbe30e16b	-0.1727349
131	0xbdc4cf88	-0.09609896
132	0x3e367e12	0.1782153
133	0xbe0a1132	-0.13483122
134	0xbe2e1956	-0.17001852
135	0xbe2d9a52	-0.169534
136	0xbe44ef76	-0.19231972
137	0xbe5769d5	-0.21036465
138	0x3e284d96	0.16435847
139	0xbdde7f15	-0.10864083
140	0x3e09bcac	0.13450879
141	0xbe27db06	-0.16392145
142	0x3e0e072b	0.13869922
143	0x3e4e86d3	0.20168619
144	0x3e0b2f16	0.1359218
145	0xbddca55e	-0.10773729
146	0xbe0a66ff	-0.13515852
147	0xbe769099	-0.24078597
148	0x3df1ab3d	0.11800239
149	0x3e24c2fa	0.16090003
150	0x3e54e71f	0.2079129
151	0xbe90b13d	-0.28260222
152	0x3dcaf509	0.09910018
153	0xbdc8ec4b	-0.09810694
154	0xbe2d87d6	-0.16946349
155	0xbe449432	-0.19197157
156	0xbe2203df	-0.15821789
157	0xbe5d8296	-0.21631846
158	0xbe292beb	-0.1652066
159	0x3e1f29d6	0.15543303
160	0xbe44ccc7	-0.19218741
161	0xbe2c59aa	-0.16831079
162	0xbe1f5402	-0.1555939
163	0xbe0c2ba8	-0.13688529
164	0x3e4adde1	0.19811203
165	0xbdeffb2c	-0.11717829
166	0xbe322319	-0.17396201
167	0xbe2b50a9	-0.16729988
168	0xbe5ae5ca	-0.2137672
169	0xbe3c38d4	-0.18381053
170	0x3e2ba7bc	0.16763204
171	0xbd877a01	-0.06615067
172	0x3e566c11	0.20939662
173	0xbe510a8f	-0.20414184
174	0x3e1eed48	0.15520203
175	0x3e47057e	0.19435689
176	0x3e490256	0.19629797
177	0xbdd289e6	-0.10280208
178	0xbe236c36	-0.15959248
179	0xbea1b90c	-0.31586492
180	0x3e305fa2	0.17223981
181	0x3e10100e	0.14068624
182	0x3e25a1b5	0.16174968
183	0xbe83c7ed	-0.2573847
184	0x3e22fcf8	0.15916812
185	0xbde74baf	-0.112937324
186	0xbe0ca395	-0.13734277
187	0xbdc159a1	-0.094409235
188	0xbe3b0964	-0.18265301
189	0xbe260013	-0.16210966
190	0xbe1e3925	-0.15451486
191	0x3e45d07e	0.19317815
192	0x3e6023cc	0.21888655
193	0x3e441b73	0.19151096
194	0x3e4cbe6f	0.1999452
195	0x3e4beffb	0.19915764
196	0xbe8f79c3	-0.28022584
197	0x3e59e855	0.21280034
198	0x3e6e67dd	0.23281808
199	0x3e6feb0a	0.23429504
200	0x3e2874e6	0.16450843
201	0x3db73e2e	0.08947407
202	0xbe46057b	-0.19338028
203	0x3e3f539c	0.18684238
204	0xbe3a5703	-0.18197255
205	0x3e703f3b	0.2346162
206	0xbe4aa2b6	-0.19788632
207	0xbe84e643	-0.25956926
208	0xbe448585	-0.19191559
209	0x3e8b5199	0.27210692
210	0x3e817b41	0.25289348
211	0xbe443fb6	-0.19164929
212	0xbe6cf2ff	-0.2313957
213	0xbe706ff0	-0.23480201
214	0xbe0af597	-0.13570248
215	0xbe84b398	-0.2591827
216	0xbe79d5b1	-0.24397923
217	0x3e88d40e	0.26724285
218	0x3e19d57d	0.15022846
219	0x3e859191	0.2608762
220	0x3deee1d5	0.11664168
221	0x3e5a408a	0.21313682
222	0x3e384b17	0.17997395
223	0xbe6c9b3d	-0.23106094
224	0xbe0b5f21	-0.13610508
225	0xbe063a68	-0.13108218
226	0xbe35133a	-0.17683116
227	0xbe11f77d	-0.14254566
228	0x3e510162	0.20410684
229	0xbe491917	-0.19638477
230	0xbe4c6e04	-0.19963843
231	0xbe430ff9	-0.19049062
232	0xbe5afbfb	-0.21385185
233	0xbe2a058e	-0.16603681
234	0x3e26f54b	0.1630451
235	0xbe337233	-0.17524032
236	0x3e4849f4	0.19559461
237	0xbe5d2e41	-0.21599676
238	0x3e1b889a	0.15188828
239	0x3e69d09e	0.22833487
240	0x3e1a4ef9	0.15069188
241	0xbe356e69	-0.177179
242	0xbe53c590	-0.20680833
243	0xbe58c4f8	-0.21168888
244	0x3e41a8ee	0.18912098
245	0x3e180ad4	0.1484788
246	0x3e26a8a7	0.16275273
247	0xbe648419	-0.22316016
248	0x3e4e4ce2	0.20146516
249	0xbe5413cc	-0.20710677
250	0xbe27c3b3	-0.16383247
251	0xbe4f972c	-0.20272511
252	0xbe22eb0a	-0.15909973
253	0xbe281471	-0.16414048
254	0xbe42fa0e	-0.19040701
255	0x3e16066e	0.1465089

lstm.weight_hh_l0 f4 [128, 32]
0	0xbe01205e	-0.12610003
1	0x3e10c388	0.14137089
2	0xbe9b419e	-0.303235
3	0x3eb16b4c	0.34652174
4	0x3e2e9504	0.17049032
5	0xbe4f9ff5	-0.20275863
6	0x3e9471fb	0.2899321
7	0x3e51df91	0.2049544
8	0x3db4fb35	0.088369764
9	0x3b384bfb	0.002812146
10	0xbdbdaac4	-0.092610866
11	0xbdcd6dca	-0.10030706
12	0x3eb272e3	0.34853277
13	0x3e00a114	0.12561446
14	0xbe0d5a3b	-0.13803951
15	0x3e2b6e2c	0.16741246
16	0xbe4bab94	-0.1988967
17	0x3e9227e8	0.2854607
18	0x3e7f0be9	0.24906887
19	0xbe451cf5	-0.19249327
20	0x3dcf1bc8	0.10112721
21	0x3e4c5ede	0.19958064
22	0xbb8d5b01	-0.004313827
23	0xbdde407a	-0.10852142
24	0x3e3118bb	0.1729459
25	0xbe4bf073	-0.19915943
26	0xbe4720fb	-0.19446175
27	0xbdcef3b0	-0.101050735
28	0x3e9934b7	0.2992303
29	0xbeb0de28	-0.34544492
30	0xbdd75ab9	-0.10515351
31	0xbe4db8f9	-0.20090093
32	0xbe364d34	-0.17802888
33	0x3e196176	0.14978585
34	0xbe9aa45d	-0.30203524
35	0x3e95442a	0.29153568
36	0x3e0088d8	0.12552202
37	0xbe5874a7	-0.2113825
38	0x3e6bc341	0.23023702
39	0x3e2f3a3d	0.1711206
40	0x3e2ead69	0.17058338
41	0x3c7cd86e	0.01543246
42	0xbdf48c66	-0.119408414
43	0xbd4d189f	-0.05007231
44	0x3eb17529	0.346597
45	0x3e32aa99	0.1744789
46	0xbda9bb51	-0.08287681
47	0x3e4147e6	0.18875083
48	0xbe2cd9a6	-0.16879901
49	0x3e98ac0c	0.2981876
50	0x3e6e8efd	0.23296733
51	0xbe614847	-0.22000228
52	0x3db75376	0.08951466
53	0x3e419706	0.18905267
54	0x3abb3df9	0.0014285437
55	0xbde733f5	-0.11289207
56	0x3e2c7a46	0.16843519
57	0xbe5ae638	-0.21376884
58	0xbdf2d298	-0.11856574
59	0xbd411b60	-0.047145247
60	0x3e9e414a	0.30909187
61	0xbe997612	-0.29972893
62	0xbd8eb142	-0.06967403
63	0xbe5f7f5c	-0.21825927
64	0xbe1b28a0	-0.15152216
65	0x3e00edf9	0.1259078
66	0xbe843a33	-0.25825652
67	0x3c128b90	0.008944407
68	0x3d9a1324	0.07523182
69	0xbe180953	-0.14847307
70	0x3e3e5a32	0.18589094
71	0x3e14e083	0.1453877
72	0x3e05e440	0.13075352
73	0x3de77e64	0.11303404
74	0xbe03261b	-0.12807505
75	0x3e033d4a	0.12816349
76	0x3e4f0c1c	0.20219463
77	0x3db1fee5	0.086911954
78	0xbdae895c	-0.08522293
79	0x3d7f3fc0	0.062316656
80	0xbdd0ff1e	-0.1020491
81	0x3e6978c7	0.22799979
82	0x3ea1d6f1	0.316093
83	0xbde4f8c6	-0.11180262
84	0x3ddc84f0	0.10767543
85	0x3e0dae5d	0.13836046
86	0x3d0f8a19	0.03504381
87	0x3d3f2f9f	0.046676274
88	0x3d9cf48f	0.07663833
89	0xbdd61382	-0.104529396
90	0xbd7d2f73	-0.06181283
91	0xbe1505d4	-0.14553005
92	0xbd760689	-0.060064826
93	0xbb9785d9	-0.00462411
94	0xbe0ef501	-0.13960649
95	0xbe1154e1	-0.14192535
96	0xbe12d46b	-0.14338844
97	0x3e198357	0.14991508
98	0xbe92ad6c	-0.28647935
99	0x3e74780d	0.2387392
100	0x3e0b41e9	0.13599361
101	0xbe3bdd85	-0.18346222
102	0x3e51ddbc	0.20494741
103	0x3e1edcaf	0.15513872
104	0x3dde6f7f	0.1086111
105	0x3de17de9	0.110103436
106	0xbd9d9ec1	-0.076962955
107	0x3d2b77f4	0.041862443
108	0x3ead37c3	0.33831605
109	0x3e36d8c0	0.17856121
110	0xbe13a97c	-0.14420122
111	0x3e1d542f	0.15364145
112	0xbdef2b75	-0.11678211
113	0x3e9305a1	0.28715232
114	0x3e8c2633	0.27372894
115	0xbe0b54c4	-0.13606554
116	0x3d992dbc	0.07479426
117	0x3e4b2008	0.19836438
118	0x3dce57b3	0.10075321
119	0xbbefbc36	-0.0073161377
120	0x3e3228d8	0.17398393
121	0xbe48eb6d	-0.19621058
122	0xbdb929b0	-0.090411544
123	0xbe13bb30	-0.14426875
124	0x3e40798d	0.18796368
125	0xbe903343	-0.2816411
126	0xbdc355b8	-0.09537834
127	0xbe34a24c	-0.17640036
128	0xbe2b6f16	-0.16741595
129	0x3e36367b	0.1779422
130	0xbe849379	-0.25893763
131	0x3eb17e2d	0.34666577
132	0x3e409ff0	0.18811011
133	0xbe1fc1d2	-0.1560128
134	0x3e63719b	0.22211306
135	0x3e0a383e	0.13498017
136	0x3e15336f	0.14570402
137	0x3c03af10	0.008037344
138	0xbe097b8d	-0.13426037
139	0xbd803350	-0.06259787
140	0x3eade40f	0.33963057
141	0x3e31275f	0.17300175
142	0xbd808830	-0.06275976
143	0x3e061fd1	0.13098074
144	0xbe2b7995	-0.16745599
145	0x3e4d4100	0.20044327
146	0x3e910d2f	0.2833037
147	0xbdfe364f	-0.12412702
148	0x3dceabfb	0.100913964
149	0x3e26f1f3	0.16303234
150	0xbdab257e	-0.083567604
151	0xbd52a011	-0.051422182
152	0x3df51839	0.11967511
153	0xbe6cdf60	-0.23132086
154	0xbe0f975e	-0.14022586
155	0xbdb8374f	-0.08994924
156	0x3e89abb8	0.26888824
157	0xbe991a21	-0.29902747
158	0xbe12981b	-0.14315836
159	0xbe240cc2	-0.16020492
160	0xbe58e2e0	-0.21180296
161	0x3e6c51ba	0.23078051
162	0xbe7106c5	-0.23537739
163	0x3e8dcd68	0.27695775
164	0x3e238544	0.15968806
165	0xbe5347f6	-0.2063292
166	0x3e8b8dd0	0.27256632
167	0x3e314a73	0.17313556
168	0x3df4e349	0.11957414
169	0x3d4872c8	0.04893759
170	0xbd918aa7	-0.07106524
171	0xbd805fb4	-0.06268254
172	0x3eb79d86	0.35862368
173	0x3e0a4372	0.13502291
174	0xbdbf7124	-0.09347752
175	0x3de878c0	0.11351156
176	0xbe1f71d0	-0.1557076
177	0x3e8029e1	0.2503195
178	0x3e8194f1	0.25308946
179	0xbe1b8bba	-0.1519002
180	0x3d3f63e7	0.046726134
181	0x3e6f7185	0.23383148
182	0xbd6bcd4b	-0.05756883
183	0xbe0fae37	-0.14031301
184	0x3e2fc197	0.17163692
185	0xbe24def0	-0.16100669
186	0xbe45b704	-0.19308096
187	0xbd3974cf	-0.045277413
188	0x3e8ff06f	0.28113124
189	0xbeb6991d	-0.3566369
190	0xbde73b39	-0.11290593
191	0xbe381556	-0.17976889
192	0x3bad31b1	0.0052854647
193	0xbd57c445	-0.05267741
194	0xbe385403	-0.18000798
195	0x3d5c70df	0.05381858
196	0xbc1a5f8c	-0.009422194
197	0x3caff313	0.021478212
198	0x3e16913e	0.14703843
199	0x3c90b9a2	0.017666642
200	0xbd877639	-0.06614346
201	0xbd1069e2	-0.035257228
202	0x3b016330	0.0019742958
203	0x3c17d156	0.009266218
204	0xbb12902a	-0.002236376
205	0xbd5afa4e	-0.053461365
206	0x3d30dca7	0.04317918
207	0x3ce484cf	0.02789536
208	0x3c814075	0.015777806
209	0x3d9ecca9	0.077538796
210	0x3e12f2c5	0.14350422
211	0x3ce29bf1	0.02766225
212	0xbd776d9f	-0.060407277
213	0x3ca3db59	0.020002054
214	0xbd6883b2	-0.05676622
215	0xbcaf3692	-0.021388326
216	0xbd838d46	-0.0642343
217	0xbc2f5d03	-0.010703328
218	0x3d23be6f	0.039976534
219	0x3ce61285	0.028085003
220	0xb9faedaa	-0.0004786079
221	0xbcd6b3b1	-0.02620873
222	0x3c164d7c	0.009173747
223	0xbca98d45	-0.020697245
224	0xbe49c33d	-0.19703384
225	0x3e1df9d1	0.15427329
226	0xbe89eb8a	-0.26937515
227	0x3e8dbd1d	0.27683344
228	0x3dd8d220	0.10586953
229	0xbe2b54bc	-0.16731542
230	0x3e5c85cc	0.21535414
231	0x3e4ea16b	0.20178764
232	0x3daf1663	0.08549192
233	0x3d3088e5	0.043099303
234	0xbdf4e426	-0.11957578
235	0xbcd6629c	-0.026170067
236	0x3e8bd204	0.27308667
237	0x3e5a0e6b	0.21294563
238	0xbcc93621	-0.024561943
239	0x3e30d166	0.17267379
240	0xbe697c50	-0.22801328
241	0x3e4d34f9	0.20039739
242	0x3e6a13fc	0.22859186
243	0xbe36378a	-0.17794624
244	0x3cabb7ae	0.020961609
245	0x3e2bf091	0.16790988
246	0xbc29b948	-0.010359116
247	0xbdcc8b8f	-0.09987556
248	0x3e1485ba	0.14504138
249	0xbe179035	-0.14801104
250	0xbe4411ef	-0.19147466
251	0xbd8a23f8	-0.06745142
252	0x3e80eb23	0.25179395
253	0xbec7c5a3	-0.39017972
254	0xbd98b571	-0.07456482
255	0xbe018ed1	-0.12652136

lstm.bias_ih_l0 f4 [128]
0	0x3e6ab32e	0.22919914
1	0x3e7afa3d	0.24509521
2	0x3e704438	0.23463523
3	0x3e7448ac	0.23855847
4	0x3e8699e3	0.2628928
5	0x3e82553f	0.25455663
6	0x3e64eee6	0.22356758
7	0x3e429c6d	0.19004984
8	0x3e3c0021	0.18359424
9	0x3e868d79	0.2627981
10	0x3e7fcc43	0.24980263
11	0x3e48d8e7	0.19613992
12	0x3e8bd45a	0.2731045
13	0x3e5cb75e	0.21554324
14	0x3e89a673	0.26884803
15	0x3e385602	0.1800156
16	0x3e51f1d4	0.20502406
17	0x3e5b9bc8	0.21446145
18	0x3e4dfd81	0.20116235
19	0x3e4ade6b	0.19811408
20	0x3e7e19ae	0.24814484
21	0x3e5db1b2	0.21649817
22	0x3e6f8a12	0.23392513
23	0x3e81a840	0.25323677
24	0x3e3c905a	0.18414441
25	0x3e6f8f2a	0.23394457
26	0x3e6f7453	0.23384218
27	0x3e62f1b3	0.22162513
28	0x3e929dbb	0.28635964
29	0x3e5d1a16	0.21591982
30	0x3e60349c	0.21895069
31	0x3e7512fa	0.2393302
32	0xbe05dfbb	-0.13073628
33	0xbe211a3c	-0.15732664
34	0xbe75c8fe	-0.24002454
35	0xbe2f4bcf	-0.17118762
36	0xbe0c673c	-0.13711256
37	0xbe3825ea	-0.17983213
38	0x3e0ebfd2	0.13940361
39	0xbe018020	-0.12646532
40	0xbe3302c8	-0.1748153
41	0xbe4aad50	-0.19792676
42	0xbe2b10ab	-0.16705577
43	0xbde7b9fb	-0.1131477
44	0xbe370108	-0.17871487
45	0xbe6fd10d	-0.2341959
46	0xbe181019	-0.14849891
47	0xbe1d5c36	-0.15367207
48	0xbe3616aa	-0.17782083
49	0x3e0a64c7	0.13515006
50	0xbe37857d	-0.17922015
51	0xbe36a813	-0.17837553
52	0xbde1018c	-0.10986623
53	0xbe09e48c	-0.1346609
54	0xbe1c0e77	-0.15239893
55	0xbe288722	-0.16457799
56	0xbe05d107	-0.13068019
57	0xbda600ae	-0.081055984
58	0xbe207452	-0.15669373
59	0xbdf8b43d	-0.12143753
60	0xbe7d4011	-0.2473147
61	0xbe47125b	-0.19440596
62	0xbe280171	-0.164068
63	0xbe036b0c	-0.12833804
64	0xbe1f0679	-0.15529813
65	0x3e0d1b60	0.13779974
66	0xbded4a15	-0.11586396
67	0x3ca2f762	0.019893352
68	0x3e1062a0	0.14100122
69	0xbe23da41	-0.16001226
70	0x3e3e461a	0.18581429
71	0x3e22b59d	0.15889592
72	0x3db64033	0.08898964
73	0x3d9446fc	0.07240102
74	0xbe1ca9c1	-0.15299131
75	0x3d05a015	0.03262337
76	0x3ddebac5	0.10875467
77	0x3e12e793	0.14346151
78	0xbdd246e3	-0.10267427
79	0x3e12823d	0.14307494
80	0xbe0addba	-0.13561144
81	0x3e28ad2e	0.16472313
82	0x3de51fe0	0.1118772
83	0xbdb1ccc0	-0.08681631
84	0x3deb18ee	0.11479364
85	0x3e09ffb6	0.13476452
86	0x3d86b32f	0.06577145
87	0x3db9e5b1	0.09077013
88	0x3df6f8e9	0.120591946
89	0xbddc2fb2	-0.10751285
90	0xbdff71b7	-0.12472861
91	0xbe01f63c	-0.12691587
92	0xbd810a72	-0.063008204
93	0x3bf81632	0.0075710053
94	0xbe107c1a	-0.14109841
95	0xbe1fc6fb	-0.15603249
96	0x3e75599c	0.23959965
97	0x3e79e64e	0.2440426
98	0x3e66c376	0.225355
99	0x3e53f0ba	0.20697299
100	0x3e59e14f	0.21277355
101	0x3e695891	0.22787692
102	0x3e72bc4e	0.23704645
103	0x3e860a59	0.2617977
104	0x3e475591	0.19466235
105	0x3e85cea5	0.2613422
106	0x3e52c6d6	0.20583662
107	0x3e772e07	0.24138652
108	0x3e969862	0.29413134
109	0x3e82ee2e	0.25572342
110	0x3e84024f	0.2578301
111	0x3e84c816	0.25933903
112	0x3e8668e4	0.262519
113	0x3e2bdacd	0.16782685
114	0x3e772f84	0.2413922
115	0x3e5ad0f8	0.21368778
116	0x3e91086b	0.28326735
117	0x3e883acb	0.26607355
118	0x3e653d7c	0.22386736
119	0x3e68272d	0.22671194
120	0x3e8f1082	0.27942282
121	0x3e52de8e	0.2059271
122	0x3e8449a0	0.2583742
123	0x3e8dc97a	0.27692777
124	0x3e5b1d10	0.21397805
125	0x3e90e08f	0.28296325
126	0x3e6ef64b	0.23336141
127	0x3e6b9bbe	0.2300863

lstm.bias_hh_l0 f4 [128]
0	0x3e83ac57	0.25717422
1	0x3e4c8f33	0.19976501
2	0x3e2de1e3	0.169807
3	0x3e5fcf86	0.21856508
4	0x3e62e1d7	0.22156464
5	0x3e38f155	0.18060811
6	0x3e1d6a7b	0.1537265
7	0x3e81f392	0.25381142
8	0x3e473b4a	0.1945621
9	0x3e6df425	0.23237665
10	0x3e6c44a1	0.23073055
11	0x3e5120ee	0.20422718
12	0x3e6394d5	0.22224744
13	0x3e3def50	0.18548322
14	0x3e4ff98e	0.20310041
15	0x3e4ba53d	0.19887252
16	0x3e500a20	0.20316362
17	0x3e4e78cb	0.20163266
18	0x3e40e5a5	0.18837602
19	0x3e8687ae	0.2627539
20	0x3e8aa434	0.27078402
21	0x3e55e443	0.20887856
22	0x3e7802c6	0.24219808
23	0x3e8f8f22	0.2803889
24	0x3e861b79	0.26192835
25	0x3e2fb087	0.17157184
26	0x3e83b914	0.2572714
27	0x3e4422f3	0.19153957
28	0x3e8f00bb	0.27930245
29	0x3e851917	0.25995705
30	0x3e50e68e	0.2040045
31	0x3e3f409e	0.18676993
32	0xbe1986e0	-0.14992857
33	0xbdd3e64d	-0.10346661
34	0xbe6f4914	-0.23367721
35	0xbe614bb3	-0.22001533
36	0xbdc905d3	-0.09815564
37	0xbe10d694	-0.14144355
38	0x3d8387bf	0.06422376
39	0xbda2b0cd	-0.07943878
40	0xbe36976b	-0.17831199
41	0xbe1eebac	-0.15519589
42	0xbe0af2a4	-0.13569123
43	0xbe3154e0	-0.17317533
44	0xbe547693	-0.20748357
45	0xbe58c8e1	-0.21170379
46	0xbe20fdd1	-0.15721823
47	0xbe0bfa58	-0.13669717
48	0xbdf98714	-0.12183967
49	0x3e15ed8a	0.14641395
50	0xbe5ba30c	-0.21448916
51	0xbe0ff50c	-0.14058322
52	0xbe53c366	-0.20680007
53	0xbe31c196	-0.17359003
54	0xbe265a41	-0.16245367
55	0xbe037dee	-0.12841007
56	0xbdd9c73f	-0.10633706
57	0xbe28f740	-0.16500568
58	0xbe1f8809	-0.15579237
59	0xbdedb418	-0.11606616
60	0xbe341831	-0.17587353
61	0xbe7765b7	-0.24159895
62	0xbde8e833	-0.113724135
63	0xbe1f5085	-0.1555806
64	0xbe16bd45	-0.14720638
65	0x3de917bd	0.11381481
66	0xbe1fb73e	-0.15597245
67	0xbce178fc	-0.02752351
68	0x3e059ec1	0.13048841
69	0xbda30f0f	-0.079618566
70	0x3e3f620b	0.18689744
71	0x3dcf465f	0.10120844
72	0x3e0313fd	0.12800594
73	0x3e03ea58	0.12882364
74	0xbd8ed27a	-0.06973739
75	0x3e041479	0.12898435
76	0x3d3719ea	0.044702448
77	0x3da04460	0.078255415
78	0xbe0ec56f	-0.13942502
79	0x3db9f557	0.09079998
80	0xbe1a8298	-0.1508888
81	0x3e27d2a3	0.16388945
82	0x3e1c2dc1	0.15251829
83	0xbe22f969	-0.15915455
84	0x3de74902	0.11293222
85	0x3e0fd1e3	0.14044909
86	0x3de8542f	0.11344182
87	0x3d985fb8	0.07440132
88	0x3de5bb8e	0.11217414
89	0xbe179acf	-0.14805149
90	0xbe113161	-0.14178993
91	0xbdb7918b	-0.08963307
92	0xbc519f2d	-0.012794298
93	0xbd928245	-0.07153753
94	0xbdbf86ec	-0.09351906
95	0xbdc47574	-0.09592715
96	0x3e8568fe	0.26056665
97	0x3e4c09eb	0.19925658
98	0x3e7d3ec2	0.24730971
99	0x3e869a01	0.2628937
100	0x3e4bdc38	0.19908226
101	0x3e6dd7c3	0.23226838
102	0x3e49cd40	0.19707203
103	0x3e84a158	0.25904346
104	0x3e84d864	0.25946343
105	0x3e91170a	0.2833789
106	0x3e639c90	0.22227693
107	0x3e4df901	0.20114519
108	0x3e4d3621	0.2004018
109	0x3e307ceb	0.17235152
110	0x3e85ec85	0.26157013
111	0x3e6ff14e	0.23431894
112	0x3e5cb793	0.21554403
113	0x3e78f7d3	0.24313287
114	0x3e6a7578	0.22896373
115	0x3e48908d	0.19586392
116	0x3e536500	0.20643997
117	0x3e872e70	0.26402617
118	0x3e7c0692	0.24611881
119	0x3e84ba5d	0.25923434
120	0x3e45d15a	0.19318143
121	0x3e84e84a	0.25958472
122	0x3e6cdd4b	0.23131292
123	0x3e593656	0.21212134
124	0x3e9234cd	0.2855591
125	0x3e72fc74	0.23729116
126	0x3e5dd6c9	0.21663965
127	0x3e6b8a16	0.23001894

lin.weight f4 [5, 32]
0	0xbe8046ac	-0.25053918
1	0x3e784303	0.24244313
2	0x3e8707dd	0.26373187
3	0xbe7f0259	-0.2490324
4	0x3e581ecf	0.21105503
5	0xbe79ea46	-0.24405774
6	0xbe0f0e2f	-0.13970254
7	0x3e692cb9	0.22770967
8	0x3e69d4f0	0.22835135
9	0x3e804f45	0.25060478
10	0xbe70eecd	-0.23528595
11	0x3e5a74c5	0.21333607
12	0xbe89a964	-0.26887047
13	0x3e4adeb0	0.19811511
14	0xbe80afcc	-0.25134122
15	0x3e7d3b56	0.24729666
16	0xbe509b22	-0.20371678
17	0xbdfe0c70	-0.12404716
18	0xbe879fb3	-0.26489028
19	0xbe79b256	-0.24384436
20	0x3e512d0d	0.20427342
21	0x3e580f66	0.21099624
22	0x3e7edbed	0.24888583
23	0x3e872ba4	0.26400483
24	0x3e7885ac	0.24269742
25	0xbe79705c	-0.24359268
26	0xbe748260	-0.23877859
27	0xbe60709f	-0.21917962
28	0xbe84c7ea	-0.25933772
29	0x3e80bd4a	0.25144416
30	0xbe78d556	-0.24300131
31	0xbe66cb8a	-0.22538581
32	0x3e3b10a1	0.18268062
33	0xbe512fe7	-0.2042843
34	0xbe1aaacf	-0.15104221
35	0x3e4caf61	0.19988777
36	0xbe5035d3	-0.20333032
37	0x3e242188	0.16028416
38	0x3d0facc4	0.03507687
39	0xbe4f7c98	-0.20262372
40	0xbe62a842	-0.22134498
41	0xbe726f1a	-0.23675194
42	0x3e3ca4a4	0.1842218
43	0xbe3930bb	-0.18084995
44	0x3e5b4d74	0.21416265
45	0xbe5eab28	-0.21744978
46	0x3e0f0016	0.13964877
47	0xbe333121	-0.1749921
48	0x3e5cf8ed	0.21579333
49	0xbd60b0a3	-0.054855954
50	0x3e43f9db	0.19138281
51	0x3e55e474	0.20887929
52	0xbe690bb4	-0.2275837
53	0xbe32cd4f	-0.17461132
54	0xbe1ebb98	-0.15501249
55	0xbe66ded2	-0.22545937
56	0xbe25df40	-0.16198444
57	0x3e4e7acf	0.20164035
58	0x3e60addf	0.21941327
59	0x3e5c33a2	0.21504071
60	0x3e4c51b4	0.19953042
61	0xbe625722	-0.22103551
62	0x3e60b883	0.21945386
63	0x3e2f8465	0.17140348
64	0x3e17b37e	0.14814565
65	0xbe6dc6a0	-0.232203
66	0xbe48c0b1	-0.19604756
67	0x3e43ac8b	0.19108789
68	0xbe5ab07b	-0.21356384
69	0x3e7828c8	0.24234307
70	0xbd0dcec0	-0.034621
71	0xbe5c12d4	-0.21491557
72	0xbe210345	-0.15723903
73	0xbe256c32	-0.16154554
74	0x3e394feb	0.18096893
75	0xbe7b6637	-0.2455071
76	0x3e2ec882	0.17068675
77	0xbe2c81a5	-0.1684633
78	0x3e1de281	0.15418436
79	0xbe28370c	-0.16427249
80	0x3e605bed	0.21910067
81	0xbcf3ef31	-0.029777141
82	0x3e1d8a47	0.1538478
83	0x3e378f0f	0.17925666
84	0xbe79fb15	-0.24412186
85	0xbe6ba21c	-0.23011059
86	0xbe763e62	-0.24047235
87	0xbe43ee43	-0.19133858
88	0xbe314a1d	-0.17313428
89	0x3e7e0ed8	0.2481035
90	0x3e56f50b	0.20991914
91	0x3e2bf13b	0.16791241
92	0x3e81cda3	0.253522
93	0xbe690bc3	-0.22758393
94	0x3e45ffb3	0.19335823
95	0x3e81037a	0.25197965
96	0x3e58e285	0.2118016
97	0xbe7a16a4	-0.24422699
98	0xbe35f7e5	-0.17770346
99	0x3e2ba5d2	0.16762474
100	0xbe2e466c	-0.17019051
101	0x3e47af42	0.1950045
102	0x3d0caeda	0.03434644
103	0xbe4eda18	-0.20200384
104	0xbe2b56d4	-0.16732341
105	0xbe6b2585	-0.22963531
106	0x3e40861f	0.18801163
107	0xbe6f13f8	-0.23347461
108	0x3e41f62d	0.18941565
109	0xbe7e66b4	-0.24843866
110	0x3e33cfe1	0.17559768
111	0xbe2659d2	-0.16245201
112	0x3e39b42d	0.18135138
113	0xbd77d12e	-0.060502224
114	0x3e50c2f1	0.20386864
115	0x3e300009	0.17187513
116	0xbe2e2498	-0.17006147
117	0xbe80452e	-0.2505278
118	0xbe44de06	-0.1922532
119	0xbe4b3a12	-0.19846371
120	0xbe5aa614	-0.21352416
121	0x3e7174cf	0.23579715
122	0x3e2d079a	0.16897431
123	0x3e6bbbc8	0.23020852
124	0x3e845f65	0.2585403
125	0xbe3bedde	-0.18352458
126	0x3e32b6a9	0.17452492
127	0x3e2608b7	0.16214262
128	0x3e332207	0.17493449
129	0xbe30ce36	-0.17266163
130	0xbe44418e	-0.19165632
131	0x3e74f1ed	0.23920412
132	0xbe655a90	-0.22397828
133	0x3e2e939b	0.17048495
134	0xbc3c02f3	-0.0114753125
135	0xbe1b7f63	-0.15185313
136	0xbe24a302	-0.16077808
137	0xbe38cab5	-0.18046077
138	0x3e433143	0.1906176
139	0xbe6d8846	-0.23196515
140	0x3e14fa76	0.14548668
141	0xbe32ad1c	-0.17448848
142	0x3e6526a2	0.22378018
143	0xbe5111bb	-0.2041692
144	0x3e7dd19f	0.24786995
145	0xbd513a73	-0.051081132
146	0x3e4ae57b	0.19814102
147	0x3e776d9d	0.24162908
148	0xbe55188c	-0.20810145
149	0xbe34c712	-0.17654064
150	0xbe77fcd7	-0.24217544
151	0xbe334965	-0.17508467
152	0xbe64a898	-0.22329938
153	0x3e5966bf	0.21230601
154	0x3e623752	0.22091416
155	0x3e5201da	0.20508519
156	0x3e459097	0.19293438
157	0xbe147156	-0.14496359
158	0x3e6838b5	0.22677882
159	0x3e65d740	0.22445393

lin.bias f4 [5]
0	0x3d8d0aff	0.06886863
1	0xbd91edf1	-0.07125462
2	0xbc91efaa	-0.017814476
3	0xbcc5221b	-0.024064114
4	0xbc7e8af6	-0.015536061
