checkpoints/MLE_space_False_length_3_preTrainG_epoch_266.pth (torch_old, 36090 bytes, 7 tensors)

emb.weight f4 [5, 32]
000000 a9 14 3f 3e e9 fc 83 3e a9 ba f5 3d fb 67 84 3e
       0.18660225 0.25778893 0.11998493 0.2586058
000010 3b a8 74 be 85 37 80 3e c5 db 59 3e af ca 7a 3e
       -0.238923 0.25042358 0.21275242 0.2449138
000020 1b 96 1d 3e 20 23 6e 3d 10 2d 89 be df a8 8b 3e
       0.15389292 0.058138967 -0.26792192 0.27277276
000030 6c 9e 3b be 36 69 18 3e 13 82 1c be 4c ac 29 be
       -0.18322152 0.14883885 -0.15283994 -0.16569632
000040 db 5f 1d be 70 60 51 3e 37 42 64 3e 38 7c b1 be
       -0.15368597 0.20446944 0.22290884 -0.34665084
000050 63 62 6e be 78 f2 22 be b7 d9 1d be a2 47 b1 be
       -0.23279719 -0.15912807 -0.15415083 -0.34624964
000060 12 96 82 be 7f b4 87 3e 1b 91 ea 3d 01 50 82 3e
       -0.2550512 0.26504895 0.11453458 0.25451663
000070 56 59 06 3e 93 79 34 3e fc 9f 1a 3e 2e 0a 43 be
       0.13120016 0.17624502 0.15100092 -0.19046852
000080 4e 90 50 be 28 a6 1b be 2c a6 67 be 6e e1 5e be
       -0.20367548 -0.15200102 -0.22621983 -0.21765682
000090 6d 04 48 3e 7e a1 4a be d7 9a 4a be ae 49 4a be
       0.19532938 -0.19788167 -0.19785629 -0.19754669
0000a0 af e0 1f be cc 59 28 be 15 db 2f 3e 25 98 38 be
       -0.15613054 -0.16440505 0.17173417 -0.18026789
0000b0 c3 aa 3f 3e 99 32 33 be 9e 5f 59 3e 7a ce 36 3e
       0.18717484 -0.1749977 0.21227881 0.17852202
0000c0 fa 11 10 3e 86 dc 66 be 18 eb 33 be ca 93 2f be
       0.14069358 -0.2254506 -0.1757015 -0.17146221
0000d0 0f 35 60 3e 5a a3 5d 3e fd 8e 59 3e f1 8b 28 be
       0.2189524 0.21644345 0.21245952 -0.16459633
0000e0 f8 7a 37 3e 75 93 1f be 76 f4 26 be 40 bb 12 be
       0.17918003 -0.15583594 -0.16304192 -0.14329243
0000f0 41 b2 2e be 77 a3 63 be 8a 53 4f be 9a 53 61 3e
       -0.17060186 -0.22230326 -0.20246711 0.22004548
000100 24 0f 64 be f9 7a 45 be 14 d6 65 be f2 c9 38 be
       -0.222714 -0.19285192 -0.22444946 -0.18045786
000110 63 fa 56 3e 6b 7b d4 bd df 6d 4a be 2c 51 21 be
       0.20993952 -0.103751026 -0.19768475 -0.15753621
000120 83 4c 61 be aa 3a 3f be 7e 19 64 3e e3 52 22 be
       -0.22001843 -0.18674722 0.2227535 -0.15851931
000130 32 f6 45 3e dd 3f 3e be 15 42 69 3e 6a f4 45 3e
       0.19332197 -0.1857905 0.22779115 0.19331518
000140 94 6b 5d 3e 83 8d 2d be 98 11 11 be 74 1b 52 be
       0.21623069 -0.16948514 -0.14166868 -0.20518285
000150 84 fd 3f 3e 62 1a 4b 3e 53 21 2a 3e 9f b6 53 be
       0.18749052 0.19834283 0.16614275 -0.20675133
000160 0f 7f 34 3e 75 da 4f be 39 5f 67 be 05 cb 55 be
       0.17626594 -0.20298178 -0.22594918 -0.20878227
000170 73 ef 52 be 0a 80 15 be e1 6c 6a be 6b b9 2a 3e
       -0.20599155 -0.14599624 -0.22893097 0.16672294
000180 d3 74 53 be 4a e4 28 be 94 92 40 be e8 a0 36 be
       -0.20650034 -0.16493335 -0.18805915 -0.17834818
000190 f5 0c 52 3e 0a bb 35 be e9 9d 28 be 25 8f 55 be
       0.20512755 -0.17747131 -0.16466488 -0.20855387
0001a0 6a 60 44 be e1 74 72 be 1d 5e 47 3e 71 95 4b be
       -0.19177404 -0.23677398 0.19469495 -0.19881226
0001b0 4f e4 27 3e f1 21 42 be 41 53 3e 3e 45 b2 5a 3e
       0.16395687 -0.1895826 0.18586446 0.21357067
0001c0 a4 0d 2f 3e 5f e4 1e be 0b 91 40 be c7 2a 41 be
       0.17095047 -0.15516804 -0.1880533 -0.18863975
0001d0 99 a7 1f 3e 00 70 2c 3e 2c 25 26 3e a8 75 43 be
       0.15591277 0.168396 0.16225117 -0.19087851
0001e0 8f 54 47 3e ee 51 28 be 03 bb 6b be 94 71 4e be
       0.1946585 -0.16437504 -0.23020558 -0.20160514
0001f0 01 b1 1a be c8 d7 30 be 6c f3 3b be 88 23 67 3e
       -0.15106584 -0.17269814 -0.18354577 0.22572148
000200 55 62 18 be 52 0a 23 be 2f 52 57 be 76 e8 32 be
       -0.1488126 -0.15921906 -0.21027444 -0.1747149
000210 4e 8d 5a 3e a9 b7 3c be 41 f6 48 be 4c 69 fa bd
       0.21342966 -0.18429436 -0.19625188 -0.12227115
000220 1f 69 60 be 15 1a 32 be 70 44 10 3e 07 f9 07 be
       -0.219151 -0.17392762 0.14088607 -0.1327859
000230 e6 2c 22 3e 63 74 5c be f6 ea 3a 3e e0 9d 22 3e
       0.1583744 -0.21528773 0.18253693 0.15880537
000240 d6 27 68 3e 13 31 12 be 95 42 5d be 1e ee 57 be
       0.22671446 -0.14276533 -0.2160743 -0.21086928
000250 d1 73 35 3e 08 8e 58 3e 77 2e 5a 3e a7 87 53 be
       0.17719962 0.2114793 0.21306787 -0.20657216
000260 ed e0 1b 3e 0a 0e 66 be b1 9a 23 be 6b 93 4d be
       0.15222521 -0.22466293 -0.15976979 -0.20075767
000270 91 77 42 be 4e 74 59 be 22 5a 51 be 9b 56 18 3e
       -0.18990923 -0.21235773 -0.20444539 0.14876787

lstm.weight_ih_l0 f4 [128, 32]
000000 6c b6 18 be 44 26 11 be aa c6 33 be e4 dd 3e be
       -0.14913338 -0.14174753 -0.17556253 -0.18639332
000010 10 85 01 3e 5f 3b 0f be c1 f1 0d be b2 fa 29 be
       0.12648416 -0.13987492 -0.13861753 -0.16599539
000020 20 81 1b be 92 0f 13 be 4e 24 da 3d 92 3e f5 bd
       -0.15185976 -0.14361408 0.10651456 -0.11974825
000030 da 5b 37 3e 1d f0 1d be 58 ad 1e 3e 59 04 3b 3e
       0.17906132 -0.15423627 0.15495813 0.18263377
000040 ed d0 1c 3e 05 6d 13 be da 9a 4e be 6a 42 89 be
       0.15314074 -0.14397056 -0.20176259 -0.26808482
000050 c7 b7 f7 3d ef 4d 19 3e 6c f8 18 3e b6 03 7a be
       0.120955996 0.14971136 0.14938515 -0.24415478
000060 ec d2 3e 3e 54 cf e5 bd c8 7a 28 be 6d d2 16 be
       0.18635148 -0.11221185 -0.16453087 -0.14728709
000070 1e 98 4c be 99 24 4d be 9e 5c 32 be f0 06 45 3e
       -0.19979903 -0.20033492 -0.17418143 0.19240928
000080 5c c9 55 be 5e 4e 4b be 5c 34 3e be 5b 92 03 be
       -0.20877594 -0.19854113 -0.18574661 -0.12848799
000090 76 91 fe 3d e7 a8 27 be 88 fe 2a be a3 a4 07 be
       0.12430088 -0.16373025 -0.16698658 -0.13246398
0000a0 89 3a 5f be 8a 70 13 be d7 1d 24 3e 22 41 10 be
       -0.21799673 -0.14398399 0.16027008 -0.14087346
0000b0 62 13 2a 3e ee 10 6d be f9 37 2f 3e 9a b3 39 3e
       0.16608956 -0.2315099 0.17111196 0.18134919
0000c0 d8 2b 22 3e e8 e8 2d be 98 ee 38 be e2 66 54 be
       0.15837038 -0.16983378 -0.18059766 -0.20742372
0000d0 cf 78 1d 3e d7 86 56 3e a5 bd 34 3e 56 ca 8a be
       0.15378116 0.20949875 0.17650469 -0.27107495
0000e0 11 46 49 3e c5 28 33 be 73 7d 43 be 08 7f 44 be
       0.19655634 -0.17496021 -0.19090824 -0.19189084
0000f0 37 c7 4f be d6 8d 5f be 13 e6 63 be 81 e3 5b 3e
       -0.20290838 -0.2183145 -0.22255735 0.21473505
000100 00 cf e0 3d 66 55 71 3e ab 72 0e 3e 81 cd 4a 3e
       0.10976982 0.23567733 0.1391093 0.19804956
000110 f2 ed 0d be 65 cb 4c 3e 78 7a 02 3e c6 1a 21 3e
       -0.138603 0.19999464 0.1274203 0.1573287
000120 d6 e5 30 3e 1e e7 6d 3d e6 a0 25 be f3 6b 67 3e
       0.17275175 0.05808174 -0.16174659 0.22599773
000130 74 a9 eb bd 6a 36 2c 3e bd 43 d7 bd 34 f9 14 be
       -0.1150693 0.16817632 -0.10510967 -0.14548188
000140 7a d0 29 be ea 96 36 3e b1 2a 2f 3e cc e6 7e be
       -0.16583434 0.17831007 0.17106129 -0.2489273
000150 64 58 20 be 72 d2 ce bd fa d4 2c be fa 7c 97 be
       -0.15658718 -0.10098733 -0.16878119 -0.29587537
000160 1b 46 66 be 3a e7 3e 3e 61 7e ff 3d 32 14 43 3e
       -0.2248768 0.18642893 0.12475277 0.19050673
000170 ba 79 fb 3d 85 eb 44 3e 2a 06 17 3e 9c 77 3d be
       0.12279077 0.19230469 0.14748445 -0.18502659
000180 59 a3 60 bb 70 e5 ac 3d 18 08 91 bd c0 1f 82 bc
       -0.003427705 0.08442199 -0.07081622 -0.01588428
000190 c2 03 90 bb b4 a0 c0 3d 76 b9 d6 3b 20 40 b1 39
       -0.004394979 0.09405652 0.0065528704 0.00033807848
0001a0 dc 9e 4c bd fa 78 f1 bd 54 22 5d bd 68 a0 59 3d
       -0.049956188 -0.117906526 -0.053987816 0.05313149
0001b0 4f 16 47 3d d0 00 e8 bd a7 f4 ed 3d 08 34 cf 3d
       0.04860526 -0.1132828 0.11618929 0.10117346
0001c0 97 c1 0e 3d d4 0f 37 bd 1f 7e 15 3d ae 1f 97 be
       0.03485259 -0.04469283 0.03649723 -0.29516357
0001d0 63 ec 3e bc 84 70 71 3d 9a 59 87 3d 25 70 88 be
       -0.011653039 0.058945194 0.06608887 -0.2664806
0001e0 87 1c 9f ba a5 07 59 3c 7b db d1 bd 18 48 aa 3b
       -0.0012139239 0.0132464515 -0.10246941 0.0051965825
0001f0 cf 14 ec bd b5 1d 7f bd 29 c5 d5 bd 76 d3 14 3d
       -0.115274064 -0.06228419 -0.10437996 0.036334477
000200 2b e4 3b be 90 b8 ce bd 36 44 32 be 18 19 d9 bd
       -0.18348758 -0.10093796 -0.17408833 -0.106004894
000210 59 ef 3d 3e 1a bd 16 be 9c 76 35 be e0 f2 38 be
       0.18548335 -0.14720574 -0.17721027 -0.180614
000220 6e 88 48 be a2 31 56 be 83 90 33 3e 98 1f fa bd
       -0.19583294 -0.20917371 0.17535596 -0.12213057
000230 a2 9b 10 3e 2c 81 2b be 6d 56 11 3e c9 6b 53 3e
       0.14121869 -0.16748494 0.14193125 0.20646586
000240 9c 3a 0f 3e 87 82 ed bd b5 0a 13 be 68 a1 65 be
       0.13987201 -0.11597162 -0.14359553 -0.22424853
000250 82 8c 01 3e 18 83 28 3e fa f0 58 3e ee 39 88 be
       0.12651256 0.16456258 0.21185675 -0.26606697
000260 63 ed e1 3d f1 2b de bd 9f 33 2f be 3f 46 4e be
       0.11031606 -0.10848225 -0.17109536 -0.20143984
000270 59 66 25 be 9a c3 62 be 82 44 2c be 22 1b 25 3e
       -0.16152324 -0.22144929 -0.16823009 0.16123632
000280 64 86 4a be a9 96 39 be 83 f4 20 be e6 7c 16 be
       -0.19777828 -0.18123879 -0.15718274 -0.14696082
000290 5c 88 52 3e fc cf 04 be 34 be 39 be 26 dd 36 be
       0.2055983 -0.12969965 -0.18138963 -0.17857799
0002a0 50 c4 5e be 57 3a 3b be dd 17 37 3e 54 59 a3 bd
       -0.21754575 -0.18283974 0.17880197 -0.07976022
0002b0 df 94 5d 3e bd f5 54 be c5 7e 22 3e 4a 32 4c 3e
       0.21638821 -0.20796867 0.15868671 0.19941059
0002c0 2e 58 4d 3e bc ef e3 bd 48 49 2c be 54 34 99 be
       0.20053169 -0.1112971 -0.1682483 -0.29922736
0002d0 b2 4b 39 3e 67 11 14 3e c4 ed 29 3e 18 88 76 be
       0.18095282 0.14459763 0.16594607 -0.24075353
0002e0 20 a9 2e 3e 39 e1 fc bd 8f 94 0e be 63 26 d5 bd
       0.17056704 -0.12347645 -0.13923858 -0.10407712
0002f0 57 b7 3e be 99 81 2b be c0 93 21 be d2 02 4c 3e
       -0.18624626 -0.16748656 -0.15779018 0.19922951
000300 9d f3 56 3e fc 19 3b 3e 1b 1e 43 3e d1 4b 43 3e
       0.20991369 0.18271631 0.19054453 0.1907189
000310 4f 27 8b be 33 ad 50 3e 67 59 65 3e 52 da 66 3e
       -0.27178428 0.2037857 0.22397386 0.2254422
000320 06 03 1f 3e 38 b5 a7 3d 84 8f 3d be 78 a0 36 3e
       0.15528497 0.081888616 -0.18511778 0.17834651
000330 d3 79 30 be ab ab 66 3e a9 51 41 be d7 18 80 be
       -0.17233972 0.22526424 -0.18878807 -0.2501895
000340 1c e3 39 be 63 32 86 3e 16 b3 79 3e d8 c6 38 be
       -0.18153042 0.26210317 0.24384722 -0.18044603
000350 91 06 64 be 95 92 66 be 68 cb 00 be fd 79 7e be
       -0.2226813 -0.22516854 -0.12577593 -0.24851222
000360 0a f7 70 be 64 9b 84 3e c1 1d 10 3e 9f 45 81 3e
       -0.23531738 0.25899804 0.1407385 0.2524843
000370 9e b2 d9 3d 62 26 50 3e 47 e2 2e 3e f5 50 63 be
       0.10629772 0.20327142 0.17078505 -0.22198851
000380 eb 84 0d be b2 49 0d be 8d 9f 34 be c5 32 17 be
       -0.13820235 -0.13797644 -0.17638989 -0.14765461
000390 91 7f 54 3e 36 d7 4f be 0f ce 4f be 8b ff 48 be
       0.20751788 -0.2029694 -0.20293449 -0.19628732
0003a0 ab f0 5b be c4 c4 27 be 72 f5 2c 3e 20 12 3b be
       -0.21478526 -0.16383654 0.16890505 -0.18268633
0003b0 e8 3e 4b 3e 85 1c 5e be c0 4e 1c 3e 1e 8c 6b 3e
       0.19848216 -0.21690567 0.15264416 0.23002669
0003c0 4f 85 1b 3e 02 69 39 be cb f4 57 be 44 25 4c be
       0.15187572 -0.18106464 -0.21089475 -0.1993609
0003d0 dc f3 45 3e 46 19 19 3e cd d8 27 3e 72 e5 57 be
       0.19331306 0.14951047 0.16391297 -0.2108362
0003e0 75 5c 54 3e c7 a2 59 be a5 72 27 be b0 8d 54 be
       0.20738395 -0.21253501 -0.16352327 -0.20757174
0003f0 d7 98 23 be 40 0f 2a be 87 9f 43 be 3a 77 18 3e
       -0.15976273 -0.1660738 -0.19103824 0.14889231

lstm.weight_hh_l0 f4 [128, 32]
000000 6b 71 01 be e9 c4 0f 3e 8f af 96 be 7a c6 a6 3e
       -0.12640922 0.14039959 -0.29430816 0.325733
000010 be f0 2f 3e 40 a6 4f be aa 0b 91 3e 18 c1 50 3e
       0.1718168 -0.20278263 0.2832921 0.2038616
000020 e4 f6 ba 3d 39 65 14 3c a6 54 c7 bd 17 f2 b9 bd
       0.09129122 0.0090573365 -0.09732942 -0.09079378
000030 29 9e a9 3e ca fd 01 3e 7d f6 10 be 41 08 2c 3e
       0.3312848 0.12694469 -0.14156528 0.16800024
000040 84 b4 4a be 23 b1 8e 3e ed f2 74 3e 77 23 45 be
       -0.19795424 0.2786952 0.23920794 -0.1925181
000050 66 09 d7 3d 54 6b 4c 3e 89 7a b3 3b 4b 31 c6 bd
       0.104998395 0.19962817 0.005477254 -0.09677371
000060 b2 95 32 3e 10 bf 4a be b4 14 49 be f9 70 d7 bd
       0.17439917 -0.19799447 -0.19636804 -0.10519595
000070 0e d9 8f 3e 9a bc a5 be 9f 8f da bd f4 c5 4d be
       0.28095287 -0.32370454 -0.10671925 -0.20095044
000080 c1 4f 36 be c5 36 18 3e b9 b5 95 be b3 9f 8b 3e
       -0.17803861 0.14864643 -0.29240206 0.27270278
000090 9f 4c 01 3e 78 14 58 be cb 6d 64 3e 6d f4 2d 3e
       0.12626885 -0.21101558 0.22307508 0.16987772
0000a0 7d 75 30 3e ff d7 a0 3c a0 e0 fa bd 3c ac 32 bd
       0.17232318 0.019634245 -0.12249875 -0.043621287
0000b0 ed 2a a8 3e 4c 4f 33 3e 6b 64 ae bd 4c 58 41 3e
       0.3284525 0.17510718 -0.08515247 0.18881339
0000c0 d2 bd 2b be 4c f4 94 3e c7 aa 63 3e 4a f8 60 be
       -0.1677163 0.29092634 0.22233115 -0.21969715
0000d0 66 8b bc 3d dd 4e 41 3e c5 17 04 3c b1 4a d6 bd
       0.09206276 0.1887774 0.008062308 -0.10463465
0000e0 eb 42 2d 3e e1 92 59 be b6 46 f5 bd 4c 38 4c bd
       0.16920058 -0.21247436 -0.11976378 -0.049858376
0000f0 bf 5d 96 3e 81 a4 8e be ca 5d 90 bd 91 28 5f be
       0.29368398 -0.27859882 -0.07049139 -0.21792819
000100 3d 7c 20 be 7a bb 05 3e d3 e2 71 be df 56 a3 bc
       -0.15672393 0.13059798 -0.23621683 -0.019938884
000110 49 b6 a7 3d 23 0f 1e be 1c 9a 31 3e 18 2f 19 3e
       0.08189065 -0.15435462 0.17343944 0.14959371
000120 5f 03 0f 3e 69 aa fd 3d c8 52 0d be f5 65 11 3e
       0.1396613 0.12386019 -0.1380111 0.1419905
000130 3c 07 2b 3e a6 4c c2 3d af f7 bf bd 6b 01 8e 3d
       0.16701978 0.09487276 -0.09373414 0.06933864
000140 0b 96 da bd 02 cd 5c 3e 16 77 95 3e af d5 f0 bd
       -0.1067315 0.2156258 0.29192418 -0.11759507
000150 cc 16 ee 3d d9 64 13 3e 16 37 48 3d 7f f1 7c 3d
       0.11625442 0.14393939 0.04888066 0.061753746
000160 10 65 ac 3d c3 59 df bd e0 83 8c bd 23 6c 1e be
       0.08417714 -0.109057926 -0.06861091 -0.15470938
000170 9a cd ab bd dd d2 e2 3c 72 5b 16 be e3 57 17 be
       -0.08388825 0.027688438 -0.14683321 -0.1477962
000180 5e b1 18 be f3 7b 1e 3e 38 37 8b be 5c 2e 53 3e
       -0.1491141 0.1547697 -0.27190566 0.20623153
000190 97 41 13 3e 5b 9d 42 be 2f 3e 48 3e 05 29 23 3e
       0.1438049 -0.19005339 0.19554971 0.15933616
0001a0 d4 3b f5 3d 61 b7 ff 3d fb 60 b8 bd e7 23 7b 3d
       0.11974302 0.124861486 -0.090028726 0.061313536
0001b0 16 04 9f 3e f8 2c 40 3e 8b 1d 1f be 08 7c 25 3e
       0.31057805 0.18767154 -0.15538613 0.16160595
0001c0 b2 20 f8 bd a4 35 8e 3e bd e8 83 3e 2e f7 11 be
       -0.12115611 0.277753 0.25763503 -0.14254448
0001d0 41 69 b0 3d d7 39 51 3e de 52 f6 3d 5b ed 68 3c
       0.086138256 0.2043222 0.120275244 0.014216746
0001e0 8e 36 3b 3e 45 9c 4d be 56 4e ca bd 31 3d 20 be
       0.1828253 -0.20079143 -0.09878223 -0.15648343
0001f0 e1 03 22 3e 24 b4 7e be f7 71 d5 bd c6 52 3b be
       0.15821792 -0.24873406 -0.10422128 -0.18293294
000200 89 3d 2c be b2 95 35 3e 6c f0 7e be 02 ad a6 3e
       -0.16820349 0.17732885 -0.24896401 0.3255387
000210 5a 64 42 3e 8e 22 20 be 4d d9 5b 3e 63 74 09 3e
       0.18983594 -0.15638182 0.21469612 0.13423304
000220 5b 84 18 3e df 41 6d 3c c6 85 0e be 42 52 5a bd
       0.1489424 0.014481037 -0.13918218 -0.053301103
000230 79 56 a4 3e 24 ec 32 3e 1c 2e 88 bd 31 fe 06 3e
       0.32097223 0.17472893 -0.0664942 0.13182904
000240 12 d3 2a be 20 96 45 3e 95 6b 8b 3e 0e e7 fe bd
       -0.1668208 0.1929555 0.27230516 -0.12446414
000250 fc 44 d7 3d 2c 73 27 3e c8 ec 97 bd a9 48 23 bd
       0.105112046 0.16352528 -0.07418209 -0.039864216
000260 64 bf f8 3d 13 ff 6b be e7 f7 11 be c8 5e c1 bd
       0.1214588 -0.23046522 -0.14254723 -0.09441906
000270 fe 40 80 3e f0 8d 8d be f3 7f 14 be 6b 66 24 be
       0.25049585 -0.27647352 -0.14501934 -0.16054694
000280 48 6e 58 be 65 8a 6a 3e 87 6d 67 be 75 fa 84 3e
       -0.21135819 0.22904356 -0.22600375 0.25972334
000290 3d c9 23 3e d1 4c 52 be 02 d8 87 3e cc 6f 2f 3e
       0.15994735 -0.20537116 0.26531988 0.17132491
0002a0 53 72 f7 3d 7c f2 57 3d 2a e3 96 bd 95 de 68 bd
       0.120823525 0.052721485 -0.07367547 -0.056852896
0002b0 b9 f0 ae 3e 3f 59 0a 3e b6 10 c3 bd 42 5b e7 3d
       0.34168032 0.13510607 -0.09524672 0.11296703
0002c0 8d c6 1d be f4 cd 78 3e c7 96 78 3e 32 a3 1a be
       -0.15407772 0.24297315 0.24276267 -0.15101317
0002d0 76 1a 48 3d 08 a2 6e 3e d5 4f 53 bd a1 cb 07 be
       0.04885336 0.23303998 -0.051589806 -0.13261272
0002e0 d1 f7 2f 3e fc e8 22 be ab 7b 46 be c0 bb 42 bd
       0.17184378 -0.15909189 -0.19383113 -0.047542334
0002f0 a7 bc 88 3e b6 99 ac be 71 cb e7 bd b5 21 37 be
       0.2670643 -0.33711022 -0.113181 -0.17883952
000300 b3 ae 8b 3b a3 e9 52 bd c4 91 40 be 2f b1 61 3d
       0.004262769 -0.051492345 -0.18805605 0.055100616
000310 db c5 0a bc 25 18 a7 3c d2 24 1c 3e 5a 8e 9a 3c
       -0.008470024 0.020397255 0.15248421 0.018866707
000320 57 93 85 bd 35 d9 0d bd ed 79 a1 3a 38 40 1e 3c
       -0.065222435 -0.034630973 0.0012319662 0.009658866
000330 69 e9 a3 3a 3a bf 56 bd 6c ad 2d 3d ba 38 ed 3c
       0.0012505475 -0.05242846 0.042401716 0.028957713
000340 85 cf 6e 3c 5f a9 a9 3d a0 10 1b 3e 18 b8 d9 3c
       0.014575844 0.08284258 0.1514306 0.02657704
000350 9e 55 74 bd 95 9f ac 3c 3c 14 67 bd be 56 ad bc
       -0.059651963 0.021072188 -0.05641578 -0.021159526
000360 4f 95 81 bd 92 09 43 bc ec 1c 20 3d 57 bd df 3c
       -0.063273065 -0.011904137 0.039090082 0.027311964
000370 9b 28 5a 39 b7 51 e8 bc f1 76 06 3c e2 5a b2 bc
       0.00020805227 -0.028359277 0.008207069 -0.021771852
000380 2c 1f 4a be 70 16 1d 3e 3a d3 84 be 9b 9e 83 3e
       -0.19738454 0.1534059 -0.25942403 0.25706944
000390 5e 15 db 3d 14 45 2b be 37 fa 54 3e 78 9d 4d 3e
       0.10697435 -0.1672557 0.20798574 0.20079601
0003a0 33 87 b3 3d 46 25 44 3d ab 41 fc bd b2 da 9b bc
       0.087660216 0.04788711 -0.12317213 -0.01902518
0003b0 72 42 82 3e 4b 1b 5b 3e fc 97 df bc 14 36 31 3e
       0.2544132 0.2139713 -0.027294151 0.17305785
0003c0 21 a2 68 be 83 98 45 3e 7a d6 5e 3e e9 35 36 be
       -0.22718097 0.1929646 0.21761504 -0.17794003
0003d0 ca 50 c4 3c e6 fe 2b 3e a7 40 48 bb 5a ff b9 bd
       0.023964304 0.16796455 -0.0030556114 -0.090819076
0003e0 2a b4 15 3e da 7f 16 be fb af 45 be 48 bc 90 bd
       0.14619508 -0.14697209 -0.19305412 -0.07067162
0003f0 ba 07 71 3e 21 94 bc be d5 1d 9b bd 16 84 01 be
       0.23538104 -0.36831763 -0.075740494 -0.12648043

lstm.bias_ih_l0 f4 [128]
000000 da a6 65 3e cf 2e 75 3e 8e b0 68 3e ef fa 68 3e
       0.2242693 0.23943637 0.227236 0.22751974
000010 b4 1a 83 3e dd a8 7d 3e 25 47 60 3e dd 30 3d 3e
       0.2560631 0.24771447 0.2190214 0.18475671
000020 9c 0c 35 3e bb d9 82 3e fd b0 77 3e 88 4f 3f 3e
       0.17680591 0.2555674 0.2418861 0.18682683
000030 8f dd 86 3e 2f 88 55 3e 70 bb 85 3e 27 d9 30 3e
       0.2634091 0.20852731 0.26119566 0.17270337
000040 3a 49 4b 3e 53 83 56 3e c3 2b 46 3e 75 7b 44 3e
       0.19852152 0.20948534 0.19352631 0.1918772
000050 2d 81 76 3e 86 f7 56 3e 2f 98 65 3e 79 a4 7a 3e
       0.24072714 0.2099286 0.22421335 0.24476804
000060 a3 ce 34 3e 47 d4 69 3e 05 38 69 3e 20 ae 5b 3e
       0.1765695 0.22834884 0.22775276 0.21453142
000070 7c a8 8d 3e 56 09 52 3e 63 66 59 3e 5c f9 6d 3e
       0.27667606 0.20511374 0.21230464 0.23239654
000080 7e 32 fb bd 50 22 19 be 42 cd 71 be 3d 2a 28 be
       -0.1226549 -0.14954495 -0.23613456 -0.16422363
000090 40 5e 03 be bc be 2f be b0 25 0f 3e 5b 72 f2 bd
       -0.12828922 -0.17162603 0.1397922 -0.11838218
0000a0 33 08 2b be 35 db 42 be 8f 5c 22 be ef ee d8 bd
       -0.16702347 -0.19028933 -0.15855621 -0.10592448
0000b0 e8 f7 30 be 56 04 67 be e0 5a 10 be ea bb 14 be
       -0.17282069 -0.22560248 -0.14097166 -0.14524809
0000c0 b2 23 2a be 8b be 09 3e 45 23 33 be 32 57 2e be
       -0.16615179 0.13451593 -0.17493923 -0.1702545
0000d0 af 47 d1 bd 51 3b ff bd cd 78 14 be d8 33 21 be
       -0.10218751 -0.124624856 -0.14499207 -0.15742433
0000e0 13 7a f8 bd 6f aa 96 bd 23 b0 18 be 34 d6 e8 bd
       -0.12132659 -0.073567264 -0.14910941 -0.11368981
0000f0 c6 f0 76 be 57 d5 3f be 45 0b 20 be 98 2d f5 bd
       -0.24115285 -0.18733726 -0.15629299 -0.11971587
000100 2b 62 20 be a3 5c 0e 3e 76 e7 e4 bd cc e5 56 3c
       -0.15662448 0.13902526 -0.1117696 0.013116311
000110 89 7a 12 3e 8a d5 25 be f6 a9 3c 3e b4 ef 23 3e
       0.14304556 -0.1619474 0.1842421 0.16009408
000120 81 da ba 3d cd 31 99 3d 9b 58 1f be 41 9b 14 3d
       0.091237076 0.07480202 -0.15561144 0.036280874
000130 f0 64 d1 3d b6 be 14 3e b8 a7 d7 bd c7 c1 14 3e
       0.102243304 0.14525875 -0.10530037 0.14527045
000140 aa 32 0c be c8 d0 26 3e c7 57 dc 3d f6 60 b5 bd
       -0.13691202 0.16290581 0.1075893 -0.088563845
000150 a9 38 f0 3d e9 75 0b 3e 60 7a 8d 3d e5 12 c0 3d
       0.11729557 0.13619198 0.06908107 0.09378604
000160 27 71 fb 3d 9a f3 de bd 6e 91 01 be 82 80 04 be
       0.122774415 -0.10886307 -0.12653133 -0.12939647
000170 01 50 8a bd ee 3d 70 3c 90 91 12 be 87 dd 21 be
       -0.06753541 0.014663203 -0.1431334 -0.15807162
000180 19 c0 6e 3e 5c f4 72 3e bc 55 5e 3e 6f a8 48 3e
       0.23315467 0.23726028 0.21712393 0.19595502
000190 f7 39 52 3e c8 6c 61 3e bc d3 6d 3e 73 ba 82 3e
       0.20529924 0.22014153 0.23225302 0.25532874
0001a0 da 01 40 3e 63 c7 81 3e 97 00 4a 3e 55 8f 6d 3e
       0.18750706 0.25347432 0.19726788 0.23199208
0001b0 36 1c 91 3e 56 1a 7e 3e cc ce 7f 3e ac a9 80 3e
       0.28341836 0.24814734 0.2498123 0.2512945
0001c0 47 88 82 3e f0 90 25 3e fc a3 6e 3e c8 4f 53 3e
       0.25494596 0.1616857 0.23304743 0.20635903
0001d0 21 09 8d 3e 59 37 84 3e 46 f3 5a 3e 4b 49 5f 3e
       0.27546027 0.25823477 0.21381864 0.21805303
0001e0 ab ba 8a 3e da d9 4b 3e 14 a8 80 3e 3e c4 89 3e
       0.2709554 0.19907323 0.25128233 0.26907533
0001f0 fc ce 50 3e 0f 20 8b 3e c4 6a 67 3e a7 72 63 3e
       0.20391458 0.27172896 0.22599322 0.22211705

lstm.bias_hh_l0 f4 [128]
000000 2f 26 81 3e c5 c3 46 3e 39 4e 26 3e c9 81 54 3e
       0.25224444 0.19410618 0.16240777 0.20752634
000010 85 e3 5b 3e b5 ef 31 3e ba c2 18 3e 98 7b 7e 3e
       0.2147351 0.17376597 0.14918032 0.24851835
000020 c5 47 40 3e a4 8c 66 3e 5b 29 64 3e 8f 97 47 3e
       0.18777378 0.22514588 0.22281401 0.19491409
000030 43 a7 59 3e 21 c0 36 3e 8a 23 48 3e 62 28 44 3e
       0.21255212 0.17846729 0.19544807 0.1915603
000040 86 61 49 3e 56 60 49 3e e7 13 39 3e 38 56 83 3e
       0.19666108 0.19665655 0.18073998 0.25651717
000050 f6 d7 86 3e 17 2a 4f 3e e3 10 6e 3e 22 39 8b 3e
       0.2633664 0.202309 0.2324863 0.27192026
000060 9e 3a 82 3e a4 f5 29 3e ee 9a 80 3e 60 df 3c 3e
       0.25435346 0.1659761 0.25118202 0.18444586
000070 7c 0b 8a 3e 6c 21 7f 3e 55 18 4a 3e 00 27 38 3e
       0.26961887 0.24915093 0.19735844 0.17983627
000080 62 40 11 be 73 f6 c3 bd 58 4d 6b be 21 2a 5a be
       -0.14184716 -0.09568491 -0.22978723 -0.21305133
000090 de f3 b6 bd 66 6f 08 be 74 53 84 3d ea 22 92 bd
       -0.08933233 -0.13323745 0.0646123 -0.071355656
0000a0 d6 9c 2e be 91 19 17 be 88 3e 02 be 5b ef 29 be
       -0.17052016 -0.14755847 -0.12719166 -0.16595213
0000b0 73 6d 4e be 2a fc 4f be 98 48 19 be 0c 5a 03 be
       -0.20158939 -0.20311037 -0.14969099 -0.12827319
0000c0 26 a1 e1 bd 4e 47 15 3e d4 40 57 be 2b a4 07 be
       -0.11017065 0.14577982 -0.21020824 -0.13246219
0000d0 79 e6 4b be b3 7a 27 be 97 c4 1e be 47 55 f8 bd
       -0.19912137 -0.163554 -0.1550468 -0.1212564
0000e0 40 9f c6 bd 1d 4c 21 be da c3 17 be 0f d6 dd bd
       -0.09698343 -0.15751691 -0.14820805 -0.10831844
0000f0 e6 c8 2d be b3 28 70 be df fb d8 bd 44 7c 16 be
       -0.16971168 -0.23453026 -0.105949156 -0.14695841
000100 f7 18 18 be 45 9a eb 3d f0 85 1b be bc 7e 0c bd
       -0.14853273 0.11504034 -0.15187812 -0.03430055
000110 aa b6 07 3e a6 05 a7 bd e7 c5 3d 3e 82 ba d1 3d
       0.13253275 -0.08155374 0.18532525 0.10240652
000120 27 61 05 3e c3 5f 06 3e 30 30 94 bd 43 d3 07 3e
       0.13025342 0.13122468 -0.072357535 0.13264184
000130 3f 6e 1c 3d a2 f2 a3 3d d9 75 11 be 76 74 be 3d
       0.038191076 0.08005263 -0.14205112 0.09299557
000140 88 d7 1b be 3d f6 25 3e b7 c9 17 3e 84 c3 24 be
       -0.15218937 0.16207214 0.14823042 -0.16090208
000150 bd 68 ec 3d 16 48 11 3e 60 1b ef 3d ec 8c 9e 3d
       0.11543415 0.14187655 0.11675143 0.077417225
000160 cc 33 ea 3d c1 fc 18 be f4 09 13 be 13 a6 bc bd
       0.11435661 -0.14940168 -0.14359266 -0.09211364
000170 d2 e5 8d bc ee fb 83 bd d9 b1 c3 bd 90 a2 c8 bd
       -0.0173215 -0.06444536 -0.09555406 -0.09796631
000180 41 1c 82 3e f9 17 45 3e 08 d1 74 3e df f5 80 3e
       0.2541218 0.19247426 0.23907864 0.25187585
000190 e0 34 44 3e fa eb 65 3e ae e4 44 3e 72 51 81 3e
       0.19160795 0.22453299 0.1922786 0.2525745
0001a0 86 2e 81 3e c8 0f 8d 3e 51 d6 5a 3e 4f 5a 44 3e
       0.25230807 0.27551103 0.21370818 0.19175075
0001b0 c8 3d 42 3e e3 ba 28 3e 9c d1 81 3e 79 b4 67 3e
       0.1896888 0.16477542 0.25355232 0.22627439
0001c0 59 f6 54 3e f6 ad 72 3e f0 e9 61 3e 5d 0f 41 3e
       0.20797099 0.23699173 0.22061896 0.18853517
0001d0 6e 66 4b 3e fe 2a 83 3e 5c bc 71 3e 6a 4b 80 3e
       0.19863293 0.25618738 0.2360701 0.25057536
0001e0 b8 25 3d 3e ee 65 81 3e 33 9a 65 3e de 2b 51 3e
       0.1847142 0.2527308 0.22422104 0.2042689
0001f0 c5 0d 8d 3e 72 7b 67 3e 42 4b 56 3e ff 60 63 3e
       0.27549568 0.22605684 0.20927146 0.2220497

lin.weight f4 [5, 32]
000000 d7 af 7a be 84 df 71 3e 65 bc 80 3e 57 0b 75 be
       -0.2448114 0.2362042 0.25143734 -0.23930107
000010 91 ab 51 3e de 33 73 be 89 41 f7 bd 73 06 63 3e
       0.20475604 -0.23750255 -0.12073047 0.22170429
000020 e3 1d 63 3e e8 70 79 3e 48 cc 69 be a5 07 53 3e
       0.2217937 0.24359477 -0.22831833 0.20608385
000030 10 79 83 be 23 e3 43 3e a0 d1 7a be d9 08 76 3e
       -0.256783 0.19129615 -0.24494028 0.24026813
000040 c2 92 49 be 22 42 d8 bd 0f 13 81 be 3e 31 73 be
       -0.1968489 -0.10559489 -0.25209853 -0.23749253
000050 de aa 4a 3e b2 50 51 3e 2c 5d 77 3e 3b 65 83 3e
       0.19791743 0.20440939 0.24156636 0.2566317
000060 71 56 71 3e d1 0c 73 be a0 64 6e be 26 b0 59 be
       0.23568131 -0.23735358 -0.23280573 -0.21258602
000070 ae 55 80 be 2b 66 76 3e 13 37 72 be 8c 25 60 be
       -0.25065368 0.24062411 -0.23653822 -0.21889323
000080 11 3b 3b 3e 23 dc 50 be 1c 16 1f be f2 c4 4f 3e
       0.18284251 -0.20396475 -0.15535778 0.20289972
000090 86 dd 50 be 2c 28 24 3e 4d db 2e 3d b2 3e 4f be
       -0.20397004 0.1603095 0.04268961 -0.2023876
0000a0 19 7e 63 be fc 99 73 be 95 9d 3d 3e b3 9b 3a be
       -0.22216071 -0.23789209 0.18517144 -0.18223457
0000b0 bf 41 5f 3e 56 2f 5f be ff c1 0f 3e 88 98 33 be
       0.21802424 -0.21795401 0.14038847 -0.17538655
0000c0 f9 84 5c 3e 79 66 43 bd 1f 6c 48 3e 75 1c 56 3e
       0.215351 -0.047705147 0.19572495 0.20909293
0000d0 a5 1d 6a be fa a1 32 be 5c 49 20 be 73 9c 68 be
       -0.22862871 -0.17444602 -0.15652984 -0.2271593
0000e0 06 27 26 be ba a4 4d 3e dd 75 61 3e 93 0c 5d 3e
       -0.16225824 0.2008237 0.22017618 0.21586828
0000f0 26 e1 4e 3e 9d df 65 be 4b 5e 61 3e d5 94 2f 3e
       0.20203075 -0.22448583 0.22008626 0.17146619
000100 23 0b 11 3e 21 d0 66 be 49 d9 3d be 9b a1 39 3e
       0.14164405 -0.22540332 -0.18539919 0.18128054
000110 dd 7f 53 be 3f d3 70 3e 60 2f 41 bd f5 67 55 be
       -0.20654245 0.23518084 -0.04716432 -0.20840438
000120 47 0a 1b be b2 6f 1d be c2 a1 31 3e 2b d5 73 be
       -0.15140639 -0.1537464 0.17346862 -0.23811786
000130 52 60 23 3e 3b 91 26 be 55 59 16 3e 8c d5 20 be
       0.15954712 -0.16266339 0.14682515 -0.15706462
000140 40 de 57 3e 7d 76 25 bd 6e 59 12 3e 90 fa 2f 3e
       0.21080875 -0.040396202 0.14291927 0.17185426
000150 89 18 73 be a2 fe 63 be f6 fe 6d be a8 f2 3b be
       -0.23739828 -0.22265103 -0.23241791 -0.18354285
000160 07 51 29 be 34 3e 76 3e ad f2 4f 3e 43 4b 24 3e
       -0.16534816 0.24047166 0.20307417 0.16044335
000170 fc 49 7a 3e ca 52 5e be 70 7c 3e 3e c7 37 7a 3e
       0.24442285 -0.21711269 0.18602157 0.2443534
000180 3b 31 55 3e fb f6 75 be 8d 37 33 be 9e 1c 28 3e
       0.20819561 -0.24019997 -0.1750166 0.16417167
000190 4a f6 29 be 60 47 43 3e d2 22 0a 3d 63 c4 4a be
       -0.16597858 0.19070196 0.033724613 -0.19801478
0001a0 d5 31 28 be 57 60 67 be 7e a8 3c 3e 1e 8d 6b be
       -0.1642526 -0.22595344 0.1842365 -0.2300305
0001b0 64 b2 3e 3e 74 4e 7b be 8e b5 2f 3e a3 06 22 be
       0.18622738 -0.24541646 0.17159101 -0.15822844
0001c0 d8 33 34 3e 3c 6e 79 bd f8 f1 4d 3e 66 49 2b 3e
       0.17597902 -0.060896143 0.20111835 0.16727218
0001d0 17 60 2a be 81 3f 7c be 4b df 40 be 99 b6 47 be
       -0.16638218 -0.246336 -0.1883518 -0.19503249
0001e0 83 48 56 be ab 95 6c 3e 8a e9 28 3e c1 ed 67 3e
       -0.20926099 0.23103969 0.16495338 0.2264929
0001f0 bc a5 82 3e 96 8c 38 be 49 4f 2e 3e c7 fc 20 3e
       0.2551707 -0.1802238 0.17022432 0.15721427
000200 ba 10 2d 3e bb f7 29 be 50 0c 3b be db 9b 6c 3e
       0.16900912 -0.16598408 -0.18266416 0.23106329
000210 cb a0 5e be 74 59 27 3e d9 d8 c1 bc 1f be 14 be
       -0.21741025 0.16342717 -0.023662971 -0.1452565
000220 f1 53 1f be ce b0 31 be de 69 3c 3e 01 00 67 be
       -0.15559365 -0.17352602 0.1839976 -0.22558595
000230 3b 7c 0b 3e e1 74 2d be d9 8e 5e 3e e0 92 4a be
       0.13621609 -0.16939117 0.2173418 -0.19782591
000240 9a 98 75 3e df 4a 7c bd f3 83 41 3e 23 75 70 3e
       0.23983994 -0.06159484 0.18897991 0.23482184
000250 9d b3 4e be 5b 6d 2d be 10 c2 70 be 54 50 2c be
       -0.20185705 -0.16936247 -0.23511529 -0.16827518
000260 11 bc 5d be cb 8a 51 3e 3a 9c 5b 3e 69 42 4b 3e
       -0.21653773 0.20463102 0.21446314 0.19849552
000270 d1 a2 3d 3e fd 76 0b be 77 4b 61 3e 67 1e 5e 3e
       0.18519141 -0.13619609 0.22001444 0.21691285

lin.bias f4 [5]
000000 4e d8 94 3d 92 29 88 bd ae 4a c2 bc 10 8a cc bc
       0.07267819 -0.06648554 -0.02371725 -0.024968177
000010 d4 0c ad bc
       -0.021124281
