checkpoints/MLE_space_False_length_3_preTrainG_epoch_146.pth (torch_old, 36090 bytes, 7 tensors)

emb.weight f4 [5, 32]
0.18795829 0.23823333 0.13228548 0.2611425 -0.23882066 0.24175623 0.20854935 0.23385592
0.155205 -0.08041939 -0.25740412 0.2604798 -0.17420316 0.14289296 -0.15187863 -0.1619408
-0.15632641 0.1929617 0.21408676 -0.2768106 -0.22373632 -0.15644303 -0.15534931 -0.31845504
-0.24244547 0.25587618 0.12130989 0.24496783 0.09958704 0.17057872 0.15169835 -0.18574584
-0.2025562 -0.15244211 -0.22263654 -0.2170874 0.19363451 -0.19793679 -0.19688863 -0.1970128
-0.1549569 -0.16702473 0.17154473 -0.18028934 0.18567027 -0.1724595 0.21105687 0.17758904
0.13903998 -0.22464627 -0.17521253 -0.16747051 0.21841452 0.21534905 0.21059024 -0.16381183
0.1790657 -0.15546533 -0.16140862 -0.1428489 -0.16966784 -0.22109161 -0.20127262 0.21929573
-0.21859717 -0.19046542 -0.2141653 -0.17689568 0.20548521 -0.10112334 -0.19367516 -0.15375882
-0.215891 -0.18635626 0.21969098 -0.15576942 0.18961163 -0.18186696 0.2238657 0.18978718
0.21171863 -0.16541699 -0.13780873 -0.19965675 0.18455946 0.19432817 0.16141987 -0.20363003
0.17344254 -0.19944926 -0.22147304 -0.20548238 -0.20308024 -0.14179628 -0.2246913 0.16315329
-0.20222414 -0.16157478 -0.18291591 -0.17480013 0.20034663 -0.17365724 -0.16020592 -0.20147784
-0.18768834 -0.2366201 0.19169435 -0.1960542 0.15964903 -0.18712823 0.18182112 0.20933548
0.1665054 -0.15130258 -0.18476976 -0.18209031 0.15283178 0.16453378 0.15762886 -0.18719065
0.19190106 -0.16094756 -0.22571014 -0.1984038 -0.14727817 -0.16867833 -0.17936532 0.2220301
-0.14574644 -0.15773636 -0.20293282 -0.17200583 0.21000195 -0.18244402 -0.19363096 -0.12303327
-0.21647187 -0.17537403 0.13885204 -0.13106629 0.15555885 -0.21219978 0.17970484 0.15680978
0.22358379 -0.14007452 -0.21336605 -0.20639193 0.1748974 0.2087275 0.20960538 -0.20598702
0.15169619 -0.22246318 -0.15657125 -0.19846211 -0.1884343 -0.20939957 -0.20157558 0.14619134
00000000: 2378 403e 70f3 733e d875 073e 78b4 853e
00000010: 678d 74be f28e 773e f68d 553e ed77 6f3e
00000020: 0fee 1e3e ecb2 a4bd 79ca 83be 9c5d 853e
00000030: 5062 32be 8852 123e 1286 1bbe cfd3 25be
00000040: 0814 20be c097 453e 8f39 5b3e 1eba 8dbe
00000050: 221b 65be 9a32 20be e413 1fbe 8a0c a3be
00000060: a043 78be 3402 833e 5271 f83d d9d8 7a3e
00000070: 4af4 cb3d 30ac 2e3e d056 1b3e 2834 3ebe
00000080: e46a 4fbe c919 1cbe d5fa 63be 294c 5ebe
00000090: 2048 463e f1af 4abe 2c9d 49be b9bd 49be
000000a0: 06ad 1ebe 8808 2bbe 6ca9 2f3e c59d 38be
000000b0: 5920 3e3e 3999 30be 4b1f 583e e7d9 353e
000000c0: 7f60 0e3e ac09 66be ea6a 33be 647d 2bbe
000000d0: 0ea8 5f3e 7684 5c3e f8a4 573e 4abe 27be
000000e0: 005d 373e 4e32 1fbe 4d48 25be fb46 12be
000000f0: 68bd 2dbe d765 62be 691a 4ebe 0f8f 603e
00000100: f0d7 5fbe 5e09 43be 264e 5bbe 2424 35be
00000110: b76a 523e c119 cfbd c852 46be f472 1dbe
00000120: 8812 5dbe 2dd4 3ebe acf6 603e 0582 1fbe
00000130: 8d29 423e 553b 3abe 0d3d 653e 9257 423e
00000140: c5cc 583e 1263 29be bb1d 0dbe d272 4cbe
00000150: 28fd 3c3e f7fd 463e 404b 253e 6484 50be
00000160: ec9a 313e 6d3c 4cbe d4c9 62be f969 52be
00000170: 44f4 4fbe 0b33 11be 7a15 66be a811 273e
00000180: d813 4fbe dc73 25be 4f4e 3bbe cefe 32be
00000190: ab27 4d3e 34d3 31be 050d 24be 3550 4ebe
000001a0: 5f31 40be 8a4c 72be 864b 443e 6fc2 48be
000001b0: 097b 233e 8b9e 3fbe 512f 3a3e 0a5c 563e
000001c0: 6480 2a3e 10ef 1abe 4934 3dbe e275 3abe
000001d0: ef7f 1c3e 8b7b 283e 7669 213e e8ae 3fbe
000001e0: b681 443e 70cf 24be 8f20 67be 5e2a 4bbe
000001f0: 17d0 16be 03ba 2cbe 8bab 37be dc5b 633e
00000200: 8e3e 15be a485 21be 9fcd 4fbe 4c22 30be
00000210: c00a 573e 9bd2 3abe 3247 46be def8 fbbd
00000220: cdaa 5dbe 4095 33be 3b2f 0e3e 3e36 06be
00000230: d24a 1f3e e64a 59be 8c04 383e be92 203e
00000240: 26f3 643e b26f 0fbe a17c 5abe 6858 53be
00000250: 4e18 333e a9bc 553e cba2 563e 43ee 52be
00000260: 3f56 1b3e 63cd 63be 3754 20be a739 4bbe
00000270: ecf4 40be d76c 56be d469 4ebe 2fb3 153e

lstm.weight_ih_l0 f4 [128, 32]
-0.14975183 -0.150674 -0.17337678 -0.18939553 0.12834342 -0.14539197 -0.14121734 -0.17231429
-0.15165377 -0.1524903 0.11257989 -0.13234288 0.18183705 -0.15522574 0.1550612 0.18362236
0.14670451 -0.1520762 -0.20569408 -0.24889112 0.12537897 0.15029845 0.15007864 -0.22661392
0.19276816 -0.1171251 -0.16160713 -0.15182067 -0.20082563 -0.20251937 -0.17399181 0.19443421
-0.21006966 -0.21029632 -0.18357909 -0.13347939 0.12726611 -0.1721487 -0.17063102 -0.14153183
-0.2181895 -0.15588184 0.1688873 -0.14999856 0.1697603 -0.23321614 0.17154673 0.18311222
0.15840077 -0.17472628 -0.18576577 -0.18705674 0.15962085 0.21049769 0.17758265 -0.2535641
0.20523556 -0.18203934 -0.18701726 -0.19813213 -0.20721275 -0.22109687 -0.22265387 0.21778561
0.092138804 0.20958759 0.13436869 0.18339105 -0.12244191 0.18171707 0.10889649 0.1359306
0.15504472 -0.18672471 -0.14136736 0.21187446 -0.092750765 0.14625566 -0.08626977 -0.124457695
-0.1465306 0.15555935 0.1525147 -0.23765308 -0.13592283 -0.081983276 -0.15350452 -0.2822299
-0.20282312 0.16938615 0.10562511 0.17139766 0.08232563 0.17347685 0.12975472 -0.16562745
-0.0073540932 0.05975879 -0.059671924 -0.021129979 -0.00072488387 0.077632114 -0.0020531558 -0.017151024
-0.048214484 -0.17743927 -0.037835576 0.03443269 0.06239965 -0.12061652 0.119866304 0.11037612
0.03223259 -0.06200191 0.024006885 -0.2600563 0.0030703356 0.06365359 0.0690919 -0.23721646
0.017336098 0.00050538353 -0.101141684 -0.0075838943 -0.14492385 -0.070128724 -0.1066466 0.04706105
-0.18408564 -0.11004351 -0.17158377 -0.10864946 0.18716286 -0.15567037 -0.17982279 -0.18438701
-0.19842817 -0.22385807 0.1769617 -0.124299474 0.14422636 -0.16879398 0.14249916 0.20757113
0.145257 -0.12397559 -0.14806496 -0.2031451 0.13129167 0.16569112 0.215517 -0.25042352
0.11730556 -0.11362428 -0.17281763 -0.20542343 -0.16877058 -0.22396882 -0.168197 0.16305883
-0.19822961 -0.19679946 -0.15449734 -0.1547661 0.20862913 -0.13782208 -0.1852535 -0.18905964
-0.2151421 -0.19429895 0.18769297 -0.08759287 0.2204655 -0.20930262 0.15694194 0.20072387
0.19499345 -0.118375815 -0.17352986 -0.2782666 0.1869903 0.14535712 0.1664817 -0.21963781
0.18243198 -0.13339293 -0.13574441 -0.114615396 -0.19083267 -0.16995846 -0.15765467 0.20210674
0.1745226 0.1553154 0.15593731 0.16269885 -0.24222234 0.17490354 0.19222756 0.19731487
0.112030305 -0.20868929 -0.15852003 0.15494129 -0.13273531 0.17854121 -0.14422205 -0.20478775
-0.14124617 0.22795632 0.21160378 -0.16115671 -0.19150583 -0.1815792 -0.0896481 -0.22373848
-0.2067066 0.23149967 0.09811855 0.22427537 0.045387924 0.16072278 0.12791792 -0.17957526
-0.13669953 -0.14572574 -0.17733407 -0.14771993 0.20697886 -0.2071138 -0.20279945 -0.19706713
-0.21644567 -0.17709692 0.17165066 -0.18198542 0.1981968 -0.22166608 0.1547884 0.22978663
0.15576012 -0.17998053 -0.21237516 -0.18839246 0.1950865 0.15471184 0.1669526 -0.20112896
0.21201162 -0.21528631 -0.1664818 -0.20974651 -0.16481672 -0.17030104 -0.19097261 0.15055934
00000000: 8b58 19be 494a 1abe af89 31be e7f0 41be
00000010: 756c 033e a2e1 14be 479b 10be 2873 30be
00000020: 204b 1bbe 6b26 1cbe 4990 e63d e484 07be
00000030: 7e33 3a3e 7ff3 1ebe 5dc8 1e3e 8007 3c3e
00000040: b539 163e ddb9 1bbe 78a1 52be 50dd 7ebe
00000050: 5863 003e d6e7 193e 37ae 193e 7b0d 68be
00000060: 0465 453e 49df efbd 577c 25be e176 1bbe
00000070: 3ca5 4dbe 3d61 4fbe e92a 32be c319 473e
00000080: 801c 57be eb57 57be 28fc 3bbe d2ae 08be
00000090: 0c52 023e c047 30be e6b9 2ebe b8ed 10be
000000a0: 116d 5fbe 7d9f 1fbe cbf0 2c3e 3999 19be
000000b0: a5d5 2d3e 36d0 6ebe f2a9 2f3e c581 3b3e
000000c0: d033 223e 72eb 32be 6239 3ebe cd8b 3fbe
000000d0: a673 233e b58c 573e 3ad8 353e 27d3 81be
000000e0: 4529 523e 8568 3abe 7481 3fbe 26e3 4abe
000000f0: 942f 54be 3867 62be 60ff 63be 3103 5f3e
00000100: 45b3 bc3d 219e 563e f297 093e ddca 3b3e
00000110: d3c2 fabd 0a14 3a3e 1f05 df3d 6431 0b3e
00000120: 0bc4 1e3e c334 3fbe 9bc2 10be 9ef5 583e
00000130: 1df4 bdbd 0bc4 153e 35ae b0bd ade3 febd
00000140: 1e0c 16be f34a 1f3e d02c 1c3e 545b 73be
00000150: 5b2f 0bbe d9e6 a7bd 4a30 1dbe 7080 90be
00000160: ddb0 4fbe 9073 2d3e fa51 d83d de82 2f3e
00000170: 579a a83d eaa3 313e 6cde 043e 3e9a 29be
00000180: 9bfa f0bb a2c5 743d 8c6a 74bd c718 adbc
00000190: 2206 3eba 96fd 9e3d 3d8e 06bb 4e80 8cbc
000001a0: 8d7c 45bd a4b2 35be 7af9 1abd 4b09 0d3d
000001b0: c796 7f3d cb05 f7bd 777c f53d e00c e23d
000001c0: 5206 043d b7f5 7dbd 16aa c43c 1926 85be
000001d0: af37 493b d05c 823d 0e80 8d3d dfe8 72be
000001e0: 6f04 8e3c b77b 043a 5f23 cfbd 5182 f8bb
000001f0: eb66 14be a69f 8fbd 8869 dabd 16c3 403d
00000200: f280 3cbe 7e5e e1bd a8b3 2fbe 9c83 debd
00000210: 9fa7 3f3e 0e68 1fbe 7723 38be f3cf 3cbe
00000220: c130 4bbe 0d3b 65be 7335 353e b990 febd
00000230: 13b0 133e 54d8 2cbe 4deb 113e 878d 543e
00000240: 40be 143e eae6 fdbd 579e 17be 4505 50be
00000250: 5371 063e efaa 293e 7db0 5c3e 8337 80be
00000260: e63d f03d d9b3 e8bd 1bf7 30be 855a 52be
00000270: 32d2 2cbe 1558 65be d63b 2cbe e5f8 263e
00000280: b4fc 4abe cc85 49be 8d34 1ebe 017b 1ebe
00000290: e0a2 553e 3b21 0dbe 18b3 3dbe da98 41be
000002a0: 364e 5cbe 4ef6 46be 9632 403e e463 b3bd
000002b0: b5c1 613e 6d53 56be 63b5 203e 8f8a 4d3e
000002c0: 5dac 473e 056f f2bd d0b1 31be f678 8ebe
000002d0: 637a 3f3e 7fd8 143e 2e7a 2a3e bce8 60be
000002e0: 73cf 3a3e 2898 08be 9500 0bbe 7abb eabd
000002f0: a469 43be 9709 2ebe 3a70 21be 12f5 4e3e
00000300: 0db6 323e 000b 1f3e 08ae 1f3e 879a 263e
00000310: 2209 78be ea19 333e 4dd7 443e e90c 4a3e
00000320: 2570 e53d a5b2 55be 1353 22be eea8 1e3e
00000330: c4eb 07be 82d3 363e f2ae 13be e1b3 51be
00000340: d6a2 10be 626d 693e a9ae 583e 4406 25be
00000350: 1b1a 44be e6ef 39be 6c99 b7bd b31b 65be
00000360: e5aa 53be 400e 6d3e 61f2 c83d 71a8 653e
00000370: b0e8 393d 8394 243e eafc 023e 94e2 37be
00000380: f6fa 0bbe 2139 15be 1097 35be e543 17be
00000390: 44f2 533e a415 54be a9aa 4fbe f7cb 49be
000003a0: efa3 5dbe e558 35be 31c5 2f3e 635a 3abe
000003b0: 1af4 4a3e 6ffc 62be da80 1e3e 304d 6b3e
000003c0: 957f 1f3e d14c 38be e078 59be f4e9 40be
000003d0: c1c4 473e c86c 1e3e 9ff5 2a3e c0f4 4dbe
000003e0: 9319 593e 0474 5cbe 347a 2abe cac7 56be
000003f0: b7c5 28be 6563 2ebe 538e 43be 3a2c 1a3e

lstm.weight_hh_l0 f4 [128, 32]
-0.1210023 0.13764344 -0.2822502 0.32808828 0.1689744 -0.20651557 0.27253273 0.19785972
0.10736616 0.0048826816 -0.11559208 -0.102492966 0.30688334 0.11899748 -0.14271359 0.1820901
-0.19090779 0.26777616 0.22477849 -0.19219303 0.14479928 0.1906256 0.034453534 -0.10159307
0.1726472 -0.19420043 -0.19661376 -0.11181783 0.2747035 -0.294992 -0.116010256 -0.1975587
-0.17543629 0.15123977 -0.2758245 0.2554015 0.12531392 -0.21189658 0.21115817 0.16972086
0.16762453 0.0018293752 -0.11935381 -0.07975742 0.29318613 0.17183422 -0.06912944 0.19165508
-0.16516016 0.27853617 0.20297486 -0.22066951 0.11538536 0.18469864 0.009547311 -0.13524556
0.15166022 -0.21359272 -0.119627506 -0.04346347 0.28198788 -0.23942216 -0.06497716 -0.21542224
-0.16156755 0.13603851 -0.2132628 -0.034821518 0.08808246 -0.16023836 0.15799718 0.15393738
0.15063505 0.13188079 -0.14759283 0.15289655 0.18373464 0.10167639 -0.10146834 0.075203784
-0.11076708 0.20113243 0.26258498 -0.1231159 0.126484 0.14794432 0.06422533 0.073940516
0.088400275 -0.11403632 -0.07606067 -0.16277175 -0.10875864 0.06549635 -0.15296489 -0.1528003
-0.15039933 0.15835737 -0.2519528 0.16802147 0.1493327 -0.19666053 0.17757088 0.16126262
0.13161695 0.13903338 -0.106574796 0.097597666 0.2742678 0.19151229 -0.16618694 0.16527286
-0.121106684 0.2596559 0.2340303 -0.14768825 0.10492552 0.20446558 0.1601255 0.053007297
0.19111815 -0.20233592 -0.10641279 -0.16913873 0.06277272 -0.15673582 -0.11145736 -0.18633385
-0.17058793 0.17977755 -0.23742169 0.31294778 0.19468035 -0.16014871 0.20566307 0.13438088
0.15939817 0.00024641273 -0.14722405 -0.06930995 0.29414454 0.17842104 -0.054965716 0.13657045
-0.16908462 0.1840064 0.25784516 -0.1260634 0.13233508 0.16182274 -0.047113817 -0.04887931
0.11601893 -0.23188414 -0.14904298 -0.09234365 0.23424248 -0.24039975 -0.14535435 -0.16332656
-0.20531806 0.23180468 -0.20538855 0.23329495 0.15411462 -0.2008527 0.24908821 0.17305839
0.101031326 0.009224361 -0.056202125 -0.084512204 0.30450305 0.129856 -0.065440096 0.10416418
-0.14948942 0.22636072 0.21970224 -0.14603268 0.06827853 0.2299467 -0.05509004 -0.15386066
0.14380595 -0.15797465 -0.1880923 -0.029155174 0.23872411 -0.28651917 -0.09340203 -0.1704977
-0.006614602 -0.036246132 -0.22601648 0.07948818 0.0009707976 0.007033981 0.19277053 0.033677567
-0.059810735 -0.03256621 -0.004895578 0.00932058 0.075689934 -0.048907645 0.038624518 0.03891194
-0.00073725096 0.12944856 0.20681933 0.014161479 -0.053306665 0.03216568 -0.054040477 -0.026876401
-0.04969697 -0.026325602 0.029884998 0.023305243 0.008854526 -0.051533382 0.0017532158 -0.033004288
-0.19827878 0.15787983 -0.2536167 0.2325741 0.108958945 -0.17132598 0.20340648 0.2035248
0.095857 0.04685212 -0.13199516 -0.028040705 0.22914393 0.22413014 -0.021638408 0.18496692
-0.23466901 0.18971777 0.20765243 -0.182208 0.060992528 0.16696912 0.023107363 -0.09075965
0.12139623 -0.15025584 -0.19807181 -0.078615926 0.2023064 -0.33319578 -0.07981596 -0.12951781
00000000: 0ed0 f7bd 67f2 0c3e 1983 90be 30fb a73e
00000010: a007 2d3e d178 53be 6989 8b3e bd9b 4a3e
00000020: cae2 db3d e7fe 9f3b 8abb ecbd d5e7 d1bd
00000030: d01f 9d3e f3b4 f33d 8323 12be d475 3a3e
00000040: 557d 43be f519 893e 552c 663e 40ce 44be
00000050: 4346 143e 5b33 433e 261f 0d3d 0710 d0bd
00000060: 6dca 303e 7adc 46be 1e55 49be bf00 e5bd
00000070: f0a5 8c3e 3109 97be c996 edbd d44c 4abe
00000080: 92a5 33be 99de 1a3e de38 8dbe fcc3 823e
00000090: 4b52 003e 6bfb 58be d939 583e 4ecb 2d3e
000000a0: c4a5 2b3e a5c7 ef3a c56f f4bd dc57 a3bd
000000b0: 7e1c 963e 4ff5 2f3e bc93 8dbd 3b41 443e
000000c0: bf1f 29be 4b9c 8e3e a4d8 4f3e 30f7 61be
000000d0: 294f ec3d a421 3d3e 536c 1c3c d07d 0abe
000000e0: d14c 1b3e 0db8 5abe 44ff f4bd c006 32bd
000000f0: b760 903e 152b 75be bf12 85bd a697 5cbe
00000100: f771 25be ae4d 0b3e 9061 5abe 02a1 0ebd
00000110: 9464 b43d 8615 24be 03ca 213e c3a1 1d3e
00000120: 1340 1a3e c20b 073e 9322 17be ea90 1c3e
00000130: ef24 3c3e b63b d03d a2ce cfbd 7104 9a3d
00000140: dad9 e2bd a9f5 4d3e 8a71 863e 3024 fcbd
00000150: 0685 013e b77e 173e 9288 833d 206e 973d
00000160: 340b b53d e08b e9bd b2c5 9bbd a3ad 26be
00000170: dabc debd f322 863d d4a2 1cbe af77 1cbe
00000180: 4802 1abe 6f28 223e f5ff 80be d20d 2c3e
00000190: acea 183e 6161 49be 24d5 353e 0722 253e
000001a0: 98c6 063e c45e 0e3e e343 dabd 49e1 c73d
000001b0: d46c 8c3e cc1b 443e e92c 2abe 4a3d 293e
000001c0: c806 f8bd 9ef1 843e a4a5 6f3e 973b 17be
000001d0: 31e3 d63d 6d5f 513e f0f7 233e 2e1e 593d
000001e0: 7ab4 433e 2631 4fbe f3ee d9bd b432 2dbe
000001f0: fc8e 803d 5b7f 20be c243 e4bd 4dce 3ebe
00000200: 9aae 2ebe 9b17 383e ac1e 73be b13a a03e
00000210: 495a 473e 06fe 23be 5799 523e 249b 093e
00000220: 4639 233e f530 8139 e7c1 16be 60f2 8dbd
00000230: 1d9a 963e 01b4 363e bb23 61bd 20d9 0b3e
00000240: 8524 2dbe 2c6c 3c3e 4804 843e c416 01be
00000250: d982 073e dcb4 253e 6bfa 40bd ac35 48bd
00000260: 559b ed3d 0973 6dbe b99e 18be ab1e bdbd
00000270: 43dd 6f3e 5a2b 76be c5d7 14be 143f 27be
00000280: e63e 52be 355e 6d3e 6051 52be dfe4 6e3e
00000290: 39d0 1d3e 55ac 4dbe fb10 7f3e 3836 313e
000002a0: 83e9 ce3d c621 173c 3334 66bd bc14 adbd
000002b0: d3e7 9b3e f9f8 043e 7505 86bd 0854 d53d
000002c0: c113 19be 1bcb 673e a0f9 603e 9789 15be
000002d0: 9dd5 8b3d 2677 6b3e 18a6 61bd a68d 1dbe
000002e0: de41 133e 1bc4 21be 459b 40be d5d6 eebc
000002f0: 1874 743e a4b2 92be 9049 bfbd f396 2ebe
00000300: 4ebf d8bb d376 14bd dd70 67be b3ca a23d
00000310: 207d 7e3a 4f7d e63b a365 453e 7df1 093d
00000320: 1afc 74bd 2564 05bd 166b a0bb 59b5 183c
00000330: 5303 9b3d 6253 48bd be34 1e3d 2062 1f3d
00000340: 1344 41ba 2a8e 043e 72c8 533e 8c05 683c
00000350: 1758 5abd 29c0 033d 8c59 5dbd e62b dcbc
00000360: 0d8f 4bbd caa8 d7bc 62d1 f43c a3ea be3c
00000370: 9312 113c ab14 53bd 29cc e53a 812f 07bd
00000380: 9809 4bbe 40ab 213e 0cda 81be e827 6e3e
00000390: de25 df3d 1470 2fbe ca49 503e ce68 503e
000003a0: ad50 c43d 02e8 3f3d bd29 07be 9fb5 e5bc
000003b0: b5a4 6a3e 5f82 653e 0843 b1bc f867 3d3e
000003c0: 134d 70be 6045 423e d7a2 543e bc94 3abe
000003d0: 4dd3 793d f4f9 2a3e a74b bd3c 32e0 b9bd
000003e0: 969e f83d abdc 19be 56d3 4abe 6301 a1bd
000003f0: 6929 4f3e a398 aabe 8d76 a3bd 51a0 04be

lstm.bias_ih_l0 f4 [128]
0.2172614 0.23116194 0.21845683 0.2130415 0.24793401 0.23923987 0.20724615 0.1812736
0.1674996 0.24514374 0.23126663 0.17657863 0.24520238 0.19650847 0.25261146 0.1637827
0.19130604 0.19862983 0.18176788 0.18338375 0.23028742 0.20097953 0.21262698 0.23341994
0.16646853 0.2207175 0.21967019 0.20429568 0.2634273 0.18668827 0.20351915 0.22566912
-0.11118456 -0.13707936 -0.23435283 -0.15593447 -0.1195219 -0.16058841 0.17118897 -0.109040126
-0.15370043 -0.18879141 -0.1499844 -0.09765062 -0.16230606 -0.21180823 -0.13697831 -0.13492838
-0.15582377 0.14527065 -0.16834426 -0.16516562 -0.08823271 -0.116004065 -0.13305917 -0.15143502
-0.111297764 -0.06355444 -0.14480497 -0.10786234 -0.23809989 -0.17505339 -0.1530014 -0.11722401
-0.15678275 0.14022031 -0.10343221 0.017083572 0.14512387 -0.16402046 0.18070896 0.16137499
0.09469922 0.07455696 -0.15860344 0.036410607 0.10445035 0.14285614 -0.10660295 0.1481724
-0.14129864 0.15816319 0.101749636 -0.089889966 0.12537172 0.13130724 0.07433181 0.09576837
0.122781344 -0.110088825 -0.12822913 -0.13103494 -0.07121085 0.022946542 -0.14493935 -0.15975651
0.22366719 0.22711651 0.20716998 0.18081018 0.19591989 0.20975374 0.21950378 0.25015426
0.17765479 0.24155064 0.18555439 0.22093023 0.26418865 0.23504066 0.23978224 0.24072392
0.24596503 0.14815539 0.22073606 0.19610742 0.2649254 0.24688958 0.20139782 0.2059873
0.25867203 0.18930367 0.24155456 0.25719061 0.19040471 0.25311434 0.21579197 0.21349376
00000000: c679 5e3e b7b5 6c3e 26b3 5f3e 8d27 5a3e
00000010: 6ae2 7d3e 4cfb 743e 5638 543e c99f 393e
00000020: 0485 2b3e f606 7b3e 29d1 6c3e 07d1 343e
00000030: 5516 7b3e 8439 493e 4a56 813e a7b6 273e
00000040: bbe5 433e 9e65 4b3e 5c21 3a3e f3c8 3b3e
00000050: 77d0 6b3e 94cd 4d3e e3ba 593e a305 6f3e
00000060: ba76 2a3e c503 623e 39f1 603e e332 513e
00000070: f1df 863e 362b 3f3e 5367 503e ce15 673e
00000080: bbb4 e3bd 885e 0cbe 30fa 6fbe 49ad 1fbe
00000090: e6c7 f4bd 4a71 24be 294c 2f3e 6e50 dfbd
000000a0: a563 1dbe 8952 41be 8395 19be 0cfd c7bd
000000b0: 8f33 26be 42e4 58be 0b44 0cbe aa2a 0abe
000000c0: 4490 1fbe d4c1 143e 7062 2cbe 2d21 29be
000000d0: 5ab3 b4bd 8a93 edbd aa40 08be c811 1bbe
000000e0: 15f0 e3bd d528 82bd c147 14be eee6 dcbd
000000f0: 75d0 73be 3241 33be 66ac 1cbe 2413 f0bd
00000100: a88b 20be ea95 0f3e 44d4 d3bd d9f2 8b3c
00000110: 5a9b 143e fbf4 27be c50b 393e 7c3f 253e
00000120: aaf1 c13d 52b1 983d f168 22be 4a23 153d
00000130: 11ea d53d e148 123e a652 dabd 81ba 173e
00000140: 97b0 10be 88f5 213e 1d62 d03d 3b18 b8bd
00000150: 7261 003e 6875 063e 473b 983d 3522 c43d
00000160: c974 fb3d 4076 e1bd 7f4e 03be 062e 06be
00000170: fed6 91bd 63fa bb3c fb6a 14be 3697 23be
00000180: 0309 653e 3b91 683e 5e24 543e 4e26 393e
00000190: 399f 483e afc9 563e 99c5 603e 3814 803e
000001a0: 23eb 353e 0d59 773e f801 3e3e 893b 623e
000001b0: bc43 873e 80ae 703e 7a89 753e 5580 763e
000001c0: 42de 7b3e 0cb6 173e a208 623e 62d0 483e
000001d0: 4da4 873e 9fd0 7c3e 3b3b 4e3e 56ee 523e
000001e0: a970 843e d2d8 413e 145a 773e 7dae 833e
000001f0: 74f9 423e 3498 813e 92f8 5c3e 1c9e 5a3e

lstm.bias_hh_l0 f4 [128]
0.24523664 0.18583176 0.15362869 0.19304812 0.20660597 0.1652913 0.13740505 0.24503516
0.17846744 0.21472217 0.21219455 0.18466589 0.1943454 0.16644837 0.18686387 0.18263961
0.18944561 0.18580106 0.16898163 0.24802373 0.25292674 0.1933599 0.22089992 0.26057202
0.24425244 0.15834476 0.24309944 0.1742101 0.25637016 0.23072545 0.18857291 0.17310877
-0.13037686 -0.08321928 -0.22800551 -0.20476213 -0.08056502 -0.12219989 0.096008986 -0.06201361
-0.15719712 -0.14606048 -0.1186199 -0.15767832 -0.19107473 -0.18931615 -0.14569765 -0.11795356
-0.09984262 0.15653457 -0.20361327 -0.1273732 -0.18516655 -0.15493323 -0.14311388 -0.11526721
-0.086954586 -0.14750406 -0.1439036 -0.10249098 -0.16665876 -0.22224635 -0.10265756 -0.14446647
-0.14869101 0.11623535 -0.14354068 -0.030333266 0.13461103 -0.08362672 0.18179211 0.103687264
0.13371551 0.13097963 -0.075349405 0.13277149 0.040398147 0.07764992 -0.14335378 0.095897384
-0.15657596 0.15732953 0.14239092 -0.16222838 0.12351029 0.13699183 0.12200219 0.079399556
0.114363566 -0.15062715 -0.14529039 -0.09375207 -0.020996984 -0.056162037 -0.09735999 -0.099651344
0.24463424 0.18233055 0.22912471 0.23673098 0.18222862 0.21414521 0.17952934 0.24740003
0.24245578 0.2635872 0.2019947 0.18068893 0.17045917 0.15166874 0.24352227 0.21570383
0.19898996 0.22346137 0.20830761 0.17828354 0.18809797 0.2448422 0.22364928 0.23850963
0.17243081 0.24296121 0.21449322 0.19238421 0.2619857 0.20744228 0.19907016 0.21342641
00000000: 501f 7b3e ae4a 3e3e d750 1d3e 68ae 453e
00000010: 8490 533e 1f42 293e e9b3 0c3e 7fea 7a3e
00000020: 2bc0 363e 21e0 5b3e 8749 593e 0e19 3d3e
00000030: 7b02 473e 7171 2a3e 3e59 3f3e e105 3b3e
00000040: 08fe 413e a242 3e3e 8509 2d3e eff9 7d3e
00000050: 9d7f 813e 2300 463e 9733 623e b269 853e
00000060: 501d 7a3e 2125 223e 0fef 783e 2264 323e
00000070: f342 833e 4b43 6c3e 4219 413e 6d43 313e
00000080: 8381 05be df6e aabd 477a 69be 2aad 51be
00000090: 46ff a4bd f043 fabd 5ca0 c43d fc01 7ebd
000000a0: 48f8 20be e190 15be fdee f2bd 6d76 21be
000000b0: 18a9 43be 18dc 41be c431 15be a391 f1bd
000000c0: 4a7a ccbd 994a 203e ff7f 50be 1f6e 02be
000000d0: 4d9c 3dbe d1a6 1ebe 728c 12be 3711 ecbd
000000e0: 3f15 b2bd 4e0b 17be 775b 13be cae6 d1bd
000000f0: 98a8 2abe 8c94 63be 203e d2bd 05ef 13be
00000100: 7542 18be cd0c ee3d 54fc 12be 787d f8bc
00000110: 79d7 093e 7c44 abbd b627 3a3e fd59 d43d
00000120: b8ec 083e 861f 063e ca50 9abd 40f5 073e
00000130: 8778 253d ec06 9f3d 55cb 12be d965 c43d
00000140: 7355 20be fe1a 213e edce 113e 321f 26be
00000150: f7f2 fc3d 9647 0c3e 49dc f93d 3c9c a23d
00000160: 7237 ea3d 013e 1abe 01c7 14be 1601 c0bd
00000170: de01 acbc 2a0a 66bd ad64 c7bd 0116 ccbd
00000180: 6681 7a3e dcb4 3a3e ab9f 6a3e 9b69 723e
00000190: 249a 3a3e e248 5b3e 8ad6 373e 6f56 7d3e
000001a0: 5446 783e e7f4 863e b3d7 4e3e 8506 393e
000001b0: d98c 2e3e 0d4f 1b3e e75d 793e 77e1 5c3e
000001c0: 06c4 4b3e 0fd3 643e 974e 553e f68f 363e
000001d0: c19c 403e eab7 7a3e 5104 653e de3b 743e
000001e0: b491 303e d3ca 783e 1ca4 5b3e 5e00 453e
000001f0: fd22 863e c06b 543e 0cd9 4b3e 748c 5a3e

lin.weight f4 [5, 32]
-0.23714563 0.2274779 0.23584558 -0.2284574 0.19608852 -0.22873981 -0.050580934 0.21224073
0.21283856 0.23413126 -0.21896611 0.19682668 -0.24198993 0.18162149 -0.23637173 0.23088016
-0.18651168 -0.07059047 -0.23566867 -0.22853424 0.18901737 0.19675617 0.23173465 0.24686705
0.2265338 -0.22882207 -0.22462909 -0.2036272 -0.2395157 0.22609818 -0.22764315 -0.2099738
0.1790563 -0.20588371 -0.14746183 0.18881167 -0.19911458 0.16132055 0.036532525 -0.20429228
-0.2189237 -0.23500758 0.18265077 -0.17830293 0.20393762 -0.21574159 0.13573228 -0.17215222
0.20447364 -0.04603262 0.18628936 0.20918915 -0.22410458 -0.1745889 -0.15232368 -0.22243008
-0.15732506 0.19900213 0.21754378 0.21211262 0.1962908 -0.2126258 0.21524973 0.16615786
0.13930887 -0.22123376 -0.18601085 0.18311228 -0.20434989 0.23158346 -0.07718314 -0.20365024
-0.15185484 -0.15175593 0.17162593 -0.2380989 0.16012688 -0.16245951 0.14533341 -0.15602203
0.20526463 -0.05616934 0.14242272 0.16880783 -0.23568629 -0.22065271 -0.2309904 -0.18271713
-0.16447921 0.23492847 0.20110479 0.1584121 0.24456553 -0.21675232 0.18382113 0.24073479
0.19920158 -0.23023267 -0.16489045 0.15549782 -0.15556748 0.18016325 0.0054467954 -0.18597384
-0.15659454 -0.21471214 0.17345487 -0.22007254 0.174597 -0.23946525 0.16115163 -0.1487151
0.16604613 -0.07426895 0.18879025 0.15496498 -0.15611646 -0.2386817 -0.17729087 -0.18388422
-0.19892268 0.22175065 0.15447147 0.21566737 0.24434307 -0.16875927 0.158739 0.14668682
0.16233683 -0.15828614 -0.19238073 0.22606556 -0.21000431 0.15615754 -0.060633622 -0.13645951
-0.15284155 -0.16580194 0.17671362 -0.2195398 0.13651209 -0.16671133 0.20996834 -0.18900216
0.23039517 -0.0812214 0.19554706 0.22575597 -0.19544055 -0.16101836 -0.22808 -0.16164619
-0.20643936 0.19691606 0.2074326 0.19107279 0.1800254 -0.13237649 0.21152508 0.20790842
00000000: 4ed6 72be f7ef 683e 8181 713e bdf0 69be
00000010: 6ecb 483e c53a 6abe f42d 4fbd a255 593e
00000020: 5af2 593e 1bc0 6f3e a738 60be ef8c 493e
00000030: 35cc 77be fcfa 393e 6e0b 72be d96b 6c3e
00000040: ebfc 3ebe bd91 90bd 2153 71be e104 6abe
00000050: c58d 413e 737a 493e d94b 6d3e b7ca 7c3e
00000060: 7af8 673e 5550 6abe 2b05 66be a683 50be
00000070: 9b43 75be 4886 673e 491b 69be 5f03 57be
00000080: 895a 373e 2ed3 52be 3c00 17be d957 413e
00000090: b1e4 4bbe 3731 253e 21a3 153d ff31 51be
000000a0: 892d 60be d4a5 70be ce08 3b3e 0b95 36be
000000b0: 06d5 503e 5deb 5cbe 67fd 0a3e ac48 30be
000000c0: 8a61 513e b38c 3cbd a3c2 3e3e ae35 563e
000000d0: ac7b 65be 6fc7 32be bdfa 1bbe b6c4 63be
000000e0: d219 21be 37c7 4b3e ccc3 5e3e 0d34 593e
000000f0: 7500 493e 94ba 59be 6d6a 5c3e 4925 2a3e
00000100: fca6 0e3e 1a8b 62be a179 3ebe c981 3b3e
00000110: 1941 51be 3724 6d3e 3212 9ebd b089 50be
00000120: d67f 1bbe e865 1bbe b5be 2f3e 33d0 73be
00000130: 4df8 233e c95b 26be 48d2 143e 3dc4 1fbe
00000140: e430 523e d211 66bd 43d7 113e f6db 2c3e
00000150: bf57 71be c9f2 61be bf88 6cbe 331a 3bbe
00000160: 3d6d 28be 1791 703e 6aee 4d3e c836 223e
00000170: 636f 7a3e 52f4 5dbe 9b3b 3c3e 2e83 763e
00000180: 80fb 4b3e 1dc2 6bbe 0bd9 28be d23a 1f3e
00000190: 154d 1fbe b77c 383e 087b b23b ed6f 3ebe
000001a0: 525a 20be 80dd 5bbe 279e 313e b25a 61be
000001b0: 8ec9 323e 6136 75be ef04 253e c548 18be
000001c0: ff07 2a3e 521a 98bd 3b52 413e 24af 1e3e
000001d0: fedc 1fbe fa68 74be bd8b 35be 254c 3cbe
000001e0: 63b2 4bbe 9a12 633e c52d 1e3e e8d7 5c3e
000001f0: 1235 7a3e 3bcf 2cbe 7a8c 223e 1235 163e
00000200: a03b 263e c315 22be 74ff 44be bb7d 673e
00000210: 5f0b 57be c3e7 1f3e f65a 78bd 0bbc 0bbe
00000220: 7f82 1cbe fcc7 29be 6af4 343e 0bcf 60be
00000230: d3c9 0b3e 60b6 2abe f101 573e c889 41be
00000240: b6ec 6b3e 6857 a6bd 7d3d 483e 932c 673e
00000250: 9121 48be ffe1 24be ce8d 69be 9486 25be
00000260: d764 53be 5da4 493e 3669 543e 96a8 433e
00000270: 9458 383e b48d 07be 089a 583e f2e5 543e

lin.bias f4 [5]
0.078293785 -0.060537837 -0.022266664 -0.035357937 -0.030235333
00000000: 7e58 a03d 86f6 77bd 9468 b6bc 7cd3 10bd
00000010: 17b0 f7bc
