checkpoints/MLE_space_False_length_15_preTrainG_epoch_85.pth (torch_old, 36090 bytes, 7 tensors)

emb.weight f4 [5, 32]
00000000: 8ae0 e83d 4f4f 563e 4421 a23d ec95 893e
00000010: e3e0 5abe 6f8e 4d3e 265a 283e 5eb0 46bb
00000020: e7ae 863d 9d4c 4c3d 3be5 8bbe 600a 6a3c
00000030: 0b2a 3dbe 2a32 bb3d f6b0 8ebd 4b21 04be
00000040: e964 83bd 85b9 f03d 16dd f83d 92cb b53d
00000050: 8a0b 08be 4169 61bd 6e90 21bd 5d49 233d
00000060: ac08 71be a0c0 5a3e afb2 1d3c 2abf 2b3e
00000070: 03fc 963c c703 7f3d 5494 a43d e796 d8bd
00000080: 1894 abbe 80d5 163e 18f0 aebe 46f8 86be
00000090: d58b b03e e8c1 fd3d ae1b aebe bf7d 6c3e
000000a0: 0995 8bbe 8717 85be 8f0f 643e d17c 663e
000000b0: 58a4 ad3e 872e 99be 93a3 a93e c65b 9f3e
000000c0: 4b81 7e3e 9c64 b6be 1b9b 9cbe f7bc 90be
000000d0: 70b3 b23e 98ea a63e 9796 9f3e 6fdc 87be
000000e0: a280 003e 3dbb ea3d 005b 83be 6080 92be
000000f0: 9b58 81be 9593 a8be e91f a6be 86cc b03e
00000100: c260 b3be 76bb cc3d 9c53 abbe 01c5 65be
00000110: 7d50 b63e 4005 573e a155 acbe 9639 863e
00000120: 97f8 a9be a221 8ebe cb32 8b3e ba6e 753e
00000130: 4d7d af3e 37b4 9cbe d270 af3e 016f a53e
00000140: ed8a a33e 7f55 97be fff3 88be 478a a0be
00000150: ca8b a03e 974a 9b3e 5d69 853e 8d69 9bbe
00000160: 6992 f73d f15f 803d 7fe9 a0be f217 b2be
00000170: 39b6 90be 781e 7ebe c090 b1be 3f71 933e
00000180: a772 adbe c78f 103e 4ae2 9dbe ebbf 63be
00000190: 4a14 b63e fe71 1a3e 787e 9dbe 5b0e 683e
000001a0: 6e75 9ebe fa1a abbe 94b5 793e 55f8 593e
000001b0: 632f a23e 194f a2be 51be 9c3e 17d7 b13e
000001c0: a089 8f3e 07b0 92be cf84 a3be 83f0 99be
000001d0: 6604 933e 3625 8f3e f9d7 863e 8ab8 95be
000001e0: c328 0e3e 3eac e53d 9eae a6be a6d0 b0be
000001f0: 060a 70be 0f09 90be ab1c 9dbe 1b47 b43e
00000200: 065b 8ebe 5453 0f3e 45e4 a6be 0d94 60be
00000210: 3d1e b83e 8208 0e3e dbcd abbe 20b3 9e3e
00000220: 09cd aabe df1d 89be 717c 433e 1d0b 8d3e
00000230: f561 9d3e 6b87 adbe a35a 993e f145 943e
00000240: d949 aa3e 61c2 8abe ce0e b0be b75b a4be
00000250: 660d 9c3e 4b62 a33e 24f1 9e3e a404 9dbe
00000260: 46d4 c93d cc13 423d 4ca2 80be 5bb2 aebe
00000270: 0ed3 89be de7d a2be a337 a6be a13f 8b3e
0.113709524 0.20928691 0.07916501 0.26872194 -0.2137485 0.20073865 0.16440639 -0.0030317525
0.06576329 0.04987775 -0.27323326 0.0142847 -0.1847307 0.091404274 -0.06967346 -0.12903325
-0.064157315 0.11754135 0.12151544 0.088767186 -0.13285652 -0.05503202 -0.03944438 0.039864887
-0.23538464 0.21362543 0.009625121 0.16772142 0.018430715 0.06225946 0.08036104 -0.10575657
-0.33511424 0.14729881 -0.34167552 -0.26361293 0.34481683 0.123905 -0.34005493 0.23094843
-0.27262142 -0.25994512 0.2227156 0.22508551 0.33914447 -0.2991831 0.3313261 0.31124705
0.24854009 -0.35623634 -0.30587086 -0.2826917 0.34902525 0.32600856 0.31169578 -0.26535365
0.1254907 0.11461494 -0.25655365 -0.28613567 -0.25262913 -0.32925096 -0.3244622 0.3453104
-0.35034758 0.09996693 -0.33462226 -0.22438432 0.35608283 0.20998096 -0.3365908 0.2621581
-0.33197471 -0.27760035 0.2718719 0.2396802 0.34275284 -0.30606243 0.34265763 0.32311252
0.3194193 -0.29557416 -0.26748654 -0.31355497 0.3135665 0.30330345 0.26056948 -0.30353966
0.120884724 0.06268299 -0.31428143 -0.34783894 -0.28264025 -0.2481631 -0.34680748 0.28797337
-0.33876535 0.14117347 -0.30836707 -0.2224118 0.35562354 0.15082547 -0.3076055 0.22661726
-0.30948967 -0.3341902 0.24385673 0.21286137 0.31676778 -0.31700972 0.3061395 0.34734413
0.28034687 -0.28649923 -0.31937262 -0.30066308 0.28714293 0.27958077 0.2633665 -0.29242355
0.13882737 0.11214493 -0.32555097 -0.34534186 -0.23441324 -0.2813191 -0.30685934 0.352105
-0.2780382 0.13996631 -0.3259603 -0.21931477 0.3596057 0.13870433 -0.33555493 0.30996037
-0.33359554 -0.26780602 0.1909044 0.2754754 0.30738798 -0.33892378 0.29951963 0.2895961
0.33259466 -0.27101424 -0.34386295 -0.32101223 0.30478972 0.3191093 0.3104335 -0.30667603
0.09854941 0.04738216 -0.25123823 -0.3412045 -0.26918834 -0.31736654 -0.32464322 0.27196983

lstm.weight_ih_l0 f4 [128, 32]
00000000: 1f2e 5fbe d53e 303e 9dfd 64be c917 d6bd
00000010: 555b 603e 2449 483e c12f 66be 522f 573e
00000020: 8225 51be ac91 3abe 0275 ab3c 43e9 7f3e
00000030: 80be 873e f8ca 57be dd40 543e 61f2 803e
00000040: 70bc 4c3e de51 60be 5c83 90be 30dc 81be
00000050: 5c41 513e 6637 4c3e 951a 483e 2456 65be
00000060: ca93 f6bb 1110 2e3e be4d 4cbe 1580 76be
00000070: 0ac0 84be 4300 82be fb52 6cbe 8743 853e
00000080: ae64 9bbe ee1a cb3d cbdb 7abe 0ec3 6bbd
00000090: 1ff5 8f3e 9fee 163e c1d0 9abe 0a46 6f3e
000000a0: eb39 8fbe 10c8 3fbe c642 bf3d 9ef0 5c3e
000000b0: eb5b 9c3e 88bc 9cbe 3beb 6e3e e97d 913e
000000c0: b623 5b3e e245 8ebe 6309 96be 8b9b 52be
000000d0: fdc1 893e 7a95 873e ea74 663e 235c 80be
000000e0: 0429 b63a ebc5 b73d 7c35 63be c044 a3be
000000f0: 6f3b 83be 4f5f 8fbe 82c2 95be 4bb1 9c3e
00000100: ec2a 70be c331 963e f9e8 20be b337 813e
00000110: 9c46 6c3e b7fe 843e 760a 76be c5db 2f3e
00000120: 9f5b 24be 89b9 23be 0df5 4bbe eb11 7d3e
00000130: 6b3e 6a3e 434b 1ebe 6752 673e 5f23 3e3e
00000140: 13dd 1a3e d7c1 25be 456a 3fbe 6ac4 36be
00000150: 5082 593e ae58 713e 6705 273e a879 71be
00000160: 23da 9dbe 203b 843e cade 36be 1515 4abe
00000170: 378d 31be 4adb 17be 074e 3bbe c645 223e
00000180: 4d06 e4bd 416e 5b3e fc53 1bbe e7e7 1cbe
00000190: b65d 463e 4a19 753e 771b 2cbe 8e7a 443e
000001a0: 8949 45be 06b2 59be 7a76 ca3d 5437 5d3e
000001b0: e8a2 5f3e 760f 35be d70d 803e 8c44 543e
000001c0: 067e 2e3e 63c0 3ebe a8e7 01be 6c3b fdbd
000001d0: c9d9 2d3e a58a 623e 2751 6d3e fe68 57be
000001e0: 1e1a 02bd ae9d f83d b4d5 6bbe a801 53be
000001f0: 6419 8dbe f585 6abe b728 4fbe acff 143e
00000200: 7150 8cbe 3d36 423e ba61 6abe bc63 3bbd
00000210: 2954 ae3e 4d1a 203e 4b7f 9ebe 34d2 373e
00000220: dd72 83be 6c84 7bbe 9845 f13d 2292 673e
00000230: bb78 903e 5e3f 74be 8067 4d3e 6d2b 9c3e
00000240: a2a1 4a3e 2995 5ebe f8fb 81be 5de4 58be
00000250: 4af9 793e 6553 5e3e 6664 853e fe8d 73be
00000260: b53a 9ebd 2f83 1d3e 8fd6 4ebe 62ef aabe
00000270: 160b 57be 1fcb 8fbe 90ba 6fbe 5b32 7e3e
00000280: f22f a1be 18df e93d 81dc 71be 3e13 bcbd
00000290: a957 c13e 9bde 3c3e 9d14 abbe 4b0c 443e
000002a0: 58b6 99be af2a 7abe 64d3 043e 4213 913e
000002b0: 0c94 c03e 11b4 9abe b192 773e 7906 a43e
000002c0: e409 8e3e 4939 71be 2cc9 99be 3dfd 9ebe
000002d0: 5f29 a43e 3365 623e 4dc8 703e b01c 72be
000002e0: 509f 17bc d5e0 053e 529a 49be bc09 86be
000002f0: 5480 84be 9eb8 7fbe f8fc 7dbe c8c6 9e3e
00000300: 7415 a7bd ecee 333e c6ae a0bd a4b1 f13d
00000310: e004 b03c dfc1 463e e15e 98bd 662a 473e
00000320: a4c2 35be 8ec3 45be ec58 e0bd 0321 253e
00000330: 37dc ef3d ac30 94bc 16bb 0e3e 787a d03c
00000340: abb6 fb3d 7c52 58bd cf49 87bd a0ab 4fbc
00000350: c68b a13d dcb7 0a3e aa9f 653e a68b 4dbe
00000360: ff44 6cbe a3df 7a3e 2685 44be b14a 5abd
00000370: c6cc 66be 259c 14be 291e dfbd d923 923d
00000380: 9264 71be 42e5 3f3e ba83 7fbe 2b01 acbd
00000390: 6616 b33e 0e1d 073e 58b2 aabe 04e3 463e
000003a0: 4a40 94be 3348 66be 93d1 df3d 09ac 543e
000003b0: cdc7 a63e 6cc6 9bbe 8a14 6a3e 9790 ab3e
000003c0: 179e 643e 6e37 93be 9a68 a4be 2dfa 66be
000003d0: bddc 9b3e 499d 633e c264 6f3e bc14 65be
000003e0: b982 073b d22c 9b3d bc80 5dbe e6ec a9be
000003f0: 3f13 63be 2b32 7ebe b844 8abe 0084 803e
-0.21794938 0.17211469 -0.22362371 -0.104537554 0.2190984 0.19559151 -0.22479154 0.21014145
-0.20424464 -0.18219632 0.020929817 0.24991326 0.26512527 -0.2107352 0.20727868 0.2518492
0.19993758 -0.2190623 -0.2822522 -0.25363302 0.20435089 0.19943008 0.1954139 -0.22396141
-0.007524942 0.16998316 -0.19951531 -0.24072297 -0.25927764 -0.25390825 -0.2307853 0.26028082
-0.3035025 0.09917246 -0.24497907 -0.057559066 0.281167 0.14739464 -0.30237392 0.23366562
-0.27973875 -0.18728662 0.09338908 0.21576163 0.30538878 -0.30612588 0.23331921 0.28416374
0.21400341 -0.2778769 -0.29304036 -0.20567147 0.26905814 0.2648123 0.22505537 -0.25070295
0.0013897722 0.08973297 -0.22188371 -0.3188839 -0.25631282 -0.28002402 -0.2924996 0.30604014
-0.23453873 0.2933484 -0.15713872 0.25237808 0.2307381 0.25975582 -0.24027428 0.17173679
-0.16050576 -0.15988745 -0.19917698 0.24713866 0.22875373 -0.15458398 0.22590028 0.1856818
0.15123396 -0.16187225 -0.18692882 -0.17848364 0.21241117 0.23568985 0.16310655 -0.23581564
-0.30830488 0.2582636 -0.17858425 -0.19734605 -0.17339025 -0.14829746 -0.18291484 0.15846929
-0.11134014 0.21428777 -0.15168756 -0.15322839 0.19371685 0.23935428 -0.16807352 0.19187376
-0.19266333 -0.21259317 0.09885879 0.21603137 0.21839488 -0.17681679 0.2501056 0.20729274
0.17040262 -0.18628077 -0.12686026 -0.123648494 0.1697761 0.22123201 0.23175488 -0.21036145
-0.03176319 0.1213945 -0.2303074 -0.206061 -0.27558434 -0.22902663 -0.20230375 0.14550656
-0.27405122 0.18966003 -0.22888842 -0.04574941 0.34048584 0.15635033 -0.30956492 0.1795128
-0.2567357 -0.24562234 0.11780852 0.22614339 0.2821711 -0.23852298 0.20059013 0.3050188
0.1978822 -0.21736588 -0.2538755 -0.21180864 0.24411502 0.217115 0.2605316 -0.23784634
-0.07726041 0.15382074 -0.20199035 -0.3338576 -0.21000323 -0.28084657 -0.23411012 0.24823897
-0.31481892 0.11419505 -0.23619272 -0.09183358 0.37762192 0.18444292 -0.33414164 0.19145314
-0.3002193 -0.24430345 0.12971264 0.28335005 0.3761295 -0.30215505 0.24177052 0.32036188
0.2774192 -0.23557009 -0.30036294 -0.3105258 0.32062814 0.22108917 0.23513909 -0.23643756
-0.009254292 0.13074048 -0.19687775 -0.26179302 -0.25879157 -0.2497277 -0.24803531 0.31011033
-0.08158389 0.1757161 -0.078458354 0.118014604 0.0214867 0.19409893 -0.07439972 0.19449767
-0.17750031 -0.1931288 -0.109544605 0.16125874 0.117119245 -0.018089615 0.13938555 0.025449023
0.122907005 -0.05281304 -0.06605875 -0.012675196 0.07887988 0.135467 0.22424188 -0.20072803
-0.23073195 0.24499373 -0.19191417 -0.053293888 -0.22539052 -0.1451269 -0.108944245 0.07135744
-0.23573521 0.18739799 -0.24952593 -0.0839866 0.34978026 0.13194677 -0.3333919 0.19422537
-0.289553 -0.2248848 0.10928645 0.20768751 0.3257431 -0.3042482 0.22859398 0.3350875
0.22325931 -0.28753227 -0.32111055 -0.22556372 0.30441847 0.22227968 0.2337828 -0.22371191
0.0020677282 0.07576908 -0.2163114 -0.33188552 -0.2217531 -0.24823825 -0.27005553 0.25100708

lstm.weight_hh_l0 f4 [128, 32]
00000000: b51f 42bd 68b4 6f3d 57aa 77be 3825 273d
00000010: 2ab6 e33d fdb1 08be 5521 763c 167c ed3d
00000020: 1c87 8a3c 2d5d 693d 71c3 e7bd 8072 323d
00000030: 4aeb aebc f449 1b3b cff1 0dbe e011 f83d
00000040: 88cd f2bd 9f45 c63d e27c 053e 6971 f9bd
00000050: 1fd7 d93d daf7 f13d 2b9d 173e 5023 883d
00000060: f0ca fd3d cff0 f1bd c083 0dbe 0cea 0dbe
00000070: fb39 82bd 23cd 753d dfc4 a9bd 5ee9 02be
00000080: 81b5 3ebd cbde 933c b899 8cbe 05ca 3a3d
00000090: 3266 953c 22eb d0bd 5f32 afbd 98fa 023d
000000a0: b0ea 663c 1e4d 9b3c 125e bebd 4655 ae3c
000000b0: d2d8 bd3c 5ef9 0dbd 749a 31bd 59b7 d33d
000000c0: e99b 30bd 03f2 313d e9e9 103e 0f20 d2bd
000000d0: 1479 793d 5df0 653d 47d3 9f3d a244 3f3b
000000e0: f4f2 a93d 82ca aebd e447 02bc 7ae7 3cbd
000000f0: a64b d0bb 7fff 6f3d 7dbe 8cbc 8bf5 cbbd
00000100: 15c0 84be 1ae0 6a3e 2c8f b3bc 8d5f 5ebe
00000110: b3af 423e 62ac 81be c93b 063e e91e 7e3e
00000120: 39ef 843e 93a1 7a3e c99e 7fbe b920 873e
00000130: b3a3 70be a557 583e af5f 52be 0322 323e
00000140: 7dfa 51be a7f2 6c3e d710 0bbe 192b 61be
00000150: 6670 663e e22d 7a3e 5ec1 373e e2f2 3f3e
00000160: 5010 433e adda 56be da6f 38be 56ee 89be
00000170: 9195 6dbe a61f 823e 00d7 81be 2b34 7fbe
00000180: 60a7 f5bd 8dec 043e 0a4a e6bd 0740 03be
00000190: 53e0 043e 3b3f 2fbe c6ab 033d e3e8 063e
000001a0: 4ebe d43d 41d6 113e 7e24 cfbd c7de f73d
000001b0: 996d 2bbe 1ce9 203e 2e4b 1bbe d6e9 103e
000001c0: e3f5 bbbd 2815 1e3e deb2 b53c cc23 fcbd
000001d0: a644 ae3d 085c 3b3e d330 353e 1b45 a33d
000001e0: c9a7 3f3e 003d 33be 8b79 b0bd 8dd1 25be
000001f0: 9a18 0abe 58fd 383e e51f bdbd 8a51 23be
00000200: bbc2 59bd b189 723d f74d 6dbe bdb3 d53d
00000210: d3de c83d 9d3d 32bd 1a1d c5bd 358f 2e3c
00000220: 0f71 a2bc 1640 5c3c a802 c3bd 3bf1 603d
00000230: dcc9 7f3c 0f89 6fbc c136 1dbb f03a eb3c
00000240: 8571 6cbd 7f85 5abd 9267 463e 4bbe 45bc
00000250: a92b 493d b490 443d 5c2c 203d 7a19 cc3d
00000260: f9f5 b13c 5603 ecbd 9686 40bd 6ede a1bd
00000270: 94f8 8bbd fdb6 793d 2f9d 89bd 95f9 54bd
00000280: b28c b6bd 538d d93d bc04 72be 1267 883d
00000290: be53 773d d5b3 c2bd 98d2 95bd a1ee 2c3d
000002a0: e4b2 33bd 3200 a43d 4275 73bd 13c7 9c3d
000002b0: 51cf 233d 7022 9cbd 6e0c 76bd a033 d03c
000002c0: 2ce9 20bd 8c7d 9cba 0c58 483e 4dc8 15bd
000002d0: 1cb9 ae3c 1c69 e33d d966 c23d e4b7 183d
000002e0: 97b8 ae3d 3f8d 20bd 6781 b8bd 52b8 80bd
000002f0: f9e7 1fbd 3436 ddbb 1c22 6dbd b54d 83bd
00000300: 15ce f9bd 26a6 b03d d8b9 40bd 72ff e1bd
00000310: 0220 ff3d 8275 fcbd 799a 193e e158 203e
00000320: feb8 b83d e6de e03d 1718 07be 536a 243e
00000330: 4d58 5abe 66d7 bc3d 3423 bbbd 5af8 303e
00000340: 97a4 e4bd 39cd c63d 71ad 80bd f874 eabd
00000350: 27ca 903d 1759 243e 71c3 b93d 9d4f eb3d
00000360: 2df5 b53d df31 19be 9a4d c4bd be81 e2bd
00000370: 90d1 15be 91f5 1e3e 5128 01be a951 25be
00000380: e5c3 bcbd 3ea0 3c3d 9cb9 83be 7da9 a03b
00000390: fa1b da3c 7293 9ebd 076c c7bd b7c2 ac3d
000003a0: 968a 57bd 79b4 a63d aeab f9bd 7125 a23d
000003b0: 7d21 68bd e793 093d 0aac 56bc 22be d73d
000003c0: f333 06be dc65 00bd a2f5 1d3e 1cdb a5bd
000003d0: 9ba9 a33c 7b2a 763d 93b9 da3d 5219 3a3d
000003e0: c667 9a3d e013 35bd fcfe dabd 5b30 cdbd
000003f0: 16db cbbd d6a0 9ebc 3541 45bd 6aff fbbc
-0.04739352 0.05852166 -0.24186073 0.04080698 0.111187294 -0.13349147 0.015022595 0.11595933
0.016910128 0.056973625 -0.11316574 0.043566227 -0.021352429 0.0023695203 -0.13861774 0.121127844
-0.11855608 0.09681248 0.1303592 -0.121798344 0.10636734 0.11814852 0.14806049 0.0664736
0.12392223 -0.11813509 -0.1381979 -0.13858813 -0.06358715 0.060010087 -0.08289503 -0.12784335
-0.046559814 0.018050572 -0.27461028 0.045602817 0.018237207 -0.10201098 -0.085545294 0.031977266
0.01409404 0.01895767 -0.09295286 0.021280896 0.023174677 -0.034661643 -0.04336019 0.10337705
-0.043117438 0.04344369 0.1415173 -0.10260021 0.060906485 0.05613743 0.0780397 0.0029185195
0.08298293 -0.08534719 -0.00795171 -0.04611919 -0.0063566742 0.05859327 -0.017180676 -0.09958943
-0.25927797 0.2293705 -0.021918856 -0.21716137 0.19012336 -0.2532683 0.13108744 0.24816479
0.25963762 0.24475698 -0.24962915 0.26392153 -0.23499946 0.21127184 -0.20544313 0.17395787
-0.2050571 0.2313944 -0.13580643 -0.21989097 0.22503814 0.24431565 0.17944857 0.18744996
0.19049191 -0.20981856 -0.18011418 -0.26939648 -0.23201586 0.2541477 -0.25359344 -0.24922244
-0.11994815 0.12980862 -0.112445906 -0.12817393 0.12976198 -0.17113964 0.032146238 0.13174777
0.1038786 0.14241888 -0.10114382 0.12103038 -0.16741027 0.15713924 -0.15165398 0.14151701
-0.091777585 0.15437758 0.022180017 -0.12311515 0.085091874 0.18296826 0.17694406 0.07972165
0.18716349 -0.17503738 -0.086169325 -0.16193219 -0.13485947 0.18065393 -0.09234599 -0.15949073
-0.053164225 0.059213344 -0.23174272 0.10434673 0.09808125 -0.04351579 -0.09624691 0.01065426
-0.019829301 0.013443014 -0.09521991 0.054917555 0.015612092 -0.01462008 -0.0023988935 0.028714627
-0.05772545 -0.053349968 0.19375446 -0.012069295 0.049113903 0.047989562 0.039104804 0.09965797
0.021723734 -0.11524074 -0.04700335 -0.07903753 -0.06834522 0.060965527 -0.067194335 -0.051995832
-0.08913554 0.106226586 -0.23634619 0.06660284 0.060382597 -0.095069565 -0.07315558 0.04221976
-0.043871775 0.0800785 -0.059437998 0.07655158 0.039992634 -0.07623756 -0.060070448 0.025415242
-0.03928487 -0.0011939271 0.19564837 -0.036567975 0.021328501 0.111040324 0.09492273 0.037284747
0.085313015 -0.039197203 -0.090090565 -0.06285156 -0.039039586 -0.0067508463 -0.057893857 -0.06411306
-0.1219751 0.0862544 -0.047052234 -0.110350505 0.12457277 -0.123271 0.15000333 0.15658905
0.090196595 0.109800145 -0.13192783 0.16056184 -0.21322747 0.092207715 -0.09137574 0.17282239
-0.111642055 0.09707112 -0.06283081 -0.11448091 0.070698075 0.1604961 0.090704806 0.114897944
0.08884654 -0.1496043 -0.09585114 -0.110599026 -0.14630723 0.15523364 -0.12613036 -0.16144432
-0.092170514 0.046051256 -0.25727546 0.004903017 0.026624668 -0.07742967 -0.097374015 0.084355764
-0.0526224 0.08139891 -0.121909484 0.07917298 -0.056672562 0.033588316 -0.013102541 0.10534312
-0.13105755 -0.03134714 0.15425733 -0.080984324 0.019978335 0.060099106 0.10679927 0.045434304
0.075393245 -0.044208407 -0.10693166 -0.10018989 -0.09953897 -0.019363802 -0.04815789 -0.03076144

lstm.bias_ih_l0 f4 [128]
00000000: aeb8 4d3e 349e 403e 6796 8c3e 58a6 4c3e
00000010: 13c4 4d3e 626f 563e 139f 653e 5690 1e3e
00000020: 1f28 303e d140 5f3e 8c5c 253e fda1 203e
00000030: 551b 6d3e aaed 3e3e 4566 673e 7e2d ff3d
00000040: 9d0c 003e 114a 5c3e 2855 703e 2e4e 193e
00000050: 86d7 3c3e 01b0 213e 4db2 203e 5865 433e
00000060: 73ac 0b3e 91c1 333e 6573 473e 0f5f 1b3e
00000070: 3529 613e 1141 1d3e 2068 1b3e ed1f 433e
00000080: bdb8 42bc a66b 3fbc 4f1f a1be 9ab6 8cbd
00000090: 4be5 cc3c 02b4 e1bc bb1c cdbd f5c7 873c
000000a0: 7a35 a2bd 33c7 2cbd 92ab cdb9 38c1 f03c
000000b0: e352 2dbd ba16 f1bd 8c2b 9ebc 6d68 863c
000000c0: 458b 6a3b e5cf 66bd 5a19 5fbe 3ef5 16bd
000000d0: 47f9 573d 3d75 a13c d5b8 553c 0c5f 2b3b
000000e0: 2d72 583d ed3b 853d cdf6 29bd c41a 823d
000000f0: 5cb6 4dbd a9c8 efbc 1f37 2bbb 78e0 af3c
00000100: 209a 85bd 57ab 623d 5c88 8ebb 4635 833c
00000110: f743 833d f8a9 aabd 4f78 91bb 3fa2 953d
00000120: b2cf 57bb 0dbe 513c a0b5 a2bd 5a55 a1bc
00000130: 99b0 203d f47f 153d 63fb edbc f31a 813d
00000140: 0d6d 3cbd 16fb d738 8b5c ca3c 948a d9bb
00000150: 37e9 413d 3f59 253d 423a 9d3c e8d1 2d3d
00000160: 915b 4a3d 7fb1 f2bc cd8f 2dbd dd99 82bd
00000170: 69a5 65bd ca77 243d 9c5b 92bd 6215 a1bd
00000180: fd87 0d3e dfaa 993d be28 873e 9661 193e
00000190: 59cf 513d d17b aa3d 73a2 683e 77d2 f33d
000001a0: 7cdb 2a3e 39eb 063e 7434 bc3c b104 1e3e
000001b0: 8e9c 693e a325 543e 73b9 243e f7f7 d93d
000001c0: 7693 8d3d a031 0f3e a2e8 8a3e 793d 933d
000001d0: 5dc4 0b3e 908d ee3d 623e 1b3d b926 b23d
000001e0: f600 ca3d a463 813c 24ff 1f3e 1e19 aa3d
000001f0: 40e6 a23d 33cd 4f3e 78fc 473d 5450 9f3d
0.20089981 0.1881035 0.27458498 0.1998533 0.20094328 0.20940927 0.22423963 0.15484747
0.17202805 0.21802069 0.16148585 0.15686794 0.23154958 0.18645349 0.22597606 0.12459849
0.12504812 0.21512629 0.23469985 0.1497123 0.1844159 0.15789796 0.15693016 0.19081628
0.13640003 0.17554308 0.19477613 0.1517298 0.21988375 0.15356852 0.1517644 0.19055147
-0.011884865 -0.01168338 -0.314692 -0.06870766 0.02501168 -0.027551655 -0.100152455 0.01657484
-0.07920356 -0.04218216 -0.00039228477 0.029389009 -0.042315375 -0.11771913 -0.019307874 0.016407216
0.0035788578 -0.056350607 -0.21787015 -0.036854975 0.052727964 0.019709224 0.013044556 0.0026149182
0.05284326 0.065055706 -0.041495133 0.063527614 -0.05022274 -0.029270487 -0.0026125384 0.02146934
-0.06523538 0.055339184 -0.0043497514 0.016016614 0.06409448 -0.083332 -0.0044393907 0.073063366
-0.0032930193 0.012801659 -0.079447985 -0.01969402 0.039230917 0.03649898 -0.029050535 0.06303968
-0.046002436 0.00010298767 0.024702331 -0.0066388343 0.04734155 0.040368315 0.019192819 0.04243651
0.04940373 -0.029625652 -0.042373467 -0.06377003 -0.05606595 0.040153302 -0.07146379 -0.078654066
0.13821407 0.07503294 0.2639827 0.14978632 0.051223133 0.08324397 0.2271822 0.11905377
0.16685289 0.13175668 0.02297423 0.15431477 0.22813627 0.20717482 0.16086368 0.10642999
0.069128916 0.13983774 0.2713061 0.07189459 0.13649125 0.11648095 0.03790129 0.08698792
0.098634645 0.015794583 0.15624672 0.08305572 0.07954073 0.20293121 0.048824757 0.07778993

lstm.bias_hh_l0 f4 [128]
00000000: 365e 6a3e 2c33 123e 78ca 563e 352d 383e
00000010: 3072 233e 2fb6 0a3e a71a 1e3e 12db 5f3e
00000020: 4a63 3b3e fb19 403e e9d4 113e 04ea 283e
00000030: 7c07 393e 9c25 203e f012 243e fbe5 123e
00000040: d449 fc3d 1327 4f3e 4c3d 633e 297f 5b3e
00000050: 4e06 543e 90e2 193e 012b 293e 1e33 5f3e
00000060: 0953 5b3e e0c5 e73d 3d71 5f3e a020 f93d
00000070: 32ef 593e 2459 4a3e 121a 0c3e 8b4d 0d3e
00000080: 8395 febc 7ac1 2c3d 5adf 9dbe 60b6 f0bd
00000090: f401 833d 768d 313c 5c8a 33be 7241 823d
000000a0: c05e a9bd 5fda 0f3a 86b9 fd3c e5fd fabc
000000b0: 8494 91bd 6306 c3bd 5c99 e5bc 9ebb 083d
000000c0: 2ef5 733d ceac 38bd 739b 81be d7b6 753a
000000d0: 3011 35bd 1673 9dbc 97f1 433b b5da 1e3d
000000e0: ee13 9e3d 90c7 9abc a445 26bd ea1a 8d3d
000000f0: 49d2 ad3c e098 9cbd dc81 433d d82c bdbb
00000100: 700f 6abd 256d 003d d719 36bd 639d 00bd
00000110: 7878 5b3d fa8f 40bb 7af4 5bbb e0ea 7b3c
00000120: 8f52 123d 78c5 8d3d f76d 793b 8f03 9d3d
00000130: 1b56 cbbc 632b ebbc d7c2 86bd 065e 303c
00000140: 7300 7bbd 608a 3fba dbd2 853d cabe a1bd
00000150: 5e49 3a3d e7a1 3c3d 93ef 883d f28b d53c
00000160: ebe0 273d 25b2 8fbd cd71 73bd b4fb d8bc
00000170: a0c2 bfbb 9e8f 1fbd 5ba9 c3bc a8f3 97bc
00000180: 6100 233e 81c8 f73c 6566 923e e7a4 523e
00000190: 04bb 193d 357a b33d 62b3 3f3e 782e ee3d
000001a0: b036 6d3e 027c 1d3e 2971 213d 4a9f e93d
000001b0: f3a1 093e 6a8c fd3d e08d 283e 3aba a63d
000001c0: f37b b53c a34e 5c3e 9f8b 843e 4479 5d3d
000001d0: fd61 743d 225c ea3d bf62 763d d2c1 f43d
000001e0: 550e 4b3c e53c 8e3d 2e49 043e 627f 953c
000001f0: aebf 1a3e 8c08 213e 6a7e 033d 032d 9f3d
0.22887501 0.14277333 0.20975673 0.17985995 0.15961528 0.1354606 0.15439855 0.21860912
0.18299595 0.18759911 0.14241375 0.1649552 0.18069261 0.15639347 0.16022849 0.14345543
0.12318769 0.2022975 0.22191352 0.21435227 0.2070553 0.15027833 0.16520311 0.21796843
0.21418394 0.113170385 0.2182054 0.12164426 0.21282652 0.19760567 0.1368182 0.13799112
-0.031077152 0.0421767 -0.30834466 -0.11753535 0.06396857 0.01083695 -0.17533249 0.06360139
-0.08270025 0.0005487557 0.030972254 -0.030638644 -0.07108405 -0.095227025 -0.028027229 0.03338205
0.059559993 -0.045086674 -0.2531391 0.00093732536 -0.044205844 -0.019219916 0.0029898637 0.038782794
0.07718645 -0.018893987 -0.04059376 0.06889899 0.021218436 -0.07646346 0.047731265 -0.005773168
-0.05714363 0.03135409 -0.044458237 -0.031400096 0.053581685 -0.0029382692 -0.0033562467 0.015375823
0.035723265 0.0692243 0.003805993 0.076666944 -0.024821332 -0.028707212 -0.065801315 0.010764604
-0.061279725 -0.0007306691 0.06534358 -0.07897718 0.045480125 0.04605284 0.0668632 0.026067708
0.040985983 -0.070164 -0.0594347 -0.026487209 -0.0058520585 -0.038955323 -0.023884466 -0.018548802
0.15918113 0.030246975 0.28593746 0.20570718 0.037531868 0.087635435 0.18720773 0.11629957
0.23165393 0.15379336 0.03941456 0.11407335 0.13440685 0.123802975 0.16460371 0.08140989
0.02215383 0.21514373 0.25887772 0.054070726 0.05966376 0.11443354 0.060152765 0.11951031
0.012393554 0.069452085 0.12918541 0.018249217 0.15112182 0.15725917 0.03210298 0.07772257

lin.weight f4 [5, 32]
00000000: 2a7b 86be 3968 6d3e 6e57 a13e 11ab 80be
00000010: 9f0f 4b3e dab6 76be 56cb 453e 4f5c 683e
00000020: c678 833e 79d7 833e 782b 44be 9865 6b3e
00000030: fccb 89be 4586 5f3e 8ed8 84be 69e2 623e
00000040: 59d6 1cbe b294 473e f4cf 95be 32b1 74be
00000050: 3dfe 413e fa14 4f3e 2710 703e c5c6 843e
00000060: 331b 703e 17e0 6cbe eb28 81be 2dff 54be
00000070: 12a3 82be c207 813e e91f 6cbe b6bb 5fbe
00000080: 1a7e 443e 9e01 4bbe 9e92 86be 23ef 553e
00000090: 7b70 41be 4f9f 273e fcb1 42be cf8c 59be
000000a0: fab4 80be 4e82 7dbe cf09 0f3e 2926 48be
000000b0: 9908 6e3e 921e 76be 795d 133e a327 19be
000000c0: 7ee7 1c3e 0c71 78be 5ef9 8d3e 07e1 543e
000000d0: 5593 58be 35a0 2ebe 092b 11be 089d 65be
000000e0: 12a3 1abe 115c 403e 899b 6c3e c864 4e3e
000000f0: 0207 4f3e d8ba 6ebe 322f 4f3e 537b 273e
00000100: 3296 283e 92e1 61be a0da 96be b2fc 523e
00000110: 0dda 4dbe a136 753e cc2a 88be 2773 5cbe
00000120: 2a8f 46be a77a 2dbe f796 0d3e c66a 88be
00000130: 4616 463e 32f2 4abe 99bf 293e fb5f 10be
00000140: 7c33 263e 68f0 71be 316d 693e 61a9 323e
00000150: df64 6ebe 9f44 64be c589 66be b419 44be
00000160: e60a 24be 9630 6b3e efab 683e 9e11 1c3e
00000170: 43be 823e 7d95 79be 797e 353e 0d8d 7a3e
00000180: b03e 693e 01c6 77be 145a 8dbe 952d 3a3e
00000190: 7563 25be d415 513e 492f 2abe 364d 59be
000001a0: 4d3a 4ebe 36fe 77be c806 1d3e 0181 83be
000001b0: dd86 593e 9211 8ebe e026 3e3e 1532 16be
000001c0: cead 0e3e a588 81be 9233 8d3e 3a2a 313e
000001d0: a396 23be 8f4b 81be c7c7 3dbe f0dd 50be
000001e0: dd97 5bbe 6364 6a3e a9b0 393e 302d 653e
000001f0: 5520 8b3e 01f7 4bbe 7b0e 293e 6774 253e
00000200: 9233 433e 19da 2bbe 00d7 92be 5f5a 793e
00000210: 0c9d 60be cacb 303e 7ca5 48be 6670 21be
00000220: c7e9 40be bd9e 47be 4be6 253e 6c4d 82be
00000230: 2db5 2d3e d0a7 48be 767f 713e f1e9 3fbe
00000240: e2f3 503e 0c76 75be 1542 863e 46df 763e
00000250: 1143 4fbe 5de1 30be 3729 74be 83b8 3abe
00000260: 84ee 60be a897 4d3e 7091 723e 302c 4f3e
00000270: da1e 513e 4e10 25be 2204 623e 29dc 603e
-0.26265842 0.23184289 0.31512016 -0.25130513 0.19830178 -0.2409319 0.19315848 0.22691463
0.2567808 0.2575033 -0.19157207 0.22987974 -0.2691344 0.21828564 -0.25946468 0.22156681
-0.15316142 0.19490317 -0.29260218 -0.2389572 0.1894464 0.20222846 0.23443662 0.259329
0.23447876 -0.23132358 -0.2522653 -0.20800467 -0.25515038 0.2520123 -0.23059048 -0.2184895
0.19188729 -0.19824836 -0.26283735 0.20892005 -0.18890564 0.16369365 -0.19013208 -0.2124512
-0.25138074 -0.24756739 0.13968585 -0.19545807 0.23245467 -0.24035099 0.14391126 -0.14956526
0.15322682 -0.24261874 0.27729315 0.20788966 -0.21149953 -0.17053302 -0.14176573 -0.22423184
-0.15101269 0.1878512 0.23106207 0.20155632 0.20217517 -0.23313463 0.20232847 0.16355638
0.16463545 -0.22058704 -0.29463673 0.20604208 -0.20102711 0.2394662 -0.2659515 -0.21528302
-0.1939055 -0.1694132 0.1382712 -0.26643962 0.19344434 -0.19818953 0.16576995 -0.14099114
0.16230577 -0.23626864 0.2279556 0.17447425 -0.23280667 -0.22291802 -0.22513492 -0.1915043
-0.16019782 0.22967753 0.22721837 0.15241095 0.25535783 -0.24373432 0.17724027 0.24467869
0.2277782 -0.24196626 -0.27607787 0.1818145 -0.16151221 0.20418483 -0.166196 -0.2122086
-0.20139427 -0.24218068 0.15334618 -0.2568436 0.21242853 -0.2774778 0.18569517 -0.14667542
0.13933489 -0.25299564 0.27578408 0.17301264 -0.15975432 -0.2525296 -0.1853324 -0.20397162
-0.2144465 0.22889857 0.18133797 0.22380519 0.27173105 -0.19918443 0.1650943 0.16157685
0.19062641 -0.16782416 -0.28679657 0.2435088 -0.21934909 0.1726524 -0.19594377 -0.15765533
-0.18839179 -0.19494148 0.16201131 -0.25449693 0.16963644 -0.19595265 0.23583779 -0.18741585
0.20405534 -0.23970813 0.26222292 0.2410861 -0.20240428 -0.1727347 -0.23843847 -0.18234448
-0.21965986 0.20077384 0.23688293 0.202317 0.20421925 -0.16119501 0.22071889 0.21958984

lin.bias f4 [5]
00000000: 7754 a23c 1b58 83bc f9a8 f33c a4fe 5c3c
00000010: 5eef e33c
0.019815667 -0.016033223 0.029743658 0.013488445 0.0278241
