checkpoints/MLE_space_False_length_15_preTrainG_epoch_25.pth (torch_old, 36090 bytes, 7 tensors)

emb.weight f4 [5, 32]
0.13039668 0.15795508 0.09792154 0.27188036 -0.21987829 0.1408856 0.17660798 -0.0307764
0.087908134 0.06741187 -0.27402952 -0.02065662 -0.19435874 0.11081391 -0.0911071 -0.14382263
-0.08079121 0.12975596 0.13596311 0.104728766 -0.1449174 -0.075484365 -0.061822735 0.06596092
-0.22542252 0.18357272 0.038034715 0.17762579 0.044646505 0.07882232 0.102283955 -0.120922625
-0.30133533 0.10435372 -0.30707702 -0.23057894 0.31092942 0.085006654 -0.30604497 0.19387536
-0.23837456 -0.22480197 0.19075462 0.18704423 0.30519518 -0.2651729 0.29667673 0.27753642
0.21341544 -0.32263827 -0.2718835 -0.24842367 0.31528887 0.29112747 0.27607346 -0.22997344
0.09874456 0.053992312 -0.21996921 -0.25246504 -0.21561447 -0.29414845 -0.290447 0.31142882
-0.31703028 0.057714973 -0.3004553 -0.19158624 0.32252538 0.17174125 -0.30295122 0.22547914
-0.2982012 -0.24289285 0.24021208 0.20198424 0.3091671 -0.27251145 0.3084418 0.28982437
0.28470385 -0.2624261 -0.23391564 -0.27973425 0.28025493 0.26887706 0.22536501 -0.26859838
0.09422375 0.005595458 -0.278092 -0.31456572 -0.24596219 -0.21347769 -0.31327218 0.25453535
-0.30495414 0.09794511 -0.2737353 -0.18951003 0.32182488 0.111652486 -0.27365232 0.18949486
-0.27517676 -0.29899484 0.21199878 0.1747756 0.282878 -0.28296238 0.27144203 0.31364202
0.24519695 -0.25289568 -0.28539264 -0.26637706 0.2534098 0.2446564 0.22770353 -0.25698715
0.11240321 0.04929064 -0.288919 -0.31170326 -0.19740413 -0.24619624 -0.27278423 0.31820542
-0.24478678 0.09755454 -0.2918961 -0.18681566 0.32630366 0.10030327 -0.30211952 0.27342707
-0.2998589 -0.23319057 0.15945257 0.23797627 0.2740123 -0.3054387 0.265389 0.25643432
0.29800144 -0.23796178 -0.31042233 -0.28728452 0.27159956 0.2847623 0.275351 -0.27182853
0.071857154 -0.0143011045 -0.21519886 -0.30809414 -0.23275071 -0.28281662 -0.29114798 0.23862305
00000000: b586 053e fabe 213e 178b c83d e733 8b3e
00000010: c627 61be 5144 103e b9d8 343e ca1e fcbc
00000020: 2e09 b43d 3c0f 8a3d 994d 8cbe 1238 a9bc
00000030: fa05 47be 67f2 e23d 5c96 babd 3d46 13be
00000040: dd75 a5bd bfde 043e ea39 0b3e 097c d63d
00000050: 3a65 14be 8c97 9abd d639 7dbd 8516 873d
00000060: 29d5 66be 7dfa 3b3e 4aca 1b3d 89e3 353e
00000070: 41df 363d 996d a13d 407a d13d 48a6 f7bd
00000080: a048 9abe 67b7 d53d 3339 9dbe e31c 6cbe
00000090: 2432 9f3e f817 ae3d edb1 9cbe 4387 463e
000000a0: 7618 74be 7d32 66be 2e55 433e 8688 3f3e
000000b0: 8b42 9c3e bec4 87be 03e6 973e 4119 8e3e
000000c0: 9489 5a3e d830 a5be 5034 8bbe c662 7ebe
000000d0: 8b6d a13e a90e 953e 8059 8d3e 287e 6bbe
000000e0: 963a ca3d 0b27 5d3d 9c3f 61be 1943 81be
000000f0: 0aca 5cbe a09a 96be 78b5 94be 9973 9f3e
00000100: cb51 a2be 8966 6c3d 47d5 99be 2f2f 44be
00000110: 0c22 a53e f0dc 2f3e 6c1c 9bbe 01e4 663e
00000120: d4ad 98be e7b8 78be 28fa 753e f5d4 4e3e
00000130: 264b 9e3e 9f86 8bbe 15ec 9d3e dc63 943e
00000140: b4c4 913e b75c 86be 9587 6fbe 5439 8fbe
00000150: 937d 8f3e 41aa 893e 16c6 663e ba85 89be
00000160: 62f8 c03d 1b5a b73b 1362 8ebe c20e a1be
00000170: 83dd 7bbe e599 5abe 3665 a0be 7552 823e
00000180: f322 9cbe 7297 c83d 0927 8cbe eb0e 42be
00000190: 3bc6 a43e 0faa e43d 281c 8cbe f10a 423e
000001a0: f8e3 8cbe da15 99be 3516 593e 60f8 323e
000001b0: 63d5 903e 72e0 90be 73fa 8a3e b095 a03e
000001c0: e914 7b3e 8b7b 81be fc1e 92be 9362 88be
000001d0: eebe 813e 3587 7a3e 1d2b 693e d293 83be
000001e0: a733 e63d fbe4 493d 31ed 93be 9297 9fbe
000001f0: 4f24 4abe de1a 7cbe 60aa 8bbe d2eb a23e
00000200: 63a9 7abe adca c73d 6873 95be 9b4c 3fbe
00000210: 4611 a73e cd6b cd3d 69af 9abe a2fe 8b3e
00000220: 1b87 99be 82c9 6ebe 8947 233e 0db0 733e
00000230: 574b 8c3e 7662 9cbe 11e1 873e 5c4b 833e
00000240: a593 983e 41ac 73be adef 9ebe f516 93be
00000250: 190f 8b3e 5dcc 913e cefa 8c3e 1c2d 8bbe
00000260: d829 933d 2e4f 6abc 175d 5cbe 84be 9dbe
00000270: 3456 6ebe 57cd 90be 5911 95be 9a59 743e

lstm.weight_ih_l0 f4 [128, 32]
-0.18534768 0.11295596 -0.18213806 -0.14565507 0.21938635 0.13581511 -0.21125267 0.15899397
-0.16105217 -0.1367764 0.062457714 0.19661012 0.26141492 -0.17295256 0.1644222 0.22572683
0.1567988 -0.19033806 -0.25452977 -0.21562597 0.18004552 0.15447278 0.1484788 -0.17704466
0.041489523 0.11222465 -0.14917871 -0.2279399 -0.20957796 -0.2104096 -0.18985799 0.22613324
-0.25297388 0.044140127 -0.19417474 -0.06713092 0.23331515 0.09226303 -0.25289834 0.18144153
-0.2286233 -0.13609076 0.1048075 0.1627231 0.25660923 -0.25532702 0.18224531 0.233935
0.16292772 -0.22747286 -0.24279022 -0.15486634 0.21894161 0.21368247 0.17356107 -0.19906305
0.043714408 0.034443974 -0.17005657 -0.26964778 -0.20404162 -0.22900945 -0.24153195 0.255553
-0.2608313 0.2511752 -0.16922985 0.19733821 0.2829569 0.21925102 -0.28490558 0.16411354
-0.17019835 -0.16473481 -0.14403647 0.23573299 0.2792687 -0.17387845 0.23597552 0.21979855
0.16078988 -0.19316027 -0.21966249 -0.19728923 0.24818717 0.24128342 0.16516873 -0.23858097
-0.25861567 0.2125797 -0.17210814 -0.24241216 -0.17058319 -0.15700059 -0.19664614 0.18277961
-0.15506808 0.16613238 -0.1689993 -0.19648653 0.23828335 0.19037545 -0.21231584 0.14862871
-0.18608776 -0.1813093 0.14226817 0.1700631 0.26258716 -0.21775065 0.24778377 0.2514483
0.1618702 -0.23093626 -0.17111948 -0.16535361 0.21440066 0.19146387 0.19405994 -0.17183931
0.011800113 0.074439205 -0.18763156 -0.25064647 -0.23296759 -0.21406054 -0.23049589 0.18959823
-0.22627652 0.1336397 -0.18019971 -0.051424533 0.2970759 0.10046798 -0.2638019 0.1285835
-0.20763154 -0.19627142 0.12510352 0.17427024 0.23768465 -0.19012256 0.15156771 0.25791165
0.14878674 -0.16992645 -0.20660536 -0.1633758 0.19716395 0.16783652 0.21075346 -0.18795764
-0.033154674 0.09686549 -0.15154049 -0.28836557 -0.15925725 -0.23180678 -0.1853292 0.20042196
-0.2774774 0.05827022 -0.19633807 -0.135787 0.35027713 0.12938747 -0.30187988 0.14706028
-0.2596397 -0.20290798 0.17556767 0.2374936 0.34691292 -0.26331246 0.20133342 0.28470594
0.23687932 -0.19921876 -0.26429778 -0.27163845 0.2854681 0.17991062 0.19301748 -0.19426593
0.049213063 0.07196466 -0.15309104 -0.22991464 -0.21513465 -0.20908983 -0.20823549 0.27242032
-0.1241625 0.1341127 -0.11160716 0.08035312 0.061278924 0.15177566 -0.11449412 0.16026561
-0.18704537 -0.17392464 -0.07174099 0.124104366 0.15673865 -0.062056117 0.15317361 0.06668105
0.12906861 -0.09508311 -0.10758762 -0.058299143 0.120307155 0.11814367 0.19765602 -0.17385653
-0.19299923 0.204428 -0.15836386 -0.09367472 -0.19276522 -0.14455955 -0.1500687 0.1150863
-0.19388258 0.13298985 -0.20618436 -0.09196307 0.3140454 0.077995576 -0.29461485 0.14780697
-0.24571392 -0.18055731 0.11848232 0.16012219 0.2887446 -0.26149178 0.18483146 0.29426774
0.17945176 -0.2462437 -0.2800755 -0.1827737 0.26387885 0.17807844 0.18891901 -0.17878358
0.045217376 0.019925833 -0.17039534 -0.29341173 -0.1757365 -0.20438293 -0.22669373 0.20898046
00000000: c8cb 3dbe 7455 e73d 6682 3abe 9a26 15be
00000010: d1a6 603e 1e13 0b3e 9f52 58be 51cf 223e
00000020: dcea 24be 1d0f 0cbe a9d3 7f3d 2a54 493e
00000030: 2dd8 853e 7a1a 31be 4b5e 283e ef24 673e
00000040: dd8f 203e fbe7 42be ba51 82be 0ecd 5cbe
00000050: da5d 383e 1d2e 1e3e d40a 183e 324b 35be
00000060: ebf0 293d 0ad6 e53d 4ec2 18be 1469 69be
00000070: 9b9b 56be 9d75 57be 226a 42be 798f 673e
00000080: cb85 81be 47cc 343d bed5 46be f07b 89bd
00000090: 2bea 6e3e 66f4 bc3d e47b 81be cfcb 393e
000000a0: 3a1c 6abe 605b 0bbe 51a5 d63d e2a0 263e
000000b0: 4962 833e 39ba 82be 849e 3a3e a88c 6f3e
000000c0: 86d6 263e a5ee 68be 009e 78be 4895 1ebe
000000d0: 3b32 603e 94cf 5a3e feb9 313e 2fd7 4bbe
000000e0: e10d 333d 2015 0d3d 4f23 2ebe 460f 8abe
000000f0: 49f0 50be 7481 6abe 2754 77be d8d7 823e
00000100: ae8b 85be 099a 803e 974a 2dbe 0713 4a3e
00000110: badf 903e 5783 603e 25df 91be 610d 283e
00000120: 7a48 2ebe 3eb0 28be 4c7e 13be fd63 713e
00000130: 4ffc 8e3e 310d 32be 91a3 713e df12 613e
00000140: 1aa6 243e cecb 45be 34ef 60be 3006 4abe
00000150: c724 7e3e 0013 773e fe21 293e 924e 74be
00000160: 4669 84be 7eae 593e 1e3d 30be e53a 78be
00000170: 5cad 2ebe c3c4 20be 9b5d 49be 942a 3b3e
00000180: 2bca 1ebe 9b1e 2a3e 270e 2dbe c433 49be
00000190: 8d00 743e c8f1 423e 5369 59be 2032 183e
000001a0: ca8d 3ebe 25a9 39be bfae 113e 0525 2e3e
000001b0: d371 863e 07fa 5ebe 07bb 7d3e d5bd 803e
000001c0: 4dc1 253e 8e7a 6cbe f239 2fbe 7552 29be
000001d0: d98b 5b3e 1b0f 443e a6b7 463e a5f6 2fbe
000001e0: 4355 413c 9573 983d 7d22 40be bc54 80be
000001f0: 0e8f 6ebe b032 5bbe 1d07 6cbe 0a26 423e
00000200: 08b5 67be d8d8 083e 4686 38be 88a2 52bd
00000210: 551a 983e 28c2 cd3d 0b11 87be 65ab 033e
00000220: 5d9d 54be 60fb 48be 231b 003e e673 323e
00000230: 9b63 733e 7daf 42be 9134 1b3e ff0c 843e
00000240: 8d5b 183e 3301 2ebe 5b90 53be fc4b 27be
00000250: 59e5 493e 56dd 2b3e c1cf 573e f877 40be
00000260: 32cd 07bd 6a61 c63d 6e2d 1bbe a7a4 93be
00000270: 5514 23be c25e 6dbe f0c6 3dbe 6a3b 4d3e
00000280: 8511 8ebe c1ac 6e3d d90c 49be bf0b 0bbe
00000290: 8657 b33e 267e 043e 0090 9abe f896 163e
000002a0: 7fef 84be 1cc7 4fbe 03c8 333e 8631 733e
000002b0: 929e b13e e4d0 86be 592a 4e3e fac4 913e
000002c0: 7e90 723e 0100 4cbe 0a52 87be 3214 8bbe
000002d0: e028 923e 7d3a 383e 60a6 453e a6ed 46be
000002e0: a393 493d 3562 933d e6c3 1cbe be6e 6bbe
000002f0: 424c 5cbe a51b 56be af3b 55be ad7a 8b3e
00000300: e948 febd d754 093e 4b92 e4bd 2d90 a43d
00000310: 9cff 7a3d 146b 1b3e e57b eabd ab1c 243e
00000320: d288 3fbe 4d19 32be f1ec 92bd 6e2a fe3d
00000330: 1980 203e 8e2e 7ebd 8bd9 1c3e 1390 883d
00000340: 902a 043e efba c2bd e656 dcbd 15cb 6ebd
00000350: 9963 f63d 4ff5 f13d 5766 4a3e 7207 32be
00000360: 97a1 45be 9355 513e 232a 22be 88d8 bfbd
00000370: 3f64 45be 6b07 14be 9cab 19be 5eb2 eb3d
00000380: 2889 46be 7e2e 083e fe21 53be 2257 bcbd
00000390: 8fca a03e 25bc 9f3d c2d7 96be b65a 173e
000003a0: 6e9c 7bbe 04e4 38be dca6 f23d 12f7 233e
000003b0: 55d6 933e 40e2 85be 7544 3d3e 43aa 963e
000003c0: 34c2 373e 4f27 7cbe 0e66 8fbe 0729 3bbe
000003d0: 211b 873e 325a 363e fc73 413e 0b13 37be
000003e0: db35 393d 803b a33c 1e7c 2ebe 103a 96be
000003f0: 45f4 33be c249 51be 6722 68be f9fe 553e

lstm.weight_hh_l0 f4 [128, 32]
-0.013933137 0.018209375 -0.21376927 0.03030549 0.070792876 -0.09326957 0.053981215 0.07636599
0.01987453 0.017791279 -0.07509257 0.00921867 0.002893482 0.0041031595 -0.105027236 0.08240365
-0.07658393 0.08378623 0.0973355 -0.082543224 0.068812266 0.07819022 0.10687462 0.030325327
0.08220883 -0.07548382 -0.103345804 -0.097565256 -0.025870929 0.03252552 -0.04214978 -0.08760403
-0.036686644 -0.0024903892 -0.21401468 -0.019523447 -0.0020963454 -0.08196398 -0.023383625 0.012685288
0.068909794 0.00047656498 -0.075151354 0.0105006285 0.014315866 0.016306687 -0.034277894 0.085667506
-0.020618984 0.071494214 0.08120315 -0.0838942 0.044639017 0.037256896 0.056476384 -0.011350385
0.060660258 -0.0619211 0.004086721 -0.024232948 0.00946014 0.060803205 0.004310594 -0.07945708
-0.23277429 0.20062846 -0.024764724 -0.18084767 0.16132966 -0.2239638 0.13320372 0.21941559
0.23665658 0.2155753 -0.223071 0.23653352 -0.20954525 0.1903801 -0.17855282 0.14624187
-0.1763779 0.20896703 -0.13567358 -0.19122517 0.19757155 0.21530594 0.1501017 0.16010433
0.16096026 -0.1796493 -0.15264562 -0.24033067 -0.20379591 0.22794254 -0.22481166 -0.22016302
-0.08869909 0.09514845 -0.13892208 -0.1047903 0.09502897 -0.13625404 0.01625181 0.097411774
0.082976684 0.10805653 -0.06825447 0.08905604 -0.13913016 0.13688916 -0.12010259 0.10792053
-0.056364954 0.13019632 0.044716828 -0.088852674 0.051997222 0.14825544 0.14164099 0.047236707
0.15167673 -0.13878438 -0.0539353 -0.1269284 -0.101463355 0.15106967 -0.05753671 -0.12470139
-0.042837966 0.03741461 -0.17379487 0.040290613 0.07647427 -0.022247067 -0.03625582 -0.009843833
0.036205452 -0.0061432538 -0.07635949 0.04364207 0.0056215855 0.037927743 0.0070834993 0.009879982
-0.033798873 -0.023222929 0.13586879 0.007760152 0.031883083 0.027927581 0.016210588 0.08458875
-0.0020231751 -0.09033487 -0.03438596 -0.055805422 -0.05156449 0.063849844 -0.044379354 -0.030624151
-0.075155966 0.08177996 -0.18353017 0.0025883089 0.036059838 -0.07101581 -0.016768686 0.018843312
0.013330608 0.05747981 -0.03777858 0.061612427 0.03425402 -0.023092113 -0.04680017 0.0035529467
-0.0129814 0.026144221 0.14249419 -0.013851296 0.00095807726 0.08796286 0.06948655 0.018909361
0.059080213 -0.01193402 -0.07402095 -0.037170433 -0.018910531 -0.008065122 -0.03261264 -0.039995708
-0.09545145 0.056829765 -0.072574064 -0.08906406 0.09508647 -0.0936004 0.13152158 0.12748502
0.071346864 0.08058862 -0.10410187 0.13334881 -0.18875693 0.07395285 -0.064531446 0.1443858
-0.08157022 0.0758373 -0.039862692 -0.08536437 0.04265412 0.13099939 0.060652256 0.08735324
0.05869419 -0.11870876 -0.068398885 -0.08085227 -0.11799085 0.1296964 -0.09656714 -0.13186805
-0.08747116 0.029590232 -0.20468569 -0.053344175 0.010386762 -0.061734445 -0.042161617 0.06941374
0.00056081 0.06751315 -0.108049646 0.073764026 -0.07185504 0.084233366 -0.009376044 0.09184783
-0.1121219 0.0015242001 0.10140045 -0.06671322 0.008206255 0.045603428 0.08923811 0.035968143
0.05689958 -0.024584547 -0.100157514 -0.082145914 -0.08841044 -0.010703012 -0.03054185 -0.014873283
00000000: d047 64bc d42b 953c 55e6 5abe 3843 f83c
00000010: dbfb 903d 1e04 bfbd 681b 5d3d c665 9c3d
00000020: e9cf a23c 04bf 913c 22ca 99bd e809 173c
00000030: 93a0 3d3b cc73 863b 8518 d7bd 3fc3 a83d
00000040: 09d8 9cbd 1d98 ab3d d657 c73d 6c0c a9bd
00000050: 72ed 8c3d 3222 a03d 15e1 da3d d26c f83c
00000060: 1a5d a83d 4397 9abd f7a6 d3bd 4bd0 c7bd
00000070: 45ef d3bc 7b39 053d 3fa5 2cbd be69 b3bd
00000080: bc44 16bd cc35 23bb aa26 5bbe a3ef 9fbc
00000090: d762 09bb bbdc a7bd 048f bfbc f4d5 4f3c
000000a0: 9420 8d3d 78db f939 f4e8 99bd d40a 2c3c
000000b0: 188d 6a3c 9a95 853c fa66 0cbd 7272 af3d
000000c0: 25e9 a8bc 8f6b 923d d64d a63d b9d0 abbd
000000d0: 67d7 363d b09a 183d c853 673d f7f6 39bc
000000e0: e476 783d fba0 7dbd e7e9 853b 2d84 c6bc
000000f0: b4fe 1a3c c80c 793d e23f 8d3b 65ba a2bd
00000100: 625c 6ebe 8c71 4d3e 64df cabc 2230 39be
00000110: 9a33 253e c456 65be 8e66 083e 7bae 603e
00000120: 1a56 723e c5bf 5c3e b96c 64be d835 723e
00000130: 0893 56be 00f3 423e 8dd6 36be 6ec0 153e
00000140: 699c 34be 74fb 553e 04ee 0abe 88d0 43be
00000150: 3250 4a3e 2979 5c3e 43b4 193e 64f2 233e
00000160: c4d2 243e fcf5 37be 224f 1cbe 3e19 76be
00000170: e0af 50be c569 693e 0735 66be 6a72 61be
00000180: dea7 b5bd 31dd c23d 9741 0ebe 4c9c d6bd
00000190: 8c9e c23d 2e86 0bbe 8422 853c d37f c73d
000001a0: aeef a93d be4c dd3d 00c9 8bbd 0363 b63d
000001b0: 2378 0ebe ac2c 0c3e 59f8 f5bd 7005 dd3d
000001c0: f0de 66bd 2f52 053e fe28 373d 64f8 b5bd
000001d0: 0afb 543d 46d0 173e 560a 113e 477b 413d
000001e0: 2551 1b3e 7e1d 0ebe 43eb 5cbd 85f9 01be
000001f0: 05cc cfbd 02b2 1a3e 9dab 6bbd 7163 ffbd
00000200: dd76 2fbd 1040 193d 48f7 31be c507 253d
00000210: 8b9e 9c3d 7b3f b6bc fc80 14bd 0748 21bc
00000220: 2b4c 143d 594d c9bb 5d62 9cbd 07c2 323d
00000230: 4735 b83b 1f5a 1b3d b31c e83b a6df 213c
00000240: b070 0abd 033e bebc 3021 0b3e e048 fe3b
00000250: d697 023d 62c8 e43c 11cc 843c de3c ad3d
00000260: 3f97 04bb 7d01 b9bd 4bd8 0cbd 3a94 64bd
00000270: 4935 53bd b5c3 823d 20c7 35bd 80df fabc
00000280: 5feb 99bd 407c a73d 55ef 3bbe 9ea0 293b
00000290: 7bb3 133d bd70 91bd 7c5e 89bc 4a5d 9a3c
000002a0: 9f68 5a3c f36f 6b3d b6bd 1abd 505d 7c3d
000002b0: f14d 0c3d ac2b bdbc 89b1 3fbd 8ed8 683b
000002c0: f0af 54bc 682c d63c ffe9 113e 8cf0 62bc
000002d0: 7a27 7b3a df25 b43d f74e 8e3d cee7 9a3c
000002e0: 18fe 713d e886 43bc 4c98 97bd 0640 18bd
000002f0: 42ea 9abc 9323 04bc d594 05bd 8ad2 23bd
00000300: 0d7c c3bd 54c6 683d b6a1 94bd 3867 b6bd
00000310: b2bc c23d 91b1 bfbd 98ad 063e 6f8b 023e
00000320: 4e1e 923d a50b a53d 5c33 d5bd 978c 083e
00000330: 7f49 41be 9874 973d 1029 84bd dfd9 133e
00000340: 4a0e a7bd 9650 9b3d 1047 23bd 84d3 aebd
00000350: 16b6 2e3d b424 063e 806e 783d 41e6 b23d
00000360: 5269 703d 941d f3bd b714 8cbd e095 a5bd
00000370: 30a5 f1bd 22cf 043e fec4 c5bd 6b08 07be
00000380: 1424 b3bd 3767 f23c 2099 51be 6c7f 5abd
00000390: 3d2d 2a3c 42dd 7cbd a9b1 2cbd ca28 8e3d
000003a0: 5203 133a 5644 8a3d 2249 ddbd 9811 973d
000003b0: bc28 93bd 8b82 ac3d fb9d 19bc b71a bc3d
000003c0: 2ba0 e5bd abc7 c73a 0aab cf3d f1a0 88bd
000003d0: 8773 063c a9ca 3a3d 78c2 b63d 5553 133d
000003e0: 890f 693d 8865 c9bc 621f cdbd 1e3c a8bd
000003f0: 8810 b5bd b05b 2fbc e732 fabc 12af 73bc

lstm.bias_ih_l0 f4 [128]
0.1484889 0.13893525 0.24264728 0.15831503 0.15139021 0.16168952 0.18906355 0.10802075
0.12758304 0.16928671 0.107188664 0.106252946 0.17618251 0.14065444 0.17330806 0.07452785
0.07437399 0.16320953 0.19993322 0.100592926 0.13161774 0.10903904 0.106379315 0.13837512
0.090134054 0.124812745 0.1412532 0.10095935 0.170702 0.09763277 0.09995175 0.14194623
0.010394888 -0.002616706 -0.29735866 -0.029247735 0.03447656 -0.016826607 -0.06799851 0.026351867
-0.042931307 -0.027791908 0.012451625 0.056214295 0.011894124 -0.083849356 0.004963174 0.029704213
0.010894025 -0.01440405 -0.1976311 -0.023767559 0.06769326 0.032572433 0.02254589 0.020016082
0.05571941 0.06895467 -0.01809018 0.07193492 -0.031960607 0.014804554 0.0066743083 0.032089923
-0.0902649 0.07088516 0.043977305 -0.019736167 0.07990173 -0.102128595 0.03636562 0.08941011
0.03297158 0.037161924 -0.095336184 0.008193996 -0.015706852 0.06965832 -0.054784898 0.07744075
-0.05578031 0.04334456 -0.025856843 -0.025882203 0.065372765 0.05707646 0.03551225 0.06278091
0.0623218 -0.046709545 -0.0700178 -0.08156311 -0.07595049 0.08409226 -0.08776956 -0.095399916
0.073885314 0.050363805 0.23314777 0.10793711 0.02110323 0.040491622 0.19208865 0.07872666
0.11818805 0.07546825 -0.0020852368 0.087309144 0.16319324 0.1557639 0.09416839 0.06740723
0.06060477 0.078987665 0.23871663 0.02698066 0.09035513 0.07057878 0.016900802 0.030797185
0.08280591 0.007831865 0.08940952 0.070038624 0.022795303 0.13466361 0.034810487 0.041268874
00000000: 790d 183e 0b45 0e3e 8778 783e 561d 223e
00000010: 0906 1b3e f091 253e e099 413e fc39 dd3d
00000020: 21a5 023e 7f59 2d3e bb85 db3d 259b d93d
00000030: 3069 343e b807 103e ab77 313e 0fa2 983d
00000040: 6451 983d 6620 273e 4bbb 4c3e aa03 ce3d
00000050: cdc6 063e dc4f df3d 66dd d93d 35b2 0d3e
00000060: 3498 b83d d39d ff3d aea4 103e c7c3 ce3d
00000070: 81cc 2e3e b1f3 c73d 81b3 cc3d 5a5a 113e
00000080: 524f 2a3c 0b7d 2bbb 653f 98be f298 efbc
00000090: 4b37 0d3d f4d7 89bc ce42 8bbd dfdf d73c
000000a0: bdd8 2fbd dbab e3bc e701 4c3c f640 663d
000000b0: 92df 423c 36b9 abbd 1fa2 a23b 4056 f33c
000000c0: da7c 323c f7fe 6bbc cf5f 4abe 2fb4 c2bc
000000d0: c4a2 8a3d ac6a 053d 29b2 b83c c4f8 a33c
000000e0: 093a 643d 1b38 8d3d db31 94bc 9e52 933d
000000f0: 20e9 02bd cd8e 723c 28b4 da3b b970 033d
00000100: cedc b8bd 3d2c 913d 8c21 343d bead a1bc
00000110: 85a3 a33d cc28 d1bd 1ef4 143d a61c b73d
00000120: 350d 073d 1a37 183d 9e3f c3bd 1c40 063c
00000130: a8ab 80bc 05a9 8e3d 2166 60bd 4299 9e3d
00000140: e579 64bd 118a 313d bbd1 d3bc ea06 d4bc
00000150: 28e2 853d 02c9 693d 4b75 113d 4793 803d
00000160: 2545 7f3d 8252 3fbd 7e65 8fbd 8f0a a7bd
00000170: ee8b 9bbd 9038 ac3d 87c0 b3bd 0861 c3bd
00000180: 2f51 973d 474a 4e3d 4abe 6e3e 220e dd3d
00000190: aee0 ac3c 8bda 253d e3b2 443e 713b a13d
000001a0: 940c f23d 198f 9a3d 78a8 08bb 23cf b23d
000001b0: 211c 273e 9280 1f3e 5bdb c03d cd0c 8a3d
000001c0: b53c 783d 49c4 a13d 2272 743e 8c06 dd3c
000001d0: 1c0c b93d 9b8b 903d 8d73 8a3c 614a fc3c
000001e0: 2596 a93d 3951 003c 571c b73d 6970 8f3d
000001f0: 37bd ba3c 42e5 093e 7195 0e3d 8d09 293d

lstm.bias_hh_l0 f4 [128]
0.1764641 0.09360511 0.17781904 0.13832168 0.11006219 0.08774088 0.11922248 0.1717824
0.13855094 0.13886513 0.088116586 0.11434021 0.12532555 0.11059441 0.107560486 0.093384795
0.072513565 0.15038073 0.18714689 0.16523293 0.15425713 0.101419404 0.11465226 0.16552727
0.16791794 0.06243997 0.16468248 0.07087377 0.16364476 0.14166996 0.085005544 0.08938589
-0.008797399 0.051243383 -0.29101133 -0.07807543 0.07343345 0.021561993 -0.14317851 0.0733784
-0.04642801 0.014939003 0.043816157 -0.003813355 -0.016874548 -0.061357256 -0.0037561844 0.046679057
0.066875175 -0.0031401182 -0.23290013 0.014024742 -0.029240554 -0.006356704 0.012491204 0.05618397
0.080062576 -0.014994989 -0.017188806 0.0773063 0.039480574 -0.032388408 0.05701813 0.004847416
-0.08217315 0.046900082 0.0038688236 -0.06715289 0.06938892 -0.02173483 0.037448764 0.031722557
0.071987875 0.093584575 -0.012082247 0.104554944 -0.07975908 0.0044521173 -0.09153572 0.025165703
-0.071057625 0.0425109 0.014784398 -0.09822053 0.06351134 0.06276099 0.08318264 0.04641211
0.053904053 -0.0872479 -0.08707907 -0.044280294 -0.025736572 0.00498362 -0.040190198 -0.035294686
0.09485238 0.0055778422 0.25510252 0.16385797 0.007411958 0.04488309 0.15211418 0.07597245
0.18298909 0.097504884 0.014355081 0.047067784 0.06946389 0.07239199 0.09790842 0.042387117
0.0136297 0.15429367 0.22628815 0.009156793 0.013527662 0.06853137 0.03915227 0.06331958
-0.0034351768 0.06148938 0.062348172 0.0052321004 0.09437638 0.08899151 0.018088702 0.041201517
00000000: 01b3 343e 09b4 bf3d 3216 363e 33a4 0d3e
00000010: 4968 e13d 7eb1 b33d ea2a f43d bae7 2f3e
00000020: 4ce0 0d3e a932 0e3e 7876 b43d 332b ea3d
00000030: 5755 003e 527f e23d ac48 dc3d 8740 bf3d
00000040: fe81 943d 68fd 193e 6fa3 3f3e d232 293e
00000050: 95f5 1d3e fab4 cf3d cece ea3d fb7f 293e
00000060: aef2 2b3e 0ec1 7f3d 86a2 283e 4426 913d
00000070: 7e92 273e ee11 113e 6317 ae3d f30f b73d
00000080: f722 10bc 95e4 513d 70ff 94be 03e6 9fbd
00000090: 4764 963d c7a2 b03c 639d 12be 6a47 963d
000000a0: 4c2b 3ebd b8c2 743c 9278 333d 7be9 79bb
000000b0: 7e3c 8abc bf51 7bbd 512a 76bb 8a32 3f3d
000000c0: daf5 883d 71ca 4dbb 5f7d 6ebe 08c8 653c
000000d0: e389 efbc e64b d0bb e8a7 4c3c 2a21 663d
000000e0: d9f7 a33d 8bad 75bc 8acf 8cbc c452 9e3d
000000f0: 62b6 213d b5a9 04bd d88b 693d 13d7 9e3b
00000100: 654a a8bd 4d1a 403d 178c 7d3b 7487 89bd
00000110: c71b 8e3d 3e0d b2bc e063 193d 83ef 013d
00000120: 616e 933d 45a9 bf3d 9ef4 45bc e720 d63d
00000130: bb58 a3bd 11e3 913b 1477 bbbd 4e28 ce3c
00000140: a986 91bd e91f 2e3d 423a 723c d827 c9bd
00000150: 3c12 823d d588 803d a95b aa3d a01a 3e3d
00000160: 7fca 5c3d 07af b2bd 8356 b2bd 415f 35bd
00000170: 81d5 d2bc a24d a33b 7a9e 24bd 2991 10bd
00000180: f741 c23d 55c6 b63b cc9c 823e 62ca 273e
00000190: 03e0 f23b 55d7 373d d2c3 1b3e 7297 9b3d
000001a0: 7e61 3b3e a4b0 c73d 9331 6b3c 26ca 403d
000001b0: 1543 8e3d 4042 943d 3684 c83d 1d9e 2d3d
000001c0: 1b4f 5f3c 29ff 1d3e 15b8 673e 6006 163c
000001d0: 20a3 5d3c 2d5a 8c3d 215e 203d b2ad 813d
000001e0: b420 61bb 4adc 7b3d cc60 7f3d 0a72 ab3b
000001f0: 6748 c13d 2e41 b63d c22e 943c ecc2 283d

lin.weight f4 [5, 32]
-0.20826568 0.17962065 0.2804758 -0.20566207 0.14580691 -0.19000538 0.15454763 0.17611724
0.20548369 0.20755854 -0.13998689 0.17630243 -0.21103764 0.16446073 -0.20425498 0.16862573
-0.103250034 0.13606438 -0.25769964 -0.18701588 0.13599369 0.15005296 0.18190083 0.20615984
0.18257521 -0.1791005 -0.19848666 -0.15524302 -0.20287533 0.19348578 -0.1777541 -0.16664025
0.14110649 -0.146851 -0.23399581 0.17245694 -0.13728498 0.112109534 -0.15900019 -0.16129696
-0.2107746 -0.19690415 0.09343972 -0.14515972 0.18384871 -0.1980856 0.09274315 -0.098650135
0.10974868 -0.1955951 0.24840961 0.15605745 -0.15989776 -0.118615575 -0.09001867 -0.17271663
-0.09966627 0.13638869 0.1800103 0.15021951 0.15072607 -0.18323861 0.15154381 0.11167383
0.10776113 -0.17029132 -0.25935984 0.15994228 -0.15036377 0.18875448 -0.22658443 -0.16460109
-0.14262992 -0.11862119 0.090103604 -0.21029028 0.13519335 -0.14474952 0.10826897 -0.088772796
0.12041003 -0.17833917 0.19234714 0.122137256 -0.1785631 -0.17052335 -0.17544091 -0.13632853
-0.11201511 0.18209592 0.17087813 0.10350146 0.20152861 -0.1845999 0.1282924 0.19364169
0.18089858 -0.19308347 -0.24727653 0.14640607 -0.112753525 0.15652911 -0.1353477 -0.16487816
-0.16263922 -0.19592251 0.10595517 -0.21040894 0.16731744 -0.23743628 0.13876408 -0.09838767
0.092673175 -0.2092224 0.24694857 0.12487901 -0.11135659 -0.20434509 -0.13649103 -0.15653753
-0.1658466 0.1799746 0.13435687 0.17483865 0.22474518 -0.15310103 0.1159955 0.11334445
0.14383185 -0.11949106 -0.2610474 0.21084991 -0.17092562 0.12502798 -0.16819786 -0.110266075
-0.15220803 -0.14845371 0.11545608 -0.2081943 0.12560412 -0.1583431 0.18890353 -0.13923188
0.15893234 -0.19761623 0.23644109 0.19302318 -0.15409936 -0.1244781 -0.19009207 -0.13478684
-0.171731 0.15267721 0.18980142 0.1541192 0.15699172 -0.11577244 0.17250203 0.1714885
00000000: 9943 55be 7aee 373e 869a 8f3e 1499 52be
00000010: 684e 153e c590 42be bc41 1e3e 1458 343e
00000020: 516a 523e 3a8a 543e b958 0fbe a088 343e
00000030: 401a 58be 6568 283e 3828 51be 39ac 2c3e
00000040: c174 d3bd 7654 0b3e 35f1 83be 1781 3fbe
00000050: ee41 0b3e 7ca7 193e 3644 3a3e 911b 533e
00000060: fff4 3a3e 1f66 37be 1640 4bbe 07f8 1ebe
00000070: 8dbe 4fbe 2321 463e 2c05 36be bea3 2abe
00000080: 387e 103e 1c60 16be 999c 6fbe 8d98 303e
00000090: 6f94 0cbe af99 e53d f2d0 22be 082b 25be
000000a0: 4cd5 57be 3ea1 49be 535d bf3d c0a4 14be
000000b0: d642 3c3e f4d6 4abe 1ff0 bd3d 1509 cabd
000000c0: eac3 e03d 154a 48be 175f 7e3e 86cd 1f3e
000000d0: 3dbc 23be b9ec f2bd b55b b8bd a1dc 30be
000000e0: d41d ccbd 7aa9 0b3e 9f54 383e 25d3 193e
000000f0: ef57 1a3e e7a2 3bbe 4d2e 1b3e 40b5 e43d
00000100: deb1 dc3d d960 2ebe d0ca 84be e9c7 233e
00000110: f6f8 19be db48 413e c005 68be 308d 28be
00000120: 940d 12be abef f2bd 3d88 b83d 5656 57be
00000130: 2070 0a3e 3839 14be 1fbc dd3d 83ce b5bd
00000140: 8999 f63d 8b9e 36be a6f6 443e 1923 fa3d
00000150: 3fd9 36be ac9d 2ebe c8a6 33be b599 0bbe
00000160: 2e68 e5bd 5a77 3a3e adfa 2e3e 93f8 d33d
00000170: 845d 4e3e c207 3dbe 155f 033e 024a 463e
00000180: 7a3d 393e acb7 45be 0f36 7dbe 79eb 153e
00000190: 52eb e6bd 2b49 203e 9698 0abe d2d5 28be
000001a0: e58a 26be e99f 48be 06ff d83d 7175 57be
000001b0: 4355 2b3e 7f22 73be 2c18 0e3e 7a7f c9bd
000001c0: 6fcb bd3d 663e 56be 16e0 7c3e 91c0 ff3d
000001d0: ed0e e4bd d73f 51be 4ec4 0bbe 604b 20be
000001e0: b1d3 29be 434b 383e d994 093e e708 333e
000001f0: 9a23 663e 84c6 1cbe 0c8f ed3d 2321 e83d
00000200: a848 133e bbb7 f4bd 01a8 85be 0ae9 573e
00000210: 2007 2fbe 5607 003e 0f3c 2cbe 2ed3 e1bd
00000220: 6cdc 1bbe 4004 18be 3d74 ec3d e330 55be
00000230: 5e9e 003e b224 22be ed6f 413e cd92 0ebe
00000240: 29bf 223e e95b 4abe 9d1d 723e dea7 453e
00000250: 39cc 1dbe 60ee febd 7fa7 42be 9005 0abe
00000260: 40da 2fbe 6a57 1c3e 4e5b 423e 6cd1 1d3e
00000270: 70c2 203e 1a1a edbd 5fa4 303e ae9a 2f3e

lin.bias f4 [5]
0.054475475 -0.044928588 -0.0028156615 -0.014138725 0.0040171277
00000000: ad21 5f3d 0a07 38bd f686 38bb 1ca6 67bc
00000010: 1ca2 833b
