checkpoints/MLE_space_False_length_3_preTrainG_epoch_81.pth (torch_old, 36090 bytes, 7 tensors)

emb.weight f4 [5, 32]
00000000: 0fa0 2d3e 52cf 553e e4b5 fd3d 3a81 6e3e
00000010: aa66 5cbe 8bbf 573e 7387 3e3e 297b 523e
00000020: 0e63 113e 1b36 cabb 99f3 6bbe f479 6b3e
00000030: d65b 1cbe 7d50 063e 5589 0fbe 1958 15be
00000040: 84dd 0dbe 54c6 2a3e 5b9a 413e 7662 4abe
00000050: 4e31 4cbe be67 10be 91ae 0dbe 53c4 81be
00000060: a9a7 5bbe b745 6b3e 7cd5 e83d 73ad 603e
00000070: 7820 c83d 2ead 1a3e 7e5b 0f3e 69ea 2abe
00000080: 6b89 48be 7933 16be 062b 5cbe 11a6 58be
00000090: a809 403e a1d1 44be 1928 43be bfdc 43be
000000a0: 3c71 17be 1211 20be 5c57 2a3e 0959 33be
000000b0: 41f7 363e abd5 28be 80b8 503e 479e 2e3e
000000c0: aee5 063e c76a 5fbe 944d 2dbe c6b9 1ebe
000000d0: 71f1 593e fc58 553e bc68 503e db85 1abe
000000e0: a69a 313e 6f8d 19be 4250 1dbe 29a9 0cbe
000000f0: 97b7 24be f76e 5bbe 89b0 46be 87da 593e
00000100: 6d3d 59be 095f 3dbe f6cb 53be feb7 2fbe
00000110: d56c 4c3e 04d1 c3bd 941f 40be 96cd 17be
00000120: 3a21 56be 2f38 34be 3ade 5b3e db72 1abe
00000130: d846 3b3e f0c3 32be be20 5e3e 1f63 3b3e
00000140: 5a9a 513e c805 23be b940 07be ad0f 40be
00000150: ee82 373e 051a 403e f155 1e3e 7eae 43be
00000160: 4013 2c3e 83d3 46be ce1e 5bbe 1108 4dbe
00000170: 2b3e 47be 6d81 0abe e8f6 5ebe bca0 203e
00000180: ab15 48be 9a6b 1fbe 7664 33be 933c 2dbe
00000190: e1ca 463e 18d2 2bbe 3e7c 1dbe 9e50 48be
000001a0: 1edc 38be 9b37 67be 12df 3e3e 115f 43be
000001b0: 1533 1c3e 8cbd 37be 54ae 323e be02 4f3e
000001c0: 31ea 223e 0132 14be 44fc 36be 5794 2dbe
000001d0: f9b0 163e 4437 213e 3e14 1a3e 255e 32be
000001e0: 7fa0 3e3e e30d 1fbe 8b0d 5fbe eb71 45be
000001f0: 20a8 0dbe 6ca8 25be 4628 30be 998b 5c3e
00000200: 11f2 0dbe 3139 1bbe f38c 47be b01a 2abe
00000210: 8866 503e 188e 34be 346a 3fbe 3c6d efbd
00000220: 9203 56be 3618 28be 857f 083e 0392 00be
00000230: 55b2 173e e814 51be d42f 303e 8be8 183e
00000240: 8609 5d3e 0b67 08be 59fb 53be 830a 46be
00000250: 8e01 2d3e eb25 4e3e e9f9 4e3e 2929 45be
00000260: 522f 153e 62c6 5dbe 0aeb 17be b03b 45be
00000270: 2473 37be 6b0a 4fbe 1c92 46be 9c94 0e3e
0.16955589 0.20879868 0.123882085 0.23291484 -0.21523538 0.21069162 0.18606357 0.20554794
0.14197943 -0.0061710007 -0.23042144 0.2299574 -0.15269408 0.13116641 -0.14017232 -0.14584388
-0.13854033 0.16677219 0.18906538 -0.19764122 -0.19940683 -0.14102075 -0.13836123 -0.25345096
-0.21450676 0.22975813 0.11368844 0.21941166 0.09771818 0.15105125 0.13999745 -0.16690983
-0.19583671 -0.14668073 -0.21500787 -0.211571 0.18753684 -0.19220592 -0.19058265 -0.19127177
-0.14789289 -0.15631512 0.16634887 -0.17514433 0.17867757 -0.16487758 0.20382881 0.17052566
0.13173553 -0.21818076 -0.16924125 -0.15500554 0.21283509 0.20834726 0.20352453 -0.15090124
0.1734415 -0.14995359 -0.15362647 -0.13736404 -0.16085659 -0.21429048 -0.1940328 0.21274768
-0.21214838 -0.18493284 -0.20683274 -0.17160031 0.19963391 -0.09561351 -0.18762046 -0.14824519
-0.20911112 -0.17599557 0.21471491 -0.15082876 0.18288743 -0.17457557 0.21692178 0.1829953
0.20469037 -0.15920174 -0.13208283 -0.1875598 0.1792104 0.18759926 0.15462472 -0.19109532
0.16804218 -0.19416623 -0.2139847 -0.20022608 -0.19457309 -0.13525935 -0.21773875 0.15686315
-0.19539516 -0.1556839 -0.17518792 -0.16917638 0.1941333 -0.16779363 -0.15379426 -0.19562003
-0.18052718 -0.22579806 0.18639782 -0.19079234 0.15253861 -0.179434 0.17449313 0.2021589
0.1590965 -0.144722 -0.17869669 -0.16951118 0.14715947 0.15743738 0.15046784 -0.17418726
0.18615912 -0.15532641 -0.2178251 -0.19281738 -0.13833666 -0.16177529 -0.17202863 0.21537627
-0.13861872 -0.15158536 -0.19487362 -0.16611743 0.20351613 -0.1763233 -0.18692857 -0.11690757
-0.208998 -0.16415486 0.13329895 -0.12555699 0.14814122 -0.20418131 0.17205745 0.14932458
0.21585664 -0.13320558 -0.2070135 -0.19339947 0.16895124 0.20131652 0.2021252 -0.19253983
0.14568833 -0.21657708 -0.14835754 -0.1926105 -0.17915016 -0.20218818 -0.19391674 0.13923877

lstm.weight_ih_l0 f4 [128, 32]
00000000: 25b8 1cbe 5188 27be 7d4b 2fbe 5faf 4dbe
00000010: 5569 0a3e 37db 22be b3a1 16be c415 3cbe
00000020: ad95 1bbe bdb1 0bbe 4b03 ff3d 7382 17be
00000030: 122f 3e3e 8284 1ebe ce7f 1e3e cbb8 3d3e
00000040: c90b 173e b6e0 21be ea2b 5abe 3805 5fbe
00000050: 4a45 083e e705 1a3e 0471 1a3e 1f6d 46be
00000060: 452a 513e d56b 03be 090e 23be 3334 25be
00000070: 6415 4abe f07d 51be 1caf 31be c69d 4a3e
00000080: e0ed 59be 7c05 64be 8c11 39be d3f9 13be
00000090: 20d6 083e 2fa5 3dbe 863b 34be 5705 1cbe
000000a0: cc18 5fbe 5803 0ebe 80b5 383e 0a05 29be
000000b0: 9738 313e 75b8 6dbe 03c1 2e3e 0695 3c3e
000000c0: 5868 223e ca84 38be f93b 45be 9a78 1ebe
000000d0: 85dc 2a3e 100e 573e 22fd 353e 32d0 60be
000000e0: 8c69 5d3e 126d 45be 5260 3cbe 1529 54be
000000f0: cedc 4fbe f4ec 63be b7e2 62be cbf5 613e
00000100: b6b1 213d f26c 233e 8c27 a13d 44d8 093e
00000110: 3db1 94bd 5ad1 063e 79b6 6a3d c8ae af3d
00000120: fbd4 cc3d e9b2 0bbe 185a bebd 7271 273e
00000130: c062 1cbd 77fc b83d ce95 00bd 40a4 8dbd
00000140: 79f4 b5bd edc6 cd3d dc6d ce3d 4cea 3dbe
00000150: e444 aebd 1de2 cfbc 3ca3 c4bd 61b4 71be
00000160: 65fa 1cbe 0ee8 f73d 6ef4 463d 6e1a fa3d
00000170: 4cea c43c 43c4 ef3d 81b3 983d ee4f e6bd
00000180: 547f 86bd cbe8 c0bc 41f3 b9bd e5dc cdbd
00000190: 4001 8d3d 6293 e9bb 3430 90bd e2dc c8bd
000001a0: 71e9 bebd 3006 18be 2514 2b3d 085f 4cbd
000001b0: 185a 013e 7eb7 27be d033 253e 5f18 273e
000001c0: 8aed a43d 6634 07be 7769 49bd c9f0 4ebe
000001d0: 0a8f 9a3d 7160 db3d 1db4 ef3d d21d 39be
000001e0: 0c80 c83d bbe4 a0bd 3eec 07be 3571 abbd
000001f0: 45c5 33be 4ad0 fdbd ab7a 16be 32a9 d93d
00000200: 6eaa 42be ef50 03be 11bd 2ebe 36de ffbd
00000210: 1a5b 4a3e cde6 32be 92ab 41be 0364 4dbe
00000220: e277 4dbe 7497 52be 9781 463e 4e41 15be
00000230: 7abe 1a3e e343 2ebe 6771 133e ffa5 583e
00000240: d6c0 173e 43b1 08be 0c11 23be 5c25 2bbe
00000250: 5d45 123e 3fb6 2b3e d899 5f3e ef85 59be
00000260: dadf 083e 07be 04be 1bd2 2fbe af8b 60be
00000270: e570 2abe 32f2 69be 1d80 2dbe 5f50 2d3e
00000280: 8530 50be 41e3 59be b8d9 1cbe d01c 2dbe
00000290: e4ec 5e3e 8240 1ebe 4cf0 45be dd2b 50be
000002a0: acee 5dbe 09f3 34be 8561 4f3e 4c00 dabd
000002b0: 9dbf 673e fe25 57be b9a7 213e 6ad6 503e
000002c0: 93f6 493e 9fae 01be 7ea5 3bbe e273 79be
000002d0: 6dce 493e c144 163e 5daf 2c3e 3d55 3bbe
000002e0: 4983 493e 2dec 16be 0478 09be ccc3 01be
000002f0: 9dad 40be 36cd 31be 5525 22be dd52 543e
00000300: 0823 1e3e 69bb 0a3e 0725 093e ac53 133e
00000310: 82a9 64be 63ab 1e3e 6989 303e 45d2 353e
00000320: 1e2a ba3d 93ea 1bbe bd26 0fbe 232a 0b3e
00000330: 4413 e4bd 90c3 203e 8d84 fcbd 59c9 3bbe
00000340: 8e1d f2bd eed8 523e 7902 443e 20ea 06be
00000350: 43ff 2fbe ae91 23be 2c8e 89bd 3a50 4dbe
00000360: e6ce 3fbe 06f5 593e e7eb 993d 4e39 523e
00000370: d338 bb3c 83df 0d3e d3aa da3d 68eb 22be
00000380: f5bd 0cbe d7dd 1ebe 1b29 31be bad4 1fbe
00000390: 3c25 583e 8058 5ebe 7edc 52be 310c 52be
000003a0: 0388 5bbe ff5a 23be c0c4 383e e69d 46be
000003b0: 021b 4c3e 9421 60be 84e2 1b3e 9c6b 6a3e
000003c0: 7bd6 1d3e de7e 3bbe d205 5ebe f8e7 20be
000003d0: b9bf 4c3e b92f 1c3e 7641 293e 2774 2cbe
000003e0: ea86 613e 2dbd 64be 28ce 25be 357c 5dbe
000003f0: aee1 22be 13f2 2dbe 8fc2 40be 500b 1b3e
-0.1530462 -0.16360594 -0.1711864 -0.2008643 0.13516743 -0.15903936 -0.14710121 -0.18367678
-0.15193816 -0.1364202 0.124518 -0.14795856 0.18572643 -0.15480235 0.15478441 0.18527524
0.1475059 -0.15808377 -0.21305814 -0.21779335 0.13307682 0.15041314 0.15082175 -0.19377564
0.20426281 -0.12834103 -0.15923323 -0.16133194 -0.19734722 -0.20458198 -0.17351955 0.19786748
-0.21282148 -0.22267717 -0.180731 -0.14450769 0.13362932 -0.18520044 -0.17600831 -0.15236412
-0.21786803 -0.13868463 0.18037987 -0.16505828 0.17306744 -0.23214896 0.17065816 0.18416223
0.15860116 -0.18019405 -0.19261159 -0.15475693 0.16685684 0.21001458 0.17772344 -0.2195442
0.21622294 -0.19279888 -0.18396118 -0.20718797 -0.20299074 -0.22258359 -0.22156797 0.22066419
0.03947612 0.15959528 0.07868871 0.13461405 -0.07260368 0.13165799 0.057302926 0.08578259
0.1000156 -0.13642468 -0.09294528 0.1635187 -0.038180113 0.09032529 -0.031392865 -0.06916094
-0.0888452 0.10047708 0.10079548 -0.18546408 -0.085092336 -0.025376374 -0.09601447 -0.23603965
-0.15329893 0.12104808 0.04857295 0.12212072 0.024037503 0.11707356 0.07456113 -0.11245714
-0.06567255 -0.023548504 -0.090796 -0.10051898 0.06885004 -0.007128165 -0.07040444 -0.09807755
-0.09321869 -0.1484611 0.04176726 -0.049895316 0.12632024 -0.1637859 0.16133046 0.1631789
0.080531195 -0.13203582 -0.049172845 -0.2020904 0.07546814 0.10711754 0.11704276 -0.18077782
0.09790048 -0.07856127 -0.13273713 -0.08371202 -0.17555721 -0.123932436 -0.14695232 0.106279746
-0.19010326 -0.12823842 -0.1706431 -0.12493555 0.19761315 -0.17470856 -0.18913105 -0.20057683
-0.20065263 -0.20565587 0.19385372 -0.14575693 0.15111724 -0.17018084 0.14398728 0.21157072
0.14819655 -0.1334887 -0.15924472 -0.1671347 0.14284272 0.1676874 0.2183603 -0.21242498
0.13366643 -0.12963115 -0.17169993 -0.21928285 -0.16644628 -0.22846296 -0.16943403 0.1692519
-0.20331009 -0.21278097 -0.15317428 -0.16905522 0.21770054 -0.15454295 -0.19329947 -0.20329233
-0.21673077 -0.17670836 0.20252044 -0.10644588 0.22631688 -0.21010587 0.15786637 0.20394292
0.19722967 -0.12664269 -0.18324849 -0.24360612 0.19707651 0.14674665 0.16863771 -0.18294235
0.19678988 -0.14738531 -0.13424689 -0.12672347 -0.18816228 -0.17363438 -0.15834554 0.20734735
0.15443051 0.13548054 0.13393031 0.14387387 -0.22330287 0.15495066 0.17239918 0.17755993
0.090900645 -0.15226202 -0.13979621 0.13590293 -0.11136487 0.15699601 -0.123299696 -0.18338527
-0.11822043 0.20590565 0.19141568 -0.13175249 -0.17187218 -0.15973541 -0.0671657 -0.20050135
-0.18731269 0.21284875 0.07515698 0.20529673 0.022854244 0.13854794 0.106771134 -0.15910113
-0.13744338 -0.15514313 -0.17300837 -0.15608492 0.21107954 -0.21713448 -0.20591924 -0.20512463
-0.21438603 -0.15952681 0.18043804 -0.19396171 0.19932178 -0.21887809 0.15223128 0.22892612
0.15413849 -0.18310115 -0.21681908 -0.15713489 0.19995011 0.1525258 0.16528878 -0.16841184
0.22024122 -0.2233779 -0.16191924 -0.21629412 -0.15906402 -0.16986875 -0.18824218 0.15141034

lstm.weight_hh_l0 f4 [128, 32]
00000000: f934 fbbd 657b 093e 6d91 80be 6df0 893e
00000010: bd26 313e 1842 52be 2876 803e 4881 473e
00000020: 7f44 eb3d 9706 df3c 676e 04be 4079 8dbd
00000030: c566 833e 3127 fc3d 71e3 1ebe 4200 3b3e
00000040: b309 40be 784c 7c3e 516a 443e a93f 44be
00000050: 39d1 1b3e d054 443e 18f5 813d 5c05 7fbd
00000060: 7ded 343e 8a00 43be fa2d 4fbe a6d7 febd
00000070: bdf9 603e 4f90 6dbe 8db5 f7bd b279 4abe
00000080: a3f9 35be ad30 183e 532b 79be bf53 483e
00000090: fd23 053e bdb2 58be b416 413e ee4d 2b3e
000000a0: bcfa 333e d094 bc3c 9639 08be 8e3c 4bbd
000000b0: 3297 763e 7819 353e 1995 a7bd a8e9 453e
000000c0: 262b 26be fb2e 833e a1a3 2c3e 2c5c 62be
000000d0: 5a99 fc3d 5efe 3e3e f3e6 123d 54d5 cbbd
000000e0: 3a4c 203e 8ead 57be b50e 01be 5243 66bd
000000f0: 9a17 6a3e 6628 33be add9 90bd 91a5 5dbe
00000100: 09fb 2fbe 6cc7 133e 8a4e 1dbe 7aa9 c7bd
00000110: 13d4 cd3d 9daa 2ebe 8116 033e c78a 253e
00000120: 7f2e 2a3e 2876 1c3e d94a 29be ab0a 373e
00000130: 037c bf3d 86fa ee3d 42d2 f1bd 7611 b33d
00000140: 845e f2bd 43db 2e3e 007b 4c3e 6cab 08be
00000150: 06dc 0f3e 3b2d 233e 28dc b33d 4243 d03d
00000160: 3c9a d13d 873e fabd ee1a b6bd 61fd 37be
00000170: 955e 1dbe e1c6 083e 658b 2abe 6eae 27be
00000180: 6fc9 24be 3b7d 293e 3cff 55be 8e90 ad3d
00000190: 8df0 263e 5fd9 53be 739b 1b3e a8d5 2b3e
000001a0: 661e 1a3e e9c4 2c3e d0fc 04be f1e3 0c3e
000001b0: 664c 4d3e 1269 553e 2478 40be 3e6a 363e
000001c0: eee3 01be 1ea5 6f3e 1802 413e 9fe2 21be
000001d0: 0f93 f93d cb5c 5d3e c471 483e 0e5c c63d
000001e0: b7e2 533e 6142 56be 7f70 f8bd f70c 44be
000001f0: 7554 fdbb ba07 90bd 9877 02be f047 4abe
00000200: e5f3 31be 74be 353e ea33 51be b2b6 813e
00000210: 097a 4d3e 1b5e 24be 4ad9 3a3e 1a79 073e
00000220: cecd 2d3e b1bc d63c 9327 28be 2774 06bd
00000230: 4eb3 773e 318d 3d3e 4797 90bd 4477 0e3e
00000240: b77a 2abe e9f9 243e 9230 643e 4428 02be
00000250: b1a0 113e 089b 283e 7a68 74bc 3d2b debb
00000260: 88e5 fa3d 34a9 6abe a5b4 20be e0d0 ddbd
00000270: b7c4 363e 1ce0 34be 4669 1cbe 7e1c 29be
00000280: a427 58be 2e9e 6d3e 7b6f 31be 9a33 363e
00000290: 942e 273e 9c2a 51be 190f 683e ab5c 313e
000002a0: ef5e eb3d 8885 183d 12ac 9cbd 9bcc 4fbd
000002b0: 1d33 823e 276f 0f3e f683 adbd bba8 e13d
000002c0: 7469 18be 3b17 513e 4933 3e3e 4cc5 19be
000002d0: db69 a73d 1b4d 713e 3839 c3bc d063 ebbd
000002e0: cc68 1d3e 839d 21be 7c42 4cbe 4a3e 46bd
000002f0: 0269 413e cec2 67be 00da d5bd 9ca2 33be
00000300: ff4a 7bbc 3670 e9bc 85db 3cbe 378e 653d
00000310: ce70 283c 1b40 adba 2aaf 333e 0320 293d
00000320: da4b 4cbd 6978 abbc 0714 80bc ea39 b43c
00000330: f97f 173d 0af5 20bd cf98 e63c 87c8 433d
00000340: c70c 08bc 9883 e43d 33a9 273e 12bf bb3b
00000350: 1b70 32bd 42c4 273d a7a7 2bbd e975 5cbc
00000360: befd 24bd 1a74 0bbd 1780 a63c 7af8 513c
00000370: cee5 15bc 0bc5 d0bc d3fc fcbb 0873 2abd
00000380: 03e2 4cbe 837e 1e3e d0c6 61be f890 303e
00000390: 53ca e73d d7b3 2ebe 1473 383e 3f67 4d3e
000003a0: 4e6d d43d c1e2 8a3d ead2 14be ddb0 2b3b
000003b0: 8457 343e 5f66 6a3e ce23 0bbd 61b6 3e3e
000003c0: 5ace 6cbe b0be 2a3e 6fc4 303e 5c89 3abe
000003d0: 8347 8c3d 7a61 2c3e 2a19 4b3d 250d 60bd
000003e0: 1efe 003e 1652 16be b7dd 50be 699c babd
000003f0: 3df5 173e 9482 89be e37f aebd 2639 05be
-0.12265963 0.13425978 -0.2511095 0.26941243 0.17299934 -0.20533025 0.25090146 0.1948291
0.11487674 0.027224822 -0.1293274 -0.06907892 0.25664344 0.12312163 -0.1551645 0.18261817
-0.187537 0.24638546 0.19181181 -0.1916491 0.15216531 0.19172978 0.06345576 -0.06226097
0.1766872 -0.19043174 -0.20232382 -0.124434754 0.21970268 -0.2319958 -0.12095175 -0.19772986
-0.1777101 0.14862318 -0.24332933 0.19563197 0.1300201 -0.21161933 0.18856317 0.16728947
0.17576116 0.023020178 -0.13303217 -0.049618296 0.24081114 0.17685497 -0.08182735 0.19327414
-0.16227397 0.2562178 0.16859294 -0.22105473 0.12333937 0.18651721 0.03586478 -0.099527985
0.15654078 -0.210623 -0.12603267 -0.056216545 0.22860566 -0.1749588 -0.07072768 -0.2164519
-0.17185606 0.14431542 -0.15361992 -0.09749122 0.100502156 -0.17057271 0.12801553 0.1616622
0.166193 0.15279448 -0.16532458 0.17875163 0.09349825 0.11668877 -0.118076816 0.08743565
-0.11834434 0.17075829 0.19968796 -0.13346642 0.14048776 0.15935223 0.08782226 0.101690784
0.10234496 -0.122189574 -0.08891855 -0.1796775 -0.15368111 0.13357116 -0.16654737 -0.16375133
-0.16092466 0.16551678 -0.20898145 0.08474837 0.163027 -0.20688389 0.15196018 0.16780722
0.15050659 0.1687199 -0.12987065 0.13758828 0.20048675 0.20840862 -0.1879583 0.17813966
-0.12684605 0.23402831 0.18848455 -0.15809105 0.12186252 0.21617429 0.19574648 0.09685527
0.20691954 -0.20923759 -0.12130832 -0.1914557 -0.0077310153 -0.07032724 -0.12740934 -0.19754004
-0.17378195 0.17748433 -0.2042996 0.25334698 0.20066084 -0.16051523 0.18246952 0.1322979
0.1697304 0.026213022 -0.16421346 -0.032825615 0.24189493 0.18510891 -0.07060104 0.13912684
-0.16648374 0.16110958 0.22284153 -0.12710673 0.14221455 0.1646539 -0.014917487 -0.0067800567
0.12250811 -0.22916108 -0.1569391 -0.10830855 0.17848478 -0.17663616 -0.15274534 -0.16514775
-0.21108872 0.23204872 -0.17327683 0.17793122 0.16326362 -0.2042641 0.2266201 0.17320506
0.114927165 0.03723672 -0.07650007 -0.050732236 0.2542962 0.14007245 -0.08472435 0.11018511
-0.14883977 0.20419018 0.18574251 -0.15016669 0.08174487 0.2356457 -0.023830995 -0.11493647
0.15372008 -0.15782742 -0.19947237 -0.048399247 0.18887714 -0.22632906 -0.10441971 -0.175425
-0.015337705 -0.02849589 -0.18443115 0.05604383 0.010280801 -0.0013217957 0.17547289 0.041290294
-0.049877025 -0.02093144 -0.01563455 0.022000272 0.03698728 -0.039296187 0.028149037 0.04779866
-0.008303828 0.11157912 0.16373138 0.0057295645 -0.043563943 0.04095865 -0.041907933 -0.013455846
-0.04028105 -0.03404627 0.02032475 0.012815589 -0.009149028 -0.025484582 -0.0077205687 -0.04161361
-0.20008092 0.15477948 -0.22048497 0.17242801 0.11317887 -0.17060791 0.18012649 0.20058917
0.10372411 0.06781531 -0.14533582 0.0026197948 0.1761151 0.22890614 -0.033969693 0.1862426
-0.23125592 0.16674304 0.17262433 -0.18216461 0.06849577 0.1683406 0.049584545 -0.054700036
0.12596938 -0.14679751 -0.20397078 -0.09111864 0.14839645 -0.26857436 -0.08520486 -0.13010082

lstm.bias_ih_l0 f4 [128]
00000000: 4230 4d3e d031 5a3e 19f1 403e b338 383e
00000010: fd50 693e 73f8 603e f424 463e 8c8b 273e
00000020: 0747 163e 918d 633e 7ab4 553e 8732 1b3e
00000030: cb67 563e e994 323e 5dbd 6c3e 2112 123e
00000040: 59e0 303e fdc1 3d3e 8ffe 193e a29f 283e
00000050: 8aa9 563e 2bfd 383e bb67 403e de36 553e
00000060: 4f7c 143e ab39 503e 03da 4d3e a439 3b3e
00000070: b74d 703e bfdb 1a3e 07e6 3b3e 961d 533e
00000080: 0b78 bdbd f7b5 f3bd 43b5 61be 879c 0bbe
00000090: bccd c9bd 8249 10be 29fa 263e 1177 b9bd
000000a0: 98ef 09be 3cc5 2dbe 1815 04be de08 a3bd
000000b0: 36f8 12be ee66 42be 39ca f2bd f709 e9bd
000000c0: 556a 03be 95b9 0b3e 3c05 1dbe bfd6 14be
000000d0: 3d1d 8dbd c450 bfbd efdb eabd a876 08be
000000e0: 423e b7bd f244 3dbd d57d 01be f0c1 b5bd
000000f0: e236 62be f332 1dbe 9e62 09be dace c5bd
00000100: 1e85 26be 7959 143e 4499 a9bd c970 27bc
00000110: 75fa 1b3e ed45 2ebe 9c65 323e 6263 2a3e
00000120: 52b1 d43d 27c6 ad3d a2d2 2bbe 0e39 493d
00000130: 5586 953d 2e2a 1a3e 4324 edbd 5c02 1f3e
00000140: 9795 14be ef90 1b3e 6d1d a43d 8c71 c4bd
00000150: 4ac0 083e 3317 0c3e 05fc ac3d 652e dc3d
00000160: b347 053e 5e00 ebbd a55d 0abe 6314 10be
00000170: e34c b6bd e7e3 5c3d 2c16 1cbe 7cf3 29be
00000180: 4298 4f3e 2ca6 523e 3b6e 333e 6a20 183e
00000190: f38e 313e 43c5 3f3e a17d 4e3e 0aa4 6a3e
000001a0: 45e5 1e3e 11d7 5d3e 5d54 243e cb9c 473e
000001b0: e768 683e 4fb6 573e 7cfa 5d3e 29e4 5d3e
000001c0: a6e4 643e 826c 053e 9e29 403e 0a14 323e
000001d0: 55f2 773e 8568 643e 1867 333e 9461 383e
000001e0: fdad 6f3e 5474 2c3e 4230 613e b1b5 6e3e
000001f0: fa33 253e e987 5f3e dfcf 453e 605b 433e
0.2003794 0.21308064 0.18841971 0.17990379 0.22784801 0.21969776 0.19350034 0.16361827
0.14675532 0.22221972 0.20869628 0.15155993 0.20938031 0.17439617 0.23119111 0.14264728
0.17273082 0.18531032 0.15038513 0.16467145 0.20963112 0.18065326 0.1878957 0.20821711
0.14500545 0.20334499 0.20102696 0.18283707 0.23467146 0.15122889 0.18349467 0.20616755
-0.09251412 -0.118999414 -0.22041802 -0.13633929 -0.09853694 -0.14090541 0.16306366 -0.09055913
-0.13470304 -0.1696977 -0.12898672 -0.07960676 -0.14352497 -0.18984577 -0.11854977 -0.11378854
-0.12833531 0.13645013 -0.15334028 -0.14535044 -0.068903424 -0.09341577 -0.1146773 -0.13326514
-0.089474216 -0.04620833 -0.12645657 -0.08874881 -0.22091249 -0.15351467 -0.13416526 -0.096585944
-0.16261718 0.14487256 -0.08281186 -0.010219761 0.1523226 -0.17018862 0.17421573 0.16639474
0.10385384 0.0848506 -0.16779569 0.049126677 0.073010124 0.15055153 -0.11579182 0.15528244
-0.14510189 0.15192007 0.08013425 -0.0959197 0.13354602 0.13680725 0.084465064 0.107510366
0.13015632 -0.114746794 -0.13512285 -0.14070277 -0.08901384 0.053928282 -0.15242833 -0.16596788
0.20272925 0.20571202 0.17522518 0.14856115 0.17339687 0.18727593 0.20165111 0.22914138
0.15517147 0.21664073 0.16047807 0.19493406 0.22696267 0.21065639 0.21677583 0.21669067
0.22352847 0.13029674 0.18765876 0.17390457 0.24213536 0.22305496 0.17519796 0.18005973
0.23406215 0.1684125 0.21991065 0.23311497 0.16133109 0.2182919 0.19317578 0.19077826

lstm.bias_hh_l0 f4 [128]
00000000: ccd5 693e c7c6 2b3e 931d fd3d 8ebf 233e
00000010: 17ff 3e3e 463f 153e 0e41 fd3d 42d6 683e
00000020: 2e82 213e bc66 443e d82c 423e 8e7a 233e
00000030: f153 223e d6cc 133e 096a 293e 5b61 253e
00000040: a6f8 2e3e 019f 303e b8e6 0c3e 9ed0 6a3e
00000050: 4ed8 6d3e ba2f 313e 6fe0 483e a204 713e
00000060: e522 643e 075b 103e d9d7 653e e36a 1c3e
00000070: b613 693e d4f3 473e f697 2c3e 354b 1d3e
00000080: 54c6 e4bd cd67 85bd 5a35 5bbe 689c 3dbe
00000090: 390a 74bd 5ff4 d1bd 5cfc b33d 404f 32bd
000000a0: 3b84 0dbe 9403 02be 28ee c7bd 51fc 0ebe
000000b0: bf6d 30be c45e 2bbe d852 02be 4446 c6bd
000000c0: 6b2e 94bd 5a42 173e cb22 41be 6b47 dcbd
000000d0: 40d1 29be 6c85 07be 7d73 ffbd edda c6bd
000000e0: 6c63 85bd 2148 05be 8b91 00be ccc1 aabd
000000f0: 050f 19be 4d86 4dbe 98aa abbd c499 fdbd
00000100: eb3b 1ebe ea93 f73d aabd fbbd 5c14 6cbd
00000110: 9436 113e 5be6 b7bd 8d81 333e cfa1 de3d
00000120: 884c 123e eea9 103e 2f24 adbd b1fa 143e
00000130: 45c4 123c 8cc9 ae3d 2434 1cbe 8ef5 d23d
00000140: 733a 24be 65b6 1a3e 2559 f73d db4b 2cbe
00000150: 55d8 063e 61e9 113e 834e 073e 6ca8 ba3d
00000160: 1152 f93d 1003 1fbe 27d6 1bbe d0cd d3bd
00000170: b3ec 1ebd e946 cebc 15bb d6bd 8dce d8bd
00000180: a510 653e cdc9 243e 88e9 493e b763 513e
00000190: de89 233e 7644 443e 928e 253e 0ad2 673e
000001a0: 7640 613e d667 743e 182a 353e c767 1e3e
000001b0: 4a6e 083e dc56 023e e9ce 613e 4b45 443e
000001c0: 6aca 343e 8589 523e 936f 333e 9ed3 1f3e
000001d0: 7746 293e d04f 623e 2e30 4a3e 1caf 593e
000001e0: 655e 173e 5566 633e 4a7a 453e 1059 2c3e
000001f0: 8580 6e3e 41c3 303e 59b0 343e b849 433e
0.22835463 0.16775046 0.123591565 0.15991041 0.18651997 0.14574918 0.12365924 0.22737983
0.15772316 0.19179815 0.18962419 0.1596472 0.15852334 0.14433607 0.16544355 0.1615042
0.1708704 0.17248155 0.13759887 0.22931144 0.23227045 0.17303362 0.19616865 0.23536924
0.22278936 0.14097224 0.2244562 0.15275149 0.22761425 0.19526607 0.16854843 0.1536072
-0.111706406 -0.06513939 -0.21407071 -0.18516695 -0.05958006 -0.10251688 0.08788368 -0.04353261
-0.13819973 -0.12696677 -0.097622216 -0.13963439 -0.17229365 -0.16735369 -0.12726915 -0.09681371
-0.07235416 0.14771405 -0.18860929 -0.107558094 -0.16583729 -0.1323449 -0.124731995 -0.097097255
-0.06513104 -0.13015796 -0.1255552 -0.08337745 -0.14947136 -0.20070763 -0.083821476 -0.12382844
-0.15452544 0.12088759 -0.12292035 -0.057636604 0.14180976 -0.08979484 0.17529888 0.10870706
0.14287007 0.14127323 -0.08454167 0.14548756 0.008957927 0.08534536 -0.15254265 0.10300742
-0.16037922 0.1510864 0.1207755 -0.16825812 0.13168462 0.14249183 0.13213544 0.09114155
0.12173856 -0.15528512 -0.15218411 -0.1034199 -0.038799953 -0.025180297 -0.10484902 -0.105862714
0.2236963 0.16092606 0.19717991 0.20448194 0.15970561 0.19166741 0.16167668 0.22638717
0.21997246 0.23867735 0.17691839 0.15469275 0.13323322 0.12728447 0.22051586 0.19167058
0.1765534 0.20560272 0.17523031 0.1560807 0.16530786 0.22100759 0.19744942 0.21258205
0.14782102 0.22207005 0.19284931 0.1683085 0.23291214 0.17261983 0.17645396 0.1907109

lin.weight f4 [5, 32]
00000000: 446b 61be d6e7 553e bc4a 493e 86c9 4fbe
00000010: e412 363e 9971 56be aa25 fc3b 6020 473e
00000020: 48be 463e 269a 5b3e d33e 4cbe 31d9 343e
00000030: 921f 56be 51c8 253e c813 5fbe 40c5 573e
00000040: 98ae 2abe c332 08bc b6e3 47be 1429 57be
00000050: 6c0e 2f3e 046b 353e aec0 583e e74e 683e
00000060: 4738 533e 942d 57be bc32 54be a769 3dbe
00000070: 2ead 5dbe c07f 4b3e 9509 56be 8e75 43be
00000080: b8a1 273e 3f6a 41be 44a1 07be 27f1 313e
00000090: d56b 3bbe 375b 133e de40 f03c d39a 40be
000000a0: 920e 52be 0a74 60be 0ac2 2a3e ea28 27be
000000b0: 27f6 403e b9a7 4ebe 964d f53d 83ca 1ebe
000000c0: 7285 3e3e c3ee 50bd 971a 2f3e 8a22 453e
000000d0: 81e1 55be 2568 21be ea83 0bbe 4496 54be
000000e0: f12e 0fbe 4bb1 393e c702 4f3e f517 493e
000000f0: 513b 393e 611b 4abe 0bcb 4b3e e379 183e
00000100: b9d3 013e 90f3 53be 823a 29be 1f0c 2c3e
00000110: d6c7 42be 5b91 5d3e 4f9f e2bd 2ed4 42be
00000120: 5173 11be 6427 0dbe abdc 213e 6922 67be
00000130: 6813 113e 829c 1cbe 0e7a 063e 1ddb 10be
00000140: 56f5 3f3e d8fe b0bd d14e f83d 83a0 1d3e
00000150: 4862 64be d289 53be acec 5dbe f01b 2ebe
00000160: 7e98 18be 5ea6 5f3e fb47 403e 013f 143e
00000170: 9498 6b3e 94ae 4dbe 7181 2d3e 2871 663e
00000180: afc6 3d3e 0261 5bbe 4110 15be 462f 0f3e
00000190: ab8c 0fbe b334 273e 0de3 7fbc d8aa 2ebe
000001a0: 104f 13be 537d 4cbe 2434 223e 24b3 52be
000001b0: 3f57 203e a042 68be e8dd 153e 5fe9 07be
000001c0: 1852 173e 4f61 bcbd 4b33 2d3e 4c92 0e3e
000001d0: 78ea 10be 682a 64be 16bc 25be 5fa5 2dbe
000001e0: b11d 3bbe 7154 513e 6131 0f3e 95d9 4d3e
000001f0: c24a 6a3e dbfb 1bbe 43b6 123e 12dc 043e
00000200: 687c 163e 73ee 0fbe 18c9 2cbe f83a 543e
00000210: 5808 46be d9da 0c3e fa6b a9bd 15d0 f4bd
00000220: 5a6c 0dbe 4e3e 18be 5587 233e 94b4 4fbe
00000230: efa5 ea3d fc75 1bbe 752e 463e 2384 2fbe
00000240: 680e 583e 07dc c9bd 91ac 2f3e 13f3 553e
00000250: 469f 37be 7573 12be 0f9e 57be 987b 14be
00000260: c2cf 40be 2e7b 363e a338 443e 97b2 323e
00000270: 1b64 253e a861 e6bd db65 473e 583a 423e
-0.22013575 0.2088922 0.19657415 -0.20291719 0.17780644 -0.20941772 0.0076949196 0.19445944
0.19408524 0.21445522 -0.1994584 0.17660977 -0.2091048 0.16189696 -0.2178489 0.21071339
-0.16668165 -0.008312884 -0.19520459 -0.21011764 0.17095345 0.17716604 0.21167251 0.22686349
0.20626937 -0.2101348 -0.20722479 -0.18497334 -0.21648094 0.19872952 -0.20902093 -0.19087812
0.16370285 -0.18888186 -0.13245112 0.17377149 -0.18302853 0.14390264 0.029327806 -0.18809061
-0.2051337 -0.21919265 0.16675583 -0.16324201 0.188439 -0.20181169 0.11977689 -0.1550694
0.18605593 -0.05100895 0.17099987 0.19251457 -0.20886804 -0.15762384 -0.1362454 -0.20760447
-0.1398275 0.18134038 0.20215903 0.19638045 0.18089034 -0.19737007 0.19901673 0.14890246
0.12678422 -0.2069838 -0.16526225 0.16801499 -0.19021544 0.2163748 -0.11065542 -0.19026253
-0.14204146 -0.13784558 0.15806834 -0.2257172 0.14167559 -0.15294078 0.13132498 -0.14146085
0.18745932 -0.086423576 0.12124408 0.15393262 -0.22303116 -0.20658043 -0.21672314 -0.17002845
-0.14901921 0.21840808 0.18777458 0.14477159 0.23007423 -0.20086128 0.16943909 0.22504103
0.18532823 -0.21423724 -0.14556982 0.13982877 -0.14018504 0.16328697 -0.015618098 -0.17057359
-0.14385629 -0.19969682 0.15840203 -0.20576149 0.15658282 -0.22681665 0.14635432 -0.13272618
0.1477741 -0.09198248 0.16914098 0.13922995 -0.14151943 -0.22281802 -0.1618503 -0.16957615
-0.18273045 0.20442368 0.1398368 0.20102532 0.2288008 -0.15232794 0.1432734 0.12974575
0.14695895 -0.14055805 -0.16873586 0.2072562 -0.1933912 0.13755359 -0.08272548 -0.11953751
-0.13810864 -0.14867517 0.15969594 -0.20283729 0.114574306 -0.15181726 0.1935366 -0.1714025
0.21099246 -0.0985642 0.17155673 0.20893507 -0.17931852 -0.14301856 -0.21056388 -0.14500272
-0.18829253 0.17820427 0.1916223 0.17450939 0.16151468 -0.11249095 0.19472449 0.18967569

lin.bias f4 [5]
00000000: 5a08 c03d 9c5d 8abd 85ce 06bd 85c7 38bd
00000010: 5e49 29bd
0.09376593 -0.06756136 -0.032911796 -0.04511215 -0.041329734
