checkpoints/MLE_space_False_length_3_preTrainG_epoch_189.pth (torch_old, 36090 bytes, 7 tensors)

emb.weight f4 [5, 32]
000000 c3 66 48 3e 29 53 81 3e b1 d8 08 3e 27 80 8c 3e
       0.1957045 0.2525876 0.13363911 0.27441522
000010 52 7f 7f be 20 ae 83 3e 6c ed 5f 3e 8b 83 7d 3e
       -0.24950913 0.25718784 0.21867913 0.24757211
000020 e6 5d 23 3e 58 31 03 be 5f 4b 8a be 48 08 8d 3e
       0.15953788 -0.12811792 -0.2701063 0.2754538
000030 f6 91 3c be 57 ad 15 3e 7b f2 1e be c0 10 2c be
       -0.18415055 0.14616905 -0.15522186 -0.16803265
000040 33 18 27 be 2f 14 52 3e 39 1e 67 3e 5e b1 a2 be
       -0.16317825 0.20515512 0.22570123 -0.31775945
000050 53 53 70 be 2a a3 25 be 8a 5f 25 be 72 2e b4 be
       -0.23469286 -0.16175523 -0.16149727 -0.35191685
000060 68 fd 82 be 3b 48 89 3e b9 b0 f9 3d 72 7b 83 3e
       -0.2558396 0.2681292 0.1219191 0.2568012
000070 0b e9 c3 3d d9 9e 36 3e e5 a8 1e 3e 8c 30 46 be
       0.09565934 0.17834033 0.15494116 -0.19354457
000080 19 91 51 be a0 8e 1d be 2f a9 66 be 2b c0 5f be
       -0.20465507 -0.15386438 -0.22525476 -0.2185065
000090 99 08 48 3e 13 16 4c be 8d 83 4b be f2 41 4b be
       0.1953453 -0.19930296 -0.19874401 -0.19849375
0000a0 c1 0d 21 be 3c 92 2f be 38 fb 30 3e f8 c8 39 be
       -0.15727903 -0.17145628 0.17283332 -0.1814307
0000b0 e6 55 40 3e bd 30 33 be 9e 97 5a 3e 7f 2c 38 3e
       0.18782768 -0.17499061 0.213469 0.17985724
0000c0 ae d3 10 3e 20 fa 67 be 90 28 35 be b8 02 31 be
       0.1414325 -0.22654009 -0.17691255 -0.17286193
0000d0 c6 41 61 3e 73 df 5e 3e 05 05 5a 3e 25 7e 2d be
       0.21997747 0.21764927 0.21290977 -0.16942652
0000e0 32 cf 38 3e 1c a7 20 be 82 0c 28 be 68 c5 13 be
       0.18047789 -0.15688747 -0.16411021 -0.14430773
0000f0 35 f0 30 be 5d 9b 64 be 77 91 50 be 85 a0 62 3e
       -0.17279132 -0.22324891 -0.2036799 0.22131546
000100 67 e2 61 be a7 6b 44 be 12 da 5d be 2c 86 36 be
       -0.22059022 -0.19181691 -0.21665218 -0.1782462
000110 5b 14 54 3e da c3 d1 bd e5 20 48 be d1 e4 1e be
       0.2071089 -0.10242434 -0.19543798 -0.15516974
000120 3c 54 5f be 64 2d 43 be f5 36 62 3e e4 9e 20 be
       -0.21809477 -0.19060284 0.22091277 -0.15685612
000130 16 44 44 3e d7 b2 3c be ff 95 67 3e 83 8d 44 3e
       0.19166598 -0.18427597 0.22615813 0.19194607
000140 a3 21 5b 3e a9 3b 2b be 53 c4 0e be d6 bf 51 be
       0.2139955 -0.16721977 -0.13942079 -0.20483336
000150 16 82 3e 3e 0e 3b 49 3e 0a 8e 27 3e 03 0a 56 be
       0.18604311 0.19651434 0.16362777 -0.20902257
000160 fe fa 32 3e 2f 9e 4d be c8 6b 65 be bf d4 53 be
       0.17478558 -0.20079874 -0.22404397 -0.20686625
000170 d6 01 53 be f1 4c 13 be ee 6c 68 be ee 08 29 3e
       -0.20606169 -0.1438482 -0.22697803 0.16507313
000180 3d 4c 51 be b5 f8 26 be 90 10 3e be 8b 81 34 be
       -0.20439239 -0.16305812 -0.18561006 -0.17627542
000190 a9 f8 4e 3e 4b 49 33 be 17 04 26 be 3e e4 4f be
       0.20212044 -0.17508428 -0.16212498 -0.20301911
0001a0 ac a4 42 be 61 f8 76 be be aa 45 3e 5a fb 49 be
       -0.1900813 -0.24118187 0.19303414 -0.1972479
0001b0 4d c4 25 3e 4b 4b 42 be d9 ba 3c 3e 1e c2 58 3e
       0.16188164 -0.18974034 0.18430652 0.211678
0001c0 32 07 2d 3e 18 f1 1c be 43 01 3f be 70 23 40 be
       0.16897276 -0.15326345 -0.18652825 -0.18763518
0001d0 f1 27 1e 3e a3 e8 2a 3e 0d dc 23 3e 53 97 45 be
       0.15444924 0.16690306 0.16001911 -0.19296007
0001e0 72 03 46 3e f8 52 26 be c4 f9 69 be 10 b7 4c be
       0.19337252 -0.16242588 -0.22849184 -0.19991708
0001f0 65 1c 1a be d4 01 2f be a7 35 3a be 0f 7f 65 3e
       -0.15049894 -0.17090541 -0.18184529 0.2241175
000200 4c 95 17 be 68 1f 23 be b0 b3 52 be 33 bb 31 be
       -0.14803046 -0.1592995 -0.20576358 -0.17356567
000210 39 f4 58 3e aa 5c 3c be 6f 59 48 be 89 4f ff bd
       0.21186914 -0.18394724 -0.19565366 -0.12466342
000220 ba 3e 60 be a8 77 38 be b3 a3 0f 3e 6b 81 07 be
       -0.21898928 -0.18014395 0.1402729 -0.13232963
000230 cb b2 21 3e 65 1a 5c be 07 b2 3a 3e 78 18 23 3e
       0.1579086 -0.21494444 0.18231975 0.15927303
000240 9a 9a 67 3e 2a 8d 11 be 0e 63 5c be 0d 41 59 be
       0.2261757 -0.14214006 -0.21522161 -0.21216221
000250 2d d9 34 3e 10 4a 58 3e 71 36 59 3e e3 15 59 be
       0.17660971 0.21122003 0.21212174 -0.21199755
000260 69 ed 1c 3e 5e 67 65 be ca 51 23 be 7c dd 4c be
       0.1532494 -0.22402713 -0.15949169 -0.20006365
000270 ce 67 44 be 3b d3 58 be 13 16 51 be 78 f3 17 3e
       -0.19180223 -0.21174328 -0.20418577 0.1483897

lstm.weight_ih_l0 f4 [128, 32]
000000 b4 ba 14 be 7b 84 0f be ae 5d 30 be d8 71 38 be
       -0.14524347 -0.14015381 -0.17223236 -0.18012178
000010 a7 94 f9 3d 92 94 09 be a8 56 0a be 33 b3 26 be
       0.12186556 -0.13435581 -0.13509619 -0.16279297
000020 e2 87 18 be 04 7e 25 be 85 18 d3 3d e6 af f6 bd
       -0.14895585 -0.16161352 0.10307411 -0.12045269
000030 c2 d0 34 3e 1e 8e 1c be 76 6c 1c 3e bc 4c 38 3e
       0.1765776 -0.15288588 0.1527575 0.17998022
000040 36 e7 12 3e 3d fc 14 be ad 5d 4b be ef c9 87 be
       0.14346012 -0.14549346 -0.19859953 -0.2652125
000050 4d 30 f2 3d cb 2d 17 3e b0 71 16 3e 87 12 79 be
       0.11825619 0.14763562 0.14691806 -0.24323474
000060 f1 ad 3b 3e 58 46 dd bd 63 5f 24 be 09 2b 13 be
       0.18328072 -0.10804433 -0.16052012 -0.14371885
000070 19 3a 4d be 7d 53 4b be d6 ed 2f be f6 5c 42 3e
       -0.20041694 -0.19856067 -0.17180571 0.18980774
000080 0f 8c 53 be e8 41 4e be c3 98 3b be 4f a5 00 be
       -0.20658897 -0.20142329 -0.18319993 -0.1256306
000090 44 bf f9 3d da c1 26 be d1 a7 29 be 04 bf 08 be
       0.12194684 -0.16284886 -0.16567923 -0.13354117
0000a0 3c 94 5d be d3 0f 29 be 5b b0 24 3e ba 3b 0f be
       -0.21638578 -0.16509943 0.160829 -0.13987628
0000b0 6a a3 29 3e 89 56 6d be 4d 2d 2e 3e ba cc 38 3e
       0.16566244 -0.23177542 0.17009468 0.18046847
0000c0 a0 dc 1f 3e 95 77 2d be 89 45 38 be 8d b3 4f be
       0.15611506 -0.16940148 -0.17995276 -0.20283337
0000d0 b3 6a 1d 3e a0 b9 55 3e 50 94 33 3e b4 07 8a be
       0.15372734 0.20871592 0.17537045 -0.26959002
0000e0 bf fc 49 3e fb 8f 32 be d0 33 3f be 0d f1 43 be
       0.19725321 -0.17437737 -0.18672109 -0.19134922
0000f0 fc 96 54 be d6 61 5f be 93 9e 62 be 5d 5a 5b 3e
       -0.20760721 -0.21814665 -0.22130804 0.2142119
000100 71 c0 e2 3d 1e 8f 69 3e b9 02 1c 3e d6 07 4e 3e
       0.110718615 0.22808501 0.15235414 0.20120177
000110 e9 a9 0f be ac 26 4d 3e 1d 7f 02 3e a0 24 1e 3e
       -0.1402966 0.20034283 0.12743802 0.15443659
000120 bb e5 31 3e c5 47 65 be ae d5 22 be db 49 6b 3e
       0.17372791 -0.22390659 -0.15901825 0.22977392
000130 00 56 e6 bd ba f8 28 3e 1f 6e d6 bd f9 27 13 be
       -0.11246872 0.16501132 -0.10470223 -0.14370717
000140 0b b0 2a be d3 0a 34 3e 5b 6c 2f 3e 4a 69 85 be
       -0.16668718 0.17582254 0.17131178 -0.26056892
000150 3a 06 1e be 0e c1 cf bd 19 af 31 be 35 52 9a be
       -0.15432063 -0.10144244 -0.1735195 -0.30140844
000160 cd 4e 62 be 59 65 3f 3e 88 be fd 3d 48 c8 41 3e
       -0.22100373 0.18691005 0.123898566 0.18924057
000170 70 85 cb 3d 8a 10 46 3e ae ca 17 3e de dd 3c be
       0.099375606 0.19342247 0.1482341 -0.1844401
000180 2f 1b b4 3c f8 e1 c9 3d 2c 8a 30 bd 01 62 82 3c
       0.021985618 0.09857553 -0.04310052 0.015915873
000190 cc 49 0c bd 71 c9 ef 3d b4 6e 00 3d a8 23 ab 3c
       -0.034250066 0.11708344 0.031355575 0.020891026
0001a0 d2 4f cb bc 3b d9 4d be 11 43 99 bd 1f 12 96 3d
       -0.024818335 -0.20102398 -0.07483495 0.07327675
0001b0 87 0a f6 3c d4 e8 c8 bd 60 32 c9 3d fb 75 aa 3d
       0.030034317 -0.098100334 0.098240614 0.08323284
0001c0 75 3c da 3b d7 9d dd bc 1d 4f 73 3d 96 f2 94 be
       0.006660039 -0.027052803 0.05940162 -0.29091328
0001d0 85 00 02 bd c4 63 26 3d be 61 33 3d ee 16 88 be
       -0.031738777 0.040622488 0.043794386 -0.26579994
0001e0 f5 d7 a6 bc c8 98 18 3d 3b d0 ac bd ff f2 e7 3c
       -0.020366648 0.03725508 -0.08438154 0.028314112
0001f0 9a c7 04 be 66 c3 2c bd 82 35 af bd cf 65 8d 3c
       -0.12966767 -0.042178534 -0.08555128 0.01726046
000200 31 0b 36 be 27 27 c5 bd 9a 9d 2d be 6c 6c c5 bd
       -0.17777707 -0.09626608 -0.16954651 -0.096398205
000210 1c a6 36 3e 3d af 10 be ef 99 2f be 12 f7 2f be
       0.17836803 -0.14129348 -0.17148565 -0.17184094
000220 c5 11 47 be db 50 70 be c7 5b 28 3e 50 fb de bd
       -0.19440372 -0.23468344 0.1644126 -0.10887778
000230 b4 3e 0c 3e a7 2c 29 be 16 53 0e 3e e3 32 4f 3e
       0.13695794 -0.1652094 0.13898882 0.20234255
000240 9e e6 0f 3e 45 ad eb bd 28 d4 0d be 5d b2 63 be
       0.14052817 -0.11507658 -0.13850462 -0.22236009
000250 24 47 f9 3d 18 9b 25 3e a3 f8 57 3e bb 32 8a be
       0.12171772 0.16172445 0.21090941 -0.2699183
000260 31 9b d6 3d 9a 0e d0 bd 65 ee 2e be 86 43 47 be
       0.10478819 -0.10159035 -0.17083128 -0.19459352
000270 bb 9f 2b be a7 98 5f be b9 ca 28 be 36 5c 20 3e
       -0.16760151 -0.21835576 -0.16483583 0.15660176
000280 2d da 45 be 8b 00 3e be 6d d0 1c be 4f 40 14 be
       -0.19321509 -0.18554895 -0.15313883 -0.14477657
000290 67 5d 4e 3e 5c 1e 01 be bd d1 36 be 9b 1c 37 be
       0.20152818 -0.12609237 -0.17853446 -0.17882006
0002a0 a4 2d 59 be e7 1f 51 be 85 b6 35 3e 8a 95 99 bd
       -0.21208817 -0.20422326 0.17745407 -0.074992254
0002b0 a9 cf 5b 3e e6 99 53 be 77 04 1e 3e 0f 5e 49 3e
       0.21465935 -0.20664176 0.1543139 0.19664787
0002c0 f2 ef 43 3e 37 a9 e3 bd 1d c8 29 be 4f 74 97 be
       0.191345 -0.111162595 -0.16580243 -0.29580924
0002d0 e4 83 37 3e b0 c1 11 3e 1b d7 26 3e b8 35 73 be
       0.17921406 0.14234042 0.16292994 -0.23750961
0002e0 8c 5c 30 3e 85 28 fd bd 74 ac 09 be 3c ba d8 bd
       0.17222804 -0.12361244 -0.13444692 -0.105823964
0002f0 f8 d6 42 be 17 85 29 be 20 e1 1e be 5a b3 49 3e
       -0.19027317 -0.16554676 -0.15515566 0.19697323
000300 f5 2e 3e 3e 6c 49 2a 3e 22 72 2c 3e bb 26 31 3e
       0.185726 0.1662957 0.16840413 0.17299931
000310 26 58 81 be d4 73 3e 3e 3a 22 50 3e 7d 41 55 3e
       -0.25262564 0.18598872 0.20325556 0.20825763
000320 df c1 fd 3d 91 0a 81 be 41 c6 2c be 51 57 29 3e
       0.123904936 -0.25203374 -0.16872503 0.16537215
000330 eb 5d 14 be 75 40 43 3e b2 b3 1f be 79 08 5e be
       -0.14488952 0.19067557 -0.15595892 -0.2168292
000340 c7 20 1e be 3b 43 76 3e f2 34 64 3e 28 a2 35 be
       -0.15442191 0.24049084 0.22285822 -0.17737639
000350 f8 35 4f be 48 a9 46 be 2e dc d1 bd 9f 95 71 be
       -0.20235431 -0.19400513 -0.10247074 -0.23592232
000360 d3 9b 5e be f5 76 77 3e 0d 80 e3 3d 58 4e 70 3e
       -0.2173913 0.24166472 0.11108408 0.23467386
000370 10 5c 6c 3d 5a 7a 31 3e eb 27 0f 3e 5d 97 43 be
       0.057704985 0.1733183 0.13980071 -0.1910071
000380 62 bb 09 be 83 2d 0e be 53 1c 36 be 80 0a 11 be
       -0.13450387 -0.13884549 -0.17784242 -0.14164162
000390 31 01 50 3e 2d a9 4c be ea 1a 4c be cc 84 43 be
       0.20312954 -0.1998641 -0.19932142 -0.19093627
0003a0 dd e6 5c be b2 8e 3e be 37 5b 29 3e 2a 1d 32 be
       -0.21572442 -0.18609121 0.16538702 -0.17393938
0003b0 dd 39 48 3e 89 9a 62 be d8 11 1e 3e ba d6 69 3e
       0.19553323 -0.22129263 0.15436494 0.22835818
0003c0 45 5a 1e 3e b3 74 34 be 2b 25 55 be 1b f3 4f be
       0.15464123 -0.17622642 -0.2081496 -0.20307581
0003d0 d9 54 43 3e 1d b2 1d 3e 75 df 29 3e b4 29 5d be
       0.19075336 0.15399976 0.16589148 -0.2159794
0003e0 7b cf 52 3e 80 69 56 be d7 19 2b be a0 86 51 be
       0.2058696 -0.20938683 -0.16709076 -0.20461512
0003f0 28 18 2a be 9d a2 2c be c6 36 43 be c9 d8 17 3e
       -0.16610777 -0.16858907 -0.19063863 0.1482879

lstm.weight_hh_l0 f4 [128, 32]
000000 e3 f0 f3 bd 30 49 0d 3e 0d 0b 97 be 01 9a b6 3e
       -0.1191118 0.1379745 -0.2950062 0.3566437
000010 4b c4 29 3e a0 94 52 be 3c 06 90 3e 39 d6 4a 3e
       0.16578786 -0.20564508 0.28129756 0.19808282
000020 dc 8a d2 3d 5a 08 c0 bb 43 e8 dd bd a5 6f f1 bd
       0.102803916 -0.0058603706 -0.10835316 -0.11788873
000030 a2 d7 a8 3e 4d 03 ed 3d 2f 5c 0b be 5f a8 38 3e
       0.32977015 0.11572895 -0.13609384 0.18032978
000040 a5 a4 43 be a8 8a 8d 3e 6d 1a 74 3e 2f c1 43 be
       -0.19105776 0.2764485 0.23838206 -0.19116662
000050 39 6d 0f 3e 2b 24 41 3e 44 05 ad 3c bd b6 f4 bd
       0.14006509 0.18861453 0.021120675 -0.11948917
000060 a9 36 2d 3e 38 62 47 be 8f 97 45 be 5b ef d6 bd
       0.16915382 -0.19471061 -0.19296096 -0.10494872
000070 5d ae 99 3e 3a 6b a6 be 3c 8a e6 bd c4 d0 48 be
       0.3001584 -0.32503682 -0.11256835 -0.19610888
000080 f6 7a 32 be bd f5 1b 3e 59 19 94 be 9a 07 91 3e
       -0.17429718 0.1523046 -0.2892559 0.28326112
000090 bd 19 fc 3d 2b fe 58 be 7c df 61 3e 3d bf 2e 3e
       0.12309597 -0.21190707 0.22057909 0.17065139
0000a0 88 6b 28 3e e8 ad d5 bb 71 45 e9 bd 02 03 bc bd
       0.1644727 -0.0065209754 -0.11390198 -0.09180261
0000b0 0e 3d a2 3e ae e1 2d 3e 85 57 83 bd ee 77 43 3e
       0.31687206 0.16980621 -0.064131774 0.19088718
0000c0 f4 f5 29 be f0 5f 93 3e 33 7f 5e 3e 88 c8 61 be
       -0.1659773 0.28784132 0.2172821 -0.22049153
0000d0 8d 25 e5 3d be 03 3c 3e 7b 26 40 ba 76 3b 19 be
       0.11188803 0.18360803 -0.0007329953 -0.14964089
0000e0 fd f3 18 3e 24 fd 5b be 9f 96 ef bd c1 f1 1c bd
       0.14936824 -0.21483284 -0.116986506 -0.038316492
0000f0 a1 1a 9c 3e cd cc 89 be d8 75 80 bd 1c 0d 5c be
       0.30489066 -0.26914063 -0.06272477 -0.21489376
000100 ea 11 1e be 97 1e 05 3e e9 e0 78 be 2f b1 68 3b
       -0.15436521 0.1299995 -0.24304546 0.0035506
000110 3c 7d a2 3d 56 6e 1c be 8c 75 31 3e af da 17 3e
       0.07934043 -0.15276465 0.17329997 0.14829515
000120 d9 3c 0f 3e b3 e4 f0 3d b0 94 0a be 18 36 0a 3e
       0.13988055 0.11762371 -0.13533282 0.13497198
000130 46 a9 6a 3e 5c 7a ba 3d aa 98 b8 bd 05 ea 87 3d
       0.22916135 0.091053694 -0.09013493 0.066364326
000140 7e ac d6 bd 06 d7 5d 3e 3c 81 96 3e 2f 0b ed bd
       -0.10482119 0.21664056 0.29395473 -0.11574399
000150 77 1e ef 3d 08 0a 0f 3e 95 82 44 3d 7a 10 61 3d
       0.116757326 0.1396867 0.047976095 0.054947354
000160 cf 77 a0 3d 3c 4d dd bd 8c df 89 bd b7 b5 1a be
       0.07835352 -0.10805747 -0.06732091 -0.15108381
000170 93 36 a3 bd 23 db cd 3c b3 fd 12 be 3b 6f 14 be
       -0.079693936 0.025128907 -0.14354591 -0.14495556
000180 a4 12 12 be 9f f9 1b 3e b7 8d 8b be da bb 58 3e
       -0.14264923 0.15231942 -0.27256557 0.2116541
000190 89 ca 0e 3e 70 20 41 be 37 28 42 3e 0c 72 1f 3e
       0.13944449 -0.1886003 0.18960653 0.15570849
0001a0 61 d4 f2 3d 04 76 f5 3d ef 3b ba bd b6 fc 93 3d
       0.11856914 0.119854 -0.09093463 0.07225935
0001b0 9c 49 9f 3e ec 99 37 3e 8d 4a 1b be d7 2c 1f 3e
       0.31110847 0.1792981 -0.15165158 0.15544449
0001c0 d8 e2 ec bd ec 1d 8b 3e 97 0c 83 3e bb 0e 0f be
       -0.115667045 0.27171266 0.25595543 -0.13970463
0001d0 36 b0 be 3d af 29 48 3e 6b af 0c 3e e4 36 d4 3c
       0.09310953 0.19547151 0.13738792 0.02590508
0001e0 61 ba 37 3e aa 23 49 be dd fd c4 bd a1 bb 1d be
       0.17942192 -0.19642511 -0.09618733 -0.15403606
0001f0 96 86 cf 3d 48 cf 4d be ab 43 cd bd 22 07 36 be
       0.10133092 -0.20098603 -0.10022672 -0.17776158
000200 23 4a 2d be 51 39 39 3e 09 82 80 be 56 84 ae 3e
       -0.16922812 0.1808827 -0.2509921 0.3408534
000210 ad 9f 44 3e 2d bf 23 be a9 af 5c 3e d8 a7 0a 3e
       0.19201536 -0.15990897 0.21551384 0.1354059
000220 77 c6 1e 3e 39 3e 2d bc 90 72 0f be 80 5e ad bd
       0.15505396 -0.010573917 -0.14008546 -0.0846529
000230 0b 8c a2 3e 10 8d 33 3e ae 48 46 bd 19 94 0a 3e
       0.3174747 0.1753428 -0.048409157 0.13533057
000240 2a 2d 2e be ef 5b 46 3e 9f 68 8b 3e b2 ba 00 be
       -0.17009416 0.19371007 0.27228257 -0.12571219
000250 0f 00 03 3e a9 26 24 3e 77 63 77 bd af 36 88 bd
       0.12792991 0.16030373 -0.06039759 -0.06651055
000260 5a fe e6 3d cb cd 6e be 1b 58 15 be 8b 00 af bd
       0.112789825 -0.23320691 -0.14584391 -0.085450254
000270 d9 84 84 3e ea 24 8a be 99 b7 11 be d4 6b 26 be
       0.25882605 -0.26981288 -0.14230193 -0.1625207
000280 72 5d 50 be 65 dc 6d 3e ed d4 5f be 23 58 84 3e
       -0.20348147 0.23228605 -0.21858568 0.25848493
000290 e6 c0 1a 3e b0 f8 4c be 30 59 84 3e 89 a1 31 3e
       0.15112647 -0.20016742 0.25849295 0.17346777
0002a0 df c6 c6 3d 7f 0e 92 39 eb ae 4c bd bf 4d c5 bd
       0.097059004 0.0002785809 -0.049971502 -0.096339695
0002b0 a4 65 a7 3e 41 09 02 3e 27 23 74 bd 06 2f d2 3d
       0.32694733 0.12698843 -0.059603836 0.10262875
0002c0 38 6e 19 be 53 49 71 3e 13 5d 6f 3e 90 a6 14 be
       -0.14983451 0.23563127 0.23375349 -0.14516664
0002d0 2a f0 82 3d 96 97 69 3e 44 13 86 bd 90 d0 2b be
       0.06393464 0.22811732 -0.065466434 -0.16778779
0002e0 be 11 10 3e ae 72 22 be ca 0e 3d be 08 ee bd bc
       0.14069268 -0.1586406 -0.18462673 -0.023184791
0002f0 d5 c5 84 3e 99 9d a0 be c0 03 b9 bd 52 55 2d be
       0.25932184 -0.31370237 -0.090339184 -0.16927078
000300 7c c4 5b bb 98 07 21 bd 00 b0 70 be 9f 4f b0 3d
       -0.0033533862 -0.039313883 -0.23504639 0.086089365
000310 0c 47 1f bb 1b b7 27 3c ca 78 47 3e f2 24 fb 3c
       -0.0024303822 0.010236527 0.19479671 0.030657265
000320 d8 c0 81 bd 10 6e 15 bd b7 c8 97 ba 8b 0f a8 3b
       -0.0633561 -0.036481917 -0.0011580203 0.005128806
000330 68 05 ae 3d 91 c1 56 bd 8b 1b 2d 3d 2d a3 11 3d
       0.08497125 -0.052430693 0.042262595 0.035556007
000340 97 5d 1a 3b 9e c8 06 3e 19 6e 5d 3e 1c 5f 8e 3c
       0.002355432 0.13162467 0.2162403 0.017379336
000350 b9 8c 68 bd fb 4e ec 3c ec da 6d bd ac b1 ff bc
       -0.05677483 0.028846255 -0.05807011 -0.03121265
000360 9e d1 59 bd 7a 87 be bc f5 5d 08 3d 32 07 dd 3c
       -0.053178422 -0.02325796 0.03329273 0.02698097
000370 7c 92 68 3c 09 46 70 bd f3 f1 a9 3b 6d bb f3 bc
       0.014195081 -0.05866054 0.0051863133 -0.029752458
000380 d4 cf 4a be 28 b0 23 3e 0e db 88 be 2d d2 84 3e
       -0.19805843 0.15985167 -0.26729625 0.259416
000390 4c cb dc 3d 7c 75 30 be a4 74 5a 3e 45 44 52 3e
       0.10780963 -0.17232317 0.21333557 0.20533855
0003a0 3b 53 c0 3d 48 d3 23 3d bc f7 02 be d0 62 1d bd
       0.09390875 0.039996415 -0.12789816 -0.038424313
0003b0 6d 6d 81 3e 8e 92 64 3e ec af 92 bc d8 b7 3d 3e
       0.25278798 0.22321531 -0.017906152 0.18527162
0003c0 9a 0b 72 be d1 4b 4c 3e 14 8a 63 3e 21 6c 3b be
       -0.23637238 0.19950797 0.22220641 -0.18302967
0003d0 9e 3e 70 3d c3 de 2a 3e fa 94 6c 3c 2d b7 d3 bd
       0.058653466 0.1668654 0.014439816 -0.103376724
0003e0 28 30 f6 3d f7 10 1c be f7 3c 49 be b6 16 99 bd
       0.12020904 -0.15240847 -0.19652162 -0.07475035
0003f0 04 fb 64 3e 15 53 b9 be e9 30 a1 bd 91 21 05 be
       0.2236138 -0.361962 -0.07870657 -0.13001086

lstm.bias_ih_l0 f4 [128]
000000 b9 f0 65 3e bf 47 74 3e 4a f4 6a 3e 52 8e 69 3e
       0.2245511 0.23855494 0.22944751 0.22808197
000010 cd 79 83 3e 88 6e 7d 3e 4b 59 5a 3e aa cb 40 3e
       0.25678864 0.24749196 0.21323125 0.18827692
000020 dd bc 34 3e a4 d1 82 3e f2 4a 77 3e 8c f6 40 3e
       0.1765017 0.25550568 0.24149683 0.1884405
000030 1e a2 84 3e 86 60 53 3e 49 92 86 3e 51 7c 31 3e
       0.25904936 0.2064229 0.26283482 0.17332579
000040 f7 3d 4c 3e 12 65 51 3e 8c f7 45 3e 3b 3a 44 3e
       0.19945513 0.20448712 0.19332713 0.19162838
000050 18 cf 74 3e 0b e4 56 3e 79 b3 65 3e 49 ac 7a 3e
       0.23907125 0.20985429 0.22431745 0.24479784
000060 3f d8 34 3e 0a 63 69 3e b6 1b 69 3e 22 4b 5b 3e
       0.17660616 0.22791687 0.22764477 0.2141538
000070 35 6b 8d 3e b0 37 4e 3e be 71 59 3e 8b b5 6f 3e
       0.27620855 0.2013843 0.21234795 0.23409097
000080 18 0a f7 bd 22 c0 15 be e6 ab 75 be 0f ec 28 be
       -0.12062472 -0.14624074 -0.23991355 -0.16496299
000090 21 87 05 be 0b 8a 2e be ec 9a 30 3e dd bf f2 bd
       -0.13039829 -0.17044847 0.17246598 -0.11853001
0000a0 8c 27 27 be cc d9 4a be f5 39 24 be df d4 d9 bd
       -0.1632368 -0.19809645 -0.16037734 -0.10636305
0000b0 1c 5c 2e be 01 96 63 be 44 6c 15 be 73 bf 14 be
       -0.17027324 -0.2222519 -0.14592081 -0.14526157
0000c0 3a 86 2e be 3c 6b 16 3e 46 8e 32 be e1 2c 33 be
       -0.17043391 0.14689344 -0.17437086 -0.17497589
0000d0 6c c7 c8 bd 8d 6e 02 be 39 6c 11 be fe 52 24 be
       -0.09803662 -0.12737484 -0.1420144 -0.16047284
0000e0 59 1f fa bd 36 3e 94 bd 00 c2 1d be 58 f6 ef bd
       -0.1221301 -0.07238428 -0.15406036 -0.11716908
0000f0 af f2 7b be 7d 57 3d be 88 5b 26 be a7 c5 02 be
       -0.24604295 -0.18490405 -0.16245854 -0.12770711
000100 6b 1b 1e be 62 c2 0d 3e e7 41 e1 bd 9d 9e e3 3c
       -0.15440147 0.13843682 -0.10998898 0.027785594
000110 2a a7 11 3e 88 74 25 be 73 71 3b 3e c8 6f 23 3e
       0.14223924 -0.16157734 0.18304996 0.1596061
000120 60 ac ba 3d 74 34 90 3d 33 7b 1e be 1c ea fd 3c
       0.09114909 0.07041255 -0.15476684 0.030995421
000130 8a 5b eb 3d a1 e6 0e 3e ba 0f d2 bd b3 7b 14 3e
       0.11492069 0.13955165 -0.10256906 0.14500313
000140 3f f2 0e be 62 57 24 3e 09 b2 de 3d 62 ce b2 bd
       -0.13959597 0.16048959 0.10873801 -0.08730771
000150 eb 8b fa 3d ed 1a 04 3e 23 4b 8f 3d a6 93 ba 3d
       0.122337185 0.12900896 0.06996753 0.09110193
000160 31 67 f4 3d 37 9b dd bd d7 9f 00 be 29 08 02 be
       0.11933745 -0.108206205 -0.12560974 -0.12698425
000170 bb b4 83 bd ec a7 44 3c 11 4c 11 be 68 fe 20 be
       -0.06430956 0.012002926 -0.14189173 -0.15722048
000180 9d 51 6e 3e f3 a4 71 3e 0e 72 60 3e 04 43 48 3e
       0.2327332 0.2359808 0.21918508 0.19556814
000190 1e a3 52 3e ca 89 60 3e ae cf 68 3e c4 76 84 3e
       0.20570037 0.21927562 0.22735474 0.2587186
0001a0 68 b3 3f 3e ef 55 81 3e 3f 73 49 3e 90 8a 6e 3e
       0.18720782 0.25260875 0.19672869 0.23295045
0001b0 77 f7 8e 3e b7 a3 7b 3e 0a 2b 80 3e a4 a2 80 3e
       0.27923176 0.24574171 0.25032836 0.25124085
0001c0 2a e7 82 3e 17 b7 1f 3e a6 e7 6e 3e b7 b4 52 3e
       0.2556699 0.15597187 0.23330554 0.2057675
0001d0 ec 96 8c 3e c3 b0 83 3e cd a2 5a 3e 60 c1 5e 3e
       0.27458894 0.25720796 0.21351166 0.21753454
0001e0 5c 2d 8a 3e 38 db 4a 3e ba 6c 80 3e 31 30 89 3e
       0.2698773 0.19810188 0.25082952 0.2679458
0001f0 89 67 50 3e 50 38 89 3e 3d 00 67 3e 88 a3 64 3e
       0.20351996 0.26800776 0.22558685 0.22328007

lstm.bias_hh_l0 f4 [128]
000000 20 4b 81 3e b6 dc 45 3e fb 91 28 3e 2d 15 55 3e
       0.25252628 0.19322476 0.16461937 0.20808859
000010 b6 a1 5c 3e 5b b5 31 3e de d4 12 3e 31 0b 81 3e
       0.21546063 0.17354338 0.14339015 0.2520385
000020 04 f8 3f 3e 77 7c 66 3e 50 c3 63 3e 93 3e 49 3e
       0.18746954 0.22508417 0.22242475 0.19652776
000030 61 30 55 3e 73 98 34 3e 35 d1 49 3e 8b cb 44 3e
       0.20819236 0.1763628 0.19708712 0.1921827
000040 44 56 4a 3e 16 42 44 3e b5 df 38 3e 99 35 83 3e
       0.1975947 0.19165835 0.18054087 0.2562683
000050 ee fe 85 3e 9a 16 4f 3e 2d 2c 6e 3e 04 3d 8b 3e
       0.26171058 0.20223466 0.23259039 0.2719499
000060 6c 3f 82 3e 66 84 29 3e c7 8c 80 3e 61 7c 3c 3e
       0.25439012 0.16554412 0.25107405 0.18406822
000070 37 ce 89 3e c5 4f 7b 3e ad 23 4a 3e 2a e3 39 3e
       0.26915142 0.24542148 0.19740172 0.18153062
000080 32 2c 0f be 10 32 bd bd fd 2b 6f be f0 eb 5a be
       -0.13981703 -0.09238064 -0.23356624 -0.21379066
000090 a0 45 bb bd ba 3a 07 be dd 3d c7 3d 6d 70 92 bd
       -0.09144139 -0.13205996 0.09728596 -0.0715035
0000a0 2f bc 2a be 24 18 1f be f1 1b 04 be 56 62 2a be
       -0.16673349 -0.15536553 -0.12901284 -0.16639075
0000b0 a5 d1 4b be d7 8d 4c be fd 59 1e be 9a 5d 03 be
       -0.19904192 -0.19975983 -0.15464015 -0.12828675
0000c0 35 66 ea bd 01 f4 21 3e d5 ab 56 be d3 79 0c be
       -0.11445276 0.15815736 -0.20963986 -0.13718347
0000d0 5a a6 47 be 9e 4b 2a be 01 b8 1b be a4 93 fe bd
       -0.19497052 -0.16630408 -0.1520691 -0.12430504
0000e0 83 44 c8 bd 01 16 20 be b6 d5 1c be 34 f6 e4 bd
       -0.097786926 -0.15633394 -0.15315899 -0.11179772
0000f0 d2 ca 32 be d7 aa 6d be 62 9c e5 bd 1a ab 1e be
       -0.17460182 -0.23209701 -0.11211468 -0.15494958
000100 38 d2 15 be bf 65 ea 3d 27 b3 19 be b4 d1 a0 bc
       -0.14630973 0.11445188 -0.15009747 -0.019631244
000110 49 e3 06 3e 98 43 a6 bd 64 8d 3c 3e 8e ba d0 3d
       0.1317264 -0.08118361 0.18413311 0.101918325
000120 12 4a 05 3e 15 e1 01 3e 46 75 92 bd b3 69 02 3e
       0.13016537 0.12683518 -0.071512744 0.12735634
000130 79 5b 50 3d 6a 42 98 3d e3 a9 0e be 3a e8 bd 3d
       0.050868485 0.074345425 -0.13931994 0.09272809
000140 1b 97 1e be d8 7c 23 3e e1 f6 18 3e 45 7a 23 be
       -0.1548733 0.15965593 0.14937927 -0.15964611
000150 fc bb f6 3d 1b ed 09 3e 25 ec f0 3d ad 0d 99 3d
       0.12047574 0.13469355 0.11763791 0.074733116
000160 da 29 e3 3d 7c 50 18 be 59 18 12 be 65 b5 b7 bd
       0.11091967 -0.14874452 -0.142671 -0.08970145
000170 90 f1 66 bc b3 6e 89 bd da 26 c1 bd 67 e4 c6 bd
       -0.014095679 -0.06710567 -0.094312385 -0.09711533
000180 02 e5 81 3e 94 c8 43 3e 5b ed 76 3e 28 c3 80 3e
       0.25370032 0.19119483 0.24113981 0.25148892
000190 09 9e 44 3e fd 08 65 3e 9f e0 3f 3e c4 0d 83 3e
       0.1920091 0.2236671 0.1873803 0.2559644
0001a0 4e 07 81 3e 50 9e 8c 3e fa 48 5a 3e 8c 55 45 3e
       0.25200886 0.27464533 0.21316901 0.19270915
0001b0 4f f4 3d 3e 44 44 26 3e 3f 15 82 3e 6b a6 67 3e
       0.18550228 0.16236979 0.25406834 0.22622077
0001c0 16 b4 55 3e 1a d4 6c 3e 9b 2d 62 3e 4b 74 40 3e
       0.20869479 0.23127785 0.2208771 0.18794362
0001d0 fc 81 4a 3e 6a a4 82 3e e3 6b 71 3e 74 07 80 3e
       0.19776148 0.25516063 0.23576312 0.25005686
0001e0 18 0b 3c 3e 9e e6 80 3e 7b 23 65 3e bf 03 50 3e
       0.18363607 0.25175947 0.22376816 0.20313929
0001f0 08 da 8c 3e f3 ab 63 3e b7 e0 55 3e e0 91 64 3e
       0.27510095 0.22233562 0.20886503 0.22321272

lin.weight f4 [5, 32]
000000 74 79 7a be ca 37 71 3e 5c 73 81 3e b5 c6 76 be
       -0.24460393 0.23556438 0.25283325 -0.24099238
000010 f4 21 51 3e d7 f1 72 be 51 fb 97 bd aa 38 61 3e
       0.20423108 -0.23725067 -0.07420982 0.21994272
000020 fa 6c 62 3e 1c e3 78 3e 85 43 69 be d3 21 53 3e
       0.22111884 0.24305385 -0.22779663 0.20618372
000030 06 dd 83 be f8 e8 42 3e 0b 87 7a be 31 9d 75 3e
       -0.25754565 0.19034183 -0.24465577 0.23985745
000040 21 fa 47 be 2c cc c3 bd d2 ab 81 be c1 4e 72 be
       -0.1952901 -0.09560427 -0.253264 -0.23662855
000050 dc c5 49 3e 35 61 52 3e 5e be 76 3e ef 25 83 3e
       0.19704384 0.20544894 0.24096057 0.2561488
000060 f9 49 71 3e 4d a6 72 be 09 e0 6d be 40 19 59 be
       0.23563375 -0.23696251 -0.23229994 -0.21201038
000070 a3 42 80 be 7c 48 75 3e 61 92 71 be 2a a7 5f be
       -0.2505084 0.23953432 -0.23590995 -0.21841112
000080 e3 00 3c 3e cc 61 58 be b4 81 17 be 81 89 43 3e
       0.18359713 -0.21131057 -0.14795572 0.19095422
000090 c0 64 50 be 96 aa 2a 3e 8e dc dd 3c 82 66 56 be
       -0.20350933 0.16666636 0.027082708 -0.20937541
0000a0 a7 28 64 be ed b3 74 be fd 48 3f 3e b4 55 3a be
       -0.22281133 -0.23896761 0.18680187 -0.18196756
0000b0 c6 23 52 3e 49 1d 61 be c3 5b 0f 3e 78 38 35 be
       0.20521459 -0.21983828 0.13999848 -0.17697322
0000c0 b7 bf 56 3e 06 b3 5e bd 7a 44 3f 3e fd 18 5b 3e
       0.20971571 -0.05436995 0.18678465 0.21396251
0000d0 61 bb 69 be b3 05 38 be 9f 05 20 be 95 3c 67 be
       -0.22825386 -0.17970924 -0.15627144 -0.22581704
0000e0 f3 2c 26 be e6 60 51 3e 8a 0b 63 3e 27 86 5d 3e
       -0.16228084 0.2044712 0.2217237 0.21633206
0000f0 c3 eb 4b 3e db b7 5b be e4 ef 60 3e c6 3d 2f 3e
       0.19914155 -0.21456854 0.21966511 0.17113408
000100 99 8d 12 3e 64 27 67 be 9d 24 41 be b9 8e 3e 3e
       0.14311828 -0.2257362 -0.18861623 0.18609132
000110 39 60 55 be cd d9 71 3e c9 94 9d bd cd d8 54 be
       -0.20837487 0.2361824 -0.07694394 -0.20785828
000120 07 93 1e be a4 2f 1f be 29 a1 33 3e ff 23 77 be
       -0.15485774 -0.15545517 0.17541946 -0.24134825
000130 1b f6 26 3e 2d 7f 29 be 0f ca 18 3e 4b 2a 24 be
       0.1630482 -0.1655242 0.14920829 -0.16031758
000140 de ed 57 3e 95 22 65 bd ea 92 14 3e 1f 62 31 3e
       0.21086833 -0.055941183 0.14509168 0.17322586
000150 57 f7 74 be 8e 4a 66 be dd 4a 70 be 39 62 3e be
       -0.23922478 -0.22489378 -0.23466058 -0.18592156
000160 a9 07 2d be 8a f4 75 3e d7 c7 51 3e 0a 23 26 3e
       -0.16897453 0.24019065 0.20486389 0.16224304
000170 55 b8 7d 3e 38 fe 60 be 08 6d 40 3e c1 3e 7b 3e
       0.24777348 -0.21971977 0.18791592 0.24535657
000180 24 c7 51 3e 0d 48 72 be 2c ec 31 be 9b 52 27 3e
       0.20486122 -0.23660298 -0.17375249 0.16340105
000190 38 60 26 be 47 c1 3f 3e 6a 7e 8a 3c ea cf 44 be
       -0.16247642 0.18726073 0.016905982 -0.19219938
0001a0 38 95 25 be fc 89 62 be 18 5e 38 3e 12 ca 67 be
       -0.16170204 -0.2212295 0.18004644 -0.22635677
0001b0 08 d5 3b 3e 70 32 7a be 75 a0 2b 3e 49 47 1f be
       0.18342984 -0.24433303 0.16760428 -0.15554537
0001c0 a4 32 33 3e 7e fc 83 bd 59 8c 4a 3e f3 cd 25 3e
       0.17499787 -0.064446434 0.19780101 0.16191845
0001d0 c2 47 26 be 64 e4 7a be 0b a2 3c be 10 ea 42 be
       -0.16238311 -0.24501187 -0.1842119 -0.190346
0001e0 6c c0 52 be fd 17 6b 3e ea cc 24 3e ec 43 63 3e
       -0.20581216 0.2295837 0.16093794 0.22193879
0001f0 4e e1 80 3e 47 40 35 be 0e 93 29 3e b5 14 1e 3e
       0.25171894 -0.17700301 0.16560003 0.15437587
000200 0b 2d 2e 3e 90 0d 2b be f6 e3 53 be a5 85 73 3e
       0.1700937 -0.16704392 -0.20692429 0.2378145
000210 2f 36 60 be 53 d7 29 3e 25 75 22 bd 1c 2b 14 be
       -0.2189567 0.16586046 -0.0396625 -0.1446957
000220 3f 17 23 be 43 31 33 be 4b 12 3e 3e ba c6 69 be
       -0.15926836 -0.1749926 0.18561666 -0.22829714
000230 8c ef 19 3e bf 1a 31 be 61 26 60 3e df 89 4a be
       0.15032786 -0.17295359 0.2188964 -0.19779156
000240 65 6d 77 3e 72 fc 81 bd 01 5d 57 3e 9b 4d 70 3e
       0.24162824 -0.06346978 0.21031572 0.23467104
000250 48 82 50 be 8a 12 2e be 3e 83 73 be 7e c7 2e be
       -0.20362198 -0.1699926 -0.23780534 -0.17068288
000260 cb 45 5d be cc 5a 54 3e f2 02 5d 3e 4a a8 4c 3e
       -0.21608655 0.20737761 0.21583155 0.19986072
000270 99 79 43 3e f5 49 14 be 8a be 61 3e c7 25 5f 3e
       0.19089355 -0.14481337 0.22045341 0.21791755

lin.bias f4 [5]
000000 bd b3 94 3d dd 32 7f bd 3b cd b3 bc 35 aa f8 bc
       0.07260845 -0.062304366 -0.021948447 -0.030354599
000010 5f 2b ae bc
       -0.021260915
