checkpoints/MLE_space_False_length_3_preTrainG_epoch_73.pth (torch_old, 36090 bytes, 7 tensors)

emb.weight f4 [5, 32]
00000000: e022 2a3e ff0d 513e a2ec f83d a9cc 693e
00000010: 904e 58be bed2 523e 0b8b 3a3e 64e2 4d3e
00000020: 496d 0e3e 2a73 12b8 e477 67be f99f 663e
00000030: fa83 18be a067 033e eebe 0cbe 70ef 11be
00000040: 1e49 0abe 1f42 263e 5e52 3d3e 76cb 3fbe
00000050: 31fc 47be ec0f 0dbe 1e13 0abe 33aa 7abe
00000060: 7517 57be 6beb 663e 54c9 e33d e559 5c3e
00000070: 1272 c33d dddb 163e 3f8d 0c3e be57 27be
00000080: 60f7 46be f4b8 14be 7477 5abe 2a3f 57be
00000090: a48a 3e3e 4455 43be 18a4 41be da68 42be
000000a0: 72d4 15be 22ea 1dbe 2f00 293e e8f9 31be
000000b0: a653 353e 0e1f 27be c715 4f3e a3fc 2c3e
000000c0: 1b3b 053e d3dc 5dbe 28d9 2bbe b551 1cbe
000000d0: 2f92 583e c3bf 533e dacb 4e3e 920c 18be
000000e0: 442a 303e b527 18be 7a96 1bbe 9048 0bbe
000000f0: ffca 22be 8eda 59be 0b0c 45be de4f 583e
00000100: 1fd1 57be 5f08 3cbe 9040 52be 5773 2ebe
00000110: 1512 4b3e 1f20 c1bd 36c0 3ebe ea7c 16be
00000120: 08ab 54be f640 32be 0ea8 5a3e 4735 19be
00000130: 39ca 393e db35 31be f3a4 5c3e 5be8 393e
00000140: 2417 503e fa9c 21be a8ef 05be addb 3dbe
00000150: 2945 363e dfa6 3e3e 65df 1c3e 846a 41be
00000160: e8c5 2a3e f18f 45be 718d 59be 38c9 4bbe
00000170: 707d 45be ef12 09be 9f79 5dbe 1c3b 1f3e
00000180: df9b 46be 5306 1ebe 14cc 31be 89ea 2bbe
00000190: 5562 453e ec6a 2abe 880f 1cbe 32f2 46be
000001a0: e758 37be 5633 65be 019c 3d3e c513 42be
000001b0: 63a8 1a3e 8c21 36be 8d25 313e 407a 4d3e
000001c0: c659 213e aabb 12be 3c9e 35be 6e53 2bbe
000001d0: 0e67 153e 81b7 1f3e f390 183e 280e 30be
000001e0: 2e45 3d3e fdbc 1dbe 2e6f 5dbe 3926 44be
000001f0: 56d9 0bbe b52c 24be e69d 2ebe c818 5b3e
00000200: a25f 0cbe a2bc 19be 67da 45be f0b1 28be
00000210: 5be6 4e3e cb0f 33be 59e5 3dbe fc81 ecbd
00000220: 2267 54be d6f7 25be e725 073e bb60 febd
00000230: a30e 163e 425f 4fbe 9c8d 2e3e 3247 173e
00000240: b85f 5b3e 71d8 06be 8685 52be a8ad 43be
00000250: 8ca0 2b3e 0b8d 4c3e 905d 4d3e 48bc 42be
00000260: b3bc 133e 4a5e 5cbe d232 16be 17d9 43be
00000270: 7989 35be 1776 4dbe 38ee 44be 5d09 0d3e
0.16614866 0.20415495 0.12154509 0.22831978 -0.21123719 0.20588204 0.18217103 0.20105892
0.13908876 -3.4916367e-05 -0.22604328 0.22521962 -0.14894095 0.12832499 -0.13744709 -0.14251494
-0.13504454 0.1623616 0.18488452 -0.18729958 -0.19529797 -0.13775605 -0.13483855 -0.24478988
-0.21005042 0.22550742 0.11122385 0.21518667 0.095432416 0.14732309 0.13725756 -0.16342065
-0.19430304 -0.14523679 -0.2133463 -0.21020189 0.18607575 -0.19075495 -0.18910253 -0.1898531
-0.14631823 -0.15421346 0.16503976 -0.17380488 0.1770769 -0.1632044 0.20223151 0.16893248
0.13010828 -0.21666269 -0.16782057 -0.15265544 0.21149515 0.2067862 0.2019495 -0.14848545
0.17203623 -0.14858897 -0.15194121 -0.13601899 -0.1589775 -0.21274778 -0.19242875 0.21124217
-0.21075867 -0.18362568 -0.20532441 -0.17036186 0.19831116 -0.09429955 -0.1862801 -0.14696088
-0.20768368 -0.17407593 0.2135317 -0.1496173 0.18143548 -0.173057 0.21547298 0.18155043
0.20321327 -0.15782538 -0.13079703 -0.18540831 0.1779982 0.18618344 0.15319593 -0.18888289
0.16677058 -0.1929319 -0.21245362 -0.19900978 -0.19286132 -0.13386129 -0.21628426 0.15549892
-0.19395398 -0.154321 -0.17363006 -0.16788687 0.19275792 -0.1664235 -0.152403 -0.19428328
-0.17905007 -0.22382864 0.18516542 -0.18952854 0.15103297 -0.17786235 0.1729948 0.20066166
0.15756902 -0.143294 -0.17736143 -0.16731045 0.14590093 0.15597345 0.14899044 -0.171929
0.18483421 -0.15404125 -0.21624443 -0.19155206 -0.13657126 -0.1603268 -0.17052421 0.21396172
-0.13708356 -0.15013364 -0.19321595 -0.16474128 0.20205061 -0.17486493 -0.1854452 -0.1154823
-0.20742467 -0.16207823 0.13198052 -0.124207936 0.14654021 -0.20251182 0.17046207 0.14773253
0.21423233 -0.13168503 -0.20558748 -0.19109213 0.16760463 0.19975679 0.20055223 -0.19017136
0.14427452 -0.21520343 -0.14667824 -0.19125782 -0.17728223 -0.20064579 -0.19231498 0.13773103

lstm.weight_ih_l0 f4 [128, 32]
00000000: 2f01 1cbe 90d1 27be 5af8 2dbe 09e7 4dbe
00000010: ee22 0a3e 862d 23be a22f 16be 8035 3cbe
00000020: 8687 1abe 13fb 08be 3399 ff3d ed23 18be
00000030: a26c 3d3e 5b57 1dbe 9163 1d3e f1c5 3c3e
00000040: 38fe 153e 9a56 21be b6dd 59be 8460 5abe
00000050: f70b 083e 00ed 183e 915e 193e ca76 41be
00000060: 6356 513e 54a1 03be f4ae 21be 7039 25be
00000070: 2881 48be 6592 50be ff8d 30be 59e5 493e
00000080: 2d42 59be 4478 64be 75b6 37be 7757 14be
00000090: 1aa7 083e fb21 3ebe 6bdd 33be 9e49 1cbe
000000a0: fa0b 5ebe 5522 0bbe 5328 393e acd7 29be
000000b0: 6e83 303e 8d8a 6cbe b9a3 2d3e f8a7 3b3e
000000c0: 8e5d 213e b80d 38be 1206 45be ef7a 19be
000000d0: e9bc 2a3e d2f4 553e a5ec 343e 1f76 5bbe
000000e0: 38bb 5d3e 84c8 45be 77f9 3abe 874e 54be
000000f0: 7b3f 4ebe a807 63be d5bf 61be be48 613e
00000100: 3e78 f53c 1462 1a3e b700 8c3d 74f5 003e
00000110: d859 82bd 7c92 fb3d 89e6 443d 277f 9d3d
00000120: c338 b83d c541 07be 30ac acbd b3ae 1e3e
00000130: e138 e9bc 8d04 a43d e2a4 aebc fc58 72bd
00000140: 43af a0bd f7df b93d 6d92 bb3d 8b73 35be
00000150: e8b0 9bbd 80b9 77bc f575 afbd 26dd 69be
00000160: 32f9 13be e936 e63d a2b4 1b3d 3010 e83d
00000170: 4a04 573c a70b db3d e1ee 833d 2aad d2bd
00000180: 5f9b 95bd 3086 12bd f0cb c0bd fb6f e5bd
00000190: 8879 a03d 81db a0bc e6d8 a2bd 64cd e0bd
000001a0: 9ab5 c9bd 61f9 14be bfb3 5a3d 1811 80bd
000001b0: c09c 093e 3cc8 2cbe a618 2a3e 549c 2d3e
000001c0: fb56 b03d 7286 10be 9a54 72bd 68f6 46be
000001d0: e5e7 ae3d 287d e53d 33f9 fa3d 7100 31be
000001e0: c370 e03d 4e7a b8bd 025e 0bbe 1b9e c1bd
000001f0: a105 37be 837c 05be 2a33 1bbe caff e83d
00000200: 3d48 42be 4b4a 04be 0d8c 2dbe fac6 00be
00000210: dc89 4a3e 12ee 33be 2ba6 41be f723 4ebe
00000220: 99a3 4cbe eeaa 4fbe 0773 473e 65ab 16be
00000230: 4158 1a3e 314c 2dbe ea88 123e 69fa 573e
00000240: 95f1 163e 5693 08be 543d 23be 8bd6 25be
00000250: ef87 123e 2dd3 2a3e 19c4 5e3e d7cf 53be
00000260: 2aae 093e 0d94 05be f795 2ebe 9020 61be
00000270: 20fd 28be e04e 69be b990 2cbe efed 2c3e
00000280: 18d3 4fbe 8acf 5abe 11b3 1bbe cee9 2dbe
00000290: 2a1a 5f3e 4d39 1fbe 33ec 45be 4fe2 50be
000002a0: b522 5dbe 9c17 32be 4146 503e 1ea9 dcbd
000002b0: 5d5e 673e 7537 56be 25c8 203e 9131 503e
000002c0: 4c2f 493e 0393 01be 01d0 3bbe 1c37 74be
000002d0: 200f 4a3e 666a 153e dae1 2b3e b3aa 35be
000002e0: 0747 4a3e e3b6 17be e145 08be 3051 02be
000002f0: df45 3fbe 9530 31be 0d3f 21be d3f4 533e
00000300: 6bff 1a3e 5d92 073e 26d9 053e 074d 103e
00000310: d0a3 61be cd80 1b3e d569 2d3e 0eaf 323e
00000320: 5eae b33d 3c1a 15be 8920 0cbe 8d19 083e
00000330: 7e85 ddbd 237f 1d3e 341d f6bd 7383 38be
00000340: a32e ebbd 5477 4f3e b6d5 403e fc2e 02be
00000350: c7e1 2cbe c946 20be 8acf 82bd 6c65 49be
00000360: 54b5 3cbe 87f0 563e 891e 933d 152d 4f3e
00000370: 6cb3 a03c f081 0a3e 6135 d43d 76bc 1fbe
00000380: a4d1 0bbe c6f6 1ebe 4b9b 2fbe 70df 1fbe
00000390: 32ae 573e 9379 5ebe f236 52be b5fb 51be
000003a0: ff41 5abe 1260 20be d8e3 383e d212 47be
000003b0: 8a21 4b3e 1bbb 5ebe 798d 1a3e 4a41 693e
000003c0: 1f91 1c3e 42bf 3abe 3185 5dbe e9f6 1bbe
000003d0: 6155 4c3e 24de 1a3e 64f6 273e df30 27be
000003e0: ed83 613e 95c5 64be be34 24be 7d53 5dbe
000003f0: 1b11 21be 1acf 2cbe 9568 3fbe 581d 1a3e
-0.15234827 -0.16388535 -0.1698927 -0.20107664 0.13489887 -0.15935335 -0.14666608 -0.18379784
-0.1509076 -0.13377027 0.12480392 -0.14857455 0.18498471 -0.15365355 0.15370013 0.18434884
0.14647758 -0.15755692 -0.21275982 -0.2132588 0.13285814 0.14934158 0.1497748 -0.1889297
0.2044311 -0.1285451 -0.15789396 -0.16135192 -0.19580519 -0.20368345 -0.17241667 0.19716395
-0.2121665 -0.22311503 -0.17940696 -0.1448649 0.13344994 -0.1856765 -0.17564933 -0.15262458
-0.21684256 -0.13587315 0.18081789 -0.16586179 0.17237636 -0.23099728 0.16956986 0.18325794
0.15758345 -0.17973983 -0.19240597 -0.14988302 0.16673626 0.20894173 0.17668398 -0.21431778
0.2165345 -0.19314772 -0.18259226 -0.20733081 -0.20141403 -0.2217089 -0.22045834 0.22000405
0.029964563 0.15076476 0.06836074 0.12593633 -0.063647926 0.12283799 0.048071418 0.07690268
0.089952014 -0.13208683 -0.0843128 0.1549633 -0.028469505 0.080086805 -0.021318857 -0.059166893
-0.078459285 0.09075921 0.09158788 -0.17719857 -0.076021016 -0.01511991 -0.085674204 -0.22838268
-0.14450529 0.11240942 0.03801406 0.113312125 0.013123581 0.10695582 0.06442047 -0.10286935
-0.07305025 -0.035772502 -0.09413898 -0.11202999 0.0783568 -0.019635918 -0.07951526 -0.10976675
-0.09849091 -0.14548256 0.053394075 -0.062532604 0.13438702 -0.16873258 0.16610965 0.16954166
0.0861034 -0.14113787 -0.059162714 -0.19429934 0.08540324 0.11205512 0.12254562 -0.17285325
0.109590076 -0.09007703 -0.1361008 -0.09453984 -0.17873241 -0.13035779 -0.15156236 0.11376913
-0.18972869 -0.12918966 -0.16947956 -0.12575904 0.19779152 -0.17571285 -0.18911044 -0.20130907
-0.19984283 -0.20280048 0.19477473 -0.1471382 0.15072729 -0.16923596 0.14310041 0.21091618
0.14740594 -0.13337454 -0.15941364 -0.16195123 0.14309667 0.1668212 0.21754493 -0.20684753
0.13445345 -0.13044758 -0.17049395 -0.21985078 -0.1650281 -0.22783995 -0.16852082 0.1688764
-0.2029537 -0.21368232 -0.15205027 -0.1698372 0.21787325 -0.15549202 -0.19328384 -0.2039883
-0.21595271 -0.17391819 0.203393 -0.10774444 0.2259459 -0.20919593 0.15701349 0.20331408
0.19646949 -0.12653737 -0.18341066 -0.23849148 0.19732332 0.14591369 0.16785374 -0.17740898
0.19753657 -0.1481586 -0.13307907 -0.12726283 -0.18678997 -0.17303689 -0.15746708 0.20698862
0.15136497 0.13239427 0.13071117 0.14091884 -0.22035146 0.15185852 0.16934903 0.1744959
0.08773492 -0.14560789 -0.13684286 0.13290997 -0.10816477 0.1538053 -0.12017289 -0.18018894
-0.114835046 0.20260364 0.18831524 -0.12713236 -0.16883002 -0.15652002 -0.06387241 -0.19667596
-0.18428546 0.20990191 0.071835585 0.20232041 0.019616805 0.1352613 0.10361744 -0.15599236
-0.1365419 -0.15523824 -0.17149083 -0.15612578 0.21062544 -0.21726064 -0.20528772 -0.20506175
-0.21314238 -0.15661648 0.18055665 -0.19440773 0.19837013 -0.21751063 0.1509303 0.22778812
0.15289734 -0.18237022 -0.2163284 -0.15230907 0.19954444 0.15123802 0.16402584 -0.16327237
0.22022982 -0.22340997 -0.16035745 -0.2161388 -0.15729181 -0.16875878 -0.18692239 0.15050256

lstm.weight_hh_l0 f4 [128, 32]
00000000: 5fe3 fbbd 6013 093e 1f91 7bbe f12d 853e
00000010: 7fee 313e 6644 52be b3f2 7c3e b015 473e
00000020: fc9f ee3d bfaf 003d 7e28 07be f687 80bd
00000030: 5992 7e3e a746 fe3d 9a65 21be d858 3b3e
00000040: dc6a 3fbe c952 783e 3493 3e3e 3a5a 44be
00000050: 9540 1d3e 5c9d 443e c26e 8d3d 98a3 61bd
00000060: 76cf 353e c88a 42be 2b53 50be 8ef1 01be
00000070: d776 573e bf5a 63be ec01 fabd 8db1 4abe
00000080: a8e4 34be 423b 163e ab7b 73be 6f86 3f3e
00000090: 363d 043e 2dea 56be 7fcb 3c3e 2e79 293e
000000a0: a147 333e 9c13 c83c 3c6f 08be d1bc 3ebd
000000b0: 5472 6e3e 4cd9 333e e1d0 a7bd cd3b 443e
000000c0: db47 24be 9c0c 813e 1daf 263e 77b7 60be
000000d0: 5b8a fb3d 7793 3d3e ca62 1c3d 8465 c3bd
000000e0: ad0d 1f3e 4ba9 55be c178 00be b551 66bd
000000f0: 4b24 623e ae73 29be 45e8 8ebd ce14 5cbe
00000100: bebb 30be a83d 143e 034e 14be 0572 d6bd
00000110: 11c9 cf3d 8b5c 2fbe bfb0 fc3d 84f2 253e
00000120: 7185 2b3e 8476 1e3e 9fe7 2abe 409a 393e
00000130: 7684 a43d a864 f13d 47dc f4bd 02d7 b43d
00000140: cbef f2bd 1703 2a3e 3d00 433e ea62 09be
00000150: 740d 113e 86fb 233e 9a7b b83d 15d9 d53d
00000160: a3c4 d33d d320 fbbd 7c48 b8bd 1d83 39be
00000170: 2052 22be 7002 113e ccaa 2bbe fe74 28be
00000180: f498 25be 2dd0 293e 8860 4fbe 9d78 953d
00000190: 931e 283e 1b8b 54be 4561 173e 0017 2c3e
000001a0: 80f8 1b3e 4012 303e 7c6c 07be 919c 113e
000001b0: 436f 423e 38ee 563e 46c1 42be dc67 373e
000001c0: 03f1 01be b860 6b3e 6b0a 3a3e ea9f 22be
000001d0: 13d1 fc3d 9539 5e3e 3092 4c3e 2fdf d03d
000001e0: d63b 553e 348c 56be f141 fbbd 185b 46be
000001f0: 0705 8dbc c76c 6dbd 23f2 03be 5b1c 4bbe
00000200: 8ba7 31be 3f8a 343e 106d 4bbe 397b 7a3e
00000210: 2f87 4d3e 8f7d 23be ea8c 363e 7955 063e
00000220: 407e 2e3e c7a9 f13c 40f4 29be 507a e1bc
00000230: 647f 6f3e 5293 3d3e ddd3 93bd 83d5 0d3e
00000240: 5732 29be 43b2 203e 1125 5e3e f069 01be
00000250: 2b44 123e af17 283e a92e 2abc 4c17 10ba
00000260: 10bf fa3d 6865 69be ad23 21be c2fd e0bd
00000270: e01d 2e3e d532 2bbe 8ea4 1cbe c279 28be
00000280: 5185 56be caf3 6a3e 9ce1 2bbe a8e3 2e3e
00000290: 4fad 253e e89e 4ebe 69b2 633e d4e3 2e3e
000002a0: 348b e83d d96c 1c3d 35ef 9bbd 1a7a 46bd
000002b0: 00e2 7c3e 0f69 0d3e f197 acbd 3eb5 dc3d
000002c0: b6fa 15be 4ec4 4c3e db63 383e 7262 17be
000002d0: a61f a53d bf35 6f3e f570 b5bc caa7 e4bd
000002e0: df68 1b3e cfe1 1ebe 8b1a 4bbe 4bda 43bd
000002f0: 343f 3b3e 2b7d 5fbe 1973 d2bd c355 31be
00000300: 6fe2 74bc cfb7 eebc a7c2 33be 2144 5a3d
00000310: 6b96 233c bd52 50ba 04fa 2d3e e671 263d
00000320: 0d11 4dbd c6bd a9bc 0714 80bc bfb1 b73c
00000330: cb1f f83c 783f 22bd 63c2 e63c a7f1 413d
00000340: ef67 f7bb ffec d83d 8450 1e3e 5aeb cb3b
00000350: a925 33bd 0bf3 253d d159 2abd dfa0 52bc
00000360: 1c5a 26bd 79ba 08bd 9c23 a83c 6e9a 523c
00000370: 14de 2fbc 37ac b5bc ab45 f4bb 2885 28bd
00000380: 8299 4bbe a749 1c3e 7afd 5bbe 209b 273e
00000390: e882 e53d 84a2 2cbe 330a 343e f259 4b3e
000003a0: db57 d23d 091b 8d3d 1bb4 14be 34df b43b
000003b0: 6517 2c3e aecb 683e 4457 0abd 50b5 3c3e
000003c0: 88b5 6abe ff5d 263e 30b6 2a3e ea9f 38be
000003d0: 5bac 8a3d bcb4 2a3e 8071 533d ff82 4fbd
000003e0: d3d9 fe3d a60e 14be d50a 50be 52f8 b9bd
000003f0: a0b3 0f3e a498 84be e8f0 abbd c162 03be
-0.12299227 0.13386297 -0.24567078 0.26011613 0.17376135 -0.20533904 0.24701957 0.19441867
0.11651608 0.031417605 -0.1319904 -0.062759325 0.24860515 0.124158196 -0.15761414 0.1829561
-0.18693107 0.2425033 0.18610841 -0.19175044 0.15356667 0.19200653 0.06905891 -0.055087656
0.17754921 -0.18998253 -0.20344226 -0.12689802 0.21041428 -0.22202586 -0.12207398 -0.19794293
-0.1766535 0.14671043 -0.23777644 0.18703626 0.12913975 -0.20987768 0.18437003 0.16550133
0.17507793 0.024423413 -0.13323683 -0.046566788 0.232858 0.17563361 -0.08194137 0.19163437
-0.16043036 0.25204933 0.16277738 -0.21944986 0.122822486 0.18513285 0.03818015 -0.09540847
0.1553256 -0.20865361 -0.12546064 -0.056230266 0.22084157 -0.16548035 -0.06977896 -0.21492311
-0.17259118 0.14476645 -0.14482884 -0.10470966 0.10145772 -0.17125146 0.12338399 0.16205794
0.16750123 0.15474898 -0.16689919 0.18125248 0.080330774 0.11786777 -0.11956077 0.08830072
-0.11862143 0.16602741 0.1904306 -0.13416639 0.14165288 0.16013917 0.0900795 0.10441796
0.1034024 -0.1226212 -0.089982 -0.18116422 -0.1585164 0.14161086 -0.16764373 -0.16450879
-0.16171628 0.16583319 -0.20251667 0.07298396 0.16417913 -0.2075619 0.14783199 0.16805649
0.15231514 0.17194462 -0.13224977 0.14219882 0.18987755 0.2098931 -0.1901904 0.17910713
-0.12689595 0.22986114 0.18168037 -0.15881315 0.12344565 0.21701653 0.19977641 0.10198819
0.20823607 -0.20951921 -0.12268437 -0.19370687 -0.017214311 -0.057965066 -0.12885337 -0.19835036
-0.17349069 0.17630862 -0.19865823 0.24461068 0.200711 -0.15965866 0.17827192 0.13118543
0.17040348 0.029499901 -0.1659708 -0.027524143 0.2338844 0.1851323 -0.07218144 0.1385098
-0.1652311 0.15693001 0.21693827 -0.12638068 0.14283817 0.16415285 -0.010387101 -0.00054966356
0.122434735 -0.2279259 -0.15736265 -0.109859005 0.17003584 -0.1671861 -0.15297148 -0.16452697
-0.20949294 0.2294456 -0.16785282 0.17079031 0.16179393 -0.20177805 0.22236027 0.17079097
0.11354676 0.038189743 -0.076139845 -0.04845629 0.24695587 0.13809608 -0.08427418 0.10776757
-0.1464642 0.1999676 0.18006842 -0.14783648 0.08062677 0.23360346 -0.022148589 -0.11164816
0.15176724 -0.15515827 -0.19834344 -0.047815602 0.18285829 -0.21825092 -0.102758594 -0.17317872
-0.014946564 -0.029140381 -0.17554723 0.05328763 0.009984593 -0.0007946899 0.16989905 0.040635966
-0.05006509 -0.020720374 -0.01563455 0.022423623 0.030288598 -0.03961131 0.028168863 0.0473496
-0.0075502316 0.105920784 0.15460402 0.0062231245 -0.043737087 0.040514987 -0.04158956 -0.0128557375
-0.04061328 -0.03338096 0.020524792 0.012854202 -0.0107341 -0.022176845 -0.007454594 -0.041142613
-0.19882777 0.15262471 -0.21483412 0.16367769 0.11206609 -0.1685887 0.17582016 0.1985853
0.10270663 0.06889922 -0.1452183 0.005519772 0.168058 0.22733948 -0.03377463 0.1842854
-0.22920811 0.16246794 0.16671062 -0.18029752 0.067711554 0.16670507 0.051621914 -0.050662037
0.124438904 -0.14458713 -0.20316632 -0.090805665 0.14033365 -0.25897706 -0.083955586 -0.1283064

lstm.bias_ih_l0 f4 [128]
00000000: b04b 4a3e 1afc 563e 195c 3b3e 9a09 333e
00000010: f7e7 653e 438f 5d3e de79 433e d157 243e
00000020: 11b4 123e 6bc6 5f3e 33f8 513e 6c38 173e
00000030: 6835 503e 51d9 2e3e b04e 693e 7e83 0e3e
00000040: f2a6 2d3e a86d 3b3e 1523 143e ac6c 253e
00000050: cf1c 533e 0085 353e fa78 3c3e 4b1d 513e
00000060: 7efd 103e f127 4d3e 76a3 4a3e c6b0 373e
00000070: f9bc 6b3e 6c1b 153e b27d 383e 67bc 4f3e
00000080: 5fb8 b7bd c7d8 edbd 5f29 5fbe e874 08be
00000090: 8f4c c3bd 3b0a 0dbe e979 243e 2b7b b3bd
000000a0: a7ef 06be 27c3 2abe f4c3 00be 6512 9dbd
000000b0: 86c3 0fbe d6ea 3ebe 06f1 ecbd 6054 e2bd
000000c0: fcb7 febd 3adb 083e 1b5a 1abe 4dbf 11be
000000d0: d3e0 86bd 941d b8bd a6d2 e4bd 2293 05be
000000e0: ac76 b0bd bb19 32bd 4f2e fdbd 95bc afbd
000000f0: 6557 5fbe 87aa 19be fc6a 06be 1f21 bfbd
00000100: 3372 27be 1b11 153e fde9 a0bd 4a56 76bc
00000110: 932b 1d3e df38 2fbe 81ff 303e dd34 2b3e
00000120: 82ea d73d e460 b13d ff56 2dbe efaa 513d
00000130: f1ec 883d db5a 1b3e 7915 f0bd ef17 203e
00000140: 6914 15be 6548 1a3e b503 9b3d f262 c6bd
00000150: 1532 0a3e d3da 0c3e 8c48 b03d 4055 e03d
00000160: 7459 063e dd64 ecbd 4893 0bbe 60b7 11be
00000170: ed98 bcbd 8135 743d 155c 1dbe 99e7 2abe
00000180: e909 4c3e 71cb 4e3e 63a3 2d3e 2a07 133e
00000190: 26aa 2d3e 86c0 3b3e f418 4b3e 17cd 663e
000001a0: 80f7 1a3e 12b0 593e f61a 203e d156 433e
000001b0: e322 623e 5e8f 533e 5532 5a3e 45ca 593e
000001c0: a102 613e 2961 023e 5729 3a3e 2449 2e3e
000001d0: f7e9 733e 673f 603e 2b14 2f3e 6b0d 343e
000001e0: 8c9d 6b3e c9c2 283e 986e 5d3e d7b3 6a3e
000001f0: c881 203e 36db 593e a6ec 413e 615b 3f3e
0.19755435 0.20994607 0.18296851 0.17484131 0.22451769 0.21636681 0.19089457 0.16049124
0.14326502 0.21853034 0.20504837 0.14767617 0.20332873 0.17075087 0.22783923 0.13917348
0.16958216 0.1830355 0.14466508 0.16154736 0.20616458 0.17726517 0.18405524 0.2042133
0.141592 0.20034768 0.19788918 0.17938527 0.23021306 0.14561242 0.18016699 0.20286714
-0.08970713 -0.116136126 -0.21793126 -0.13325846 -0.09536087 -0.13773434 0.1606213 -0.08763727
-0.13177358 -0.16676007 -0.1257475 -0.07669524 -0.1403943 -0.1864427 -0.11569409 -0.110512495
-0.12437436 0.13364878 -0.15073435 -0.14233132 -0.065858506 -0.089900166 -0.111729905 -0.13044408
-0.08616385 -0.04348157 -0.12362348 -0.08580891 -0.21810682 -0.15006457 -0.13126749 -0.09332489
-0.16352157 0.14557306 -0.0785713 -0.015035221 0.15348653 -0.17111538 0.17284967 0.16719384
0.10542776 0.086610585 -0.16927718 0.051188406 0.06685818 0.15171377 -0.117228456 0.1563413
-0.14558567 0.15066679 0.075690664 -0.09686841 0.13495667 0.1375535 0.08607587 0.1095376
0.13120061 -0.11542676 -0.13630402 -0.14230108 -0.09208856 0.059621338 -0.15367158 -0.1668991
0.19925655 0.20194794 0.16956858 0.14358202 0.16959438 0.1833516 0.19833738 0.22539173
0.15133476 0.21258572 0.15635285 0.19076087 0.2208362 0.20660159 0.21308263 0.21268566
0.21973659 0.12732376 0.18179832 0.17020088 0.2381972 0.21899186 0.17097537 0.17583244
0.23009318 0.16480555 0.2162422 0.22920166 0.15674508 0.21275029 0.1893793 0.18687202

lstm.bias_hh_l0 f4 [128]
00000000: 3af1 663e 1191 283e 95f3 f13d 7590 1e3e
00000010: 1196 3b3e 16d6 113e e2ea f73d 87a2 653e
00000020: 38ef 1d3e 969f 403e 9170 3e3e 7380 1f3e
00000030: 8e21 1c3e 3e11 103e 5cfb 253e b8d2 213e
00000040: 3fbf 2b3e ac4a 2e3e 3e0b 073e a89d 673e
00000050: 934b 6a3e 8fb7 2d3e aef1 443e 0feb 6c3e
00000060: 14a4 603e 4d49 0d3e 4ca1 623e 05e2 183e
00000070: f882 643e 8133 423e a12f 293e 06ea 193e
00000080: a806 dfbd 3915 7fbd 76a9 58be c974 3abe
00000090: e007 67bd d175 cbbd dafb ae3d 7357 26bd
000000a0: 4a84 0abe ff02 febd df4b c1bd 1601 0cbe
000000b0: 0f39 2dbe ace2 27be 7bcc febd ad90 bfbd
000000c0: be11 8cbd ff63 143e aa77 3ebe 8418 d6bd
000000d0: 0cb3 26be d4eb 03be 346a f9bd e213 c1bd
000000e0: ac37 7dbd 537d 02be bb55 fbbd 71bc a4bd
000000f0: 882f 16be e1fd 49be 53bb a5bd 09ec f6bd
00000100: 0029 1fbe 2c03 f93d 630e f3bd bccd 7fbd
00000110: b267 123e 3bcc b9bd 721b 323e c744 e03d
00000120: 1fe9 133e 4d77 123e ea2c b0bd 2a17 173e
00000130: b3e4 373b e52a b13d c0ac 1dbe b820 d53d
00000140: 45b9 24be db6d 193e 6d3f ee3d 8f44 2dbe
00000150: 204a 083e 01ad 123e c8f4 083e 47cf be3d
00000160: 9775 fb3d 4fb5 1fbe ca0b 1dbe c813 d7bd
00000170: c384 2bbd b6a3 9fbc e646 d9bd c3b6 dabd
00000180: 4c82 613e 12ef 203e b01e 443e 774a 4c3e
00000190: 11a5 1f3e b93f 403e e529 223e 17fb 633e
000001a0: b152 5d3e d740 703e b1f0 303e cd21 1a3e
000001b0: 4628 023e d55f fc3d c206 5e3e 672b 403e
000001c0: 65e8 303e 2c7e 4f3e 4c6f 2d3e b808 1c3e
000001d0: 193e 253e b226 5e3e 41dd 453e f35a 553e
000001e0: f44d 133e cab4 5f3e a0b8 413e 3657 283e
000001f0: 53ce 693e 8e16 2b3e 20cd 303e b949 3f3e
0.22552958 0.16461588 0.11814038 0.15484793 0.18318965 0.14241824 0.12105347 0.2242528
0.15423286 0.18810877 0.18597628 0.15576343 0.15247175 0.14069077 0.16209167 0.15803039
0.16772173 0.17020673 0.13187882 0.22618735 0.22880392 0.16964553 0.19232818 0.23136543
0.21937591 0.13797493 0.22131842 0.1492997 0.22315586 0.1896496 0.16522075 0.15030679
-0.108899415 -0.0622761 -0.21158394 -0.18208613 -0.056403995 -0.09934581 0.085441306 -0.04061074
-0.13527027 -0.12402915 -0.094382994 -0.13672289 -0.16916297 -0.16395062 -0.12441345 -0.093537666
-0.068393216 0.1449127 -0.18600336 -0.10453895 -0.16279238 -0.1288293 -0.1217846 -0.094276205
-0.06182067 -0.1274312 -0.12272211 -0.08043755 -0.14666569 -0.19725753 -0.0809237 -0.12056739
-0.15542984 0.12158808 -0.118679784 -0.062452063 0.14297369 -0.09072157 0.17393282 0.10950618
0.14444397 0.14303322 -0.08602317 0.1475493 0.00280599 0.086507596 -0.1539793 0.10406631
-0.160863 0.14983313 0.11633191 -0.16920684 0.13309526 0.14323808 0.13374627 0.09316879
0.12278288 -0.15596507 -0.15336528 -0.1050182 -0.04187466 -0.019487243 -0.10609226 -0.1067939
0.2202236 0.15716198 0.19152331 0.19950281 0.15590312 0.18774308 0.15836294 0.22263752
0.21613576 0.23462234 0.17279316 0.15051956 0.12710676 0.12322966 0.21682265 0.18766557
0.17276151 0.20262975 0.16936988 0.15237701 0.1613697 0.21694449 0.19322683 0.20835476
0.14385206 0.2184631 0.18918085 0.16439518 0.22832613 0.16707823 0.17265749 0.18680467

lin.weight f4 [5, 32]
00000000: d370 5ebe 78a1 523e 1bcc 423e 55b6 4bbe
00000010: 93e7 323e 8c10 53be 48c9 8f3c 49fc 433e
00000020: bb70 433e 363a 583e 28e3 48be 4a66 313e
00000030: 76f8 50be 3450 223e 22de 5bbe af42 543e
00000040: 1f40 27be fb14 263b 003d 41be 1bef 53be
00000050: 1ae8 2b3e f502 323e 1c55 553e 66ea 643e
00000060: cdb7 4f3e a4e5 53be ab29 51be a02f 3abe
00000070: 86e5 59be b431 473e 25cc 52be 7e21 40be
00000080: dd74 243e ffe1 3dbe 2c67 02be b821 2e3e
00000090: 4d00 38be a6a7 0f3e df6c ae3c f83d 3dbe
000000a0: 6627 4fbe 91f5 5cbe 594c 273e e6c5 23be
000000b0: e663 3c3e 8ec4 4bbe 856e ee3d 3a34 1bbe
000000c0: 45b6 3a3e 7fb1 6dbd 6dc9 293e 69aa 413e
000000d0: 0c97 52be 32d0 1dbe 4be8 07be 6e3a 51be
000000e0: 7f7d 0bbe d7f9 353e 28b8 4b3e 0cb8 453e
000000f0: 737c 353e 3a19 46be 4156 483e 41cb 143e
00000100: 0278 fc3d 032b 50be 8f43 23be cb5c 273e
00000110: fa09 3fbe 5fb6 593e da8e ebbd 1527 3fbe
00000120: 6977 0dbe 121a 09be dad7 1d3e e2f8 62be
00000130: 88aa 0b3e 6e89 18be 6da4 023e 4fc1 0cbe
00000140: 5c2b 3c3e 2ace b6bd 1535 ec3d 96de 193e
00000150: 4e94 60be 718a 4fbe 72d8 59be 58fd 29be
00000160: fc83 14be 0f0f 5c3e 9aa7 3c3e f35b 103e
00000170: ca1b 673e 18cc 48be ccad 293e 90a7 623e
00000180: da9c 3b3e 8ad5 58be fed8 12be 8926 0d3e
00000190: ef33 0dbe ae90 243e 566d 8ebc 6e3d 2cbe
000001a0: 9367 11be 4f3c 4abe 84ee 1f3e d49a 50be
000001b0: d02f 1e3e 905a 66be 3699 133e c065 05be
000001c0: 6377 143e c3fa bfbd 92f0 2a3e 4519 0c3e
000001d0: 76b5 0ebe 8fae 61be 4970 23be 9c95 2bbe
000001e0: 5491 38be c897 4e3e fef7 0c3e 199c 4b3e
000001f0: 2629 683e 95e7 19be 2855 103e 403e 023e
00000200: 349f 143e be91 0dbe 33ba 2abe 1ea0 523e
00000210: fcf0 43be fc5b 0a3e 1688 afbd 8a60 f0bd
00000220: c408 0cbe 1647 16be c890 213e 6200 4ebe
00000230: 6809 e73d b51a 1abe 3a31 443e c44a 2dbe
00000240: f653 553e 8326 d0bd 8294 2d3e 2cb4 533e
00000250: 9db7 35be 7833 10be 9499 55be 77cb 12be
00000260: fe7e 3ebe ded2 333e 4943 423e aebb 303e
00000270: 6c9c 233e 7605 e3bd e143 453e 3fc5 3f3e
-0.21722727 0.20569408 0.19023173 -0.19893773 0.17471151 -0.20611781 0.017552033 0.19139208
0.19085972 0.21115956 -0.19617903 0.17324176 -0.2040728 0.15850908 -0.21471456 0.20728563
-0.16333054 0.0025342095 -0.18870926 -0.2069668 0.16787758 0.1738394 0.20833248 0.22355041
0.20284958 -0.2069307 -0.20426051 -0.1818223 -0.21278962 0.19452554 -0.20585687 -0.18762776
0.16060205 -0.18543242 -0.1273467 0.1700505 -0.17968865 0.14028797 0.021292148 -0.1848067
-0.20229873 -0.21578051 0.16337718 -0.15993461 0.18397483 -0.19899198 0.11642174 -0.15156642
0.18233593 -0.0580306 0.16580744 0.18912663 -0.20565432 -0.15411451 -0.13272206 -0.20432445
-0.13622092 0.17771088 0.19894469 0.1930849 0.17723255 -0.1934556 0.19564153 0.1453066
0.12327577 -0.20328908 -0.1594374 0.16343991 -0.1865615 0.21260975 -0.11501856 -0.18667252
-0.13815083 -0.13388851 0.15414372 -0.22165254 0.13639271 -0.14896175 0.12758036 -0.13745616
0.18375915 -0.089260414 0.11533562 0.15026316 -0.21931574 -0.20267655 -0.21273974 -0.16600549
-0.14503473 0.2149012 0.1842331 0.14097576 0.22569194 -0.19609106 0.16570204 0.22134233
0.18321553 -0.21175209 -0.14340588 0.13784231 -0.13789342 0.16070816 -0.01738612 -0.16820309
-0.14199667 -0.19749568 0.1561833 -0.20371562 0.15447927 -0.22495484 0.14413914 -0.13027096
0.14498667 -0.09374001 0.16693333 0.13681515 -0.1393641 -0.22039245 -0.15960802 -0.1675629
-0.18024188 0.20175087 0.13766477 0.19883765 0.22671947 -0.15029748 0.14094985 0.12719059
0.14513856 -0.13825127 -0.16672592 0.20568892 -0.19134897 0.13511652 -0.08570878 -0.11737163
-0.13675219 -0.14675555 0.15777886 -0.20117334 0.11281091 -0.1504925 0.19159403 -0.16923052
0.2083281 -0.101635955 0.16951182 0.20674199 -0.17745824 -0.14082134 -0.20859367 -0.14335428
-0.18603131 0.17560908 0.1897098 0.17259094 0.15977639 -0.11085026 0.19264175 0.18727587

lin.bias f4 [5]
00000000: 7ba4 c53d b071 91bd 39d6 11bd c59f 3bbd
00000010: dc09 2cbd
0.09650513 -0.07101762 -0.03560469 -0.045806665 -0.04200159
