checkpoints/MLE_space_False_length_3_preTrainG_epoch_142.pth (torch_old, 36090 bytes, 7 tensors)

emb.weight f4 [5, 32]
0.18709587 0.23669092 0.13206558 0.2596959 -0.23765418 0.2401086 0.20744014 0.2323754
0.15468347 -0.07559909 -0.2560244 0.25887528 -0.17312221 0.14246872 -0.15144704 -0.16125083
-0.15553279 0.19163631 0.21282865 -0.27244073 -0.22252406 -0.1558061 -0.15462351 -0.31486496
-0.24099319 0.25454295 0.12116002 0.24368177 0.09987158 0.16969594 0.15128256 -0.18486549
-0.20228618 -0.15224014 -0.22231244 -0.21688937 0.19340493 -0.19773953 -0.19664416 -0.19680603
-0.15466471 -0.16651167 0.17136255 -0.18011925 0.18539093 -0.17214201 0.21075451 0.17730016
0.13873804 -0.22439605 -0.17498589 -0.16685298 0.21820454 0.21505933 0.21029745 -0.1631695
0.17886697 -0.1552674 -0.16107525 -0.14264856 -0.16928507 -0.22081575 -0.20097058 0.21903475
-0.21833783 -0.19027083 -0.21385317 -0.17670533 0.20526442 -0.100933015 -0.19344018 -0.15356
-0.21560997 -0.18586068 0.21951579 -0.15560533 0.18934275 -0.18156157 0.22357504 0.1895096
0.21142778 -0.16517621 -0.13759063 -0.19905892 0.18435779 0.19404945 0.16113825 -0.20300746
0.17325085 -0.19925903 -0.22115202 -0.20528993 -0.20271082 -0.14153099 -0.22440109 0.16290233
-0.20196457 -0.16137905 -0.18260534 -0.17460921 0.20012508 -0.17346604 -0.15997076 -0.20127839
-0.18740812 -0.23613054 0.19151834 -0.19588931 0.15938067 -0.18682389 0.18153134 0.20905815
0.16621584 -0.15106176 -0.18455146 -0.18150158 0.15262961 0.16425604 0.15734856 -0.18657917
0.19170892 -0.16075635 -0.22539085 -0.19821055 -0.14691107 -0.16841373 -0.17907599 0.22177929
-0.14546984 -0.157527 -0.20260225 -0.17180139 0.2097654 -0.18223943 -0.19337983 -0.122820005
-0.21617325 -0.1748583 0.13866301 -0.13088918 0.15527306 -0.21187636 0.17939633 0.1565148
0.22327554 -0.13981776 -0.2131324 -0.20577429 0.17468072 0.20843141 0.20930676 -0.2053445
0.15149017 -0.22225825 -0.1562321 -0.198255 -0.18804574 -0.20911753 -0.20126745 0.14592369
00000000: 0f96 3f3e 1b5f 723e 333c 073e dcf6 843e
00000010: 9e5b 73be 07df 753e 306b 543e d1f3 6d3e
00000020: 5865 1e3e b2d3 9abd a115 83be 4d8b 843e
00000030: f346 31be 52e3 113e ef14 1bbe f01e 25be
00000040: fd43 1fbe 4f3c 443e c1ef 593e 5a7d 8bbe
00000050: 59dd 63be a28b 1fbe a055 1ebe fb35 a1be
00000060: ebc6 76be 7453 823e bf22 f83d b787 793e
00000070: 7989 cc3d c6c4 2d3e d1e9 1a3e 614d 3dbe
00000080: 1c24 4fbe d7e4 1bbe dfa5 63be 3f18 5ebe
00000090: f10b 463e 3b7c 4abe 165d 49be 8587 49be
000000a0: 6d60 1ebe 0982 2abe aa79 2f3e 2e71 38be
000000b0: 1fd7 3d3e ff45 30be 08d0 573e 2c8e 353e
000000c0: 5811 0e3e 14c8 65be 802f 33be 82db 2abe
000000d0: 0371 5f3e 8338 5c3e 3758 573e e815 27be
000000e0: e728 373e 6bfe 1ebe e9f0 24be 7712 12be
000000f0: 1159 2dbe 861d 62be 3bcb 4dbe a54a 603e
00000100: f493 5fbe 5bd6 42be 53fc 5abe 3ef2 34be
00000110: d630 523e f8b5 cebd 2f15 46be d53e 1dbe
00000120: dcc8 5cbe 4352 3ebe bfc8 603e 0157 1fbe
00000130: 11e3 413e 47eb 39be dbf0 643e ce0e 423e
00000140: 8680 583e f423 29be 8fe4 0cbe 1ad6 4bbe
00000150: 4ac8 3c3e e6b4 463e 6d01 253e 30e1 4fbe
00000160: ac68 313e 8f0a 4cbe ad75 62be 8637 52be
00000170: 6d93 4fbe 80ed 10be 66c9 65be decf 263e
00000180: cdcf 4ebe 8d40 25be e5fc 3abe c2cc 32be
00000190: 97ed 4c3e 15a1 31be 60cf 23be ec1b 4ebe
000001a0: eae7 3fbe 34cc 71be 621d 443e 3597 48be
000001b0: b034 233e c34e 3fbe 5ae3 393e 5713 563e
000001c0: 7c34 2a3e efaf 1abe 0ffb 3cbe 8ddb 39be
000001d0: f04a 1c3e bc32 283e fb1f 213e 9c0e 3fbe
000001e0: 584f 443e 509d 24be dccc 66be b5f7 4abe
000001f0: db6f 16be a674 2cbe b25f 37be 1c1a 633e
00000200: 0cf6 14be c24e 21be f776 4fbe b4ec 2fbe
00000210: becc 563e f99c 3abe 5d05 46be 0e89 fbbd
00000220: 855c 5dbe 0e0e 33be adfd 0d3e d007 06be
00000230: e7ff 1e3e 1ef6 58be acb3 373e 6a45 203e
00000240: 58a2 643e 632c 0fbe 613f 5abe 7fb6 52be
00000250: 81df 323e 0b6f 553e 8354 563e d445 52be
00000260: 3d20 1b3e ab97 63be 4ffb 1fbe 5c03 4bbe
00000270: 108f 40be e822 56be 0e19 4ebe 056d 153e

lstm.weight_ih_l0 f4 [128, 32]
-0.15016982 -0.15170962 -0.17345065 -0.19031194 0.12897095 -0.14648356 -0.14180084 -0.17324919
-0.15188792 -0.15158528 0.11352105 -0.13353014 0.18232118 -0.1554231 0.15525374 0.1839511
0.14698792 -0.15269479 -0.20638068 -0.24716878 0.12606774 0.15052506 0.15035503 -0.22483534
0.1937027 -0.11802408 -0.16167685 -0.15261751 -0.20082948 -0.2028786 -0.17417274 0.19486655
-0.21052855 -0.21140984 -0.18366462 -0.13447253 0.1279512 -0.17331822 -0.17126754 -0.14254011
-0.21844845 -0.15490748 0.16990645 -0.15127175 0.1702883 -0.23343481 0.17176153 0.18347314
0.15871261 -0.17539914 -0.18651026 -0.18520868 0.16037141 0.2107491 0.17788728 -0.25165394
0.20624438 -0.1830125 -0.18709785 -0.19899687 -0.20722279 -0.22149087 -0.22285588 0.21825902
0.08991216 0.20740248 0.13214053 0.18127838 -0.12030871 0.17952298 0.10668539 0.13374631
0.15276593 -0.1830665 -0.13927151 0.20976146 -0.09040845 0.1439586 -0.084019534 -0.1221375
-0.14409727 0.153169 0.15028009 -0.23507926 -0.13373499 -0.07962666 -0.15109117 -0.28003848
-0.2006708 0.1672982 0.10334827 0.16927132 0.08010822 0.17108648 0.12749349 -0.16337611
-0.010462365 0.05556774 -0.061403733 -0.025132624 0.00287303 0.07337402 -0.00562156 -0.021246577
-0.050680656 -0.17529331 -0.03383296 0.030226536 0.065816626 -0.12298851 0.122138724 0.11323899
0.034911834 -0.06570382 0.020214245 -0.25682703 0.006803351 0.06606254 0.071741946 -0.23417771
0.021404285 -0.003475632 -0.10290048 -0.01145885 -0.14657366 -0.073067635 -0.10886332 0.050218556
-0.1846012 -0.11127803 -0.17169103 -0.10974921 0.18792787 -0.15696143 -0.18053348 -0.18550256
-0.19872712 -0.22282459 0.17809294 -0.12570533 0.14481783 -0.16904837 0.14274777 0.20798022
0.14561422 -0.12472197 -0.14889446 -0.20120452 0.13212533 0.16597928 0.2158632 -0.24842529
0.1184242 -0.11470747 -0.17292076 -0.2063879 -0.16879918 -0.22441195 -0.1684321 0.16358893
-0.19876844 -0.19802868 -0.15463485 -0.15586272 0.20940456 -0.13910536 -0.18598005 -0.19017743
-0.21546747 -0.19329695 0.18881918 -0.088981524 0.2210813 -0.20958565 0.15721917 0.20115975
0.195377 -0.11914383 -0.17436989 -0.27633002 0.18783537 0.14567308 0.1668556 -0.21763128
0.18354928 -0.1344699 -0.13587876 -0.11558064 -0.1908955 -0.1704272 -0.157918 0.20266028
0.17354614 0.15435416 0.15485558 0.16179438 -0.24130936 0.17393583 0.19126445 0.19635917
0.11099312 -0.20520863 -0.1576218 0.15402572 -0.13168362 0.17748286 -0.14320013 -0.20373952
-0.14010157 0.22687277 0.21062064 -0.15972558 -0.19055682 -0.18050192 -0.088537134 -0.22264427
-0.20577034 0.23060358 0.09698759 0.22336021 0.044294976 0.15963091 0.12688252 -0.17857991
-0.13706708 -0.14670666 -0.17735137 -0.14859764 0.20756403 -0.20814832 -0.20333366 -0.19795203
-0.21662441 -0.17611907 0.17255281 -0.18312578 0.19862244 -0.22180487 0.15492652 0.23005919
0.155986 -0.18054375 -0.21301101 -0.18659726 0.19573103 0.1548842 0.16717276 -0.1992782
0.21289873 -0.21614334 -0.16649249 -0.21050118 -0.16475551 -0.17060582 -0.19109893 0.15094064
00000000: 1ec6 19be c459 1bbe 0c9d 31be 22e1 42be
00000010: f610 043e c9ff 15be 3d34 11be 3c68 31be
00000020: 8288 1bbe 2c39 1bbe b97d e83d 20bc 08be
00000030: 67b2 3a3e 3c27 1fbe d6fa 1e3e ad5d 3c3e
00000040: 0084 163e 065c 1cbe 7555 53be d019 7dbe
00000050: e717 013e 3e23 1a3e abf6 193e 3c3b 66be
00000060: 005a 463e 9cb6 f1bd 9e8e 25be c447 1cbe
00000070: 3ea6 4dbe 68bf 4fbe 575a 32be 198b 473e
00000080: cc94 57be d27b 58be 9412 3cbe 2bb3 09be
00000090: a405 033e 557a 31be c260 2fbe 09f6 11be
000000a0: f3b0 5fbe 11a0 1ebe f5fb 2d3e fbe6 1abe
000000b0: 0e60 2e3e 8909 6fbe 41e2 2f3e 62e0 3b3e
000000c0: 8f85 223e d59b 33be 8cfc 3ebe 58a7 3dbe
000000d0: 6738 243e 9dce 573e 1528 363e c9d8 80be
000000e0: ba31 533e a167 3bbe 9496 3fbe d6c5 4bbe
000000f0: 3632 54be 81ce 62be 5534 64be 4b7f 5f3e
00000100: de23 b83d 5161 543e d94f 073e 0aa1 393e
00000110: 6a64 f6bd dfd4 373e df7d da3d cbf4 083e
00000120: ac6e 1c3e c975 3bbe 319d 0ebe b5cb 563e
00000130: 1128 b9bd e269 133e 6f12 acbd 3a23 fabd
00000140: 3c8e 13be 56d8 1c3e 06e3 193e 9eb8 70be
00000150: d3f1 08be 4d13 a3bd a5b7 1abe 3461 8fbe
00000160: a57c 4dbe 3850 2b3e 42a8 d33d 7655 2d3e
00000170: c70f a43d 4b31 2f3e a78d 023e 114c 27be
00000180: 576a 2bbc 009b 633d 7b82 7bbd efe2 cdbc
00000190: 7249 3c3b 1e45 963d 1035 b8bb 4d0d aebc
000001a0: 8596 4fbd 1780 33be 6e94 0abd a49d f73c
000001b0: deca 863d 66e1 fbbd de23 fa3d d8e9 e73d
000001c0: b6ff 0e3d b98f 86bd 5898 a53c d57e 83be
000001d0: a5ee de3b cc4b 873d 71ed 923d 48cc 6fbe
000001e0: 0a58 af3c 6ec7 63bb 7dbd d2bd e6bd 3bbc
000001f0: 6817 16be 7ca4 95bd bbf3 debd f9b1 4d3d
00000200: 1908 3dbe bce5 e3bd c6cf 2fbe 32c4 e0bd
00000210: 2a70 403e 7fba 20be c5dd 38be 62f4 3dbe
00000220: 1f7f 4bbe 212c 64be ff5d 363e e6b8 00be
00000230: 204b 143e 041b 2dbe 792c 123e c4f8 543e
00000240: e51b 153e 3b6e ffbd ca77 18be 8f08 4ebe
00000250: dd4b 073e 79f6 293e 3e0b 5d3e 3363 7ebe
00000260: 6388 f23d c0eb eabd 2412 31be 5a57 53be
00000270: b1d9 2cbe 3fcc 65be 7779 2cbe db83 273e
00000280: f489 4bbe 08c8 4abe 9958 1ebe 7a9a 1fbe
00000290: 266e 563e a371 0ebe 8e71 3ebe dfbd 42be
000002a0: 81a3 5cbe a3ef 45be d159 413e f23b b6bd
000002b0: 2363 623e 9f9d 56be 10fe 203e d2fc 4d3e
000002c0: e910 483e ae01 f4bd 058e 32be 217b 8dbe
000002d0: ea57 403e 532b 153e 32dc 2a3e bcda 5ebe
000002e0: 58f4 3b3e 7ab2 09be cd23 0bbe 8bb5 ecbd
000002f0: 1c7a 43be 7884 2ebe 42b5 21be 2d86 4f3e
00000300: 14b6 313e 040f 1e3e 7692 1e3e 6dad 253e
00000310: cd19 77be 3c1c 323e d4da 433e 6112 493e
00000320: 5c50 e33d 3622 52be 9c67 21be ebb8 1d3e
00000330: 12d8 06be 11be 353e 0ea3 12be 18a1 50be
00000340: c976 0fbe 5651 683e f0ac 573e 1a8f 23be
00000350: 5421 43be 7fd5 38be f552 b5bd dcfc 63be
00000360: 76b5 52be 5823 6c3e 6ea1 c63d 8ab8 643e
00000370: a66e 353d 4976 233e 7eed 013e a7dd 36be
00000380: 505b 0cbe 453a 16be 999b 35be fb29 18be
00000390: aa8b 543e d524 55be b336 50be f0b3 4abe
000003a0: cad2 5dbe 8f58 34be afb1 303e 5385 3bbe
000003b0: ae63 4b3e d120 63be 0fa5 1e3e a394 6b3e
000003c0: cbba 1f3e 76e0 38be 8f1f 5abe 5a13 3fbe
000003d0: b76d 483e f799 1e3e 562f 2b3e 960f 4cbe
000003e0: 2002 5a3e ae54 5dbe 027d 2abe 9f8d 57be
000003f0: abb5 28be 4bb3 2ebe 70af 43be 2f90 1a3e

lstm.weight_hh_l0 f4 [128, 32]
-0.12049824 0.13681857 -0.28085047 0.32556075 0.16849695 -0.20571277 0.27142864 0.1971285
0.10680723 0.004952047 -0.11529707 -0.10196761 0.30458367 0.11826127 -0.14239873 0.18128332
-0.1902293 0.26669252 0.22329022 -0.19144464 0.14440551 0.18998335 0.03474748 -0.100713015
0.17199951 -0.19335017 -0.19619069 -0.11148854 0.2727386 -0.29221654 -0.11540329 -0.1968356
-0.17467672 0.15017626 -0.27437353 0.25313014 0.12456213 -0.21084978 0.2099563 0.16875085
0.16677782 0.0014875082 -0.118723504 -0.07975868 0.2908829 0.17083809 -0.06848794 0.1906059
-0.16424872 0.27736107 0.20143369 -0.21967125 0.11469639 0.18379557 0.009359702 -0.13493887
0.15074494 -0.21250542 -0.11892351 -0.0428075 0.2805221 -0.23684628 -0.064096615 -0.21444544
-0.16241157 0.13677745 -0.20995668 -0.03892874 0.08909033 -0.16112576 0.15638699 0.15463018
0.15186831 0.13345395 -0.14896438 0.15482382 0.17865822 0.10289651 -0.10274499 0.076237045
-0.11148493 0.1995008 0.25910002 -0.123995155 0.12759323 0.14890099 0.06599388 0.075981334
0.08954418 -0.114771225 -0.07707351 -0.16408108 -0.11185796 0.06985489 -0.15405597 -0.15372646
-0.15155782 0.1593756 -0.24959907 0.16287826 0.15076363 -0.19792676 0.17631432 0.1621998
0.13348515 0.14155677 -0.108707264 0.10080922 0.27000186 0.1932943 -0.16818328 0.16676904
-0.12201114 0.2583939 0.23152722 -0.14894411 0.1065869 0.20580232 0.1630632 0.05640392
0.19279844 -0.20334598 -0.107887655 -0.1712013 0.05810132 -0.1515301 -0.11309992 -0.18765432
-0.1716351 0.18062632 -0.23577698 0.3091403 0.1960269 -0.16127029 0.20468852 0.13515513
0.16122127 0.002897214 -0.14940482 -0.06609633 0.2912092 0.18007281 -0.057020877 0.13792959
-0.16979218 0.18303877 0.25609598 -0.12718864 0.1339903 0.16302775 -0.044104107 -0.045444172
0.11761065 -0.23271838 -0.15047637 -0.09446836 0.23042203 -0.23647738 -0.14694813 -0.16451648
-0.2056395 0.23185629 -0.20387395 0.23041847 0.15459785 -0.20105328 0.24804987 0.17311418
0.10166729 0.01046908 -0.057119645 -0.08295999 0.3019654 0.1303339 -0.06630473 0.104484946
-0.14953879 0.22533858 0.21809167 -0.14626674 0.06893992 0.23026733 -0.053683344 -0.15205471
0.1443052 -0.15800849 -0.18865108 -0.03002687 0.23625301 -0.28341448 -0.09392611 -0.17077294
-0.008313869 -0.034551162 -0.22415563 0.0773406 0.002712395 0.005308979 0.1932716 0.03534104
-0.058019616 -0.030740613 -0.006718127 0.0111881085 0.07322811 -0.04708659 0.03683753 0.040690698
-0.0024435243 0.12988643 0.2048692 0.01243615 -0.051573467 0.033906806 -0.052190077 -0.025007084
-0.04790796 -0.028029867 0.028158782 0.02151344 0.006844207 -0.0493339 -9.256935e-06 -0.034737367
-0.19750464 0.15680517 -0.2521251 0.23031977 0.108195215 -0.1702732 0.20216402 0.20253837
0.09500837 0.04648714 -0.13135694 -0.028084483 0.22679864 0.22313724 -0.02098881 0.18391715
-0.2337348 0.18850395 0.2060693 -0.18120228 0.060292255 0.166056 0.022886511 -0.090509206
0.12047782 -0.14915863 -0.19735733 -0.077951476 0.20089936 -0.3306309 -0.07893246 -0.12853418
00000000: c8c7 f6bd 2b1a 0c3e a2cb 8fbe e6af a63e
00000010: 778a 2c3e 5ea6 52be b2f8 8a3e 0edc 493e
00000020: c0bd da3d c844 a23b df20 ecbd 65d4 d0bd
00000030: 64f2 9b3e f732 f23d f9d0 11be 56a2 393e
00000040: 78cb 42be ec8b 883e 31a6 643e 100a 44be
00000050: 0adf 133e ff8a 423e 6053 0e3d a042 cebd
00000060: a420 303e 96fd 45be 36e6 48be 1b54 e4bd
00000070: 65a4 8b3e 689d 95be 8f58 ecbd 468f 49be
00000080: 74de 32be cec7 193e b07a 8cbe 469a 813e
00000090: 6e1a ff3d 01e9 57be c9fe 563e 06cd 2c3e
000000a0: cec7 2a3e 7ef8 c23a 4f25 f3bd 8558 a3bd
000000b0: 9aee 943e 2ef0 2e3e 6843 8cbd 312e 433e
000000c0: d130 28be 4502 8e3e a244 4e3e 80f1 60be
000000d0: f1e5 ea3d e834 3c3e 6f59 193c 6a2d 0abe
000000e0: e25c 1a3e 059b 59be 2b8e f3bd eb56 2fbd
000000f0: 98a0 8f3e d587 72be 1645 83bd 9697 5bbe
00000100: 384f 26be 630f 0c3e e2fe 56be be73 1fbd
00000110: fe74 b63d 27fe 24be e923 203e 6057 1e3e
00000120: 5e83 1b3e 27a8 083e 1e8a 18be 238a 1e3e
00000130: 2ef2 363e 68bb d23d f76b d2bd 2b22 9c3d
00000140: 3652 e4bd f049 4c3e c2a8 843e 2cf1 fdbd
00000150: cda7 023e 8079 183e cd27 873d 1a9c 9b3d
00000160: f062 b73d 2d0d ebbd b7d8 9dbd df04 28be
00000170: c915 e5bd 1510 8f3d d9c0 1dbe 786a 1dbe
00000180: f931 1bbe 5b33 233e e696 7fbe 8fc9 263e
00000190: c861 1a3e 50ad 4abe be8b 343e b417 263e
000001a0: 55b0 083e 42f4 103e eaa1 debd 1075 ce3d
000001b0: af3d 8a3e f1ee 453e 3d38 2cbe 81c5 2a3e
000001c0: fae0 f9bd 354c 843e 7915 6d3e ce84 18be
000001d0: 3c4a da3d d8bd 523e 0afa 263e cc07 673d
000001e0: f46c 453e ee39 50be 34f4 dcbd 654f 2fbe
000001f0: a6fb 6d3d b52a 1bbe eea0 e7bd 7428 40be
00000200: 1dc1 2fbe 1bf6 383e 856f 71be a347 9e3e
00000210: 47bb 483e 0a24 25be de99 513e 1b66 0a3e
00000220: 3017 253e 2fdf 3d3b 94fd 18be 835d 87bd
00000230: 5f19 953e 0265 383e b98e 69bd 6a3d 0d3e
00000240: 00de 2dbe 846e 3b3e 031f 833e bd3d 02be
00000250: c134 093e bff0 263e 82a6 34bd ab23 3abd
00000260: dadd f03d ba4d 6ebe 7a16 1abe a178 c1bd
00000270: c1f3 6b3e 2027 72be 9279 16be 0277 28be
00000280: 2993 52be bc6b 6d3e 55c4 50be d2f2 6b3e
00000290: e64e 1e3e e9e0 4dbe c900 7e3e d844 313e
000002a0: f136 d03d 8186 2b3c 4af6 69bd ede6 a9bd
000002b0: 359b 9a3e 4076 053e c6ca 87bd 34fc d53d
000002c0: b220 19be 28bf 663e 6c53 5f3e f3c6 15be
000002d0: 5f30 8d3d 33cb 6b3e 11e3 5bbd 3bb4 1bbe
000002e0: bec4 133e facc 21be c02d 41be e9fa f5bc
000002f0: 4fec 713e b41b 91be 555c c0bd 1adf 2ebe
00000300: e536 08bc 8585 0dbd 0e89 65be c064 9e3d
00000310: 70c2 313b f2f6 ad3b fee8 453e c4c1 103d
00000320: faa5 6dbd bdd3 fbbc bc23 dcbb 544e 373c
00000330: 9ff8 953d dedd 40bd f3e2 163d 4aab 263d
00000340: 8923 20bb f300 053e 3bc9 513e fec0 4b3c
00000350: b33e 53bd dde1 0a3d 43c5 55bd a8db ccbc
00000360: 233b 44bd e49e e5bc 3fad e63c f43c b03c
00000370: 5f45 e03b 5812 4abd 3c4e 1bb7 c548 0ebd
00000380: a83e 4abe 8991 203e 8b16 81be f2d8 6b3e
00000390: 7495 dd3d 195c 2ebe 1604 4f3e 3866 4f3e
000003a0: c093 c23d 4d69 3e3d 6f82 06be 6e11 e6bc
000003b0: e73d 683e 177e 643e baf0 abbc c754 3c3e
000003c0: 2d58 6fbe 2e07 413e d503 533e 178d 39be
000003d0: 03f5 763d 960a 2a3e 7e7c bb3c e45c b9bd
000003e0: 13bd f63d 0abd 18be 0a18 4abe 06a5 9fbd
000003f0: 90b8 4d3e 7448 a9be 57a7 a1bd 779e 03be

lstm.bias_ih_l0 f4 [128]
0.21644124 0.23025116 0.21714284 0.21137096 0.24696703 0.23827046 0.20666662 0.18037707
0.1664516 0.24397154 0.23013885 0.17530163 0.24353573 0.19537471 0.25159004 0.16276832
0.19044559 0.19795278 0.18041697 0.18251108 0.22925262 0.19994067 0.2113904 0.2321172
0.16543116 0.21988328 0.21877289 0.20322078 0.26195768 0.18489088 0.20255265 0.22475345
-0.11014894 -0.13604914 -0.23373698 -0.15497473 -0.11843739 -0.15954787 0.17074725 -0.10798054
-0.15264753 -0.18771155 -0.14886609 -0.09673482 -0.16134152 -0.21054588 -0.1360764 -0.13386454
-0.15439922 0.14499544 -0.1676372 -0.1641691 -0.087223746 -0.11473711 -0.13217908 -0.15043072
-0.11016917 -0.06262292 -0.14385425 -0.10681597 -0.23718412 -0.17391126 -0.15203474 -0.11621874
-0.15704267 0.14044605 -0.10261891 0.0158442 0.14546844 -0.16433053 0.18039554 0.16161996
0.095130704 0.07503062 -0.15903892 0.037018273 0.103129745 0.14321165 -0.10701819 0.1485184
-0.14149503 0.1578686 0.100906 -0.090173565 0.1257692 0.13157803 0.07481807 0.09632575
0.12313201 -0.11031529 -0.12854974 -0.1314753 -0.072036885 0.02436471 -0.14529192 -0.16006899
0.22262467 0.22601809 0.20575109 0.17919397 0.19486728 0.20864972 0.21882553 0.24906687
0.17653346 0.24025707 0.18431318 0.21963173 0.26239836 0.2337925 0.2387301 0.23960046
0.24493839 0.14726037 0.21927999 0.19509202 0.26381335 0.24565835 0.20014255 0.20465307
0.25750554 0.18829413 0.2405282 0.2559812 0.18890275 0.25131547 0.21472447 0.21246275
00000000: c6a2 5d3e f6c6 6b3e b15a 5e3e a171 583e
00000010: ede4 7c3e 2cfd 733e 6aa0 533e c4b4 383e
00000020: 4a72 2a3e add3 793e 85a9 6b3e 4582 333e
00000030: 6e61 793e 4f10 483e 69d0 803e bdac 263e
00000040: 2b04 433e 22b4 4a3e 3abf 383e 2fe4 3a3e
00000050: 33c1 6a3e 3fbd 4c3e ba76 583e 22b0 6d3e
00000060: c966 293e 1529 613e 0006 603e 1c19 503e
00000070: 511f 863e 0954 3d3e f669 4f3e c525 663e
00000080: c495 e1bd 7750 0bbe bf58 6fbe b2b1 1ebe
00000090: 4d8f f2bd 8460 23be 5ed8 2e3e e724 ddbd
000000a0: a24f 1cbe 7537 40be 5a70 18be e81c c6bd
000000b0: b636 25be 5799 57be 9d57 0bbe c913 09be
000000c0: d41a 1ebe af79 143e 16a9 2bbe f21b 28be
000000d0: 5da2 b2bd 4afb eabd f459 07be 830a 1abe
000000e0: 60a0 e1bd 7240 80bd 874e 13be 55c2 dabd
000000f0: 65e0 72be cb15 32be ffae 1bbe 1704 eebd
00000100: cbcf 20be 17d1 0f3e dd29 d2bd b2cb 813c
00000110: aef5 143e 4346 28be 9cb9 383e b47f 253e
00000120: e3d3 c23d a7a9 993d 19db 22be 79a0 173d
00000130: b035 d33d 13a6 123e 5a2c dbbd 3515 183e
00000140: 13e4 10be 4ea8 213e cea7 ce3d ebac b8bd
00000150: a4c9 003e 64bc 063e 373a 993d 6f46 c53d
00000160: a32c fc3d fcec e1bd 8ba2 03be 76a1 06be
00000170: 1388 93bd 8098 c73c 68c7 14be 20e9 23be
00000180: b9f7 633e 4971 673e 6ab0 523e a07e 373e
00000190: 4a8b 473e 46a8 553e cd13 603e 630b 7f3e
000001a0: 30c5 343e f305 763e 98bc 3c3e 24e7 603e
000001b0: 1459 863e 4d67 6f3e aa75 743e d359 753e
000001c0: 21d1 7a3e 6ccb 163e ef8a 603e 34c6 473e
000001d0: 8b12 873e dd8d 7b3e 2bf2 4c3e 9390 513e
000001e0: c4d7 833e 2dd0 403e 064d 763e f80f 833e
000001f0: b96f 413e 6cac 803e bbe0 5b3e d68f 593e

lstm.bias_hh_l0 f4 [128]
0.24441648 0.18492098 0.1523147 0.19137758 0.20563899 0.16432188 0.13682552 0.24413863
0.17741944 0.21354997 0.21106677 0.18338889 0.19267875 0.16531461 0.18584247 0.18162523
0.18858516 0.18512401 0.16763072 0.24715106 0.25189197 0.19232103 0.21966335 0.2592693
0.24321507 0.15751053 0.24220213 0.1731352 0.25490054 0.22892806 0.18760641 0.17219311
-0.12934123 -0.08218905 -0.22738966 -0.20380239 -0.07948051 -0.12115934 0.09556726 -0.060954027
-0.15614422 -0.14498062 -0.11750158 -0.15676251 -0.19011019 -0.1880538 -0.14479575 -0.11688971
-0.098418064 0.15625936 -0.2029062 -0.12637669 -0.18415758 -0.15366627 -0.14223379 -0.11426292
-0.085825995 -0.14657255 -0.14295287 -0.10144461 -0.165743 -0.22110422 -0.10169089 -0.14346121
-0.14895093 0.116461076 -0.14272738 -0.03157264 0.1349556 -0.08393677 0.1814787 0.103932224
0.134147 0.13145328 -0.07578487 0.13337915 0.03907754 0.07800545 -0.14376903 0.09624338
-0.15677236 0.15703493 0.14154728 -0.16251199 0.123907775 0.13726261 0.12248845 0.079956934
0.114714235 -0.15085362 -0.145611 -0.09419245 -0.021823019 -0.05474387 -0.09771258 -0.09996383
0.24359173 0.18123212 0.22770582 0.23511477 0.18117602 0.2130412 0.1788511 0.24631266
0.24133445 0.26229364 0.2007535 0.17939043 0.16866891 0.15042058 0.24247013 0.21458037
0.19796331 0.22256635 0.20685154 0.17726815 0.18698594 0.24361098 0.222394 0.23717539
0.17126434 0.24195167 0.21346685 0.1911748 0.2604837 0.20564342 0.19800265 0.2123954
00000000: 5048 7a3e ed5b 3d3e 62f8 1b3e 7cf8 433e
00000010: 0793 523e ff43 283e fd1b 0c3e 7aff 793e
00000020: 71ad 353e d8ac 5a3e e321 583e 4cca 3b3e
00000030: 944d 453e 3c48 293e 7d4d 3e3e f7fb 393e
00000040: 781c 413e 2691 3d3e 63a7 2b3e 2b15 7d3e
00000050: fcf7 803e ceef 443e 6eef 603e f2be 843e
00000060: 5f0d 793e 714a 213e d603 783e 5b4a 313e
00000070: 5382 823e 1e6c 6a3e e51b 403e 6453 303e
00000080: 0772 04be bc52 a8bd d6d8 68be 93b1 50be
00000090: adc6 a2bd 6322 f8bd c5b8 c33d eeaa 79bd
000000a0: 45e4 1fbe cd75 14be aba4 f0bd 5a86 20be
000000b0: 3fac 42be 2d91 40be 5645 14be df63 efbd
000000c0: 698f c9bd 7402 203e a5c6 4fbe e468 01be
000000d0: ce93 3cbe b15a 1dbe bca5 11be ae02 eabd
000000e0: 8ac5 afbd 1d17 16be 3d62 12be 31c2 cfbd
000000f0: 88b8 29be 2569 62be 5043 d0bd 7fe7 12be
00000100: 9886 18be 2583 ee3d 2027 12be 5052 01bd
00000110: cd31 0a3e 0be7 abbd 8dd5 393e 6bda d43d
00000120: d55d 093e b09b 063e 1935 9bbd 8b94 083e
00000130: c50f 203d 52c1 9f3d 3038 13be 401b c53d
00000140: ef88 20be c4cd 203e c5f1 103e 8b69 26be
00000150: 5cc3 fd3d 928e 0c3e 39db fa3d 76c0 a33d
00000160: 4cef ea3d 5f79 1abe 0d1b 15be f9e7 c0bd
00000170: 30c6 b2bc 1c3b 60bd 881d c8bd d6b9 ccbd
00000180: 1c70 793e ea94 393e b72b 693e edc1 703e
00000190: 3586 393e 7927 5a3e be24 373e 6339 7c3e
000001a0: 6120 773e 5a4b 863e 5392 4d3e 20b2 373e
000001b0: 8bb7 2c3e da07 1a3e 174a 783e f5ba 5b3e
000001c0: e5b6 4a3e 6fe8 633e e4d0 533e c885 353e
000001d0: 3e79 3f3e 2875 793e 41bb 633e 1bde 723e
000001e0: eb5f 2f3e 2ec2 773e 0e97 5a3e 54c3 433e
000001f0: 1f5e 853e 3094 523e 35c1 4a3e 2e7e 593e

lin.weight f4 [5, 32]
-0.2363195 0.22657977 0.23392886 -0.22711828 0.19519125 -0.22779876 -0.047854833 0.21138331
0.211926 0.23315577 -0.21800071 0.19581373 -0.24028915 0.18066129 -0.23546174 0.22989209
-0.18554059 -0.06771067 -0.23368616 -0.2276381 0.18813285 0.1957984 0.23073225 0.2458615
0.22553597 -0.22791716 -0.22378021 -0.2027083 -0.23833202 0.2246566 -0.22673148 -0.20904106
0.17787041 -0.20463943 -0.14633663 0.18756804 -0.19789784 0.16006611 0.03701703 -0.20306894
-0.21770358 -0.23375541 0.18139964 -0.17704654 0.2027156 -0.21450885 0.13452174 -0.17085874
0.20335653 -0.045293555 0.18514779 0.20798106 -0.2228684 -0.17330463 -0.15106018 -0.22118995
-0.15605304 0.19791347 0.21635348 0.21088894 0.19503197 -0.2113692 0.21402222 0.16494925
0.13882893 -0.22066346 -0.18487783 0.18235774 -0.20377235 0.23093906 -0.07956193 -0.2031339
-0.15156227 -0.15119581 0.17108177 -0.23761095 0.15912116 -0.1621856 0.14476058 -0.1554628
0.2043659 -0.05833167 0.14126498 0.16820058 -0.2352177 -0.22009431 -0.23039436 -0.18220289
-0.16383328 0.23411363 0.2005772 0.15786803 0.24388878 -0.21592951 0.18324395 0.24003705
0.19802234 -0.22899511 -0.16370523 0.15418728 -0.15433009 0.17890537 0.005831327 -0.18474947
-0.1553378 -0.21343072 0.17217624 -0.21877758 0.173307 -0.23819986 0.15992671 -0.14738885
0.16492255 -0.07364569 0.18758777 0.15373781 -0.15485087 -0.23739363 -0.17599314 -0.18260136
-0.19763501 0.2206801 0.1532657 0.21442397 0.2430321 -0.16743097 0.15748553 0.14546597
0.16262294 -0.15840837 -0.19257225 0.2264814 -0.21021983 0.15621266 -0.06228437 -0.13664131
-0.15344249 -0.16615939 0.17705773 -0.22001758 0.13680048 -0.16732952 0.21024112 -0.18930161
0.23003095 -0.08298433 0.1957346 0.22590171 -0.19581822 -0.16125374 -0.2284168 -0.16210753
-0.20663132 0.19658561 0.20769449 0.19139166 0.18042712 -0.13276508 0.21176381 0.20790075
00000000: bdfd 71be 8704 683e 0c8b 6f3e b291 68be
00000010: 37e0 473e 1444 69be 6e03 44bd de74 583e
00000020: 2103 593e 63c0 6e3e 943b 5fbe 6583 483e
00000030: 5c0e 76be 46ff 383e e21c 71be d568 6b3e
00000040: 5afe 3dbe e4ab 8abd 6d4b 6fbe f619 69be
00000050: e6a5 403e 607f 483e 1345 6c3e 1ec3 7b3e
00000060: e7f2 663e 1e63 69be a426 65be c492 4fbe
00000070: 4f0d 74be 610c 663e 4c2c 68be dc0e 56be
00000080: a923 363e 008d 51be 45d9 15be d611 403e
00000090: bba5 4abe 5fe8 233e 2b9f 173d 4ef1 4fbe
000000a0: b0ed 5ebe 945d 6fbe d4c0 393e b04b 35be
000000b0: ae94 4f3e 35a8 5bbe 11c0 093e 98f5 2ebe
000000c0: b23c 503e bc85 39bd 6297 3d3e fdf8 543e
000000d0: 9d37 64be c576 31be 85af 1abe 9e7f 62be
000000e0: 5ecc 1fbe d4a9 4a3e c48b 5d3e 45f3 573e
000000f0: 76b6 473e 2b71 58be a428 5b3e 75e8 283e
00000100: 2c29 0e3e 9af5 61be 9d50 3dbe fdbb 3a3e
00000110: b3a9 50be 4a7b 6c3e 5df1 a2bd 5502 50be
00000120: 2433 1bbe 13d3 1abe 0f30 2f3e 4950 73be
00000130: a8f0 223e fb13 26be 1e3c 143e a431 1fbe
00000140: 4b45 513e 30ed 6ebd c4a7 103e c63c 2c3e
00000150: e9dc 70be 6760 61be 80ec 6bbe 6593 3abe
00000160: e9c3 27be 7cbb 6f3e 1c64 4d3e 28a8 213e
00000170: fbbd 793e a01c 5dbe 4da4 3b3e 46cc 753e
00000180: 5ec6 4a3e b27d 6abe 58a2 27be 45e3 1d3e
00000190: b508 1ebe f832 373e b714 bf3b f72e 3dbe
000001a0: df10 1fbe 958d 5abe f84e 303e 3b07 60be
000001b0: 6477 313e aaea 73be d4c3 233e 1aed 16be
000001c0: 75e1 283e 8dd3 96bd 0217 403e 726d 1d3e
000001d0: 3a91 1ebe 5117 73be 8c37 34be dafb 3abe
000001e0: d560 4abe f7f9 613e aff1 1c3e f591 5b3e
000001f0: 68dd 783e 0673 2bbe e343 213e 08f5 143e
00000200: a186 263e ce35 22be a931 45be bdea 673e
00000210: de43 57be 36f6 1f3e e51d 7fbd b3eb 0bbe
00000220: 0720 1dbe b025 2abe 9f4e 353e 4a4c 61be
00000230: 6d15 0c3e 6e58 2bbe 7349 573e 48d8 41be
00000240: 3c8d 6b3e b0f3 a9bd a76e 483e c752 673e
00000250: 9284 48be b31f 25be 18e6 69be 84ff 25be
00000260: 2997 53be bd4d 493e ddad 543e 2dfc 433e
00000270: e3c1 383e 92f3 07be 9dd8 583e efe3 543e

lin.bias f4 [5]
0.07897481 -0.061117165 -0.022904754 -0.03589085 -0.030106524
00000000: 8cbd a13d fe55 7abd c0a2 bbbc 4902 13bd
00000010: f5a1 f6bc
