checkpoints/MLE_space_False_length_3_preTrainG_epoch_56.pth (torch_old, 36090 bytes, 7 tensors)

emb.weight f4 [5, 32]
000000 ec 4b 21 3e f4 e2 45 3e 52 31 eb 3d 2a 94 5e 3e
       0.15751618 0.19324857 0.114840165 0.21736208
000010 ae 59 4e be 14 55 47 3e 94 bb 30 3e 6f 08 43 3e
       -0.20151398 0.19466048 0.17259055 0.19046186
000020 88 81 06 3e 5d 5d d9 3b 08 cc 5c be 3f 56 5b 3e
       0.1313535 0.006633444 -0.21562207 0.21419619
000030 b0 eb 0e be a8 b8 f6 3d de 1f 05 be 23 e9 08 be
       -0.13957095 0.12046939 -0.13000438 -0.13370185
000040 10 fd 00 be 8e 48 1b 3e fd f6 32 3e 03 af 2a be
       -0.12596536 0.15164396 0.17477031 -0.16668324
000050 47 d0 3d be 20 3a 04 be 6c 93 00 be 5c 68 68 be
       -0.18536483 -0.12912798 -0.12556237 -0.2269606
000060 d2 52 4c be 89 89 5c 3e fd be d4 3d 86 fb 51 3e
       -0.19953468 0.2153684 0.103879906 0.20506105
000070 b3 3e b3 3d 3d 20 0d 3e bf e1 04 3e 22 51 1e be
       0.08752193 0.13781829 0.1297674 -0.15460637
000080 03 aa 42 be a9 8e 10 be ae e3 55 be 83 4b 53 be
       -0.19010167 -0.1411692 -0.20887634 -0.20634274
000090 f1 5f 3a 3e 35 24 3f be ee 72 3d be 25 54 3e be
       0.18200661 -0.18666156 -0.18500873 -0.18586786
0000a0 98 73 11 be 72 5a 18 be 0e 32 25 3e 8a 0f 2e be
       -0.14204252 -0.14878252 0.16132376 -0.16998115
0000b0 6d d8 30 3e f2 7e 22 be 7c a8 4a 3e 37 8a 28 3e
       0.1727006 -0.15868738 0.19790834 0.16458975
0000c0 50 b7 00 3e 8a 91 59 be 25 ce 27 be f8 32 16 be
       0.12569928 -0.21246925 -0.16387232 -0.1466788
0000d0 6f bc 54 3e 48 68 4f 3e 4c 6b 4a 3e d9 c9 11 be
       0.20775007 0.20254624 0.19767493 -0.14237155
0000e0 9f 1b 2c 3e f2 37 14 be 06 f5 16 be c7 68 07 be
       0.16807412 -0.14474466 -0.14741907 -0.13223563
0000f0 30 ae 1d be d9 89 55 be c6 98 40 be da 13 54 3e
       -0.15398479 -0.20853366 -0.18808278 0.20710698
000100 86 ee 53 be ed 45 38 be 71 1c 4e be cd e2 2a be
       -0.20696458 -0.17995425 -0.20128037 -0.1668808
000110 63 4f 47 3e 5b 8e b9 bd ae f7 3a be dc cd 12 be
       0.19463877 -0.09060355 -0.18258545 -0.14336342
000120 27 b6 50 be 91 31 2d be da 39 57 3e 1c ad 15 be
       -0.20381986 -0.1691344 0.21018162 -0.14616817
000130 d2 bc 35 3e 9b 06 2d be 73 a4 58 3e 81 e3 35 3e
       0.1774781 -0.16897051 0.21156482 0.17762567
000140 af 01 4c 3e af bb 1d be d3 49 02 be 98 47 38 be
       0.19922517 -0.15403627 -0.12723474 -0.17996061
000150 fc cf 32 3e 79 ba 3a 3e 5a ea 18 3e 75 b4 3b be
       0.17462152 0.18235196 0.14933148 -0.18330558
000160 8f 1c 27 3e 12 03 42 be 12 5c 55 be 19 4b 48 be
       0.16319488 -0.18946484 -0.20835903 -0.19559897
000170 ed d9 40 be 0b 2d 05 be fe 73 59 be 14 68 1b 3e
       -0.18833132 -0.13005464 -0.21235654 0.15176421
000180 4d 63 42 be 18 ed 19 be 92 4f 2d be 6b 09 28 be
       -0.18983193 -0.1503185 -0.16924885 -0.16409843
000190 a2 4a 41 3e da 4a 26 be 14 f3 17 be 05 f0 42 be
       0.18876126 -0.16239491 -0.1483882 -0.19036873
0001a0 1b 0e 33 be f6 bf 5f be cf df 39 3e 85 3a 3e be
       -0.1748585 -0.21850571 0.18151782 -0.18577011
0001b0 d4 41 16 3e a7 97 31 be c9 ce 2c 3e 91 1d 49 3e
       0.14673549 -0.17343007 0.16875757 0.19640185
0001c0 80 ec 1c 3e ac 84 0e be c6 a6 31 be f5 54 25 be
       0.15324593 -0.13917798 -0.17348775 -0.1614569
0001d0 17 a5 11 3e a3 76 1b 3e 3d 47 14 3e d3 ee 29 be
       0.14223133 0.15181975 0.144803 -0.1659501
0001e0 fa 47 39 3e 34 df 19 be f3 e4 58 be 42 59 40 be
       0.18093863 -0.15026551 -0.21181087 -0.18784049
0001f0 6b d4 06 be f6 f1 1f be a8 41 2a be 85 f1 56 3e
       -0.13166969 -0.15619645 -0.16626608 0.2099057
000200 97 c9 07 be e0 49 15 be 05 fb 40 be 87 79 24 be
       -0.13260494 -0.14578962 -0.18845756 -0.16061984
000210 90 74 4a 3e 5d 96 2e be fc 6c 39 be 61 cb e3 bd
       0.19771028 -0.17049547 -0.1810798 -0.11122776
000220 03 bd 4f be 26 15 20 be 30 14 03 3e 71 02 f6 bd
       -0.20286946 -0.15633067 0.1280067 -0.120121844
000230 28 48 11 3e ea 72 4a be 7b d6 29 3e 08 8b 12 3e
       0.14187682 -0.19770399 0.16585724 0.14310849
000240 8d 91 56 3e b6 44 02 be 78 34 4e be 28 3c 3d be
       0.2095396 -0.12721524 -0.20137203 -0.18479979
000250 c3 87 27 3e 3d ed 47 3e 62 b4 48 3e 46 26 3c be
       0.16360383 0.19524093 0.1960006 -0.18373975
000260 a4 66 0f 3e a5 28 58 be e0 45 11 be 69 b5 3f be
       0.14003998 -0.21109255 -0.14186811 -0.18721546
000270 1b 1c 30 be 41 dd 48 be 18 31 40 be 60 85 08 3e
       -0.17198221 -0.19615652 -0.18768728 0.13332129

lstm.weight_ih_l0 f4 [128, 32]
000000 68 87 18 be e4 f7 25 be 85 62 29 be a8 18 4c be
       -0.14895403 -0.16207844 -0.16541488 -0.1993128
000010 ce 79 07 3e 8c 4c 21 be 5d 22 13 be 99 1f 3a be
       0.13230059 -0.15751857 -0.14368577 -0.18176116
000020 57 60 16 be dd c8 01 be 55 52 fc 3d e0 f8 16 be
       -0.14685188 -0.1267428 0.12320391 -0.14743376
000030 4a b1 39 3e 48 e5 18 be 63 32 19 3e ec c3 38 3e
       0.18134037 -0.14931214 0.14960627 0.18043488
000040 74 c2 11 3e 4c 03 1e be c9 fa 56 be 14 8d 4f be
       0.14234334 -0.15430945 -0.20994104 -0.20268661
000050 dd 70 05 3e 3d b4 14 3e ee 1b 15 3e 5b fc 35 be
       0.13031335 0.1452188 0.14561436 -0.17772047
000060 65 5d 4f 3e 6b c7 01 be 85 f2 1c be a9 0d 23 be
       0.20250471 -0.12673728 -0.15326889 -0.1592318
000070 40 35 43 be e7 97 4c be e7 51 2c be bb 5d 46 3e
       -0.19063282 -0.19979821 -0.16828118 0.19371693
000080 b3 03 56 be fe 3a 63 be 9a 23 33 be 18 14 13 be
       -0.20899849 -0.22190472 -0.1749405 -0.14363134
000090 c4 5b 06 3e 96 e0 3c be ae 25 31 be fc bd 1a be
       0.13120943 -0.18445048 -0.1729953 -0.15111536
0000a0 41 03 5a be 47 97 03 be dc 16 38 3e 1f 60 29 be
       -0.21290304 -0.12850676 0.1797747 -0.16540574
0000b0 39 0c 2d 3e 8a 31 68 be b5 89 29 3e e5 d1 37 3e
       0.16899194 -0.22675148 0.16556437 0.17951162
0000c0 dd 44 1d 3e 2f 0e 35 be de 85 42 be 68 c3 0d be
       0.153583 -0.17681192 -0.18996379 -0.13844073
0000d0 5d 87 28 3e 7a d4 51 3e 96 c9 30 3e a3 f1 4e be
       0.16457887 0.2049121 0.17264399 -0.20209365
0000e0 2e 4f 5c 3e 24 7b 44 be 22 41 36 be 76 9c 52 be
       0.2151458 -0.191876 -0.17798284 -0.20567498
0000f0 65 f6 48 be fc 38 5f be ac 98 5d be 4b fc 5d 3e
       -0.19625242 -0.21799082 -0.21640271 0.21678273
000100 0a d6 ea 3b 35 ce 04 3e 0b 05 33 3d ec 67 d7 3d
       0.0071666287 0.12969287 0.04370598 0.105178684
000110 85 c0 2c bd b9 8a d0 3d f0 00 d5 3c 3b 23 64 3d
       -0.04217579 0.10182709 0.026001424 0.05569766
000120 fd e9 86 3d 55 ce fb bd a2 50 82 bd aa be 09 3e
       0.065875985 -0.12295214 -0.06363036 0.13451639
000130 a8 52 af bb 08 1e 64 3d cc f2 38 3b d6 c4 10 bd
       -0.0053504296 0.055692703 0.002822089 -0.035343967
000140 cc 34 5c bd 9d 8d 8a 3d eb 98 8e 3d 18 cf 21 be
       -0.05376129 0.06765292 0.069627605 -0.15801656
000150 b5 7b 5e bd 0f 9e 18 3c f6 67 7a bd 8c 5c 57 be
       -0.054317195 0.009315028 -0.0611343 -0.21031398
000160 2f e4 fc bd d0 d4 bb 3d fd f6 54 3c 14 df bc 3d
       -0.1234821 0.0917145 0.01299834 0.09222236
000170 1d c2 4a bc 1e bc a9 3d a7 62 24 3d 94 ae a3 bd
       -0.012375382 0.08287834 0.040133145 -0.079922825
000180 c9 69 b1 bd 06 5d 7c bd 1c 00 cb bd 3e 53 0b be
       -0.08662755 -0.06161215 -0.0991213 -0.13605973
000190 4c d4 c6 3d 5d 31 3d bd ca c9 c6 bd 89 4e 09 be
       0.09708461 -0.046189655 -0.09706457 -0.13408865
0001a0 db e1 db bd 35 ac 0d be 20 71 9f 3d 27 0e b8 bd
       -0.10736438 -0.13835223 0.07785249 -0.08987074
0001b0 e1 c3 18 3e 5d 07 35 be f3 37 32 3e 15 f4 38 3e
       0.14918472 -0.1767859 0.17404155 0.1806186
0001c0 3a 61 c3 3d 58 25 22 be 62 49 a1 bd dc a4 35 be
       0.09540029 -0.15834558 -0.07875325 -0.1773867
0001d0 04 3f d7 3d e3 19 f6 3d 63 d5 06 3e 01 2c 1f be
       0.10510066 0.12016656 0.13167338 -0.1554413
0001e0 01 37 09 3e c1 c3 e9 bd 0c 5c 10 be 58 e8 ee bd
       0.13399889 -0.1141429 -0.14097613 -0.1166541
0001f0 38 46 3b be 33 e6 10 be 58 f2 22 be 9b 92 02 3e
       -0.18288505 -0.14150314 -0.1591276 0.12751238
000200 99 34 3f be d5 70 03 be 2d 07 29 be 88 ba ff bd
       -0.18672408 -0.12836011 -0.16506644 -0.1248675
000210 e1 7c 48 3e a1 13 33 be 59 26 3f be e4 f2 4c be
       0.19578888 -0.17487957 -0.18666972 -0.2001453
000220 2b b5 48 be 0f fd 47 be b0 c0 46 3e e7 aa 16 be
       -0.1960036 -0.19530128 0.19409442 -0.14713632
000230 98 0e 17 3e d4 0a 29 be 5c 86 0e 3e 02 47 54 3e
       0.14751661 -0.16508037 0.13918442 0.20730212
000240 0e f5 12 3e 66 cb 05 be 3c fe 20 be cf c2 19 be
       0.14351293 -0.13065872 -0.15721983 -0.1501572
000250 00 94 10 3e 33 cb 26 3e fa bc 5a 3e 8d ea 46 be
       0.14118958 0.16288452 0.21361151 -0.19425412
000260 ba 9d 08 3e 4b a0 04 be f6 eb 29 be 32 be 5f be
       0.13341418 -0.12951772 -0.16593918 -0.21849898
000270 8e be 23 be 1b a3 65 be b6 7f 28 be b6 cd 29 3e
       -0.1599066 -0.22425501 -0.16454968 0.16582379
000280 b1 3e 4d be 62 99 5a be 83 93 17 be 6c 98 2d be
       -0.20043446 -0.21347573 -0.14802365 -0.16952676
000290 34 98 5d 3e 9a 04 1f be 5b f7 43 be c5 4d 50 be
       0.21640092 -0.15529099 -0.19137327 -0.20342167
0002a0 3d a8 59 be 38 a5 2a be f4 2c 50 3e 33 f0 dd bd
       -0.21255584 -0.16664588 0.20329648 -0.1083683
0002b0 b6 9b 64 3e 27 69 52 be f6 34 1d 3e 5f f8 4c 3e
       0.22325024 -0.20547925 0.15352234 0.20016621
0002c0 42 a9 45 3e e5 ac fe bd 13 21 3a be 50 0a 68 be
       0.19302848 -0.12435321 -0.1817668 -0.22660184
0002d0 a2 a9 48 3e 96 d2 11 3e 5e 4f 28 3e 25 87 28 be
       0.1959596 0.14240488 0.16436526 -0.16457804
0002e0 c2 d2 49 3e a4 5c 17 be d8 01 04 be 36 82 01 be
       0.19709304 -0.14781433 -0.12891328 -0.12647328
0002f0 6b 71 3a be ac fe 2d be 7e 9c 1d be f2 53 51 3e
       -0.18207328 -0.16991681 -0.15391728 0.20442179
000300 b9 d7 13 3e eb 46 00 3e 93 36 fd 3d a0 47 09 3e
       0.1443776 0.12527053 0.12363925 0.13406229
000310 09 a9 5a be 65 34 14 3e 78 44 26 3e 61 70 2b 3e
       -0.21353544 0.14473112 0.16237056 0.16742088
000320 03 31 a5 3d 57 e8 04 be c9 16 05 be 30 f8 00 3e
       0.08065989 -0.12979256 -0.12996973 0.12594676
000330 11 c2 ce bd 80 44 16 3e 84 ca e7 bd 21 30 31 be
       -0.10095609 0.14674568 -0.11317924 -0.17303516
000340 bd e4 db bd e5 d7 47 3e 0f 94 39 3e 39 66 ee bd
       -0.10736988 0.19515951 0.18122886 -0.11640591
000350 6c b7 25 be 1b fd 18 be 05 e8 67 bd 31 1e 40 be
       -0.16183251 -0.14940302 -0.056617755 -0.18761517
000360 8b 88 35 be 82 ed 4f 3e 99 5e 84 3d b3 1e 48 3e
       -0.17727868 0.20305446 0.064633556 0.19542961
000370 50 fc 51 3c 56 03 03 3e 90 ce c5 3d a9 7f 18 be
       0.012816504 0.12794241 0.09658539 -0.14892448
000380 30 f0 07 be cf d5 1c be 11 8a 2a be ee c5 1d be
       -0.13275218 -0.15315937 -0.1665423 -0.15407535
000390 c6 a9 54 3e 1a 4f 5c be c0 ca 4e be 24 98 4f be
       0.20767888 -0.2151455 -0.2019453 -0.20272881
0003a0 17 aa 55 be c2 92 18 be bf f9 36 3e f6 a8 45 be
       -0.20865665 -0.14899734 0.17868708 -0.19302735
0003b0 55 01 47 3e 7d d5 59 be 0e e8 15 3e 66 d2 64 3e
       0.19434102 -0.21272846 0.14639303 0.22345886
0003c0 8f e7 17 3e 3a 0c 37 be 85 47 5a be 63 5d 10 be
       0.14834426 -0.17875758 -0.21316345 -0.14098124
0003d0 dc 61 49 3e 91 31 16 3e 66 42 23 3e 28 e7 1a be
       0.19666237 0.14667346 0.15943298 -0.15127242
0003e0 2d 3f 5f 3e c1 a1 62 be fd fe 1e be d6 d7 5a be
       0.21801443 -0.22132017 -0.15526958 -0.21371397
0003f0 1d 4c 1b be ec 66 28 be b2 b7 3a be fe 2c 16 3e
       -0.15165754 -0.16445512 -0.18234137 0.146656

lstm.weight_hh_l0 f4 [128, 32]
000000 dc 82 fc bd f1 a3 07 3e 97 db 6d be c6 40 73 3e
       -0.12329647 0.13246132 -0.23228298 0.23755178
000010 0c 48 33 3e 7f d0 51 be 68 c5 72 3e 8b 84 45 3e
       0.17507952 -0.20489691 0.23708117 0.19288842
000020 4a 53 f6 3d bd 8d 2a 3d df 87 0d be 5e ea 3d bd
       0.12027605 0.04163908 -0.13821362 -0.046366088
000030 9e 1d 6b 3e dd 85 01 3e 1a 63 27 be 17 e7 3b 3e
       0.22960517 0.12648721 -0.16346398 0.18349873
000040 20 4e 3d be 4f 10 6e 3e 52 47 30 3e 47 41 44 be
       -0.18486834 0.23248409 0.17214707 -0.19165526
000050 8b 2d 20 3e a7 bb 44 3e 43 ea aa 3d 2f 2f 16 bd
       0.15642373 0.19212209 0.08345463 -0.03666609
000060 b5 9e 37 3e db 07 41 be 9f 9a 52 be 37 eb 07 be
       0.17931636 -0.18850653 -0.20566796 -0.13273321
000070 5c 95 3f 3e 2a ec 4a be 1c f7 fe bd 81 c0 4a be
       0.1870932 -0.19816652 -0.12449476 -0.19799997
000080 ae 47 2e be c0 44 0d 3e 59 e4 65 be 03 b1 2e 3e
       -0.17019531 0.13795757 -0.22450389 0.17059712
000090 b0 ac fa 3d fb ae 4d be 06 89 31 3e 0d 19 21 3e
       0.12239969 -0.20086281 0.17337427 0.15732212
0000a0 e0 4b 2b 3e 1b bb a5 3c 45 22 02 be 97 2f 44 bd
       0.16728163 0.02023082 -0.12708385 -0.047896948
0000b0 29 e8 5c 3e 58 cb 2a 3e 90 ca 9b bd e1 d5 3a 3e
       0.21572937 0.16679132 -0.07606995 0.18245651
0000c0 50 21 1c be 77 dc 76 3e 1e 8d 18 3e eb 1c 58 be
       -0.15247083 0.24107538 0.14897582 -0.21104781
0000d0 eb e2 ed 3d 0b 60 35 3e cd 24 10 3d f6 ca c0 bd
       0.11615547 0.17712419 0.035191346 -0.09413712
0000e0 2e 5f 16 3e 81 9b 4c be d6 5f f4 bd 44 bf 4b bd
       0.14684746 -0.19981195 -0.11932342 -0.049742952
0000f0 59 32 55 3e b8 8c 16 be b3 ca 7d bd 15 6a 53 be
       0.20819987 -0.14702117 -0.061960887 -0.20645936
000100 ca 60 31 be 15 34 14 3e 4d 1d ff bd cb b3 f3 bd
       -0.17322078 0.14472993 -0.124567606 -0.11899527
000110 a8 f1 d1 3d 63 cb 2f be 48 d5 e5 3d 59 c8 25 3e
       0.102511704 -0.1716743 0.11222321 0.16189708
000120 c4 5a 2d 3e fa b3 21 3e d3 52 2d be 3f fe 3d 3e
       0.16929156 0.15791312 -0.16926126 0.18554018
000130 d9 5f 4d 3d 05 6a f4 3d 9f 78 f9 bd 20 8b b6 3d
       0.050140236 0.11934284 -0.1218121 0.08913255
000140 5e ea f1 bd e3 42 1e 3e 8f 30 2d 3e d1 ee 09 be
       -0.1181228 0.15455203 0.16913055 -0.13470007
000150 8f 96 12 3e 2e a1 24 3e 3b 41 c0 3d 97 8c df 3d
       0.14315246 0.1607711 0.09387442 0.10915487
000160 2b 4c d6 3d 4b ff fa bd 58 01 bb bd 93 c7 3b be
       0.10463747 -0.122557245 -0.09131116 -0.1833785
000170 b8 a4 2b be c8 4e 21 3e e6 12 2d be 83 13 29 be
       -0.16762054 0.15752709 -0.1690174 -0.1651135
000180 cb 32 27 be 27 60 2a 3e 1b d9 3f be 85 63 36 3d
       -0.1632797 0.16638242 -0.18735163 0.044528503
000190 2f 93 2a 3e 5f f8 55 be 98 21 0d 3e 86 68 2c 3e
       0.16657709 -0.20895527 0.13782346 0.16836748
0001a0 33 2d 20 3e 3d 8e 37 3e 82 e7 0c be a5 83 1c 3e
       0.15642242 0.17925353 -0.13760188 0.15284593
0001b0 8e 20 29 3e d3 6a 5a 3e 24 fb 47 be c9 9f 39 3e
       0.16516325 0.21329813 -0.19529396 0.1812736
0001c0 62 b3 01 be 87 f0 60 3e 99 c4 29 3e c6 35 24 be
       -0.12666085 0.21966754 0.16578902 -0.16036138
0001d0 23 e5 01 3e 8a f3 5f 3e 0f 13 56 3e f9 dc e8 3d
       0.12685065 0.21870247 0.20905708 0.11370272
0001e0 77 3c 58 3e de 0f 57 be e4 a3 00 be bd 98 4b be
       0.21116816 -0.21002147 -0.1256252 -0.19882484
0001f0 dd 84 22 bd 37 81 e8 bc 01 41 07 be 74 d6 4c be
       -0.03967749 -0.028381927 -0.13208391 -0.20003682
000200 54 79 30 be bc 3e 31 3e 3d 4e 3d be ee 3d 65 3e
       -0.17233783 0.17309088 -0.18486877 0.22386906
000210 fd 2c 4d 3e a5 f8 20 be ab a0 2b 3e 3c 15 03 3e
       0.20036693 -0.1571985 0.16760509 0.12801069
000220 fa 10 30 3e 8c 28 1a 3d 50 31 2e be 46 c4 5e bc
       0.17193976 0.037636325 -0.17010999 -0.0135966
000230 a6 50 5c 3e 04 91 3d 3e 9d c6 9b bd b8 1e 0c 3e
       0.2151514 0.1851235 -0.07606242 0.13683593
000240 f8 84 25 be c5 ba 15 3e 0c 74 4f 3e 02 b8 fe bd
       -0.16164005 0.14622028 0.20259112 -0.124374405
000250 55 56 13 3e 56 57 26 3e 3f 89 c3 3a d2 fd 7c 3c
       0.14388402 0.16244254 0.0014918222 0.015441375
000260 48 ec f9 3d d9 02 66 be 14 c3 21 be 2b ab e8 bd
       0.1220327 -0.22462024 -0.15797073 -0.11360773
000270 b6 fa 18 3e 9d 94 14 be 18 01 1d be 93 8b 26 be
       0.14939389 -0.14509816 -0.15332448 -0.16264181
000280 41 ac 4d be 67 5c 5f 3e c9 aa 1e be 8e 6d 21 3e
       -0.20085241 0.21812592 -0.15494837 0.15764448
000290 6b 21 1c 3e 5e 5d 42 be bf 49 58 3e 07 29 24 3e
       0.15247123 -0.1898093 0.21121882 0.16031276
0002a0 85 c8 d1 3d 58 05 01 3d f6 f7 88 bd 72 48 51 bd
       0.10243324 0.031499237 -0.0668792 -0.05109448
0002b0 f8 e6 6c 3e 8f fb 00 3e 6d 41 9a bd e4 5a c3 3d
       0.23134983 0.12595962 -0.0753201 0.095388204
0002c0 8e ef 0b be 9d 69 41 3e 6c ab 2a 3e ed d6 0b be
       -0.13665602 0.18887945 0.16666955 -0.13656206
0002d0 58 5c 91 3d 72 44 64 3e 56 1a db bc b4 fc e4 bd
       0.07097691 0.22291735 -0.026745956 -0.11181012
0002e0 f0 6d 0f 3e 89 30 13 be 2e 1c 42 be 5e 58 1c bd
       0.14006782 -0.14373983 -0.18956062 -0.03817021
0002f0 2a ee 31 3e b8 f6 4f be 66 c1 bb bd d7 b1 25 be
       0.17376009 -0.2030896 -0.09167747 -0.16181122
000300 fc 83 4c bc d8 3b 04 bd 1d b8 1c be ef e4 42 3d
       -0.012482639 -0.032283634 -0.15304609 0.04758161
000310 f7 8c fe 3b 96 4b 05 3b 80 5d 1e 3e 53 5b 19 3d
       0.007768269 0.0020339242 0.15465355 0.03744061
000320 d8 d3 54 bd 6e a9 b0 bc bd 2a 69 bc 93 86 b5 3c
       -0.051959842 -0.021565165 -0.014231381 0.022158897
000330 15 69 65 3c 79 59 2b bd 19 1e f2 3c c4 51 37 3d
       0.014002104 -0.041833375 0.029555367 0.044755712
000340 0a 53 84 bb de 36 b9 3d 3e b3 06 3e 2b e5 11 3c
       -0.0040382193 0.09043668 0.13154313 0.008904736
000350 77 e8 3a bd d1 1b 1b 3d aa 88 2c bd 52 41 50 bc
       -0.045631852 0.037868325 -0.04212252 -0.012710886
000360 33 af 2f bd 4b 76 f7 bc 95 13 b8 3c d6 d4 6a 3c
       -0.042891692 -0.030207774 0.022470275 0.014332971
000370 54 9a 5b bc 9e b7 7a bc 4c e1 af bb db 93 1d bd
       -0.013403494 -0.015302567 -0.0053674337 -0.038471084
000380 b3 20 44 be 98 42 12 3e 2c 36 4e be 76 f1 16 3e
       -0.19153099 0.14283216 -0.20137852 0.14740548
000390 7f 9d d5 3d a0 22 22 be 55 75 28 3e 48 0a 42 3e
       0.104304306 -0.15833521 0.16451009 0.18949234
0003a0 73 0a bf 3d 28 cc 80 3d 54 c3 0c be 45 39 00 3b
       0.09328165 0.0628894 -0.13746387 0.0019565385
0003b0 d5 81 1a 3e c2 05 5e 3e 55 8b d8 bc 25 d1 31 3e
       0.1508859 0.21681884 -0.026433626 0.17364939
0003c0 5a ad 61 be bd d3 1a 3e 96 65 1c 3e bc d6 2e be
       -0.22038785 0.15119834 0.15273127 -0.17074102
0003d0 b0 11 75 3d 2c 5c 21 3e ca 0f 3e 3d ce ac 51 bd
       0.05983132 0.15757817 0.046401776 -0.05119019
0003e0 5c 6e ea 3d f8 ef 09 be 7c b9 48 be d5 4b a9 bd
       0.11446831 -0.13470447 -0.19602007 -0.08266417
0003f0 97 ed 02 3e 39 80 76 be fb 11 99 bd e9 02 f3 bd
       0.12785946 -0.2407235 -0.074741326 -0.118657894

lstm.bias_ih_l0 f4 [128]
000000 ec 2e 43 3e 0b 0c 4f 3e 23 af 2d 3e 7f 34 27 3e
       0.19060868 0.20219438 0.1696134 0.1632862
000010 77 bd 5d 3e 20 35 55 3e 16 bf 3c 3e 73 6f 1c 3e
       0.21654306 0.20821047 0.18432269 0.1527689
000020 f3 21 0a 3e 7e d8 56 3e 71 0f 49 3e 4f c6 0d 3e
       0.13489513 0.20981023 0.19634797 0.1384518
000030 78 e6 41 3e 97 b9 25 3e 87 11 61 3e 9d ed 05 3e
       0.18935573 0.16184078 0.21979342 0.13078924
000040 0f bc 25 3e a4 c0 35 3e ab d4 05 3e 6e b4 1d 3e
       0.1618502 0.17749268 0.13069408 0.1540086
000050 d1 b5 4a 3e 0d f0 2c 3e 60 2a 33 3e 2b 95 47 3e
       0.1979592 0.16888447 0.17496634 0.19490497
000060 92 7d 08 3e 53 91 45 3e ae f4 42 3e 84 35 2f 3e
       0.13329151 0.19293718 0.1903865 0.17110258
000070 71 22 61 3e 4d 28 08 3e dc 54 30 3e 8c 85 47 3e
       0.21985795 0.13296624 0.17219871 0.19484538
000080 89 27 aa bd 0d 54 df bd d3 b1 58 be 5a f6 00 be
       -0.08308322 -0.10904703 -0.21161585 -0.12593976
000090 17 11 b4 bd 90 0a 05 be 15 1c 1c 3e 8f a5 a4 bd
       -0.08792322 -0.1299231 0.15245087 -0.0803939
0000a0 9a 70 ff bd 62 8a 23 be 8e c5 f1 bd d2 80 8e bd
       -0.12472649 -0.15970758 -0.11805259 -0.06958164
0000b0 de d1 07 be 93 93 36 be 20 3f df bd 4d 91 d2 bd
       -0.13263652 -0.17829733 -0.10900712 -0.1028162
0000c0 f1 82 ec bd e6 df fe 3d 78 a9 13 be d1 90 0a be
       -0.115484126 0.12445049 -0.14420116 -0.13531806
0000d0 f3 8c 6f bd 73 a5 a6 bd b8 48 d6 bd 95 1d fd bd
       -0.05848403 -0.08137026 -0.10463089 -0.12359158
0000e0 49 ae a0 bd ea dc 16 bd 17 67 ef bd 3c 6b a1 bd
       -0.07845742 -0.036831774 -0.11689585 -0.078817815
0000f0 3b 30 58 be 37 ff 10 be 5e d0 fe bd 3f 21 af bd
       -0.21112148 -0.14159857 -0.12442087 -0.08551263
000100 d2 40 29 be a3 48 16 3e e1 12 8a bd d8 5f da bc
       -0.16528633 0.14676146 -0.06741882 -0.02665703
000110 71 7c 1f 3e 0d f0 30 be 0e 1a 2d 3e ec 89 2c 3e
       0.15574814 -0.17279072 0.1690447 0.16849488
000120 28 5d de 3d be 4c b9 3d fb 83 30 be 19 0b 65 3d
       0.10857612 0.090478405 -0.17237847 0.055918787
000130 1e 8a 53 3d 8f 9f 1d 3e b2 a6 f6 bd 3c 26 22 3e
       0.05164539 0.15392898 -0.12043513 0.15834898
000140 56 9e 15 be a4 c5 16 3e 1e 2e 83 3d d4 23 ca bd
       -0.14611182 0.14723831 0.064052805 -0.09870115
000150 3e 18 0d 3e e2 1c 0e 3e 6c a9 b7 3d 17 95 e9 3d
       0.13778779 0.13878205 0.089678615 0.1140539
000160 05 81 08 3e db ca ee bd 55 06 0e be 59 54 15 be
       0.13330467 -0.11659785 -0.13869603 -0.14582957
000170 b1 86 cb bd a9 84 95 3d a9 f7 1f be b2 9e 2c be
       -0.099378 0.073006935 -0.15621819 -0.16857412
000180 17 5c 43 3e 2c 29 45 3e af 9e 1f 3e 42 49 07 3e
       0.19078098 0.19253987 0.15587877 0.1321154
000190 0c 49 24 3e e3 d1 31 3e 16 d2 42 3e 21 36 5d 3e
       0.1604349 0.17365222 0.19025454 0.2160268
0001a0 28 75 11 3e 0b c1 4f 3e de f3 15 3e 3c 0c 39 3e
       0.14204848 0.20288484 0.14643809 0.18071073
0001b0 e1 ae 53 3e 08 68 49 3e 7f 26 51 3e 55 ec 4f 3e
       0.2067218 0.19668591 0.20424841 0.20304997
0001c0 13 96 57 3e 68 5a f6 3d 00 b3 2b 3e ab 33 25 3e
       0.21053343 0.120289624 0.16767502 0.16132991
0001d0 61 26 6a 3e 58 e1 55 3e 71 bb 24 3e cf c0 29 3e
       0.22866203 0.20886743 0.16087128 0.16577457
0001e0 98 d1 61 3e b1 a3 1f 3e 77 67 54 3e 9a 11 61 3e
       0.2205261 0.15589787 0.20742594 0.2197937
0001f0 9f 5b 15 3e 3f ca 4c 3e bc 99 38 3e aa 9e 35 3e
       0.14585732 0.19999026 0.18027395 0.17736307

lstm.bias_hh_l0 f4 [128]
000000 76 d4 5f 3e 02 a1 20 3e a3 99 d6 3d 5a bb 12 3e
       0.21858391 0.1568642 0.10478523 0.14329281
000010 91 6b 33 3e f3 7b 09 3e 52 75 ea 3d 29 ba 5d 3e
       0.17521502 0.13426189 0.11448158 0.21653046
000020 1a 5d 15 3e a9 b1 37 3e cf 87 35 3e 56 0e 16 3e
       0.14586297 0.17938866 0.17727588 0.14653906
000030 9e d2 0d 3e 84 f1 06 3e 33 be 1d 3e d7 3c 19 3e
       0.13849875 0.13178068 0.15404586 0.14964615
000040 5c d4 23 3e a8 9d 28 3e a9 79 f1 3d 6a e5 5f 3e
       0.15998977 0.16466391 0.11790783 0.21864858
000050 95 e4 61 3e 9c 22 25 3e 14 a3 3b 3e ef 62 63 3e
       0.22059853 0.16126484 0.18323928 0.22205709
000060 28 24 58 3e af b2 05 3e 84 f2 5a 3e c3 66 10 3e
       0.21107543 0.13056444 0.21381575 0.141017
000070 70 e8 59 3e 62 40 35 3e cb 06 21 3e 2b b3 11 3e
       0.21280074 0.17700341 0.15725248 0.14228503
000080 d2 75 d1 bd c2 0b 62 bd ea 31 52 be 3b f6 32 be
       -0.102275506 -0.055186994 -0.20526853 -0.17476742
000090 ef 90 48 bd 75 76 bb bd 34 40 9e 3d 3c ac 08 bd
       -0.048966344 -0.09153453 0.077270895 -0.03336738
0000a0 f0 4c 03 be 77 91 ef bd 84 89 b1 bd 4d b8 04 be
       -0.12822318 -0.11697667 -0.08668807 -0.1296093
0000b0 67 47 25 be 69 8b 1f be 95 1a f1 bd 9a cd af bd
       -0.16140519 -0.15580525 -0.11772648 -0.08584137
0000c0 66 b9 73 bd b8 f8 0a 3e 07 c7 37 be 90 bb c7 bd
       -0.05950298 0.13571441 -0.17947017 -0.097525716
0000d0 dd 25 1f be 88 5f f6 bd 46 e0 ea bd 34 0b b3 bd
       -0.15541787 -0.1202994 -0.11468558 -0.08742371
0000e0 e6 a6 5d bd 3e 5c f7 bd 83 8e ed bd 18 6b 96 bd
       -0.054114245 -0.12078141 -0.115994476 -0.07344645
0000f0 5e 08 0f be 91 52 41 be b9 b5 97 bd 29 ec e6 bd
       -0.13968036 -0.18879153 -0.07407708 -0.11275513
000100 9f f7 20 be 38 72 fb 3d 47 37 dc bd 0a b4 97 bd
       -0.1571946 0.12277645 -0.10752731 -0.074073866
000110 90 b8 14 3e 9a 3a bd bd ff 35 2e 3e e6 ee e2 3d
       0.1452353 -0.09239693 0.17012785 0.110807225
000120 72 22 17 3e 3b 6d 16 3e e4 86 b6 bd 38 ef 1b 3e
       0.14759234 0.14690106 -0.08912447 0.15227973
000130 ec 45 4b bc 4b b4 b5 3d 5c f5 20 be 51 3d d9 3d
       -0.012406807 0.08872279 -0.15718597 0.10607398
000140 32 43 25 be 1a eb 15 3e d6 69 d6 3d ff 24 2f be
       -0.16138914 0.14640465 0.10469405 -0.17103957
000150 49 30 0b 3e 10 ef 13 3e 37 a5 0c 3e 1e 0f c8 3d
       0.13592638 0.14446664 0.137349 0.097685084
000160 b6 c4 ff 3d 4c e8 20 be d7 7e 1f be b6 4d de bd
       0.124886915 -0.15713614 -0.1557573 -0.10854666
000170 43 60 49 bd 5c f0 c7 bb 06 7e de bd f8 24 de bd
       -0.049164068 -0.006101651 -0.10863881 -0.10846895
000180 7a d4 58 3e cd 4c 17 3e fc 19 36 3e 8f 8c 40 3e
       0.21174803 0.14775391 0.1778335 0.18803619
000190 f7 43 16 3e 16 51 36 3e 07 e3 19 3e 21 64 5a 3e
       0.14674364 0.1780437 0.1502801 0.21327259
0001a0 59 d0 53 3e d0 51 66 3e 99 c9 26 3e 38 d7 0f 3e
       0.20684947 0.22492146 0.16287841 0.14046943
0001b0 8b 68 e7 3d 28 11 e8 3d ec fa 54 3e 77 4d 36 3e
       0.11299237 0.11331397 0.20798844 0.17802988
0001c0 d7 7b 27 3e 36 4a 48 3e f5 f8 1e 3e 3f f3 12 3e
       0.16355835 0.19559559 0.15524657 0.14350604
0001d0 83 7a 1b 3e a3 c8 53 3e 87 84 3b 3e 57 0e 4b 3e
       0.15183453 0.20682006 0.18312274 0.19829689
0001e0 00 82 09 3e b2 95 56 3e 7f b1 38 3e f9 b4 1e 3e
       0.13428497 0.20955542 0.1803646 0.15498723
0001f0 2a a8 5e 3e 97 05 1e 3e 36 7a 27 3e 02 8d 35 3e
       0.21743837 0.1543182 0.16355214 0.17729571

lin.weight f4 [5, 32]
000000 15 04 57 be ea 77 4a 3e 78 aa 33 3e d1 f3 41 be
       -0.20997651 0.19772306 0.17545497 -0.18940665
000010 9b 0c 2b 3e a9 ac 4a be 73 29 25 3d 41 25 3c 3e
       0.16704027 -0.19792427 0.040322732 0.18373586
000020 44 28 3b 3e 95 e4 4f 3e 8d 94 40 be 2e e1 28 3e
       0.18277079 0.20302041 -0.18806668 0.16492149
000030 04 fb 44 be fc 9e 19 3e 71 e6 53 be 3d 89 4b 3e
       -0.1923638 0.15002054 -0.20693375 0.19876571
000040 d6 c4 1e be bf 59 e7 3c c3 ca 31 be 8e e3 4b be
       -0.15504774 0.028241036 -0.17362504 -0.19911024
000050 cd 12 24 3e f1 91 29 3e ae e8 4c 3e ba 8d 5c 3e
       0.16022797 0.16559578 0.20010635 0.2153844
000060 61 0a 47 3e 02 bc 4b be 06 9f 49 be 6c 2d 32 be
       0.19437553 -0.19895938 -0.19689569 -0.1740014
000070 78 bd 50 be 79 fc 3c 3e f9 bf 4a be ec df 37 be
       -0.20384777 0.18455686 -0.19799794 -0.17956513
000080 bb c7 1c 3e f7 43 35 be 83 99 ee bd 5f 6e 25 3e
       0.15310566 -0.17701708 -0.11650374 0.16155384
000090 b1 e0 2f be 60 bd 06 3e 72 a0 da 3b 27 fe 34 be
       -0.17175557 0.13158178 0.0066719586 -0.17675076
0000a0 77 d7 47 be c0 9f 54 be 8e fb 1e 3e ea 88 1b be
       -0.19515787 -0.20764065 0.15525648 -0.15188947
0000b0 8a 63 32 3e 3c 6d 44 be 1b 2f de 3d 30 89 12 be
       0.17420784 -0.19182295 0.108488284 -0.14310145
0000c0 33 df 31 3e 89 b6 90 bd 63 7c 1e 3e fe 6b 39 3e
       0.173703 -0.07066066 0.15477137 0.18107602
0000d0 6a 98 4a be 9f 0b 15 be fc af fe bd 3b 28 49 be
       -0.19784704 -0.14555214 -0.1243591 -0.19644253
0000e0 dd b2 02 be 93 3a 2d 3e a6 e1 43 3e 40 a7 3d 3e
       -0.12763543 0.16916876 0.19129047 0.18520832
0000f0 84 b3 2c 3e 49 f6 3c be 81 1d 40 3e ff 12 0c 3e
       0.16865355 -0.18453325 0.18761255 0.13679121
000100 58 b6 e6 3d 1f 32 45 be 3d a0 12 be 29 ed 18 3e
       0.11265248 -0.19257401 -0.14318939 0.1493422
000110 d8 00 34 be 8a c4 4e 3e 43 53 f0 bd a9 5d 34 be
       -0.17578447 0.20192161 -0.11734631 -0.17613854
000120 c5 0a 00 be 3a be f9 bd bd 9a 11 3e 5e da 55 be
       -0.12504108 -0.12194486 0.14219184 -0.20884082
000130 6d 9f f7 3d 6e 96 0a be 90 54 ee 3d 11 46 00 be
       0.12090955 -0.13533947 0.11637223 -0.12526728
000140 d6 b9 31 3e d0 88 b0 bd 4c 76 ca 3d 33 d1 0e 3e
       0.17356047 -0.08619845 0.098858446 0.1394699
000150 29 01 55 be bb af 43 be 4a a8 4d be 2b 22 1d be
       -0.20801224 -0.19110005 -0.20083728 -0.15345065
000160 46 6d 08 be 5b 58 52 3e 05 e8 31 3e 23 a1 04 3e
       -0.13322935 0.20541517 0.17373665 0.12952094
000170 7e 75 59 3e ef fc 39 be fe 56 1e 3e c8 f2 57 3e
       0.21236226 -0.18162893 0.15462872 0.21088707
000180 7d 34 35 3e 96 9f 51 be 0f 78 0a be 64 44 06 3e
       0.17695804 -0.20471033 -0.13522361 0.13112026
000190 10 59 06 be 8c 20 1d 3e c3 63 d6 bc c5 54 25 be
       -0.13119912 0.15344447 -0.026170617 -0.16145618
0001a0 41 38 0b be 49 5c 43 be 53 0e 19 3e f2 f9 49 be
       -0.13595678 -0.19078173 0.1494687 -0.19724253
0001b0 d7 90 16 3e 41 1e 60 be c8 c8 0c 3e d1 f2 fb bd
       0.1470369 -0.21886541 0.13748467 -0.12302173
0001c0 8e 8e 0c 3e 39 91 cf bd bc 6c 22 3e 3a ed 04 3e
       0.13726255 -0.10135121 0.15861791 0.1298112
0001d0 d4 1b 08 be bd 7c 5a be 41 7b 1c be 68 0b 25 be
       -0.13291866 -0.21336646 -0.15281393 -0.16117632
0001e0 3a 18 31 be 15 06 47 3e 85 68 06 3e 72 da 44 3e
       -0.17294398 0.19435914 0.13125809 0.19223955
0001f0 57 46 61 3e 10 dc 12 be 5a 55 09 3e e3 ac f5 3d
       0.21999489 -0.1434176 0.13411465 0.11995866
000200 73 40 12 3e 0b 78 09 be 35 6e 28 be 72 42 52 3e
       0.14282398 -0.13424699 -0.1644829 0.2053316
000210 6b c9 40 be 92 b3 05 3e 77 f4 d1 bd 12 0f e9 bd
       -0.18826835 0.13056782 -0.10251706 -0.113798276
000220 d8 8e 0c be b1 fb 13 be e0 57 1f 3e 3e ff 4c be
       -0.13726366 -0.14451481 0.15560865 -0.20019242
000230 45 22 e5 3d 0a 10 1b be 8e 87 41 3e dd 64 2a be
       0.11188177 -0.15142837 0.18899366 -0.16640039
000240 11 d0 4f 3e 68 cf f5 bd e5 45 2b 3e 88 13 50 3e
       0.20294215 -0.1200245 0.16725881 0.2031995
000250 23 68 33 be 48 d5 0c be c8 07 53 be c7 b5 11 be
       -0.17520194 -0.13753235 -0.20608437 -0.14229499
000260 79 08 3b be f0 1b 2e 3e 25 6d 3f 3e a7 4b 2e 3e
       -0.18264951 0.17002845 0.18693979 0.17021047
000270 a5 52 22 3e 62 cc e1 bd c8 19 42 3e 04 27 3b 3e
       0.15851839 -0.11025311 0.18955147 0.18276602

lin.bias f4 [5]
000000 e9 aa d2 3d 31 88 9e bd ad 4c 2b bd da 24 4a bd
       0.10286505 -0.0774082 -0.04182117 -0.04935155
000010 99 56 32 bd
       -0.043539617
