checkpoints/MLE_space_False_length_15_preTrainG_epoch_52.pth (torch_old, 36090 bytes, 7 tensors)

emb.weight f4 [5, 32]
0.12504514 0.18134029 0.091935255 0.27263972 -0.21929954 0.16886662 0.1733853 -0.020947719
0.08023897 0.06190889 -0.2758777 -0.0072920024 -0.19219486 0.10434684 -0.083832674 -0.13949929
-0.07569989 0.1263314 0.13174514 0.099772304 -0.1416326 -0.06892599 -0.054171845 0.05653918
-0.23160699 0.19781764 0.027949799 0.17538448 0.035234183 0.07375978 0.09463563 -0.11648758
-0.32109675 0.1257502 -0.32707506 -0.25086856 0.3311727 0.10518061 -0.32618716 0.21451347
-0.25812012 -0.2448537 0.21062799 0.2079675 0.3253728 -0.28501752 0.31662583 0.29741308
0.23360042 -0.34244177 -0.2918725 -0.26840213 0.3351765 0.31114426 0.2962899 -0.25007486
0.119174816 0.07666832 -0.24044187 -0.27244446 -0.2363925 -0.31432593 -0.31017694 0.3312648
-0.3361668 0.078288324 -0.31983542 -0.21138999 0.34221148 0.19113612 -0.32250944 0.24548742
-0.31730834 -0.26231247 0.25957987 0.22228795 0.32876888 -0.2917299 0.32776913 0.30909327
0.30427435 -0.2816078 -0.25329965 -0.29908857 0.29953638 0.28825828 0.2449544 -0.2880629
0.11443258 0.026100472 -0.2979389 -0.3339547 -0.2661374 -0.23303826 -0.33236516 0.27375117
-0.32471722 0.11941022 -0.29373103 -0.20971844 0.3420081 0.13190956 -0.29375112 0.21012393
-0.2949387 -0.31905225 0.23181117 0.19568464 0.30301046 -0.3028111 0.29139858 0.33350223
0.2653746 -0.27268916 -0.30536228 -0.28634718 0.27328303 0.2646764 0.24791834 -0.27709374
0.13260841 0.07271828 -0.30938792 -0.33165276 -0.21815021 -0.26636246 -0.29252768 0.33803657
-0.26432076 0.11877175 -0.31166562 -0.20681992 0.34626985 0.12031031 -0.3219933 0.29384345
-0.31939176 -0.25302267 0.17905506 0.25867718 0.29392204 -0.32505512 0.285118 0.2760629
0.31795904 -0.2575217 -0.3301673 -0.30702665 0.29124266 0.3045535 0.29534099 -0.29170898
0.09193483 0.008533705 -0.23544638 -0.3278184 -0.2532822 -0.30275816 -0.31065804 0.25822324
00000000: d50b 003e 45b1 393e 8d48 bc3d 6f97 8b3e
00000010: 0f90 60be 5feb 2c3e eb8b 313e 8d9a abbc
00000020: 5454 a43d 2d94 7d3d d83f 8dbe c0f1 eebb
00000030: bbce 44be ccb3 d53d 77b0 abbd e7d8 0ebe
00000040: 8b08 9bbd 055d 013e 33e8 063e 6c55 cc3d
00000050: 2308 11be 1229 8dbd 4ce3 5dbd a195 673d
00000060: 622a 6dbe b590 4a3e faf6 e43c fd97 333e
00000070: b851 103d 5e0f 973d 53d0 c13d 0a91 eebd
00000080: cb66 a4be a9c4 003e 6276 a7be d871 80be
00000090: 788f a93e ef68 d73d 0102 a7be 6ba9 5b3e
000000a0: 5228 84be eeba 7abe ddae 573e 6ff5 543e
000000b0: 4397 a63e d1ed 91be c81c a23e 8746 983e
000000c0: f334 6f3e 8754 afbe 5070 95be 016c 89be
000000d0: 419c ab3e 4d4e 9f3e 4fb3 973e d009 80be
000000e0: ed11 f43d 4804 9d3d 6536 76be d77d 8bbe
000000f0: e010 72be 54ef a0be 83cf 9ebe 8a9b a93e
00000100: 0e1e acbe a155 a03d 78c1 a3be 9e76 58be
00000110: 5836 af3e 30b9 433e f51f a5be 0e61 7b3e
00000120: 3d76 a2be d24d 86be a7e7 843e 749f 633e
00000130: 6554 a83e 9f5d 95be 5bd1 a73e 7941 9e3e
00000140: d9c9 9b3e e62e 90be 7eb0 81be 2322 99be
00000150: d55c 993e 9796 933e 54d5 7a3e fb7c 93be
00000160: a15b ea3d a8d0 d53c 738b 98be 1cfc aabe
00000170: 2943 88be 95a1 6ebe c42b aabe 1d29 8c3e
00000180: 5641 a6be 588d f43d ea63 96be 6ec0 56be
00000190: b01b af3e 4d13 073e 8c66 96be ba2a 573e
000001a0: 3502 97be d15a a3be e85f 6d3e 8e61 483e
000001b0: 3024 9b3e 0e0a 9bbe 3232 953e cec0 aa3e
000001c0: 2edf 873e ea9d 8bbe 7258 9cbe 199c 92be
000001d0: c1eb 8b3e aa83 873e 4ede 7d3e 3bdf 8dbe
000001e0: 80ca 073e 52ed 943d 1868 9ebe 64ce a9be
000001f0: c562 5fbe a960 88be 30c6 95be 2113 ad3e
00000200: 0d55 87be 9a3e f33d a392 9fbe 9ac8 53be
00000210: 484a b13e 4065 f63d 4edc a4be a672 963e
00000220: 5187 a3be 308c 81be 365a 373e 5671 843e
00000230: f37c 963e a06d a6be fdfa 913e 1e58 8d3e
00000240: 87cb a23e e2d9 83be b00b a9be 9932 9dbe
00000250: c21d 953e 70ee 9b3e ef36 973e e15a 95be
00000260: 5448 bc3d f4d0 0b3c db18 71be d0d7 a7be
00000270: 34ae 81be 1e03 9bbe 920e 9fbe d635 843e

lstm.weight_ih_l0 f4 [128, 32]
-0.20880912 0.1392319 -0.2080426 -0.13389032 0.23142718 0.16275078 -0.2284711 0.1866247
-0.18727492 -0.16355562 0.05050899 0.22452095 0.2748792 -0.19783753 0.1905955 0.24721059
0.1831096 -0.21276297 -0.2765576 -0.24066089 0.20105729 0.1811407 0.17551406 -0.20402
0.02330389 0.13669482 -0.17667307 -0.24500263 -0.23706704 -0.23682496 -0.21553946 0.25012308
-0.2817533 0.071652584 -0.2226735 -0.0697545 0.26236334 0.12002036 -0.2819724 0.20973597
-0.2571085 -0.1644681 0.10661053 0.1911211 0.28578725 -0.28397322 0.21075884 0.26282844
0.19140069 -0.25638175 -0.2716377 -0.18350995 0.24789812 0.2420969 0.20197211 -0.22750436
0.024647819 0.061161052 -0.19827688 -0.29865074 -0.23250403 -0.25747773 -0.2701045 0.28426656
-0.251257 0.272309 -0.16655824 0.22560681 0.25843063 0.23940949 -0.2651495 0.16984685
-0.1684825 -0.16533634 -0.17232274 0.24278578 0.2557561 -0.16771589 0.23412214 0.20611401
0.15929532 -0.18108854 -0.20676099 -0.19146425 0.23366973 0.24150787 0.16686043 -0.23982936
-0.28401253 0.23570713 -0.17741707 -0.22247592 -0.17419378 -0.15591632 -0.19307888 0.17428428
-0.12774464 0.19013822 -0.14665203 -0.17330436 0.21379465 0.21454586 -0.18730493 0.16716018
-0.17484356 -0.18977205 0.11905144 0.18985686 0.2380275 -0.18848312 0.2346172 0.22536603
0.15425569 -0.20425466 -0.14476193 -0.1355578 0.1883959 0.19814937 0.20677693 -0.18352418
-0.011215289 0.098226935 -0.20589718 -0.22557949 -0.24952863 -0.21072938 -0.2023141 0.16157193
-0.25447398 0.16103177 -0.20824891 -0.06149012 0.32520854 0.12809701 -0.29210645 0.15656504
-0.23569037 -0.22425985 0.13442303 0.20236367 0.26595902 -0.21827313 0.17963734 0.28615564
0.17684692 -0.19821276 -0.23485227 -0.1915304 0.22546183 0.19584885 0.2387855 -0.21601304
-0.04988316 0.12342705 -0.17943639 -0.3166035 -0.1873648 -0.25985923 -0.21343465 0.22857928
-0.30154932 0.08477481 -0.22059608 -0.13260733 0.37336922 0.15577713 -0.32550764 0.17182186
-0.28397533 -0.22733557 0.17112775 0.26249558 0.37027037 -0.28751194 0.22566628 0.308639
0.26121983 -0.2232578 -0.28827372 -0.2958513 0.3093806 0.20430541 0.21754223 -0.21879147
0.026065683 0.09869548 -0.17773819 -0.25346938 -0.23987213 -0.23346516 -0.2325088 0.29652727
-0.09908355 0.15557681 -0.08748442 0.10094626 0.03939867 0.17339829 -0.0920578 0.1763619
-0.17478922 -0.18091224 -0.09237525 0.14135875 0.13476604 -0.03433826 0.13900572 0.043073688
0.12087995 -0.07080449 -0.0837263 -0.029665532 0.0968002 0.12361507 0.20852286 -0.18373913
-0.21344742 0.22565947 -0.17422748 -0.07117806 -0.20705478 -0.14060318 -0.12053127 0.0892144
-0.22027577 0.1586483 -0.23243633 -0.10522247 0.34028596 0.10389951 -0.3210543 0.1740003
-0.2719655 -0.20675711 0.13130777 0.18644002 0.31514865 -0.28783 0.21110739 0.3206912
0.20569779 -0.27272564 -0.30648854 -0.20911308 0.29034847 0.2043006 0.21516941 -0.20504507
0.03269842 0.044512838 -0.1965035 -0.31977215 -0.20205681 -0.23065123 -0.25299656 0.2353492
00000000: 0fd2 55be cf92 0e3e 1f09 55be 8b1a 09be
00000010: 3ffb 6c3e 24a8 263e 54f4 69be 8c1a 3f3e
00000020: ffc4 3fbe 207b 27be 84e2 4e3d d2e8 653e
00000030: f7bc 8c3e ec95 4abe 772b 433e c624 7d3e
00000040: 1581 3b3e 89de 59be f598 8dbe cf6f 76be
00000050: f6e1 4d3e f37c 393e f5b9 333e 9eea 50be
00000060: cde7 be3c baf9 0b3e c9e9 34be f8e1 7abe
00000070: b4c1 72be 3e82 72be 60b6 5cbe 2210 803e
00000080: f841 90be 97be 923d 8604 64be 73db 8ebd
00000090: 7d54 863e 3ccd f53d b05e 90be 07c5 563e
000000a0: baa3 83be 536a 28be 9f56 da3d 40b5 433e
000000b0: b552 923e f064 91be 2ad1 573e 7391 863e
000000c0: 8bfe 433e 7844 83be 1914 8bbe 08ea 3bbe
000000d0: 01d9 7d3e 40e8 773e c7d1 4e3e e7f6 68be
000000e0: 39ea c93c 0384 7a3d 1809 4bbe c0e8 98be
000000f0: 8915 6ebe 1fd4 83be 234b 8abe 638b 913e
00000100: c2a4 80be 166c 8b3e 3e8e 2abe 7905 673e
00000110: 0551 843e c327 753e adc1 87be 55ec 2d3e
00000120: ad86 2cbe ee4d 29be 5f75 30be d69c 783e
00000130: 77f2 823e b7bd 2bbe b7bd 6f3e 8d0f 533e
00000140: 501e 233e 466f 39be 27b9 53be 340f 44be
00000150: 1e47 6f3e d74d 773e 76dd 2a3e d495 75be
00000160: 176a 91be 365d 713e d2ac 35be bad0 63be
00000170: db5f 32be 87a8 1fbe 78b6 45be 9477 323e
00000180: 7ecf 02be 98b3 423e f32b 16be b376 31be
00000190: fcec 5a3e e9b1 5b3e ddcc 3fbe 0a2c 2b3e
000001a0: 310a 33be 9b53 42be 3ed1 f33d d669 423e
000001b0: 7bbd 733e b801 41be 7e3f 703e 5ac6 663e
000001c0: 34f5 1d3e 2228 51be 793c 14be aacf 0abe
000001d0: dbea 403e abe7 4a3e 55bd 533e c3ed 3bbe
000001e0: 55c0 37bc 342b c93d b6d6 52be 4ffe 66be
000001f0: 6f84 7fbe 71c9 57be 6d2b 4fbe 1d73 253e
00000200: 6a4a 82be 83e5 243e 343f 55be 10dd 7bbd
00000210: bc81 a63e dd2b 033e fa8e 95be 9652 203e
00000220: d158 71be 60a4 65be 31a6 093e 6c38 4f3e
00000230: c82b 883e fe82 5fbe daf2 373e fe82 923e
00000240: 5c17 353e 49f8 4abe 1d7d 70be 8c20 44be
00000250: 77df 663e 9a8c 483e 3084 743e 8632 5dbe
00000260: 4952 4cbd 52c7 fc3d 2cbe 37be db19 a2be
00000270: 8fdc 3fbe 450c 85be 9d8e 5abe b010 6a3e
00000280: ac64 9abe 6a9e ad3d f0e3 61be 37ca 07be
00000290: 402a bf3e 0a84 1f3e f0a8 a6be 12f2 2f3e
000002a0: 3765 91be a8ca 68be 1d3c 2f3e d265 863e
000002b0: 1494 bd3e c434 93be 1015 673e ee05 9e3e
000002c0: 9bbe 853e b19d 64be 9d98 93be d279 97be
000002d0: 2267 9e3e 7035 513e 64c3 5e3e df0a 60be
000002e0: b387 d53c db20 ca3d 0001 36be bdc6 81be
000002f0: 0aa1 75be 7e11 6fbe c916 6ebe 6cd2 973e
00000300: 51ec cabd 874f 1f3e 082b b3bd eabc ce3d
00000310: 8060 213d 528f 313e cd88 bcbd 3798 343e
00000320: f2fb 32be 0f41 39be 3c2f bdbd 59c0 103e
00000330: 1c00 0a3e 46a6 0cbd 8457 0e3e 096e 303d
00000340: e88f f73d f201 91bd b278 abbd 2105 f3bc
00000350: 2f3f c63d e629 fd3d 0487 553e 1c26 3cbe
00000360: f691 5abe 4713 673e b068 32be cdc5 91bd
00000370: 2b06 54be 48fa 0fbe 19d9 f6bd 0ab6 b63d
00000380: f98f 61be b374 223e ca03 6ebe e17e d7bd
00000390: f639 ae3e 44c9 d43d 3b61 a4be 222d 323e
000003a0: 103f 8bbe 23b8 53be 8b75 063e 22ea 3e3e
000003b0: 2a5b a13e 745e 93be 892c 583e a331 a43e
000003c0: 71a2 523e b2a2 8bbe 11ec 9cbe bd21 56be
000003d0: 8ea8 943e 2d34 513e 5f55 5c3e 56f7 51be
000003e0: c7ee 053d 1853 363d 3738 49be 2db9 a3be
000003f0: fbe7 4ebe d62f 6cbe c488 81be 61ff 703e

lstm.weight_hh_l0 f4 [128, 32]
-0.029205356 0.035582706 -0.23060295 0.034928277 0.08817396 -0.1106865 0.033181075 0.093337424
0.021224188 0.034812268 -0.09171497 0.025010504 -0.01029474 0.006491728 -0.120493144 0.099055216
-0.09462418 0.09301596 0.116101705 -0.09963118 0.08522357 0.09539759 0.124766685 0.046362195
0.09999652 -0.09383972 -0.119350344 -0.115308695 -0.04227186 0.0470718 -0.059793677 -0.10504519
-0.049922936 0.013966913 -0.24518465 0.009225224 0.014284474 -0.098387256 -0.054923367 0.02861441
0.050275564 0.016365971 -0.09047494 0.02433967 0.005929144 0.0006695276 -0.047513787 0.10097274
-0.037792962 0.07122117 0.1122657 -0.09983932 0.059612684 0.053220592 0.07347954 0.003099911
0.07768102 -0.0795932 -0.010176146 -0.04121457 -0.0054325494 0.07175076 -0.012535346 -0.0958829
-0.249466 0.21801516 -0.024124755 -0.20597865 0.17872992 -0.24175346 0.13144352 0.23679762
0.25369522 0.233374 -0.2393218 0.2538033 -0.22678639 0.2060989 -0.1955402 0.16305389
-0.19358839 0.22505476 -0.13488066 -0.20871817 0.21441485 0.23288107 0.16788654 0.1770393
0.17865182 -0.19776079 -0.16995136 -0.257897 -0.221054 0.24548912 -0.24222583 -0.23780592
-0.10721148 0.11470765 -0.1193658 -0.121533126 0.11462014 -0.15604252 0.032815944 0.116796955
0.09863358 0.12766911 -0.08702849 0.10804365 -0.15747917 0.15222117 -0.13888389 0.12695721
-0.0761559 0.14712694 0.02607885 -0.10839651 0.07098479 0.16791345 0.16161749 0.06609975
0.17149629 -0.15908481 -0.0730374 -0.14666499 -0.12060199 0.16997354 -0.077182196 -0.14443459
-0.055142794 0.05319292 -0.20447193 0.069947146 0.09216481 -0.0379611 -0.0674229 0.005359426
0.015216622 0.008985464 -0.090982765 0.056564473 -0.0012815441 0.019831918 -0.00519111 0.024441982
-0.050368585 -0.025627548 0.16647635 -0.0074522696 0.046072982 0.0431486 0.03256266 0.09821252
0.014350825 -0.1073898 -0.04776669 -0.07215102 -0.06563654 0.07355015 -0.060585465 -0.046352684
-0.087607756 0.09751263 -0.21235958 0.03392295 0.05172662 -0.08668764 -0.046828404 0.03403887
-0.009810482 0.07260806 -0.052460324 0.074668676 0.027084576 -0.042808875 -0.059245 0.01818487
-0.029482482 0.023768317 0.1714159 -0.029051019 0.015224344 0.10320303 0.0857693 0.03262059
0.075380966 -0.028868731 -0.08748073 -0.053444356 -0.03308317 0.0018781305 -0.048751157 -0.055690914
-0.11160521 0.07397875 -0.05498227 -0.10382958 0.112261124 -0.11096742 0.14670491 0.1444521
0.08509427 0.09778735 -0.12051164 0.14994806 -0.2048495 0.08741434 -0.08094041 0.1610255
-0.098933175 0.09067894 -0.05672771 -0.10250055 0.05925307 0.14823353 0.07820408 0.103835225
0.07609399 -0.13656805 -0.08511819 -0.09817745 -0.13472383 0.14628176 -0.11380135 -0.14918199
-0.09401248 0.04013196 -0.23409864 -0.024287688 0.020802148 -0.07198164 -0.07220063 0.07916858
-0.022554046 0.077020936 -0.117723584 0.08076648 -0.072253585 0.063381106 -0.015750568 0.10112139
-0.12378295 -0.0066915434 0.1308248 -0.07646405 0.01698283 0.055316243 0.100357205 0.044008195
0.06811272 -0.036450457 -0.10769563 -0.093402565 -0.096847296 -0.0074486574 -0.041661568 -0.025223227
00000000: 1240 efbc 2cbf 113d 2e23 6cbe f410 0f3d
00000010: 8d94 b43d 9baf e2bd e1e8 073d b127 bf3d
00000020: 59de ad3c 4f97 0e3d 0fd5 bbbd d4e2 cc3c
00000030: 45ab 28bc 90b8 d43b 1cc5 f6bd 76dd ca3d
00000040: 52ca c1bd 277f be3d bbc6 ed3d 6f0b ccbd
00000050: b289 ae3d d05f c33d ad85 ff3d 49e6 3d3d
00000060: faca cc3d 0a2f c0bd f46d f4bd f726 ecbd
00000070: 4225 2dbd 5cce 403d 37ea 74bd ef21 d7bd
00000080: fe7b 4cbd 7bd5 643c af11 7bbe 6525 173c
00000090: 6d09 6a3c 427f c9bd 53f7 60bd c468 ea3c
000000a0: c0ed 4d3d ee11 863c ed4a b9bd fd63 c73c
000000b0: 4449 c23b 3d83 2f3a d19d 42bd ccca ce3d
000000c0: cbcc 1abd 68dc 913d 8feb e53d 8f78 ccbd
000000d0: 6e2c 743d d6fd 593d 717c 963d e027 4b3b
000000e0: 3a17 9f3d c201 a3bd dab9 26bc 9cd0 28bd
000000f0: 8703 b2bb 10f2 923d 0d61 4dbc 415e c4bd
00000100: 0474 7fbe 5e3f 5f3e 47a1 c5bc 11ec 52be
00000110: fa04 373e 388e 77be 2199 063e 137b 723e
00000120: 57e4 813e 98f9 6e3e c610 75be 82f2 813e
00000130: b13a 68be 970b 533e b13b 48be 99f7 263e
00000140: 093c 46be c174 663e 281e 0abe 37ba 55be
00000150: 918f 5b3e 6078 6e3e 73ea 2b3e ca49 353e
00000160: 81f0 363e ce81 4abe bb07 2ebe 130b 84be
00000170: fb5b 62be 8061 7b3e 0c0a 78be 6583 73be
00000180: b191 dbbd d8eb ea3d 0e76 f4bd 5ce6 f8bd
00000190: f7bd ea3d 9cc9 1fbe 036a 063d 3e33 ef3d
000001a0: 6700 ca3d b1bb 023e fe3b b2bd fd45 dd3d
000001b0: 3842 21be dedf 1b3e 9437 0ebe 1201 023e
000001c0: a0f7 9bbd 72a8 163e 50a3 d53c fdfe ddbd
000001d0: 7960 913d 81f1 2b3e 0e7f 253e 4e5f 873d
000001e0: b99c 2f3e 21e7 22be a294 95bd 592f 16be
000001f0: 2dfe f6bd 8b0d 2e3e b311 9ebd a9e6 13be
00000200: 69dd 61bd d2e0 593d 1761 51be 7340 8f3d
00000210: e7c0 bc3d 197d 1bbd 0415 8abd 209e af3b
00000220: 234f 793c c537 133c 2c55 babd 26b0 673d
00000230: 7cf9 a7ba 8c76 a23c 301a aabb 8d3a c83c
00000240: 4a4f 4ebd ddf0 d1bc c778 2a3e 2b32 f4bb
00000250: 06b7 3c3d 96bc 303d 6c60 053d a523 c93d
00000260: b91f 6b3c 2fef dbbd 01a7 43bd eac3 93bd
00000270: 736c 86bd 76a1 963d 7728 78bd 50dc 3dbd
00000280: b26b b3bd b4b4 c73d ca74 59be cbf2 0a3d
00000290: 4bdf 533d 4a89 b1bd 24cf 3fbd 586c 0b3d
000002a0: 25bc 20bc 89b3 943d a3e0 56bd e4eb 983d
000002b0: 79e0 dd3c 5c58 2fbd e3aa 72bd 70f8 943c
000002c0: 3f85 f1bc c6b5 c23c a687 2f3e 67fc edbc
000002d0: 876f 793c 1c5c d33d d1a7 af3d 2b9d 053d
000002e0: 5661 9a3d 1e7e ecbc 1929 b3bd 78e8 5abd
000002f0: 3882 07bd 9a2b f63a 4baf 47bd 281c 64bd
00000300: 4691 e4bd 2c82 973d 1735 61bd 9aa4 d4bd
00000310: 29e9 e53d e342 e3bd d039 163e 40eb 133e
00000320: e845 ae3d bc44 c83d cfce f6bd fc8b 193e
00000330: 11c4 51be 4a06 b33d 16c4 a5bd dee3 243e
00000340: 7a9d cabd e1b5 b93d 515b 68bd cfeb d1bd
00000350: 59b3 723d 88ca 173e 7629 a03d 90a7 d43d
00000360: 2ad7 9b3d 7fd8 0bbe 7252 aebd 4211 c9bd
00000370: 0bf5 09be e3ca 153e af10 e9bd 2ac3 18be
00000380: 9d89 c0bd 6961 243d 8eb7 6fbe f9f6 c6bc
00000390: 4469 aa3c 1c6b 93bd eddd 93bd 2323 a23d
000003a0: 43c3 b8bc 27bd 9d3d 1019 f1bd e568 a53d
000003b0: b0f9 93bd f4cd 813d 5607 81bc bb18 cf3d
000003c0: ea81 fdbd bc44 dbbb f0f6 053e 2f99 9cbd
000003d0: 931f 8b3c 4993 623d 1488 cd3d f041 343d
000003e0: af7e 8b3d 134d 15bd 878f dcbd d849 bfbd
000003f0: e057 c6bd de13 f4bb 52a5 2abd f1a0 cebc

lstm.bias_ih_l0 f4 [128]
0.17363568 0.16514972 0.25983348 0.18003358 0.17742264 0.18611161 0.20824608 0.1321239
0.15062246 0.19379441 0.1350493 0.12969752 0.20228286 0.16438301 0.19800246 0.10025228
0.101408154 0.18875363 0.21867436 0.12600318 0.15823992 0.13414283 0.13275339 0.16436256
0.114990145 0.15153551 0.16652691 0.12803882 0.19488168 0.12343354 0.12745208 0.16691948
0.00025418206 -0.009386291 -0.30867288 -0.049605142 0.027909474 -0.02352742 -0.0861506 0.020403579
-0.061949704 -0.035662845 0.0043980777 0.04464712 -0.013059503 -0.10193379 -0.005921066 0.02195978
0.0044188774 -0.035226204 -0.21026511 -0.031675603 0.059668172 0.025260443 0.01544664 0.011236544
0.051010326 0.06361825 -0.028602777 0.064709544 -0.040877 -0.004873229 -0.0007790046 0.025335114
-0.08037435 0.06337748 0.020158319 -0.002141031 0.07291671 -0.09494517 0.01652412 0.0835523
0.015306478 0.02744746 -0.0869289 -0.0017253148 0.008686402 0.053106163 -0.044793 0.07097271
-0.050705772 0.023439815 -0.001089129 -0.017274505 0.057610713 0.050431453 0.02781608 0.05422606
0.05730229 -0.039710138 -0.05939914 -0.07266311 -0.06812164 0.06659489 -0.07922634 -0.08858376
0.10237651 0.05902647 0.2499829 0.1302115 0.032345254 0.058158826 0.21146342 0.09594814
0.1434304 0.101074964 0.0057219365 0.11721097 0.19310233 0.18243104 0.123910494 0.08292061
0.061807226 0.10861882 0.25679442 0.045388166 0.10863795 0.09009206 0.023226028 0.054652974
0.08819967 0.009002997 0.118685424 0.072797015 0.04800093 0.1653821 0.037965156 0.055282988
00000000: 8dcd 313e 021d 293e e508 853e b95a 383e
00000010: 48ae 353e 0b94 3e3e 763e 553e 7d4b 073e
00000020: c63c 1a3e 0b72 463e 5d4a 0a3e 6dcf 043e
00000030: 3d23 4f3e 0554 283e 28c1 4a3e 1151 cd3d
00000040: 14af cf3d a248 413e 2cec 5f3e fa06 013e
00000050: a509 223e bd5c 093e 81f0 073e a94e 283e
00000060: f47f eb3d 202c 1b3e 0886 2a3e 9c1c 033e
00000070: 108f 473e b9ca fc3d cc82 023e f1ec 2a3e
00000080: bd43 8539 f5c8 19bc 5f0a 9ebe c32e 4bbd
00000090: 69a2 e43c 93bc c0bc ba6f b0bd 6825 a73c
000000a0: f9be 7dbd 3413 12bd c01d 903b e6df 363d
000000b0: 87f7 55bc aac2 d0bd 8005 c2bb ffe4 b33c
000000c0: 3bcc 903b 5a49 10bd bd4f 57be 47be 01bd
000000d0: 9d66 743d fdee ce3c e713 7d3c 7b19 383c
000000e0: 34f0 503d 494a 823d 5f50 eabc 7086 843d
000000f0: a46e 27bd 9caf 9fbb 1d36 4cba 968b cf3c
00000100: 4f9b a4bd 0dcc 813d 0f23 a53c 8a50 0cbb
00000110: 5b55 953d 9d72 c2bd 975d 873c 781d ab3d
00000120: 06c8 7a3c 7fd9 e03c c707 b2bd f523 e2ba
00000130: 6951 0e3c d985 593d dd78 37bd 245a 913d
00000140: dbb0 4fbd db04 c03c 1bc1 8eba 4383 8dbc
00000150: 36f9 6b3d 3691 4e3d 8cde e33c 251c 5e3d
00000160: ceb5 6a3d 19a7 22bd 834c 73bd 66d0 94bd
00000170: 5c83 8bbd e762 883d 6b41 a2bd 676b b5bd
00000180: c7aa d13d bdc5 713d 84fb 7f3e 2a56 053e
00000190: 757c 043d f337 6e3d de89 583e 7580 c43d
000001a0: 6bdf 123e 6400 cf3d 157f bb3b 4e0c f03d
000001b0: 9ebc 453e 34cf 3a3e c9c4 fd3d 48d2 a93d
000001c0: 9329 7d3d 8b73 de3d 8f7a 833e f1e8 393d
000001d0: 937d de3d 3082 b83d 8344 be3c ccdb 5f3d
000001e0: 07a2 b43d 4e81 133c 5811 f33d 9a16 953d
000001f0: a09c 443d ed59 293e 5a81 1b3d 6a70 623d

lstm.bias_hh_l0 f4 [128]
0.20161088 0.11981956 0.19500515 0.16004023 0.13609464 0.11216298 0.138405 0.19588555
0.16159035 0.16337283 0.115977205 0.13778478 0.1514259 0.13432299 0.13225488 0.11910922
0.09954773 0.17592484 0.20588803 0.19064315 0.18087931 0.1265232 0.14102633 0.19151472
0.19277404 0.089162774 0.18995619 0.097953245 0.18782444 0.16747068 0.11250587 0.11435916
-0.018938106 0.044473793 -0.30232555 -0.09843285 0.06686636 0.0148611795 -0.1613306 0.067430116
-0.0654464 0.007068071 0.035762616 -0.015380523 -0.041828174 -0.07944169 -0.014640421 0.038934615
0.06040002 -0.023962269 -0.24553414 0.006116695 -0.037265636 -0.013668698 0.0053919503 0.047404435
0.07535352 -0.020331422 -0.027701404 0.07008092 0.030564182 -0.05206618 0.04956482 -0.0019073932
-0.0722826 0.039392382 -0.019950166 -0.049557734 0.0624039 -0.014551418 0.017607262 0.025864746
0.05432277 0.0838701 -0.0036749367 0.09463564 -0.055365834 -0.012100033 -0.08154381 0.018697651
-0.065983064 0.022606157 0.039552115 -0.08961284 0.055749286 0.056115977 0.07548647 0.03785726
0.04888454 -0.08024849 -0.076460406 -0.035380293 -0.01790773 -0.012513732 -0.031647008 -0.028478518
0.12334358 0.014240501 0.27193764 0.18613236 0.018653987 0.0625503 0.17148896 0.09319393
0.20823143 0.1231116 0.022162257 0.0769696 0.099372976 0.099059165 0.12765053 0.0579005
0.014832154 0.1839248 0.24436599 0.027564304 0.031810462 0.08804466 0.045477495 0.08717536
0.001958568 0.06266051 0.09162407 0.007990489 0.11958202 0.11971005 0.021243377 0.05521563
00000000: 1573 4e3e f563 f53d 6eaf 473e 96e1 233e
00000010: 655c 0b3e b4b5 e53d 0aba 0d3e 3996 483e
00000020: f177 253e 354b 273e 7585 ed3d 7417 0d3e
00000030: 640f 1b3e f78b 093e d36d 073e 89ef f33d
00000040: aedf cb3d a425 343e 50d4 523e f537 433e
00000050: 6d38 393e 4c8f 013e 3569 103e 6f1c 443e
00000060: 8f66 453e f99a b63d e083 423e b69b c83d
00000070: 0d55 403e 6f7d 2b3e 7a69 e63d 2335 ea3d
00000080: 1624 9bbc 272a 363d 6aca 9abe 2997 c9bd
00000090: 3bf1 883d 4e7c 733c d933 25be cd18 8a3d
000000a0: c308 86bd 479b e73b d27b 123d 97fe 7bbc
000000b0: 0554 2bbd 53b2 a2bd 60de 6fbc e779 1f3d
000000c0: 0366 773d 854c c4bc 4d6d 7bbe 8e6e c83b
000000d0: daa3 18bd adf2 5fbc f5ae b03b 272b 423d
000000e0: f252 9a3d 158e a6bc 0eee e2bc 9686 8f3d
000000f0: bc61 fa3c 5943 55bd 7b04 4b3d 7f01 faba
00000100: e608 94bd e859 213d 886e a3bc 0dfd 4abd
00000110: 3b9b 7f3d 1269 6ebc 1b3d 903c 4ee2 d33c
00000120: 8e81 5e3d 16c4 ab3d 35d7 70bb 55d0 c13d
00000130: 49c7 62bd 383f 46bc 7100 a7bd d12b 993c
00000140: 2122 87bd 8c30 b93c 6601 223d f086 b7bd
00000150: 5d59 643d ded9 653d a698 9a3d 3710 1b3d
00000160: 283b 483d 5259 a4bd 4697 9cbd edea 10bd
00000170: 3bb3 92bc 6506 4dbc 4ba0 01bd c84b e9bc
00000180: 8f9b fc3d fe50 693c 693b 8b3e 7b99 3e3e
00000190: 3fd0 983c 5f1a 803d cd9a 2f3e 76dc be3d
000001a0: 9f3a 553e ef21 fc3d 9f8d b53c 3da2 9d3d
000001b0: 0f84 cb3d 88df ca3d d2b6 023e 1329 6d3d
000001c0: 9002 733c c856 3c3e 143b 7a3e 89ce e13c
000001d0: b04b 023d c250 b43d 9c46 3a3d ff88 b23d
000001e0: 525b 003b 2754 803d 67a5 bb3d 8aea 023c
000001f0: 6be7 f43d 8b2a f53d 9706 ae3c c929 623d

lin.weight f4 [5, 32]
-0.23519613 0.2069851 0.29953545 -0.22889124 0.17322376 -0.21682893 0.17519858 0.20291877
0.23088509 0.23370917 -0.16566588 0.20276465 -0.2379441 0.1909761 -0.23131345 0.19593935
-0.12811263 0.16389054 -0.27683786 -0.21416633 0.1634484 0.17729063 0.2093369 0.23325334
0.20994869 -0.20650141 -0.2251491 -0.1827668 -0.22974922 0.22053662 -0.20517014 -0.1938381
0.16867073 -0.17374942 -0.2521449 0.19424601 -0.16429165 0.13954207 -0.17834513 -0.18864422
-0.2346695 -0.22405303 0.11657303 -0.1723783 0.21073665 -0.22293419 0.12045652 -0.12546386
0.13039295 -0.22241077 0.26658526 0.18368538 -0.18741217 -0.14625622 -0.11677989 -0.20046538
-0.1263871 0.16275175 0.20749545 0.17659317 0.17837784 -0.21058477 0.17748004 0.13907935
0.13435404 -0.19617647 -0.27583718 0.18076813 -0.17624788 0.21491507 -0.24466565 -0.19067538
-0.1658548 -0.14432506 0.11260071 -0.23642981 0.16118264 -0.16918212 0.13490029 -0.11446096
0.14116898 -0.20468237 0.20892192 0.14857851 -0.20499945 -0.19694327 -0.20112771 -0.16292062
-0.13762078 0.20756595 0.1973114 0.12889332 0.22777255 -0.21103367 0.15338759 0.21980973
0.20614669 -0.21888149 -0.2646616 0.16685215 -0.1384636 0.18197711 -0.15369225 -0.19024256
-0.18477847 -0.22074914 0.13017555 -0.23535144 0.19197103 -0.26033372 0.16400075 -0.123903826
0.11592429 -0.23376173 0.2643381 0.15054856 -0.13708527 -0.23000714 -0.16214447 -0.18196738
-0.19145022 0.20556317 0.15953708 0.20043166 0.24991155 -0.17814125 0.1415543 0.13897084
0.16835587 -0.14471811 -0.2760226 0.22893469 -0.19615646 0.15011272 -0.18408236 -0.13525623
-0.17208093 -0.17294075 0.1388676 -0.23243475 0.14886348 -0.17903021 0.21343453 -0.16424125
0.18139403 -0.22035454 0.25142032 0.21826567 -0.17930964 -0.14975762 -0.21524806 -0.15969788
-0.19681904 0.17776693 0.21439753 0.17911205 0.18169326 -0.13966024 0.19739035 0.19671245
00000000: 41d7 70be e7f3 533e b65c 993e 7762 6abe
00000010: 9261 313e 6708 5ebe 4267 333e f0c9 4f3e
00000020: 246d 6c3e 7551 6f3e 51a4 29be 89a1 4f3e
00000030: 9ea7 73be 3d8f 433e 6fdd 6cbe 53a4 483e
00000040: f52f 03be ecd2 273e b1bd 8dbe 6b4e 5bbe
00000050: 045f 273e ad8b 353e 6a5c 563e f7d9 6e3e
00000060: cafc 563e 1b75 53be 7c8d 66be 3827 3bbe
00000070: 6143 6bbe 5ad4 613e 1f18 52be 7f7d 46be
00000080: 05b8 2c3e 5eeb 31be 2319 81be 6de8 463e
00000090: 123c 28be 1ee4 0e3e 1ba0 36be f32b 41be
000000a0: 344d 70be 286e 65be d7bd ee3d f083 30be
000000b0: 59cb 573e dc48 64be e8b1 f63d 9979 00be
000000c0: bb85 053e a6bf 63be dd7d 883e 0518 3c3e
000000d0: fae8 3fbe 31c4 15be 4c2a efbd cc46 4dbe
000000e0: 9f6b 01be 65a8 263e b079 543e d7d4 343e
000000f0: aea8 363e 89a3 57be 54bd 353e d16a 0e3e
00000100: 1b94 093e 7ce2 48be 883a 8dbe 481b 393e
00000110: 537a 34be b212 5c3e a289 7abe 6840 43be
00000120: d7d5 29be f3c9 13be 339b e63d a81a 72be
00000130: 100d 253e 143e 2dbe 4d23 0a3e 826a eabd
00000140: 9a8e 103e 4198 51be a1ef 553e f724 183e
00000150: 60eb 51be 7fab 49be 6cf4 4dbe aad4 26be
00000160: 76ec 0cbe 2b8c 543e 000c 4a3e 9cfc 033e
00000170: 353d 693e 3619 58be a311 1d3e cd15 613e
00000180: 1e18 533e 7822 60be ba81 87be 4adb 2a3e
00000190: 67c9 0dbe 3558 3a3e 8061 1dbe f2ce 42be
000001a0: 9136 3dbe 100c 62be bd4c 053e f8ff 70be
000001b0: 0e94 443e 764a 85be d0ef 273e 4ac1 fdbd
000001c0: b769 ed3d 3c5f 6fbe 5357 873e 6729 1a3e
000001d0: 1560 0cbe fe86 6bbe 3309 26be a855 3abe
000001e0: 870b 44be 277f 523e b05d 233e f53d 4d3e
000001f0: d0e8 7f3e a96a 36be 9cf3 103e 5f4e 0e3e
00000200: 7b65 2c3e fc30 14be d652 8dbe db6d 6a3e
00000210: 3ddd 48be 26b7 193e 1680 3cbe 9c80 0abe
00000220: fc35 30be 6117 31be 4f33 0e3e 6003 6ebe
00000230: ab6f 183e b253 37be 958e 5a3e dc2e 28be
00000240: 5bbf 393e 9fa4 61be 2aba 803e 0981 5f3e
00000250: f29c 37be 105a 19be fd69 5cbe d787 23be
00000260: ee8a 49be 8908 363e 078b 5b3e 2669 373e
00000270: cc0d 3a3e 1803 0fbe b220 4a3e fd6e 493e

lin.bias f4 [5]
0.03566584 -0.026923249 0.011311831 0.0028239063 0.017670287
00000000: 5816 123d 258e dcbc 4255 393c 4911 393b
00000010: 47c1 903c
