checkpoints/MLE_space_False_length_3_preTrainG_epoch_175.pth (torch_old, 36090 bytes, 7 tensors)

emb.weight f4 [5, 32]
0	0x3e462ddf	0.19353436
1	0x3e7e6261	0.24842216
2	0x3e08a0e8	0.13342631
3	0x3e8a8983	0.27058038
4	0xbe7c5b51	-0.2464421
5	0x3e815ffc	0.25268543
6	0x3e5cfa45	0.21579845
7	0x3e7970d1	0.24359442
8	0x3e2233fc	0.15840143
9	0xbde899b0	-0.113574386
10	0xbe886ad0	-0.2664399
11	0x3e8acc99	0.2710922
12	0xbe39a5f7	-0.18129717
13	0x3e14dafe	0.14536664
14	0xbe1e1b51	-0.15440108
15	0xbe2a615d	-0.16638704
16	0xbe2526a1	-0.16128017
17	0x3e4e7af8	0.20164096
18	0x3e63b06c	0.22235268
19	0xbe9c831a	-0.30568773
20	0xbe6d1fe1	-0.23156692
21	0xbe2430bf	-0.1603422
22	0xbe23ac82	-0.15983775
23	0xbeaf2222	-0.3420573
24	0xbe80ff42	-0.25194746
25	0x3e877816	0.26458806
26	0x3df9b373	0.1219243
27	0x3e81bdbc	0.25340068
28	0x3dc6f148	0.097139895
29	0x3e3466f1	0.17617394
30	0x3e1dd71f	0.15414093
31	0xbe43f578	-0.19136608
32	0xbe51045a	-0.20411816
33	0xbe1d3645	-0.15352733
34	0xbe65f46c	-0.22456521
35	0xbe5f669d	-0.21816488
36	0x3e479966	0.1949211
37	0xbe4bc254	-0.19898349
38	0xbe4b0925	-0.19827707
39	0xbe4ae4ac	-0.19813794
40	0xbe206f3f	-0.15667437
41	0xbe2e521e	-0.17023513
42	0x3e30aaf1	0.17252709
43	0xbe3984f9	-0.18117131
44	0x3e3fc59a	0.18727723
45	0xbe328386	-0.17432985
46	0x3e59f29c	0.21283954
47	0x3e37930c	0.17927188
48	0x3e10308b	0.14081018
49	0xbe677d81	-0.2260647
50	0xbe34b97f	-0.17648886
51	0xbe2f7b19	-0.17136802
52	0x3e60dc5c	0.2195906
53	0x3e5e4286	0.21705064
54	0x3e5966ea	0.21230665
55	0xbe2be5e0	-0.16786909
56	0x3e38769d	0.18013997
57	0xbe204d5c	-0.1565451
58	0xbe275190	-0.16339707
59	0xbe136863	-0.14395289
60	0xbe3016f3	-0.17196254
61	0xbe6409a2	-0.222693
62	0xbe4fecd2	-0.20305184
63	0x3e621943	0.22079949
64	0xbe6159aa	-0.2200686
65	0xbe441673	-0.19149189
66	0xbe5d2aea	-0.21598402
67	0xbe362f4d	-0.17791481
68	0x3e53a8e0	0.2066989
69	0xbdd1223c	-0.10211608
70	0xbe47aa28	-0.19498503
71	0xbe1e8a14	-0.1548236
72	0xbe5ebaba	-0.21750918
73	0xbe41f1fb	-0.18939964
74	0x3e61e99a	0.22061768
75	0xbe205d73	-0.15660648
76	0x3e43b7a6	0.19113025
77	0xbe3c0a2e	-0.18363258
78	0x3e66f5a8	0.22554648
79	0x3e43f807	0.19137584
80	0x3e5a8329	0.21339096
81	0xbe2ac27f	-0.16675757
82	0xbe0e592c	-0.13901204
83	0xbe503d57	-0.203359
84	0x3e3e1fc4	0.18566805
85	0x3e48a2b8	0.19593322
86	0x3e26f42d	0.16304083
87	0xbe54773d	-0.20748611
88	0x3e32a5a5	0.17446001
89	0xbe4d4772	-0.20046785
90	0xbe64b5ec	-0.22335023
91	0xbe537ac5	-0.20652302
92	0xbe522db5	-0.20525248
93	0xbe12bf6e	-0.14330837
94	0xbe67ccf9	-0.22636785
95	0x3e2885ae	0.16457245
96	0xbe50b08e	-0.2037985
97	0xbe2696d5	-0.16268475
98	0xbe3d49e2	-0.18485215
99	0xbe341e2a	-0.17589632
100	0x3e4e7dd3	0.20165186
101	0xbe32ec82	-0.17473033
102	0xbe257ce5	-0.16160925
103	0xbe4f7c53	-0.2026227
104	0xbe41f62a	-0.1894156
105	0xbe759509	-0.23982634
106	0x3e4551cb	0.19269483
107	0xbe49aff6	-0.1969603
108	0x3e252471	0.16127183
109	0xbe418bbf	-0.18900965
110	0x3e3c04dc	0.18361229
111	0x3e581869	0.21103062
112	0x3e2c5380	0.16828728
113	0xbe1c6723	-0.15273719
114	0xbe3e86e8	-0.1860615
115	0xbe3e7175	-0.18597968
116	0x3e1db7ca	0.15402141
117	0x3e2a3bf9	0.1662444
118	0x3e232dab	0.1593539
119	0xbe43d382	-0.19123653
120	0x3e45a171	0.19299866
121	0xbe25ef6e	-0.16204616
122	0xbe692bb9	-0.22770585
123	0xbe4c500b	-0.19952409
124	0xbe192ca4	-0.14958435
125	0xbe2e6110	-0.17029214
126	0xbe39800d	-0.18115254
127	0x3e64e9c0	0.22354794
128	0xbe16f704	-0.14742666
129	0xbe22bba8	-0.15891898
130	0xbe51ea50	-0.2049954
131	0xbe3155b5	-0.17317851
132	0x3e58773f	0.21139239
133	0xbe3bfe1e	-0.18358657
134	0xbe47cfcf	-0.19512866
135	0xbdfe7b61	-0.124258764
136	0xbe5f8da6	-0.21831378
137	0xbe371237	-0.17878042
138	0x3e0f4898	0.13992536
139	0xbe07343b	-0.13203518
140	0x3e211095	0.15728982
141	0xbe5b5862	-0.21420434
142	0x3e39f94f	0.1816151
143	0x3e226c37	0.15861593
144	0x3e66e479	0.22548093
145	0xbe1100e0	-0.1416049
146	0xbe5be65c	-0.21474594
147	0xbe578e41	-0.2105036
148	0x3e346678	0.17617214
149	0x3e579ab5	0.2105511
150	0x3e588563	0.21144633
151	0xbe5750db	-0.21026938
152	0x3e1c8981	0.15286829
153	0xbe6501aa	-0.22363916
154	0xbe22812f	-0.15869592
155	0xbe4c7427	-0.19966184
156	0xbe4375e5	-0.19087942
157	0xbe582fff	-0.21112059
158	0xbe505dc0	-0.20348263
159	0x3e175ba8	0.14781058

lstm.weight_ih_l0 f4 [128, 32]
0	0xbe161d13	-0.14659528
1	0xbe12b621	-0.14327289
2	0xbe30bd11	-0.17259623
3	0xbe3b402d	-0.182862
4	0x3dfd856e	0.12378965
5	0xbe0ceed3	-0.13762979
6	0xbe0c3667	-0.13692628
7	0xbe299702	-0.16561511
8	0xbe195f0e	-0.14977667
9	0xbe229c98	-0.15880048
10	0x3dd8d5c2	0.10587646
11	0xbdfddca6	-0.12395601
12	0x3e36721b	0.17816965
13	0xbe1d4975	-0.15360053
14	0x3e1d24d3	0.15346079
15	0x3e396cb9	0.1810788
16	0x3e13ebd1	0.14445426
17	0xbe170449	-0.14747728
18	0xbe4d8876	-0.20071587
19	0xbe85581b	-0.26043782
20	0x3df68779	0.12037558
21	0x3e18041d	0.14845319
22	0x3e176f24	0.1478849
23	0xbe742538	-0.23842323
24	0x3e3e8e0d	0.18608876
25	0xbde2c485	-0.110726394
26	0xbe24b86f	-0.16085981
27	0xbe159f3e	-0.14611527
28	0xbe4d5b64	-0.20054394
29	0xbe4c8e80	-0.19976234
30	0xbe309d5b	-0.17247526
31	0x3e43c806	0.19119272
32	0xbe54890c	-0.20755404
33	0xbe50ce66	-0.20391235
34	0xbe3bafe6	-0.18328819
35	0xbe02e3a9	-0.12782158
36	0x3dfcc79b	0.12342759
37	0xbe296e9f	-0.16546105
38	0xbe2b12c9	-0.16706385
39	0xbe0b097d	-0.13577838
40	0xbe5e14f9	-0.21687688
41	0xbe2636db	-0.16231863
42	0x3e26fce9	0.16307415
43	0xbe12210b	-0.14270417
44	0x3e2ad1df	0.16681622
45	0xbe6dbba7	-0.23216115
46	0x3e2e93ad	0.17048521
47	0x3e398b80	0.18119621
48	0x3e2083d5	0.1567529
49	0xbe2f0200	-0.17090607
50	0xbe39f058	-0.1815809
51	0xbe4b190a	-0.1983377
52	0x3e1f1aa2	0.15537503
53	0x3e563a89	0.20920767
54	0x3e343578	0.17598522
55	0xbe87b7ad	-0.2650732
56	0x3e4c45c9	0.19948496
57	0xbe34c006	-0.17651376
58	0xbe3f42af	-0.18677782
59	0xbe45e090	-0.19323945
60	0xbe546e10	-0.2074511
61	0xbe6039e4	-0.21897084
62	0xbe62fd50	-0.22166944
63	0x3e5c5dcc	0.21520156
64	0x3dd88b1e	0.105734095
65	0x3e6469c4	0.22305971
66	0x3e1733ff	0.14765929
67	0x3e491548	0.19637024
68	0xbe0abd49	-0.13548769
69	0x3e47f2ca	0.1952621
70	0x3dfabe03	0.12243273
71	0x3e18fd8c	0.1494047
72	0x3e2cd8d1	0.16879584
73	0xbe599ea8	-0.21251929
74	0xbe1df1ed	-0.15424319
75	0x3e664dd5	0.22490628
76	0xbddb6a81	-0.107136734
77	0x3e23ea38	0.16007316
78	0xbdcc73f8	-0.09983057
79	0xbe0de684	-0.13857466
80	0xbe253157	-0.16132103
81	0x3e2e63df	0.17030285
82	0x3e2a378f	0.16622756
83	0xbe821812	-0.2540899
84	0xbe18ec3a	-0.14933863
85	0xbdc5223d	-0.09625671
86	0xbe2c32e0	-0.16816282
87	0xbe97935b	-0.2960461
88	0xbe5d420c	-0.21607226
89	0x3e3a8cae	0.18217728
90	0x3df4198c	0.11918935
91	0x3e3cdb51	0.18443038
92	0x3dc2cf34	0.09512177
93	0x3e4091a2	0.18805555
94	0x3e12cd0c	0.14336032
95	0xbe37b084	-0.17938429
96	0x3c5f49f7	0.013628474
97	0x3db37170	0.08761871
98	0xbd43fe54	-0.047849968
99	0x3bb2f046	0.0054607717
100	0xbccada4e	-0.024762299
101	0x3dd8f59a	0.1059372
102	0x3cb3273a	0.02186929
103	0x3c26196e	0.010137899
104	0xbd00fc9d	-0.03149091
105	0xbe46521c	-0.1936726
106	0xbd83e92d	-0.06440959
107	0x3d7f4f1c	0.062331304
108	0x3d20e6ea	0.039282717
109	0xbdd60fed	-0.10452256
110	0x3dd5dc1d	0.10442374
111	0x3dba50af	0.090974204
112	0x3c651cbd	0.0139839025
113	0xbd17adcb	-0.037030976
114	0x3d4a3af0	0.049372613
115	0xbe9065fd	-0.2820281
116	0xbcb32f36	-0.021873098
117	0x3d41770a	0.047232665
118	0x3d511b1f	0.051051255
119	0xbe83ea2f	-0.25764605
120	0xbc1f531b	-0.009724404
121	0x3cdc656f	0.026903836
122	0xbdb695c0	-0.08915281
123	0x3c95062b	0.018191418
124	0xbe0925bb	-0.133933
125	0xbd4d8c66	-0.050182723
126	0xbdbb8f4e	-0.091581926
127	0x3cd2ec1e	0.025747355
128	0xbe384f84	-0.17999083
129	0xbdce96b7	-0.1008734
130	0xbe2e7aa2	-0.17038968
131	0xbdcdd0bc	-0.100495785
132	0x3e39b73e	0.18136308
133	0xbe159b50	-0.14610028
134	0xbe3289bf	-0.17435358
135	0xbe344748	-0.17605317
136	0xbe4895c2	-0.19588378
137	0xbe6ccc17	-0.23124729
138	0x3e2ca490	0.1685965
139	0xbde9719d	-0.11398623
140	0x3e0edc3d	0.13951202
141	0xbe2a8d34	-0.16655427
142	0x3e0fabc3	0.14030366
143	0x3e511e25	0.20421655
144	0x3e11aa57	0.14225136
145	0xbdf1fb67	-0.11815529
146	0xbe112ab7	-0.1417645
147	0xbe5d9b59	-0.21641292
148	0x3dfff1f3	0.1249732
149	0x3e271ca6	0.16319522
150	0x3e59b23a	0.21259394
151	0xbe872199	-0.2639282
152	0x3ddf31e0	0.10898185
153	0xbdd84bcc	-0.10561332
154	0xbe2fc616	-0.17165408
155	0xbe4afd8a	-0.1982328
156	0xbe2c32ae	-0.16816208
157	0xbe61a6af	-0.22036241
158	0xbe2a16b1	-0.16610219
159	0x3e22ad36	0.15886387
160	0xbe475f02	-0.19469836
161	0xbe4160e4	-0.18884617
162	0xbe1d3d9e	-0.15355536
163	0xbe173e19	-0.14769782
164	0x3e507fb9	0.20361222
165	0xbe04a507	-0.12953578
166	0xbe38d9b3	-0.18051796
167	0xbe3a301d	-0.18182416
168	0xbe5a1c16	-0.21299776
169	0xbe4e01a2	-0.2011781
170	0x3e38c554	0.18044025
171	0xbda11c42	-0.07866718
172	0x3e5d95db	0.21639197
173	0xbe546a3c	-0.2074365
174	0x3e1ed26c	0.15509957
175	0x3e4a9b52	0.19785812
176	0x3e450efb	0.19243996
177	0xbde80f77	-0.11331075
178	0xbe2c1d3e	-0.1680803
179	0xbe94d735	-0.2907044
180	0x3e39dba4	0.18150192
181	0x3e12afc4	0.14324862
182	0x3e27eef8	0.16399753
183	0xbe6df05a	-0.23236218
184	0x3e336bc7	0.17521583
185	0xbe0180be	-0.12646767
186	0xbe0a12bb	-0.13483708
187	0xbdddfda1	-0.108393915
188	0xbe43009b	-0.190432
189	0xbe2adf0c	-0.16686648
190	0xbe1fa548	-0.15590394
191	0x3e4b415d	0.19849153
192	0x3e3ac531	0.18239285
193	0x3e26ebe0	0.16300917
194	0x3e28b031	0.16473462
195	0x3e2e0062	0.16992334
196	0xbe7f83f9	-0.24952687
197	0x3e3b0c3e	0.18266389
198	0x3e4cc3a9	0.19996513
199	0x3e51e6de	0.20498225
200	0x3df69037	0.120392255
201	0xbe73a93d	-0.23795028
202	0xbe29a878	-0.16568172
203	0x3e262560	0.16225195
204	0xbe10a4cd	-0.14125367
205	0x3e3f94c3	0.18709092
206	0xbe1c2644	-0.15248972
207	0xbe5a5f3e	-0.21325395
208	0xbe1a1e01	-0.15050508
209	0x3e7269b8	0.23673141
210	0x3e60c356	0.21949515
211	0xbe308cae	-0.17241165
212	0xbe4be508	-0.19911587
213	0xbe42e220	-0.19031572
214	0xbdca0c48	-0.09865624
215	0xbe6dce7a	-0.23223296
216	0xbe5b56a7	-0.21419774
217	0x3e745ca0	0.23863459
218	0x3ddbb8a1	0.107285745
219	0x3e6d2205	0.23157509
220	0x3d5dcf6f	0.054152902
221	0x3e2da1ec	0.169563
222	0x3e0b8fa9	0.13629021
223	0xbe401b44	-0.18760401
224	0xbe0a885d	-0.13528581
225	0xbe1073eb	-0.14106719
226	0xbe36105d	-0.1777968
227	0xbe130beb	-0.14360015
228	0x3e5150e5	0.20441015
229	0xbe4f0daa	-0.20220056
230	0xbe4d4fd4	-0.20049983
231	0xbe458d8f	-0.19292282
232	0xbe5d3e2e	-0.21605751
233	0xbe3bbcf1	-0.18333794
234	0x3e2b6a89	0.16739859
235	0xbe34bc69	-0.17649998
236	0x3e4931e6	0.19647941
237	0xbe62d656	-0.22152075
238	0x3e1e5075	0.1546038
239	0x3e6a673a	0.2289094
240	0x3e1ed4b3	0.15510826
241	0xbe35c421	-0.17750598
242	0xbe569648	-0.20955765
243	0xbe4b79fb	-0.1987075
244	0x3e44cca5	0.1921869
245	0x3e1e09a2	0.15433362
246	0x3e2a541a	0.16633645
247	0xbe58acc2	-0.21159652
248	0x3e54d822	0.20785573
249	0xbe585cd1	-0.21129157
250	0xbe2b0534	-0.16701204
251	0xbe533c91	-0.20628573
252	0xbe29cbf4	-0.16581708
253	0xbe2d4b4d	-0.16923256
254	0xbe436e60	-0.19085073
255	0x3e18ab77	0.14909159

lstm.weight_hh_l0 f4 [128, 32]
0	0xbdf9d994	-0.12199703
1	0x3e0fd0a5	0.14044435
2	0xbe951b98	-0.29122615
3	0x3eb164c5	0.34647194
4	0x3e2d80a5	0.16943605
5	0xbe55cf44	-0.20879847
6	0x3e8ef372	0.2792011
7	0x3e4d256e	0.2003381
8	0x3ddc41fd	0.10754774
9	0x3a54c336	0.0008116247
10	0xbde9620f	-0.11395656
11	0xbde0b15a	-0.10971327
12	0x3ea514ce	0.32242435
13	0x3df60e1f	0.12014412
14	0xbe10c83e	-0.14138886
15	0x3e3c7d42	0.18407157
16	0xbe45d785	-0.19320495
17	0x3e8c770e	0.27434582
18	0x3e6ff734	0.23434144
19	0xbe46f66e	-0.19429943
20	0x3e13e295	0.14441903
21	0x3e449324	0.19196755
22	0x3ceb7cb6	0.02874599
23	0xbde2edc6	-0.11080508
24	0x3e319f9c	0.17346042
25	0xbe49e3ad	-0.19715758
26	0xbe49782a	-0.19674745
27	0xbde21d1c	-0.110407084
28	0x3e948d59	0.2901409
29	0xbea1224b	-0.31471476
30	0xbdef2a41	-0.11677981
31	0xbe4c3346	-0.19941434
32	0xbe35798d	-0.17722149
33	0x3e1e7778	0.15475261
34	0xbe920b18	-0.2852409
35	0x3e8bc113	0.2729574
36	0x3e01b675	0.12667258
37	0xbe5c1858	-0.21493661
38	0x3e5f996d	0.21835871
39	0x3e3114aa	0.17293039
40	0x3e2ce1ba	0.16882983
41	0xba0603de	-0.00051122706
42	0xbdf3c2ca	-0.119023874
43	0xbdad2be6	-0.084556386
44	0x3e9e4643	0.3091298
45	0x3e3208e8	0.1738621
46	0xbd8d5ac6	-0.06902079
47	0x3e471154	0.19440204
48	0xbe2c37f9	-0.16818227
49	0x3e923c2e	0.28561538
50	0x3e5a1b7f	0.21299551
51	0xbe64e6ce	-0.2235367
52	0x3deda2fb	0.11603352
53	0x3e3f5a74	0.18686849
54	0x3bc4b705	0.006003263
55	0xbe114193	-0.14185171
56	0x3e1d10be	0.15338418
57	0xbe5e78d9	-0.21725787
58	0xbdf72c55	-0.120690025
59	0xbd3160be	-0.04330515
60	0x3e972dfd	0.29527274
61	0xbe846700	-0.25859833
62	0xbd888baa	-0.06667264
63	0xbe5f50e3	-0.218082
64	0xbe207ea4	-0.1567331
65	0x3e0732c8	0.13202965
66	0xbe6ffab4	-0.2343548
67	0xbc06a021	-0.008216889
68	0x3da85f55	0.08221308
69	0xbe1efbd4	-0.15525752
70	0x3e2cea9e	0.16886374
71	0x3e19ca39	0.15018548
72	0x3e12d68c	0.14339656
73	0x3dfa4d66	0.12221794
74	0xbe0eaba8	-0.13932669
75	0x3e1022fe	0.14075848
76	0x3e5cfe6a	0.21581426
77	0x3dc1a737	0.09455722
78	0xbdc0276e	-0.093825206
79	0x3d8df536	0.06931536
80	0xbddad198	-0.10684508
81	0x3e5939b5	0.2121342
82	0x3e91d195	0.2848021
83	0xbdf2134e	-0.11820088
84	0x3df59d44	0.11992887
85	0x3e11d6d0	0.142421
86	0x3d5a063c	0.0532286
87	0x3d79f1dd	0.061021674
88	0x3da749fb	0.081684075
89	0xbde16fa7	-0.11007624
90	0xbd8fb344	-0.07016614
91	0xbe1e9c05	-0.15489204
92	0xbdb5c9e7	-0.088764004
93	0x3d1902b7	0.037356105
94	0xbe1628da	-0.14664021
95	0xbe171aeb	-0.14756362
96	0xbe13408d	-0.14380093
97	0x3e1c827a	0.15284148
98	0xbe88b257	-0.26698563
99	0x3e4d2973	0.20035343
100	0x3e1075dd	0.14107461
101	0xbe4224e3	-0.18959384
102	0x3e3e7517	0.18599354
103	0x3e1ff087	0.15619098
104	0x3df7664c	0.120800585
105	0x3dfda11b	0.12384244
106	0xbdc06166	-0.09393577
107	0x3d9f9796	0.077925846
108	0x3e9a48cf	0.30133674
109	0x3e399863	0.18124537
110	0xbe1e1db3	-0.15441017
111	0x3e2097b3	0.15682869
112	0xbdedec19	-0.11617298
113	0x3e894549	0.26810673
114	0x3e8002a4	0.25002015
115	0xbe101704	-0.1407128
116	0x3dc300d6	0.09521644
117	0x3e4986f9	0.19680394
118	0x3e11ba68	0.14231265
119	0x3d03956c	0.03212492
120	0x3e39b825	0.18136652
121	0xbe499fb5	-0.1968983
122	0xbdc8837e	-0.09790705
123	0xbe20af02	-0.1569176
124	0x3dbc012d	0.09179912
125	0xbe42074b	-0.18948095
126	0xbdd0fb51	-0.10204185
127	0xbe373673	-0.17891864
128	0xbe296f90	-0.16546464
129	0x3e344722	0.1760526
130	0xbe7d7a56	-0.24753699
131	0x3eac06e0	0.33598995
132	0x3e4081d7	0.1879953
133	0xbe1ea794	-0.15493613
134	0x3e591e1b	0.2120289
135	0x3e06206d	0.13098307
136	0x3e19faf9	0.15037145
137	0xbc602697	-0.013681076
138	0xbe0b545a	-0.13606396
139	0xbdb1699e	-0.08662723
140	0x3e9fdd08	0.3122332
141	0x3e2e678e	0.1703169
142	0xbd36183c	-0.044456705
143	0x3e054898	0.13015974
144	0xbe29f337	-0.16596685
145	0x3e42e264	0.19031674
146	0x3e898791	0.2686124
147	0xbdf78947	-0.120867305
148	0x3dfddc59	0.123955436
149	0x3e1fa904	0.15591818
150	0xbd811aee	-0.063039646
151	0xbd8a73a4	-0.06760338
152	0x3ddd6b85	0.10811523
153	0xbe69c22e	-0.2282798
154	0xbe11501f	-0.1419072
155	0xbda6c972	-0.081438914
156	0x3e834940	0.25641823
157	0xbe8749b2	-0.26423413
158	0xbe0ce335	-0.13758548
159	0xbe21834a	-0.15772739
160	0xbe525a84	-0.20542341
161	0x3e6f3d47	0.23363219
162	0xbe5be3d8	-0.21473634
163	0x3e80154b	0.25016245
164	0x3e1d395e	0.15353915
165	0xbe4ecefb	-0.20196144
166	0x3e8319d1	0.25605634
167	0x3e32efcb	0.17474286
168	0x3dcc9747	0.09989791
169	0x3b93f5ae	0.0045153713
170	0xbd5b0479	-0.053471062
171	0xbdbae9b1	-0.09126604
172	0x3ea3db47	0.32003233
173	0x3e04a4ad	0.12953444
174	0xbd80f5b0	-0.06296861
175	0x3dd68b5c	0.104757994
176	0xbe1ab39f	-0.15107583
177	0x3e6ecef0	0.23321128
178	0x3e6b28b8	0.22964752
179	0xbe16869c	-0.14699787
180	0x3d88cc52	0.06679596
181	0x3e6bba01	0.23020174
182	0xbd790537	-0.06079599
183	0xbe2616da	-0.16219655
184	0x3e12baf3	0.14329128
185	0xbe23c98c	-0.15994853
186	0xbe3fa8a2	-0.18716672
187	0xbcd9ec44	-0.026601918
188	0x3e811240	0.25209236
189	0xbe9c2239	-0.3049486
190	0xbdbe3cb1	-0.0928892
191	0xbe2f54b6	-0.17122158
192	0xbb98d6d4	-0.0046642814
193	0xbd1bdcf7	-0.038052525
194	0xbe6dd48e	-0.23225614
195	0x3dab8ffc	0.08377072
196	0xba8b2632	-0.0010616241
197	0x3c1248ce	0.008928491
198	0x3e474341	0.19459249
199	0x3d02ab74	0.03190179
200	0xbd7db503	-0.061940204
201	0xbd0f39cb	-0.034967225
202	0xbb2c981f	-0.0026335788
203	0x3bdcd340	0.00673905
204	0x3da7c6ed	0.08192239
205	0xbd510196	-0.051026903
206	0x3d273e1a	0.04083071
207	0x3d173a05	0.036920566
208	0x3a8cd8f7	0.0010745813
209	0x3e068569	0.1313683
210	0x3e5a6f9c	0.21331638
211	0x3c83a172	0.016068194
212	0xbd62df4e	-0.05538874
213	0x3cf74713	0.030185258
214	0xbd677b26	-0.056513928
215	0xbcf238ff	-0.029568193
216	0xbd541bb2	-0.051784225
217	0xbcc8e4a8	-0.024523094
218	0x3d02c67c	0.03192757
219	0x3cd12bb0	0.025533527
220	0x3c48d90c	0.012258779
221	0xbd662a91	-0.05619294
222	0x3b795e5d	0.003805063
223	0xbcfe9ac0	-0.03107965
224	0xbe4a6d74	-0.19768316
225	0x3e22a1bc	0.1588201
226	0xbe86e8da	-0.26349527
227	0x3e810993	0.25202617
228	0x3ddc7be1	0.107658155
229	0xbe2fa916	-0.17154345
230	0x3e577341	0.2104006
231	0x3e5147ed	0.20437594
232	0x3dc04d98	0.093898
233	0x3d297b9b	0.041377645
234	0xbe039537	-0.1284989
235	0xbd137d69	-0.036008272
236	0x3e7c2332	0.24622801
237	0x3e6449b5	0.22293742
238	0xbc96fd57	-0.018431349
239	0x3e3d178c	0.18466014
240	0xbe7121ff	-0.23548125
241	0x3e495596	0.19661555
242	0x3e5f65de	0.21816203
243	0xbe3aad97	-0.18230282
244	0x3d70e13f	0.05880856
245	0x3e2a6a60	0.16642141
246	0x3c85f13f	0.016350387
247	0xbdcd800e	-0.1003419
248	0x3df5d880	0.12004185
249	0xbe1af4ec	-0.15132493
250	0xbe492cd8	-0.19646013
251	0xbd9a38bc	-0.075303525
252	0x3e5f3d01	0.21800615
253	0xbeb54698	-0.3540542
254	0xbda0ba0e	-0.07847987
255	0xbe047a8b	-0.12937371

lstm.bias_ih_l0 f4 [128]
0	0x3e63d98e	0.2225096
1	0x3e7234c4	0.23652941
2	0x3e67e63c	0.22646421
3	0x3e6548a7	0.22390996
4	0x3e8222aa	0.25417072
5	0x3e7b11b9	0.2451848
6	0x3e588f39	0.21148385
7	0x3e3ec0b4	0.18628198
8	0x3e3202ab	0.1738383
9	0x3e8146ec	0.25249422
10	0x3e7442f1	0.23853661
11	0x3e3d76b2	0.1850231
12	0x3e82b3e9	0.25527886
13	0x3e507c54	0.20359927
14	0x3e851220	0.2599039
15	0x3e2e9db2	0.17052343
16	0x3e49c46f	0.1970384
17	0x3e4fc389	0.20289434
18	0x3e42bdac	0.19017667
19	0x3e41b6b2	0.18917349
20	0x3e722e93	0.23650579
21	0x3e546d08	0.20744717
22	0x3e6245db	0.2209696
23	0x3e7751e6	0.24152336
24	0x3e31e8ef	0.17374013
25	0x3e6757f7	0.2259215
26	0x3e66b236	0.2252892
27	0x3e585ffd	0.21130367
28	0x3e8b8b58	0.27254748
29	0x3e4a12b0	0.19733691
30	0x3e56c474	0.20973378
31	0x3e6d3331	0.23164059
32	0xbdf1988b	-0.117966734
33	0xbe132b86	-0.14372072
34	0xbe742e21	-0.23845722
35	0xbe262944	-0.16226679
36	0xbe01ec29	-0.12687744
37	0xbe2baafc	-0.16764444
38	0x3e302a06	0.1720353
39	0xbdece71f	-0.1156752
40	0xbe23f78d	-0.16012402
41	0xbe48171a	-0.19540063
42	0xbe2113b0	-0.15730166
43	0xbdd51c36	-0.104057714
44	0xbe2c1206	-0.1680375
45	0xbe60d158	-0.21954858
46	0xbe12d7cd	-0.14340134
47	0xbe116e3c	-0.14202207
48	0xbe29b046	-0.16571149
49	0x3e159abd	0.14609809
50	0xbe30e819	-0.17276038
51	0xbe2fe5e2	-0.17177537
52	0xbdc21760	-0.09477115
53	0xbdfef4d3	-0.1244904
54	0xbe0ed609	-0.13948835
55	0xbe218a5e	-0.15775439
56	0xbdf43559	-0.11924238
57	0xbd8f12ed	-0.06986032
58	0xbe1aadd5	-0.15105374
59	0xbdea9962	-0.11455037
60	0xbe79e234	-0.24402696
61	0xbe3a6912	-0.18204144
62	0xbe232a46	-0.15934095
63	0xbdfebcd9	-0.124383636
64	0xbe1ed15e	-0.15509555
65	0x3e0e4a8b	0.13895623
66	0xbdddb432	-0.10825385
67	0x3ccc06f4	0.02490566
68	0x3e126d65	0.14299543
69	0xbe2629b2	-0.16226843
70	0x3e3abefc	0.18236917
71	0x3e23ef34	0.16009218
72	0x3dbc98ea	0.092088535
73	0x3d92a11b	0.07159635
74	0xbe1f96ae	-0.15584823
75	0x3d056038	0.032562464
76	0x3de59dae	0.11211716
77	0x3e0ff081	0.14056589
78	0xbdd468ce	-0.103715524
79	0x3e1560b0	0.14587665
80	0xbe0f63bd	-0.14002891
81	0x3e23a222	0.15979818
82	0x3ddae2c1	0.10687781
83	0xbdb435ea	-0.08799346
84	0x3dfc23c8	0.12311512
85	0x3e04d546	0.12971982
86	0x3d91d1a9	0.071200676
87	0x3dbd3c87	0.0924006
88	0x3df67c6a	0.12035449
89	0xbddeb4a2	-0.10874297
90	0xbe0151c3	-0.12628846
91	0xbe033b4b	-0.12815587
92	0xbd87be17	-0.06628054
93	0x3c74c8d8	0.014940463
94	0xbe1220cd	-0.14270325
95	0xbe21ae0a	-0.15789047
96	0x3e6bcaf9	0.23026647
97	0x3e6f3ed4	0.23363811
98	0x3e5d18b9	0.21591462
99	0x3e440291	0.19141604
100	0x3e4f9352	0.20271042
101	0x3e5ddb0d	0.21665592
102	0x3e66815c	0.22510284
103	0x3e8334ff	0.2562637
104	0x3e3cc849	0.18435778
105	0x3e7f67fb	0.24942009
106	0x3e462554	0.19350177
107	0x3e6b10f2	0.22955683
108	0x3e8cd78a	0.27508193
109	0x3e78960f	0.24275993
110	0x3e7d4e58	0.24736917
111	0x3e7e1142	0.24811271
112	0x3e81694a	0.25275642
113	0x3e1db324	0.15400368
114	0x3e6b61f5	0.22986586
115	0x3e4fa2c3	0.20276932
116	0x3e8b0ee1	0.2715979
117	0x3e825e5f	0.25462624
118	0x3e571eb9	0.21007814
119	0x3e5b54a6	0.2141901
120	0x3e889dcc	0.2668289
121	0x3e486075	0.19568045
122	0x3e7dea1d	0.24796338
123	0x3e87a190	0.2649045
124	0x3e4c9967	0.19980393
125	0x3e871601	0.26383975
126	0x3e63ea3f	0.22257327
127	0x3e61a721	0.22036411

lstm.bias_hh_l0 f4 [128]
0	0x3e803f8c	0.25048482
1	0x3e43c9bb	0.19119923
2	0x3e2583ed	0.16163607
3	0x3e50cf82	0.20391658
4	0x3e59f372	0.21284273
5	0x3e2f588c	0.17123622
6	0x3e110acc	0.14164275
7	0x3e8005b5	0.25004354
8	0x3e3d3dd2	0.18480614
9	0x3e636701	0.22207262
10	0x3e60bb4f	0.21946453
11	0x3e45beb9	0.19311036
12	0x3e5153fa	0.20442191
13	0x3e31b441	0.17353918
14	0x3e46d0e8	0.19415629
15	0x3e41ecec	0.18938035
16	0x3e47dcbc	0.19517797
17	0x3e42a08d	0.19006558
18	0x3e35a5d5	0.17739041
19	0x3e81f3d6	0.25381345
20	0x3e84aeab	0.2591451
21	0x3e4c9f97	0.19982754
22	0x3e6abe8f	0.22924255
23	0x3e898fd5	0.26867548
24	0x3e80c7c2	0.25152403
25	0x3e277953	0.16354875
26	0x3e7eb00c	0.24871844
27	0x3e39913c	0.18121809
28	0x3e87ee5a	0.26549035
29	0x3e772ac5	0.24137409
30	0x3e477663	0.19478755
31	0x3e3760d0	0.17908025
32	0xbe0c736a	-0.13715902
33	0xbdb808d6	-0.0898606
34	0xbe6dae38	-0.2321099
35	0xbe582925	-0.21109445
36	0xbdb40fb3	-0.08792057
37	0xbe045bab	-0.12925594
38	0x3dc65c12	0.0968553
39	0xbd8c97af	-0.06864869
40	0xbe278c30	-0.16362071
41	0xbe1c5572	-0.1526697
42	0xbe00f5ac	-0.12593716
43	0xbe280603	-0.16408543
44	0xbe49878f	-0.19680618
45	0xbe49c92e	-0.1970565
46	0xbe1bc586	-0.15212068
47	0xbe000c63	-0.12504725
48	0xbde0ba4c	-0.10973033
49	0x3e212382	0.15736201
50	0xbe5505a8	-0.20802939
51	0xbe0932d4	-0.13398296
52	0xbe444e53	-0.19170503
53	0xbe27577a	-0.16341963
54	0xbe1921d1	-0.14954306
55	0xbdf90260	-0.12158656
56	0xbdc25a83	-0.0948992
57	0xbe1d805c	-0.15380996
58	0xbe19c18b	-0.15015237
59	0xbddf993e	-0.109179005
60	0xbe30ba57	-0.17258583
61	0xbe6abc6c	-0.2292344
62	0xbddf39dd	-0.108997084
63	0xbe1b43df	-0.1516261
64	0xbe16882b	-0.14700381
65	0x3deb7611	0.11497129
66	0xbe17ec4d	-0.14836235
67	0xbcb8695d	-0.022511179
68	0x3e07a984	0.13248259
69	0xbda7aded	-0.081874706
70	0x3e3bdaed	0.18345232
71	0x3dd1b967	0.10240441
72	0x3e064059	0.13110484
73	0x3e03176a	0.128019
74	0xbd94ac3d	-0.07259414
75	0x3e04047c	0.12892336
76	0x3d44dfc1	0.04806495
77	0x3d9a562d	0.07535968
78	0xbe0fd66a	-0.14046636
79	0x3dbfb236	0.09360163
80	0xbe1f0899	-0.15530623
81	0x3e22c798	0.15896451
82	0x3e170f3f	0.1475191
83	0xbe242e09	-0.16033186
84	0x3df853d9	0.12125368
85	0x3e0aa774	0.13540441
86	0x3df372ab	0.118871056
87	0x3d9bb68e	0.07603179
88	0x3de53f13	0.11193671
89	0xbe18dd33	-0.14928131
90	0xbe12ca45	-0.14334972
91	0xbdba1ba6	-0.09087305
92	0xbc839e3f	-0.016066669
93	0xbd836a94	-0.064168125
94	0xbdc2d051	-0.095123895
95	0xbdc843a5	-0.09778527
96	0x3e80a1af	0.25123355
97	0x3e416275	0.18885215
98	0x3e739406	0.23786935
99	0x3e7d45de	0.24733683
100	0x3e418e3d	0.18901916
101	0x3e625a40	0.2210474
102	0x3e3d924d	0.1851284
103	0x3e81cbff	0.2535095
104	0x3e7f237a	0.24915877
105	0x3e8afc5e	0.27145666
106	0x3e56fb0f	0.20994209
107	0x3e41dbee	0.18931553
108	0x3e39b473	0.18135242
109	0x3e23369c	0.159388
110	0x3e809162	0.25110918
111	0x3e647264	0.22309262
112	0x3e52b855	0.2057813
113	0x3e6ad027	0.22930966
114	0x3e5ea7ea	0.21743742
115	0x3e3d6257	0.18494545
116	0x3e4771e9	0.19477047
117	0x3e815206	0.2525789
118	0x3e6de7cf	0.23232959
119	0x3e7ca22e	0.24671242
120	0x3e38ebf9	0.18058766
121	0x3e7f5276	0.249338
122	0x3e623425	0.22090204
123	0x3e4ce67f	0.20009802
124	0x3e8af2f6	0.2713849
125	0x3e5f6758	0.21816766
126	0x3e52cab9	0.20585145
127	0x3e619579	0.22029676

lin.weight f4 [5, 32]
0	0xbe7849d4	-0.24246913
1	0x3e6eda53	0.23325472
2	0x3e7dff2c	0.24804372
3	0xbe7305f4	-0.2373274
4	0x3e4ebc6f	0.20189069
5	0xbe707290	-0.23481202
6	0xbd8a8fab	-0.06765684
7	0x3e5ef8e4	0.21774632
8	0x3e5ffd34	0.21873933
9	0x3e763fd8	0.24047792
10	0xbe66a6da	-0.22524586
11	0x3e5058c3	0.2034636
12	0xbe8192be	-0.25307268
13	0x3e4057d8	0.1878351
14	0xbe78156a	-0.24226919
15	0x3e72f815	0.23727448
16	0xbe45666e	-0.19277355
17	0xbdb59195	-0.08865658
18	0xbe7e4206	-0.24829873
19	0xbe6fee8b	-0.2343084
20	0x3e47694c	0.19473761
21	0x3e4fd311	0.20295359
22	0x3e7400da	0.2382845
23	0x3e81c4ab	0.25345358
24	0x3e6e9a19	0.23300971
25	0xbe7044ee	-0.23463795
26	0xbe6b9fc8	-0.2301017
27	0xbe569f9d	-0.20959325
28	0xbe7d3e94	-0.24730903
29	0x3e71471f	0.23562287
30	0xbe6f23c5	-0.23353489
31	0xbe5d2cdb	-0.21599142
32	0x3e3776cf	0.17916416
33	0xbe53b6b2	-0.20675161
34	0xbe15489c	-0.1457848
35	0x3e4004d7	0.18751846
36	0xbe4c4da6	-0.19951496
37	0x3e264f48	0.16241181
38	0x3d146299	0.036226843
39	0xbe51d383	-0.20490842
40	0xbe5f434d	-0.21803017
41	0xbe704095	-0.23462136
42	0x3e3ae096	0.18249735
43	0xbe35d4f5	-0.17757018
44	0x3e4f48e3	0.20242648
45	0xbe5c0520	-0.2148633
46	0x3e0b1ba6	0.13584766
47	0xbe309e79	-0.17247953
48	0x3e541cef	0.20714162
49	0xbd377fb2	-0.044799514
50	0x3e3d0877	0.1846026
51	0x3e5701ac	0.20996732
52	0xbe654034	-0.22387773
53	0xbe332de4	-0.17497975
54	0xbe1bbd8d	-0.15209027
55	0xbe62e997	-0.2215942
56	0xbe21b0bf	-0.1579008
57	0x3e4e4a51	0.20145537
58	0x3e5eeafc	0.21769327
59	0x3e591446	0.2119914
60	0x3e47ff6e	0.19531032
61	0xbe584dca	-0.21123424
62	0x3e5cbec0	0.2155714
63	0x3e2b8160	0.16748571
64	0x3e114135	0.14185031
65	0xbe65a936	-0.2242783
66	0xbe40869f	-0.18801354
67	0x3e3da2ec	0.18519181
68	0xbe540dc9	-0.20708384
69	0x3e705e82	0.23473552
70	0xbd9ab0ff	-0.075532906
71	0xbe536a6d	-0.20646067
72	0xbe1d624c	-0.15369529
73	0xbe1df075	-0.15423758
74	0x3e32589e	0.17416617
75	0xbe75fdb1	-0.24022557
76	0x3e262a91	0.16227175
77	0xbe284667	-0.16433106
78	0x3e1785fd	0.14797206
79	0xbe22b8de	-0.15890834
80	0x3e565aed	0.20933123
81	0xbd5fa62c	-0.054601833
82	0x3e13f1b6	0.14447674
83	0x3e2ff65b	0.17183821
84	0xbe73b698	-0.23800123
85	0xbe64dd1a	-0.22349969
86	0xbe6f143c	-0.23347563
87	0xbe3d4396	-0.18482813
88	0xbe2b986b	-0.16757362
89	0x3e746fec	0.2387082
90	0x3e50848a	0.2036306
91	0x3e24dade	0.16099116
92	0x3e7caea1	0.2467599
93	0xbe601778	-0.21883953
94	0x3e3f138f	0.18659805
95	0x3e79cf9b	0.24395601
96	0x3e53ffc2	0.20703033
97	0xbe74242e	-0.23841926
98	0xbe31be9b	-0.17357866
99	0x3e28751f	0.16450928
100	0xbe27bd7d	-0.16380878
101	0x3e410796	0.1885055
102	0x3bc56f5e	0.006025239
103	0xbe46c069	-0.19409336
104	0xbe28d3e2	-0.16487077
105	0xbe64a4aa	-0.2232844
106	0x3e3a5627	0.18196927
107	0xbe6a2b04	-0.22867972
108	0x3e3c2862	0.1837478
109	0xbe7db25c	-0.2477507
110	0x3e2d5acf	0.16929172
111	0xbe2135fb	-0.15743248
112	0x3e31c892	0.17361668
113	0xbd9b4104	-0.0758076
114	0x3e4a55ce	0.19759294
115	0x3e2704ad	0.16310377
116	0xbe2877d3	-0.1645196
117	0xbe7d1ca4	-0.24717957
118	0xbe3e6549	-0.18593325
119	0xbe451b6b	-0.1924874
120	0xbe54650d	-0.20741673
121	0x3e6a74bc	0.22896093
122	0x3e266d25	0.16252573
123	0x3e655453	0.22395448
124	0x3e81aa4d	0.25325242
125	0xbe363aac	-0.17795819
126	0x3e2b176c	0.16708153
127	0x3e1e8923	0.15482001
128	0x3e2b5a68	0.16733706
129	0xbe27fcfe	-0.16405103
130	0xbe4f8251	-0.20264556
131	0x3e6f9755	0.23397572
132	0xbe5d15c1	-0.2159033
133	0x3e268b9c	0.16264194
134	0xbd34b4c3	-0.0441177
135	0xbe113e2b	-0.14183871
136	0xbe2081f0	-0.15674567
137	0xbe2febe1	-0.17179824
138	0x3e3ae2be	0.18250558
139	0xbe669481	-0.22517587
140	0x3e159a46	0.14609632
141	0xbe2e8d84	-0.17046171
142	0x3e5cff6c	0.2158181
143	0xbe476077	-0.19470392
144	0x3e73eef3	0.2382162
145	0xbd89420e	-0.06702052
146	0x3e52eb27	0.20597516
147	0x3e6d348f	0.23164581
148	0xbe4d8764	-0.20071179
149	0xbe2ae3b9	-0.16688432
150	0xbe7019ff	-0.23447417
151	0xbe2b8665	-0.16750486
152	0xbe59e8fe	-0.21280286
153	0x3e51122b	0.20417087
154	0x3e5a0936	0.21292576
155	0x3e4982bc	0.19678777
156	0x3e3fc3b5	0.18727
157	0xbe103531	-0.14082791
158	0x3e5e9a22	0.21738485
159	0x3e5bd21c	0.21466869

lin.bias f4 [5]
0	0x3d97da0f	0.07414638
1	0xbd80c071	-0.06286705
2	0xbcb31e9c	-0.021865182
3	0xbcfbfeaf	-0.030761091
4	0xbcc33538	-0.023829088
