checkpoints/MLE_space_True_length_15_preTrainG_epoch_2.pth (torch_old, 36350 bytes, 7 tensors)

emb.weight f4 [6, 32]
0	0xbe422939	-0.18961038
1	0xbe3814c2	-0.17976668
2	0x3dc07327	0.093969636
3	0x3e1863dc	0.14881843
4	0x3e0efb88	0.13963139
5	0x3dc60889	0.09669597
6	0x3e53975a	0.20663205
7	0xbd77a83d	-0.06046318
8	0xbe449f27	-0.19201337
9	0x3defc40d	0.117073156
10	0xbdf44670	-0.119274974
11	0xbd1ef104	-0.03880407
12	0x3d9b79c4	0.07591584
13	0x3cac0df2	0.021002743
14	0xbe21d0ec	-0.15802354
15	0x3e1332ae	0.14374802
16	0xbdfe8cc3	-0.12429192
17	0x3e6f9710	0.2339747
18	0x3da726e1	0.081617124
19	0x3d6ef011	0.058334414
20	0xbe14d7ec	-0.14535493
21	0x3da5f9a6	0.08104257
22	0x3dffe854	0.12495485
23	0x3d26f37c	0.04075955
24	0xbd348e5b	-0.044081073
25	0xbe527835	-0.20553668
26	0xbd86451e	-0.06556152
27	0xbe1b9906	-0.15195093
28	0x3daa116b	0.083041035
29	0xbe2ecae6	-0.17069587
30	0xbe0e3555	-0.13887532
31	0x3c303900	0.010755777
32	0xbb11a5ae	-0.0022223997
33	0x3e0467f5	0.12930281
34	0xbe8cbf8d	-0.27489892
35	0xbe560f32	-0.20904234
36	0x3e8378e0	0.25678158
37	0xbe5c7b1f	-0.21531342
38	0xbe7985e9	-0.24367489
39	0xbea30559	-0.31840017
40	0x3e2b6511	0.16737773
41	0x3c9268b7	0.017872198
42	0x3e310ab2	0.17289236
43	0x3dd2399f	0.102648966
44	0xbec1e1a5	-0.37867466
45	0x3e0798c6	0.13241872
46	0x3ea21611	0.3165746
47	0x3d4c5912	0.04988963
48	0x3db69632	0.08915366
49	0xbe13e085	-0.14441116
50	0xbe3c17ba	-0.18368426
51	0xbeb48997	-0.35261223
52	0x3e6471c1	0.22309019
53	0x3db68868	0.08912736
54	0xbe8a5836	-0.27020425
55	0x3e6bb0f1	0.23016717
56	0xbe9f357e	-0.310955
57	0x3e1acf96	0.1511825
58	0xbddbdbbb	-0.1073527
59	0x3e295761	0.16537239
60	0xbdb56e5c	-0.0885894
61	0x3dc91873	0.098191164
62	0x3eb0d6a1	0.3453875
63	0xbe208f43	-0.1567965
64	0x3b54cbf3	0.0032470196
65	0x3dda2dc9	0.10653264
66	0xbe881494	-0.265782
67	0xbe4b29de	-0.1984019
68	0x3e7bf0cc	0.24603575
69	0xbe7718f1	-0.24130608
70	0xbe1cf01d	-0.15325971
71	0xbeadf608	-0.3397677
72	0x3e6936d6	0.22774825
73	0xbd1484f4	-0.036259606
74	0x3e720407	0.23634349
75	0x3dbe5f05	0.09295467
76	0xbecf3e40	-0.4047718
77	0x3dfd81c1	0.12378264
78	0x3e83e036	0.25756997
79	0x3dd24112	0.102663174
80	0x3dcff5c3	0.10154297
81	0xbe2c564a	-0.16829792
82	0xbe4f20db	-0.20227377
83	0xbea7f101	-0.3280106
84	0x3e85bf3d	0.26122466
85	0x3e085cbb	0.13316624
86	0xbe90c003	-0.28271493
87	0x3e3894e3	0.18025546
88	0xbebcdb83	-0.36886224
89	0x3e5ffd7a	0.21874037
90	0xbdce8cd3	-0.10085454
91	0x3dfeb9a5	0.12437753
92	0xbdfc689a	-0.12324639
93	0x3d9be6f9	0.07612414
94	0x3e87409b	0.26416478
95	0xbe20300c	-0.15643328
96	0x3cf0667a	0.02934574
97	0x3e1e5aa7	0.15464269
98	0xbe96b55c	-0.2943524
99	0xbe924d73	-0.28574714
100	0x3e984a61	0.29744247
101	0xbe405c85	-0.18785293
102	0xbe5baef4	-0.21453458
103	0xbe8de56d	-0.277141
104	0x3e863713	0.26213893
105	0xbd13f863	-0.036125552
106	0x3e5ee1cf	0.21765827
107	0x3dd9efe6	0.1064146
108	0xbeac0551	-0.33597806
109	0x3ddfa461	0.10920025
110	0x3e8d6aef	0.27620646
111	0x3cda64b4	0.026659347
112	0x3da02e3a	0.07821317
113	0xbe31561a	-0.17318001
114	0xbe404cc3	-0.18779282
115	0xbec185ad	-0.377973
116	0x3e54461e	0.20729873
117	0x3d8cd5cb	0.06876715
118	0xbe810b46	-0.25203913
119	0x3e59d680	0.21273232
120	0xbe8d6544	-0.27616322
121	0x3e657d53	0.22411089
122	0xbd6fe6d0	-0.05856973
123	0x3dcdfd67	0.10058098
124	0xbde01a52	-0.1094252
125	0x3de88f7b	0.11355492
126	0x3ea0c736	0.31401986
127	0xbe59bebf	-0.2126417
128	0xbc0459c0	-0.008078039
129	0x3e28cf17	0.16485249
130	0xbe70abd1	-0.23503043
131	0xbe93846c	-0.28811967
132	0x3e8a44ff	0.27005765
133	0xbe64a4a1	-0.22328426
134	0xbe4c4dca	-0.19951549
135	0xbead6db1	-0.3387275
136	0x3e8dc7ee	0.27691597
137	0x3cf66e14	0.030081786
138	0x3e510f5f	0.2041602
139	0x3dd9d0c8	0.10635525
140	0xbed03177	-0.4066274
141	0x3e07b5c0	0.13252926
142	0x3e8d832e	0.27639145
143	0x3c4011ef	0.011723026
144	0x3d8aac0e	0.06771098
145	0xbe2b2aa9	-0.16715492
146	0xbe059461	-0.13044883
147	0xbeb104d3	-0.34573993
148	0x3e8bcda7	0.27305338
149	0x3da1e7eb	0.07905563
150	0xbe8f736a	-0.2801774
151	0x3e5e1a45	0.21689709
152	0xbeab5ade	-0.33467764
153	0x3e59077e	0.21194264
154	0xbdb664b9	-0.0890593
155	0x3df4d85a	0.11955328
156	0xbdeb416d	-0.11487088
157	0x3db01220	0.08597207
158	0x3ea9fb8d	0.3319973
159	0xbe5687fe	-0.20950314
160	0x3e5bcd17	0.21464954
161	0x3e78bd4f	0.24290965
162	0x3e5bc8d2	0.21463326
163	0x3e66b247	0.22528945
164	0xbe64b741	-0.22335531
165	0xbe59924b	-0.21247213
166	0xbe5450bf	-0.20733927
167	0x3e831a53	0.2560602
168	0x3e511cd2	0.2042115
169	0x3e5079a3	0.203589
170	0x3e5f8856	0.21829352
171	0x3e72cb1e	0.23710296
172	0x3e2f64a1	0.1712823
173	0x3e4ba1d2	0.19885948
174	0x3e33dbfe	0.17564389
175	0xbe78ac66	-0.24284515
176	0x3e7347bb	0.23757832
177	0xbe58b0f0	-0.21161246
178	0xbe508330	-0.20362544
179	0x3e753168	0.23944628
180	0x3e5a6a92	0.21329716
181	0xbe7e0c92	-0.24809483
182	0xbe5ab011	-0.21356227
183	0xbe7ad6c2	-0.24495986
184	0x3e4e5b51	0.20152022
185	0x3e6d9146	0.23199949
186	0x3e60517b	0.21906082
187	0x3e6a78a0	0.22897577
188	0x3e7a92cd	0.24470063
189	0x3e63cd61	0.22246315
190	0xbe6d8456	-0.23195013
191	0x3e72a7f0	0.23696876

lstm.weight_ih_l0 f4 [128, 32]
0	0x3e8229c6	0.25422496
1	0x3e902724	0.28154862
2	0x3dce019d	0.100589015
3	0x3e029de7	0.12755547
4	0xbdf89771	-0.1213826
5	0xbe678d94	-0.22612602
6	0xbea9ec49	-0.33188084
7	0x3e372fa3	0.17889266
8	0x3e9af9c3	0.30268678
9	0x3e4377f5	0.19088729
10	0x3e639839	0.22226037
11	0x3e6dca8e	0.232218
12	0x3d258db5	0.040418345
13	0x3e7cfcc9	0.24705805
14	0x3e9d333c	0.3070315
15	0xbe7af6a4	-0.24508148
16	0x3e4633e8	0.19355738
17	0xbe69a1e9	-0.2281567
18	0xbe647260	-0.22309256
19	0x3df84523	0.12122562
20	0x3e713580	0.23555565
21	0xbe53125f	-0.20612477
22	0xbe5dd0d1	-0.21661688
23	0xbe020727	-0.12698041
24	0x3ddb8880	0.10719395
25	0x3e88185f	0.26581094
26	0x3e374338	0.17896736
27	0x3e5984ee	0.21242115
28	0x3e361ab6	0.17783627
29	0x3e5f11e9	0.21784176
30	0xbe029551	-0.12752272
31	0x3e2a5d25	0.16637094
32	0x3e8ae8fa	0.27130872
33	0x3e64a110	0.22327065
34	0x3e77a9cf	0.2418587
35	0x3e53da24	0.20688683
36	0xbe32d580	-0.17464256
37	0xbe5f5042	-0.2180796
38	0xbe90c859	-0.28277853
39	0x3e215a92	0.15757206
40	0x3e6381b5	0.22217448
41	0x3e599d4a	0.21251407
42	0x3e5c2bdc	0.21501106
43	0x3e26bff7	0.16284166
44	0x3e02f237	0.1278771
45	0x3e1cc88a	0.15310875
46	0x3e82ca10	0.25544786
47	0xbe70e7f3	-0.23525982
48	0x3e7d734b	0.24751012
49	0xbe5d9432	-0.21638563
50	0xbe3fd6f5	-0.18734343
51	0x3e146845	0.144929
52	0x3e5336b1	0.20626332
53	0xbe29f88f	-0.16598724
54	0xbe5cb739	-0.21554269
55	0xbe727dfe	-0.23680875
56	0x3e083c2a	0.13304201
57	0x3e71503b	0.23565762
58	0x3e225367	0.15852128
59	0x3e66a431	0.22523572
60	0x3e102ee3	0.14080386
61	0x3e6ac344	0.2292605
62	0xbe4be380	-0.19911003
63	0x3e2d0216	0.16895327
64	0x3e44c5dc	0.19216102
65	0x3e7b2a99	0.24527968
66	0x3e3e453c	0.18581098
67	0x3e5f8b19	0.21830405
68	0xbe270a86	-0.16312608
69	0xbe730a59	-0.23734416
70	0xbe9bb81f	-0.3041391
71	0x3e0b321d	0.13593335
72	0x3e83c267	0.25734255
73	0x3e6d6c7f	0.23185919
74	0x3e86ec5e	0.2635221
75	0x3e7b00df	0.24512051
76	0x3db71093	0.08938708
77	0x3e3a022f	0.18164895
78	0x3e88491d	0.2661828
79	0xbe3942be	-0.18091866
80	0x3e7b96b7	0.24569212
81	0xbe82952f	-0.25504443
82	0xbe88d43e	-0.26724428
83	0x3e44edc4	0.19231325
84	0x3e4e3ea0	0.20141077
85	0xbe59680f	-0.21231101
86	0xbe53d070	-0.20684981
87	0xbe2aa9ea	-0.1666638
88	0x3e36b2ff	0.17841719
89	0x3e8aa147	0.2707617
90	0x3e83101f	0.25598237
91	0x3e51876f	0.2046182
92	0x3e435fb6	0.1907948
93	0x3e7bb540	0.2458086
94	0xbe129fad	-0.14318724
95	0x3e38264f	0.17983364
96	0x3e2aff2f	0.16698907
97	0x3e96aba8	0.29427838
98	0xbd62e88a	-0.055397548
99	0xbd3c1e90	-0.045927584
100	0xbd8cbcee	-0.06871973
101	0xbe96d721	-0.29461005
102	0xbea74117	-0.32666847
103	0xbc949005	-0.01813508
104	0x3e9b3d44	0.3032018
105	0x3e6f2c49	0.23356737
106	0x3e79439c	0.24342197
107	0x3e9416d8	0.28923678
108	0xbdb5c067	-0.088745885
109	0x3e802731	0.250299
110	0x3e93b048	0.2884543
111	0xbe42c5dd	-0.19020791
112	0x3e8f87ef	0.28033397
113	0xbea260d4	-0.317145
114	0xbe8254a7	-0.2545521
115	0xbd045239	-0.032304976
116	0x3e8ae149	0.27125004
117	0xbddfc327	-0.10925894
118	0xbea4ad40	-0.3216343
119	0xbda77797	-0.08177107
120	0xba74ee11	-0.0009343336
121	0x3e968155	0.29395548
122	0x3e32b4fc	0.17451853
123	0x3e7504cc	0.23927611
124	0x3e0f2cdb	0.13981955
125	0x3e70fad6	0.23533186
126	0x3d713979	0.0588927
127	0x3e0bab0b	0.13639466
128	0x3e8a5cdc	0.2702397
129	0x3e7565fd	0.23964687
130	0x3e4bff09	0.19921507
131	0x3e48d365	0.1961189
132	0xbe6a741a	-0.22895852
133	0xbe7d70b0	-0.24750018
134	0xbea0140b	-0.31265292
135	0x3e1665a1	0.14687206
136	0x3e93764a	0.28801185
137	0x3e44594d	0.1917469
138	0x3e468035	0.19384845
139	0x3e5b4a1b	0.21414988
140	0x3d8f264a	0.06989725
141	0x3e2bd597	0.16780697
142	0x3e90160e	0.28141826
143	0xbe76e6b2	-0.24111441
144	0x3e48381b	0.19552653
145	0xbe94c48d	-0.29056206
146	0xbe36fa19	-0.17868842
147	0x3e3b31dd	0.1828074
148	0x3e575cfc	0.21031564
149	0xbe5e7ba6	-0.21726856
150	0xbe4db107	-0.20087062
151	0xbe1d3861	-0.15353538
152	0x3e001c0a	0.12510696
153	0x3e870b07	0.263756
154	0x3e38864f	0.18019985
155	0x3e805d0f	0.25070998
156	0x3e4312fe	0.19050214
157	0x3e6d175b	0.2315344
158	0xbe4204e6	-0.18947181
159	0x3e279d94	0.16368705
160	0x3d70d42d	0.058796097
161	0x3e4380d5	0.19092114
162	0xbe1fc05f	-0.15600727
163	0xbddbd4eb	-0.1073397
164	0x3dc5a816	0.096512005
165	0xbe8416a0	-0.25798512
166	0xbeb66726	-0.3562557
167	0xbe24fff6	-0.16113266
168	0x3ea8620e	0.3288731
169	0x3e43ea4a	0.19132343
170	0x3ea8539c	0.3287629
171	0x3e304923	0.172154
172	0xbe8782b6	-0.26466912
173	0x3e763a8d	0.24045773
174	0x3ea4d92d	0.32196942
175	0xbd06f925	-0.032952446
176	0x3e4d2854	0.20034915
177	0xbe9f5c69	-0.3112519
178	0xbea015a6	-0.31266516
179	0xbe1cdde0	-0.15319014
180	0x3e8e1d80	0.27756882
181	0xbdcad795	-0.099044
182	0xbea528d6	-0.32257718
183	0x3cd6b609	0.026209848
184	0xbe344b83	-0.1760693
185	0x3e80423b	0.2505053
186	0xbc62adfe	-0.013835428
187	0x3e877c86	0.2646219
188	0x3d163c6b	0.036678713
189	0x3e201ff0	0.15637183
190	0x3e4f8e16	0.20269045
191	0xbd87fff2	-0.066406146
192	0x3e68893e	0.22708604
193	0x3e84417b	0.25831208
194	0x3e3d953a	0.18513957
195	0x3e1fc9d7	0.1560434
196	0xbe0d261c	-0.13784069
197	0xbe93a0c4	-0.28833592
198	0xbe8c6bc6	-0.27425975
199	0x3e1599ac	0.14609402
200	0x3e9437d7	0.28948852
201	0x3e519c56	0.20469794
202	0x3e91f42f	0.2850661
203	0x3e5ceb52	0.21574143
204	0x3cf32c0b	0.029684087
205	0x3e5b2db9	0.2140416
206	0x3e568322	0.2094846
207	0xbe70692b	-0.23477618
208	0x3e83f14d	0.25770035
209	0xbe9a935b	-0.30190548
210	0xbe441641	-0.19149114
211	0x3e0533bf	0.13008021
212	0x3e6f45e4	0.23366505
213	0xbe7706ad	-0.2412364
214	0xbe80cf9e	-0.251584
215	0xbe194de5	-0.1497112
216	0x3dd8b9c3	0.10582306
217	0x3e8a72bc	0.2704066
218	0x3e7901d1	0.24317099
219	0x3e5f6a46	0.21817884
220	0x3e6b5dd3	0.2298501
221	0x3e6b24fe	0.2296333
222	0xbe11dbd1	-0.1424401
223	0x3e6997b3	0.22811775
224	0x3e8619b9	0.261915
225	0x3e876aa5	0.2644855
226	0x3e24f1fc	0.16107935
227	0x3dfbbde2	0.12292077
228	0xbe064777	-0.13113199
229	0xbe63105a	-0.22174206
230	0xbe8ad25e	-0.27113622
231	0x3e251f5d	0.16125245
232	0x3e94ba16	0.29048222
233	0x3e6600ab	0.22461192
234	0x3e7bb6ef	0.24581502
235	0x3e52536a	0.20539632
236	0x3d69b73e	0.05705952
237	0x3e64c06b	0.22339027
238	0x3e8b00b4	0.27148974
239	0xbe7d3e26	-0.24730739
240	0x3e492097	0.19641338
241	0xbe7f84ad	-0.24952956
242	0xbe61fac5	-0.22068317
243	0x3d97f3ad	0.07419524
244	0x3e83d720	0.25750065
245	0xbe5ed266	-0.21759948
246	0xbe9bfc58	-0.3046596
247	0xbe2338bf	-0.15939616
248	0x3dd2cc9e	0.10292934
249	0x3e7417d0	0.23837209
250	0x3e752a5c	0.2394194
251	0x3e63ff51	0.22265364
252	0x3e4e2efb	0.20135109
253	0x3e7b0696	0.24514231
254	0xbe121e3c	-0.14269346
255	0x3e290d19	0.16508903

lstm.weight_hh_l0 f4 [128, 32]
0	0x3d173588	0.036916286
1	0xbd621d44	-0.05520369
2	0xbd376a55	-0.04477914
3	0x3d8d042a	0.0688556
4	0xbd8ecd77	-0.06972783
5	0x3d64f24f	0.055895146
6	0x3ce862ad	0.028367365
7	0xbd1843ae	-0.03717392
8	0xbd2dad3f	-0.04240155
9	0xbe166193	-0.14685659
10	0xbd3359d2	-0.04378683
11	0x3cc85414	0.024454154
12	0xbd9a0734	-0.07520905
13	0xbe150096	-0.14551005
14	0x3d94740f	0.07248699
15	0x3d9d6628	0.076855004
16	0xbbbb6440	-0.005718738
17	0x3df1b3d7	0.1180188
18	0xbc91472b	-0.01773413
19	0xbe6c78a9	-0.23092903
20	0xbcae7e6a	-0.021300513
21	0x3e41d95d	0.18930574
22	0xbd97baec	-0.074086994
23	0x3dbb10fa	0.091340974
24	0xbdb0f56d	-0.08640561
25	0x3d30af4b	0.043135922
26	0x3db7e03b	0.089783154
27	0x3e196b61	0.14982368
28	0x3bf20792	0.0073861564
29	0x3db132d5	0.086522736
30	0xbe3110b0	-0.17291522
31	0xbdcede29	-0.101009674
32	0x3d2919b9	0.041284297
33	0xbd2c0c5b	-0.04200397
34	0xbb4181fa	-0.0029526935
35	0x3d9a6760	0.075392485
36	0xbce06545	-0.02739204
37	0x3d6913d9	0.056903694
38	0xbbb59527	-0.005541462
39	0xbccfbd32	-0.02535877
40	0xbdc2a929	-0.09504921
41	0xbe4a00bb	-0.19726841
42	0xbcea6c0c	-0.028615974
43	0x3d8d2a7a	0.068928674
44	0xbda4f83a	-0.08055158
45	0xbd574bb2	-0.052562423
46	0x3ce14bbf	0.027501939
47	0x3d719e99	0.05898914
48	0xbdc09c8b	-0.09404858
49	0x3de80caa	0.113305405
50	0x3c4e8bb3	0.012606549
51	0xbe2d306c	-0.16913003
52	0xbd967628	-0.07346755
53	0x3db65a36	0.08903925
54	0x3c64b306	0.013958698
55	0x3c8096f9	0.01569699
56	0xbd8ca3a9	-0.06867153
57	0x3ce4668e	0.027880933
58	0x3dcf70dd	0.10128949
59	0x3db6511b	0.089021884
60	0x396ca3aa	0.00022567683
61	0x3d4632f6	0.048388444
62	0xbdd8f07f	-0.10592746
63	0xbdeb2e9e	-0.11483501
64	0x3db96f5c	0.09054443
65	0xbd02f1db	-0.031968933
66	0xbd80a7a7	-0.06281977
67	0x3d47886f	0.048714098
68	0xbda00378	-0.078131616
69	0x3e029f75	0.1275614
70	0x3caf5378	0.021402106
71	0xbd27c7ac	-0.040961906
72	0xbd356674	-0.04428716
73	0xbe26f05e	-0.1630263
74	0xbc951d0a	-0.018202323
75	0x3dd83cb5	0.10558454
76	0xbe2079aa	-0.15671411
77	0xbdffde99	-0.12493629
78	0x3d00e481	0.03146792
79	0x3db2766b	0.08713993
80	0xbd5a6835	-0.053322036
81	0x3de2b9d2	0.11070599
82	0xbc33f41f	-0.010983496
83	0xbe543c68	-0.20726168
84	0xbcfbe09e	-0.030746754
85	0x3e24d07b	0.16095154
86	0xbd67a222	-0.056551106
87	0x3daf5b74	0.08562365
88	0x3bc078ba	0.0058737667
89	0xbc92b95f	-0.017910657
90	0x3e06d3ed	0.13166781
91	0x3e1a0fa8	0.15045035
92	0xbd97e87d	-0.074173905
93	0x3d866b47	0.0656343
94	0xbe0c8f1b	-0.13726465
95	0xbdcb3611	-0.09922422
96	0x3d3606f6	0.044440232
97	0xbdb8c1e4	-0.09021357
98	0xbcf00a6b	-0.029301843
99	0xbbe1569a	-0.006876779
100	0xbd7742fc	-0.060366616
101	0x3e0b8954	0.13626605
102	0x3dcf2b1b	0.101156436
103	0xbdeae7cb	-0.11469992
104	0xbdd4280b	-0.103592
105	0xbe14aa48	-0.14518082
106	0xbd3596e5	-0.044333357
107	0x3d47ad26	0.04874911
108	0xbe252d55	-0.16130574
109	0xbda95465	-0.0826805
110	0x3e03d76f	0.1287515
111	0x3dbccc64	0.09218672
112	0xbdfc04ff	-0.123056404
113	0x3dc2656a	0.094919994
114	0xbda306d9	-0.079602905
115	0xbe19e11a	-0.15027276
116	0xbd72c5e6	-0.059270762
117	0x3d99a202	0.07501604
118	0xbdc0d868	-0.09416276
119	0x3cb40295	0.021973887
120	0x3c8db274	0.017297007
121	0x3d738b7a	0.059459187
122	0x3d47faac	0.048823044
123	0x3e050b43	0.12992577
124	0xbd93abaa	-0.07210477
125	0x3daa5651	0.08317245
126	0xbe2ab56d	-0.16670771
127	0xbe16167d	-0.14657016
128	0x3c9c063a	0.019045938
129	0xbd8a7d42	-0.06762172
130	0xbdb18eef	-0.086698405
131	0x3b9b7bb7	0.0047449726
132	0xbd451ad4	-0.04812129
133	0x3d83bf90	0.06433022
134	0x3d5649dd	0.052316535
135	0xbd92fc34	-0.0717701
136	0xbd327446	-0.04356792
137	0xbe49fa6c	-0.19724435
138	0xbc924ea8	-0.017859772
139	0x3c39305e	0.011303036
140	0xbd736e73	-0.059431504
141	0xbd796bba	-0.06089375
142	0x3dc718d6	0.09721534
143	0x389b119d	7.394257e-05
144	0xbdba0401	-0.09082795
145	0x3d9e8957	0.07741039
146	0xbd3f985e	-0.046776168
147	0xbe4c5921	-0.19955875
148	0xbda33eb5	-0.07970945
149	0x3e1edbe8	0.15513575
150	0xbd506eff	-0.050887104
151	0x3d7ccef3	0.0617208
152	0x3c0623fb	0.008187289
153	0xbcfac2be	-0.030610438
154	0x3db1cdd5	0.086818375
155	0x3da8a39f	0.08234333
156	0xbdb40ff9	-0.08792109
157	0x3da0a6fb	0.07844349
158	0xbdabb88d	-0.0838481
159	0xbdbb3108	-0.09140211
160	0xba0e66f1	-0.00054322096
161	0xbd963a11	-0.07335294
162	0x3d2a9596	0.041646563
163	0x3daab3d9	0.083350845
164	0x3d1cfc82	0.038326748
165	0x3dc26953	0.09492745
166	0xbcd5a33c	-0.026078813
167	0x3d42e22b	0.04757897
168	0xbd4dbe22	-0.050230153
169	0xbe81c948	-0.25348878
170	0xbcdb65d4	-0.026781954
171	0x3d4e1e5c	0.05032192
172	0xbe27969b	-0.16366045
173	0xbe10ceca	-0.14141384
174	0x3d6a61af	0.057222065
175	0x3ca27662	0.01983184
176	0xbc9a8a6b	-0.018864831
177	0x3e1f9204	0.15583044
178	0x3d1a3a91	0.03765351
179	0xbe5291e2	-0.20563462
180	0xbc97d887	-0.018535865
181	0x3dc96ec1	0.09835578
182	0x3d690148	0.056885988
183	0x3d477f5a	0.048705436
184	0xbd5cad05	-0.05387594
185	0x3a4fa862	0.00079215143
186	0x3e63c7a4	0.22244126
187	0x3e072cf6	0.13200745
188	0x3c45e5eb	0.0120787425
189	0x3d94a159	0.07257337
190	0xbe33e769	-0.17568745
191	0xbd719618	-0.05898103
192	0x3d70186b	0.058617037
193	0xbd013595	-0.03154524
194	0xbcbb595b	-0.022869756
195	0x3d97937a	0.07401176
196	0xbd4c0415	-0.04980858
197	0x3ddc5a24	0.107593805
198	0x3dac0ebb	0.08401247
199	0xbd4f4da2	-0.050611146
200	0xbd92d3b8	-0.071692884
201	0xbe3a3275	-0.1818331
202	0xbbbad9a7	-0.0057022157
203	0x3dc3b32b	0.09555658
204	0xbdd63bea	-0.104606465
205	0xbde7d738	-0.113203466
206	0x3d161bd3	0.03664763
207	0x3d5241da	0.051332332
208	0xbdb7af37	-0.089689665
209	0x3d7fa07b	0.062408905
210	0xbdd11066	-0.10208206
211	0xbdd674b7	-0.1047148
212	0xbd02d914	-0.031945303
213	0x3dcf6d95	0.10128323
214	0xbd5a9828	-0.053367764
215	0x3d2b1a25	0.04177298
216	0x3c805b21	0.015668454
217	0x3c485560	0.012227386
218	0x3e0fcb61	0.14042427
219	0x3e347399	0.17622222
220	0xbc4aac57	-0.012370191
221	0x3d70e2b2	0.058809943
222	0xbe207283	-0.15668683
223	0xbd83d56f	-0.064371936
224	0x3d4d5d2b	0.05013768
225	0xbd0e7a92	-0.03478486
226	0xbc4cc981	-0.012499214
227	0x3c7aac42	0.0152998585
228	0xbd8f26bc	-0.0698981
229	0x3ddeafaf	0.10873353
230	0x3ce26b0f	0.02763894
231	0xbd017d85	-0.031613845
232	0xbc15ac16	-0.009135267
233	0xbe1d0d63	-0.15337138
234	0x3b89e87f	0.004208624
235	0x3cf4b542	0.029871587
236	0xbd9e8e25	-0.07741956
237	0xbe1cc829	-0.1531073
238	0x3cbab3b1	0.022790762
239	0x3d5753d5	0.052570183
240	0xbd76eb9d	-0.060283292
241	0x3d946b3f	0.07247018
242	0xbc8e551d	-0.01737457
243	0xbdde59cf	-0.108569734
244	0xbd1f5db1	-0.03890771
245	0x3dade791	0.084914334
246	0xbd4fae69	-0.05070344
247	0xbc3b0b81	-0.011416317
248	0x3b9bfbe6	0.0047602532
249	0x3d2dc7ca	0.04242686
250	0x3db7cff5	0.089752115
251	0x3dd040d4	0.10168615
252	0xbda404bc	-0.080087155
253	0x3d67f444	0.056629434
254	0xbe1f8cf4	-0.15581113
255	0xbd8b687f	-0.068070404

lstm.bias_ih_l0 f4 [128]
0	0x3e1e391e	0.15451476
1	0x3e016c0d	0.12638874
2	0x3daa46da	0.08314295
3	0x3e452869	0.19253697
4	0x3de944dc	0.11390087
5	0x3e869290	0.26283693
6	0x3e31e43d	0.17372222
7	0x3e167074	0.14691335
8	0x3e05c0f8	0.13061893
9	0x3e2e2b4b	0.17008702
10	0x3e0ff5f1	0.14058663
11	0x3e384b47	0.17997466
12	0x3e5dec2a	0.2167212
13	0x3e5e2551	0.21693923
14	0x3e302ff7	0.17205797
15	0x3e52de39	0.20592584
16	0x3dc808a5	0.09767274
17	0x3e67e6f0	0.2264669
18	0x3e1281ee	0.14307377
19	0x3e909adb	0.28243145
20	0x3e46fae6	0.19431648
21	0x3e03d313	0.12873487
22	0x3dfecd49	0.12441499
23	0x3e16159f	0.14656685
24	0x3e371972	0.178808
25	0x3e597b3a	0.21238413
26	0x3e8238f8	0.2543409
27	0x3e2429d9	0.16031589
28	0x3e335633	0.17513351
29	0x3e1d90f0	0.1538732
30	0x3e3442f3	0.17603664
31	0x3e3fc608	0.18727887
32	0x3bf3cfd1	0.007440545
33	0xbb059084	-0.0020380327
34	0x3cae7073	0.021293854
35	0x3d91f84a	0.071274355
36	0x3bcdfaa2	0.0062859813
37	0xbc7e6343	-0.0155265955
38	0x3da22682	0.07917501
39	0x3cb7b3c7	0.022424592
40	0x3d58db78	0.052943677
41	0x3dee61e7	0.11639767
42	0x3cc5e592	0.02415732
43	0x3cd0b818	0.025478408
44	0x3cbbc6bb	0.02292191
45	0x3c74c5cb	0.014939736
46	0x3d024498	0.031803697
47	0xbcfcf99c	-0.030880742
48	0x3d9ddec8	0.07708508
49	0x3d23c62a	0.039983906
50	0x3d8928a4	0.06697205
51	0x3e438b8c	0.19096202
52	0x3c9ed7cd	0.019390011
53	0x3c76b3eb	0.015057544
54	0x3d9f5300	0.07779503
55	0x3d73ed04	0.059552208
56	0xbc941e0f	-0.01808074
57	0x3dbdcfca	0.09268148
58	0x3d75284e	0.05985289
59	0x3e127570	0.14302611
60	0x3d8a75f3	0.06760778
61	0x3cb0bc91	0.02157429
62	0x3ccdd8ea	0.025127847
63	0x3bb893f9	0.005632874
64	0x3d9c30c7	0.07626491
65	0xbdf2cffd	-0.11856077
66	0xbda5c891	-0.08094896
67	0x3ddecc0c	0.108787626
68	0xbd8cbed3	-0.06872334
69	0x3da7ee2a	0.08199723
70	0x3dca8e3e	0.09890412
71	0xbd1a3dcf	-0.0376566
72	0xbd9657b5	-0.073409475
73	0xbe2c0484	-0.16798598
74	0xbdac545b	-0.08414527
75	0x3da9a619	0.08283634
76	0xbe07bb42	-0.13255027
77	0xbe015f75	-0.1263407
78	0x3de5bab0	0.112172484
79	0x3d8cb039	0.06869549
80	0xbd43356e	-0.047658376
81	0x3dd67669	0.10471804
82	0xbd7ceeaf	-0.061751064
83	0xbe3b97d4	-0.18319637
84	0xbdf4f298	-0.119603336
85	0x3d8e6696	0.069531605
86	0xbcb1ca7d	-0.021703
87	0x3dd2cec6	0.10293345
88	0xbd375125	-0.04475512
89	0xbc5f5d88	-0.013633139
90	0x3e2bb025	0.16766413
91	0x3e25f709	0.16207518
92	0xbda65f0c	-0.081235975
93	0x3da8779f	0.08225941
94	0xbe0e6306	-0.13904962
95	0xbe02ff4a	-0.12792698
96	0x3e0535b3	0.13008766
97	0x3d51725b	0.05113445
98	0x3dc95574	0.09830752
99	0x3e5b8b9c	0.21439976
100	0x3e1308e1	0.14358856
101	0x3e3c6af7	0.18400179
102	0x3de7a3d3	0.11310544
103	0x3e48e0dc	0.19617027
104	0x3e01c95c	0.12674469
105	0x3e2d91e4	0.16950184
106	0x3e30cf95	0.17266686
107	0x3dc85825	0.09782437
108	0x3db05f93	0.08611979
109	0x3dab04a2	0.08350493
110	0x3dad3c74	0.08458796
111	0x3e0b3c4e	0.13597223
112	0x3ddba34e	0.10724507
113	0x3e42f295	0.1903785
114	0x3dcf3895	0.10118214
115	0x3e805f70	0.25072813
116	0x3de81eea	0.113340214
117	0x3e1c13e5	0.15241964
118	0x3df792ad	0.12088523
119	0x3db52a9d	0.088460185
120	0x3e21d98d	0.15805645
121	0x3e0f8d86	0.1401883
122	0x3e4c1cec	0.19932908
123	0x3d61271e	0.054968946
124	0x3db34a4d	0.08754406
125	0x3e1f5c4f	0.15562557
126	0x3dcc6bfe	0.099815354
127	0x3de31c35	0.110893644

lstm.bias_hh_l0 f4 [128]
0	0x3de0b976	0.10972874
1	0x3e17e755	0.1483434
2	0x3e0e66c0	0.13906384
3	0x3e372354	0.1788457
4	0x3df24344	0.11829236
5	0x3e643612	0.22286251
6	0x3e2f123c	0.170968
7	0x3e58cbad	0.21171446
8	0x3e1c51bd	0.15265556
9	0x3e3f0106	0.18652734
10	0x3dcd81da	0.10034533
11	0x3db0a154	0.08624521
12	0x3e088cb5	0.13334925
13	0x3e61f9be	0.22067925
14	0x3e169115	0.14703782
15	0x3e22c3fd	0.15895076
16	0x3e312159	0.17297877
17	0x3e5b2ce6	0.21403846
18	0x3e004182	0.12524989
19	0x3e5289d9	0.20560397
20	0x3e44e231	0.1922691
21	0x3e1a9c2a	0.15098634
22	0x3e20b42b	0.15693729
23	0x3d771805	0.06032564
24	0x3e6e0b70	0.2324655
25	0x3e3dc541	0.18532278
26	0x3e42154b	0.18953435
27	0x3e6d7664	0.23189694
28	0x3e049185	0.12946136
29	0x3e0c716e	0.13715145
30	0x3e34314b	0.17596929
31	0x3db37298	0.087620914
32	0x3d553770	0.052054822
33	0x3d9a9986	0.075488135
34	0x3ce4483b	0.027866473
35	0x3d952b86	0.07283692
36	0x3cb53082	0.022117857
37	0xbca34e89	-0.01993491
38	0x3d521be4	0.05129613
39	0x3d39bc72	0.04534573
40	0x3daad225	0.08340863
41	0x3dc9d759	0.098555274
42	0x3d4b0484	0.049564853
43	0x3b0c8828	0.002144346
44	0x3ca00ade	0.019536432
45	0xbc0540c8	-0.008133121
46	0x3d92ca7c	0.07167527
47	0xbc01c8f9	-0.007921451
48	0x3c7d1fe3	0.015449497
49	0x3cc7fd9e	0.024412926
50	0xbbd708d9	-0.006562334
51	0x3e0dc2ad	0.13843794
52	0x3cda04aa	0.026613552
53	0x3d1dfcfe	0.03857135
54	0x3d9f3df8	0.077754915
55	0x3d3eeef2	0.046614595
56	0xbbd542c5	-0.0065082037
57	0x3c4c06c4	0.012452785
58	0x3db51a33	0.08842888
59	0x3d9bc3e7	0.07605725
60	0x3da82e79	0.08211989
61	0x3c0e1e64	0.008674238
62	0x3d49ab14	0.04923542
63	0x3d09fb96	0.033687197
64	0x3d0b703e	0.03404259
65	0xbd889cb7	-0.06670516
66	0xbd76003c	-0.060058817
67	0x3d37c2d5	0.04486354
68	0xbdc658a2	-0.09684874
69	0x3e101982	0.1407223
70	0x3cfddd75	0.030989388
71	0xbd8c4c06	-0.06850438
72	0xbde92d46	-0.11385588
73	0xbe4439a3	-0.19162612
74	0xbd5f6b47	-0.054545667
75	0x3dd8e48e	0.10590468
76	0xbe108aea	-0.14115492
77	0xbe25dc73	-0.16197376
78	0x3dce0fc5	0.100616015
79	0x3d32e49d	0.043675054
80	0xbdefcf87	-0.117095046
81	0x3e17fab6	0.14841732
82	0xbd073f03	-0.033019077
83	0xbe30f742	-0.17281821
84	0xbd9b4423	-0.075813554
85	0x3df4d874	0.11955348
86	0xbdbf44c8	-0.09339291
87	0x3da3c988	0.079974234
88	0x3c1bcbe2	0.009509059
89	0x3d62474f	0.055243786
90	0x3e163e8c	0.14672297
91	0x3e0d8cfe	0.13823316
92	0xbdcbb255	-0.099461235
93	0x3da8d473	0.082436465
94	0xbe140133	-0.14453582
95	0xbe099a34	-0.1343773
96	0x3dd6bbc9	0.10485036
97	0x3da04894	0.07826343
98	0x3dd80d90	0.10549462
99	0x3e37bb55	0.17942555
100	0x3e12df18	0.14342916
101	0x3db3dcc2	0.087823406
102	0x3dfc9fbd	0.12335155
103	0x3e4b768a	0.19869438
104	0x3e066987	0.13126193
105	0x3de71822	0.112839
106	0x3daa3079	0.08310027
107	0x3dbcd552	0.09220375
108	0x3e09ed59	0.13469447
109	0x3da84b70	0.082175136
110	0x3e14b22a	0.14521089
111	0x3e3287c6	0.17434606
112	0x3daf0135	0.08545152
113	0x3df8ec2a	0.1215442
114	0x3dfb8270	0.12280738
115	0x3e42e30f	0.19031928
116	0x3d9ef479	0.07761473
117	0x3daca739	0.08430333
118	0x3e0bc2fe	0.13648602
119	0x3df4e49d	0.11957667
120	0x3e720e51	0.23638274
121	0x3e4c1858	0.19931161
122	0x3e21ceee	0.15801594
123	0x3d96438d	0.07337103
124	0x3dd8747e	0.10569094
125	0x3e0c50ac	0.13702649
126	0x3e00be5f	0.12572621
127	0x3dc17f1b	0.094480716

lin.weight f4 [6, 32]
0	0xbe4cdec0	-0.20006847
1	0x3df77140	0.120821476
2	0x3dc79f21	0.09747148
3	0x3e8d0302	0.27541357
4	0x3dd5fad6	0.10448234
5	0x3e7076bb	0.23482792
6	0xbe17958f	-0.14803146
7	0x3e4d2051	0.20031859
8	0x3d1e7c3e	0.038692705
9	0xbe9fb3a1	-0.31191733
10	0x3ddbec7b	0.107384644
11	0xbe0e4f58	-0.13897455
12	0xbe54cf6c	-0.2078225
13	0xbe62fe51	-0.22167327
14	0x3d8b8b26	0.0681365
15	0xbe55715f	-0.20844029
16	0x3d6049a2	0.05475772
17	0x3e7a9ef9	0.24474706
18	0x3e1c8e5b	0.1528868
19	0xbe8a4a50	-0.2700982
20	0xbddafeb2	-0.106931105
21	0x3e1496e0	0.14510679
22	0x3e289af1	0.16465355
23	0x3c127330	0.008938596
24	0xbe5d1bf8	-0.215927
25	0xbe774522	-0.24147466
26	0x3e8c27f9	0.27374247
27	0x3e8bfbdb	0.27340588
28	0x3e11bba9	0.14231743
29	0xbe35be1b	-0.177483
30	0xbe82c984	-0.2554437
31	0xbdc316ab	-0.09525808
32	0xbca523a7	-0.020158602
33	0x3d0e9b19	0.03481588
34	0x3df548b7	0.1197676
35	0xbda22157	-0.07916515
36	0x3d3e7c8f	0.046505507
37	0xbe3c5c71	-0.18394639
38	0xbc05a927	-0.008158005
39	0x3d80d77a	0.06291099
40	0x3dd6622b	0.10467943
41	0x3e7332a3	0.23749785
42	0x3d12896e	0.035775594
43	0xbdb0a449	-0.08625085
44	0x3e1389ce	0.14408037
45	0x3e39b59b	0.18135683
46	0xbdf43eeb	-0.11926063
47	0x3bfc5452	0.0077004815
48	0x3d809c02	0.06279756
49	0xbe0e46ce	-0.13894197
50	0x3d943f5e	0.07238649
51	0x3e835961	0.25654128
52	0x3e20162a	0.15633455
53	0xbe6021df	-0.21887921
54	0x3d873ed0	0.066037774
55	0xbe25d37d	-0.16193958
56	0x3ce5179a	0.027965356
57	0x3bb65f00	0.005565524
58	0xbdc07ae6	-0.09398441
59	0xbe24caf6	-0.16093048
60	0x3dc4abd6	0.096030876
61	0xbc960d64	-0.018316932
62	0x3e3df344	0.1854983
63	0x3e2068ee	0.15665027
64	0xbda2ba7f	-0.079457276
65	0x3d90473e	0.07044838
66	0x3d5cd59b	0.053914648
67	0xbd126348	-0.035739213
68	0x3ca290f9	0.019844519
69	0xbe4db997	-0.20090328
70	0xbcca81cb	-0.024720093
71	0x3d37e765	0.04489841
72	0x3d3011f4	0.04298587
73	0x3e7b9a66	0.24570617
74	0x3d64fd2f	0.055905517
75	0xbcfcdd48	-0.030867234
76	0x3e0ae76e	0.13564846
77	0x3e16b171	0.14716126
78	0xbe2439c9	-0.16037668
79	0xbd44022c	-0.047853634
80	0x3e07bb54	0.13255054
81	0xbe4fe5c1	-0.20302488
82	0x3c8d2c32	0.017232988
83	0x3e9048d0	0.28180552
84	0x3dcf09bf	0.10109281
85	0xbe05b753	-0.13058214
86	0x3da598df	0.080857985
87	0xbe16f1c3	-0.14740662
88	0x3c2bbe70	0.010482416
89	0xbc994e5c	-0.018714122
90	0xbe0b8c56	-0.13627753
91	0xbe2ed1c6	-0.1707221
92	0x3c01bb3b	0.007918174
93	0xbda6e6c7	-0.08149486
94	0x3e3bbf53	0.18334703
95	0x3d9e68d0	0.07734835
96	0xbc82baea	-0.015958268
97	0x3d8937c8	0.067000926
98	0x3cd0d3b8	0.02549158
99	0xbc99276a	-0.018695552
100	0x3d9733b9	0.07382912
101	0xbe34281a	-0.17593423
102	0xbcedcb3b	-0.029027572
103	0x3bc38ac9	0.005967472
104	0x3dd4da30	0.103931785
105	0x3e694740	0.22781086
106	0x3da28e6c	0.07937321
107	0xbcb32208	-0.021866813
108	0x3e1a9422	0.1509557
109	0x3e42f365	0.1903816
110	0xbe1e83ad	-0.15479918
111	0xbc6e341e	-0.014538793
112	0x3d9313b8	0.071814954
113	0xbe4cc4da	-0.19996968
114	0xbc80049b	-0.015627196
115	0x3e9a18db	0.30097088
116	0x3e214e27	0.15752469
117	0xbe1e3c6a	-0.15452734
118	0x3cbd8563	0.023134893
119	0xbe37c281	-0.17945291
120	0xbcd4fba7	-0.025998903
121	0xbc94d289	-0.018166797
122	0xbdb3c6b3	-0.08778133
123	0xbe3b6e43	-0.1830378
124	0x3d8b65dd	0.06806538
125	0x3a1b3c6d	0.0005921785
126	0x3e1950cd	0.1497223
127	0x3dfdac47	0.12386375
128	0xbd8b42fd	-0.067998864
129	0x3dc04a05	0.09389118
130	0x3d5a8001	0.05334473
131	0xbd3c5b21	-0.045985345
132	0x3d852739	0.06501622
133	0xbe64e008	-0.22351086
134	0xbcc21289	-0.023690479
135	0x3c92c239	0.017914878
136	0x3e00cd33	0.12578277
137	0x3e892c3c	0.2679156
138	0x3d5ed66b	0.054403704
139	0xbcee62a9	-0.02909978
140	0x3e190bb0	0.14945865
141	0x3e4b464b	0.19851033
142	0xbe0a28d3	-0.13492136
143	0xbd40d7ee	-0.047080927
144	0x3dd2ddbf	0.10296201
145	0xbe6b4cc8	-0.22978508
146	0x3d1ceddc	0.038312778
147	0x3e83c49d	0.25735942
148	0x3db0a474	0.08625117
149	0xbe07ec9b	-0.13273852
150	0x3d34bd97	0.04412612
151	0xbdc88e96	-0.09792821
152	0xbc271b5a	-0.010199392
153	0xbd0c0377	-0.03418299
154	0xbdba9563	-0.091105245
155	0xbe41f6eb	-0.18941848
156	0x3c7d6add	0.015467373
157	0xbd8d7290	-0.06906617
158	0x3e278252	0.16358307
159	0x3dc0f6ea	0.09422095
160	0x3e1ee932	0.15518644
161	0xbe0b252e	-0.13588402
162	0xbe43d489	-0.19124044
163	0xbe49b14d	-0.19696541
164	0xbe304db0	-0.17217135
165	0x3d53ec97	0.0517393
166	0x3e395291	0.18097903
167	0xbe23061c	-0.159203
168	0xbe2b38c4	-0.16720873
169	0x3e39a0cc	0.18127745
170	0xbe2b537e	-0.16731068
171	0x3e26638e	0.16248915
172	0xbd97f61c	-0.074199885
173	0xbcb67e7d	-0.022277111
174	0x3e0c82f2	0.13721827
175	0x3e23ff77	0.16015421
176	0xbe216e84	-0.15764815
177	0x3d371836	0.044700824
178	0xbe2f3d95	-0.17113335
179	0xbe1bb85f	-0.1520705
180	0xbe01109d	-0.12603994
181	0x3dea8dbe	0.114528164
182	0xbe0ab6b8	-0.13546264
183	0x3ddcc2a2	0.10779311
184	0x3e40794c	0.18796271
185	0x3e341728	0.17586958
186	0xbe533833	-0.20626907
187	0xbcb6f771	-0.022334786
188	0xbe319e46	-0.17345533
189	0x3e258f68	0.16167986
190	0xbd2e257b	-0.042516213
191	0xbd96b476	-0.07358639

lin.bias f4 [6]
0	0x3e1d0a66	0.15335998
1	0xbd1dcc21	-0.03852475
2	0xbd9857b1	-0.07438601
3	0xbd823e5c	-0.0635955
4	0xbd291672	-0.04128117
5	0x3c4bb9a9	0.012434402
