checkpoints/MLE_space_False_length_3_preTrainG_epoch_271.pth (torch_old, 36090 bytes, 7 tensors)

emb.weight f4 [5, 32]
0.18722701 0.25922772 0.119803354 0.25979787 -0.23985998 0.251907 0.21365121 0.24625595
0.15416256 0.056785263 -0.26914215 0.27425134 -0.18412283 0.14907847 -0.1530411 -0.16617376
-0.15417524 0.2056644 0.22399355 -0.35041842 -0.23382434 -0.1595264 -0.15457146 -0.34982777
-0.2563665 0.2662175 0.114352815 0.25562796 0.13143697 0.17692605 0.1511731 -0.19115077
-0.2038937 -0.15212607 -0.22650091 -0.21780352 0.19550507 -0.19801377 -0.19804364 -0.19768831
-0.15636933 -0.16474794 0.17185526 -0.18037173 0.1873893 -0.17525227 0.21252546 0.17875056
0.14094546 -0.22563921 -0.17586978 -0.17206354 0.21910505 0.216678 0.21270235 -0.16520248
0.17931186 -0.15597394 -0.16332385 -0.14343415 -0.17089108 -0.22252211 -0.20271443 0.22024862
-0.22290513 -0.19295911 -0.22469713 -0.18058528 0.21009232 -0.103864394 -0.19784811 -0.15765901
-0.22022812 -0.18705055 0.22285807 -0.15860835 0.19350952 -0.18601413 0.22800803 0.19351572
0.21645167 -0.16964987 -0.1418154 -0.20571665 0.18762363 0.19854864 0.1663563 -0.20728946
0.17637956 -0.20310132 -0.22619782 -0.20890535 -0.20624581 -0.14618799 -0.22914816 0.16690058
-0.20671327 -0.16505595 -0.18833278 -0.17849205 0.20529935 -0.17760074 -0.164848 -0.20869265
-0.19200702 -0.23710707 0.19481373 -0.19891454 0.16416611 -0.18983074 0.18610518 0.21379383
0.17119606 -0.15535228 -0.18821795 -0.18921994 0.15606241 0.16862494 0.16248827 -0.19146287
0.1947879 -0.16451025 -0.23048015 -0.20174399 -0.15134697 -0.17291208 -0.18378685 0.22592016
-0.1490215 -0.15933964 -0.21054262 -0.17485583 0.21359804 -0.18442138 -0.19643126 -0.12240749
-0.21937929 -0.17425261 0.1410038 -0.13288648 0.15857962 -0.21553044 0.18277232 0.159023
0.22695433 -0.14294584 -0.21623647 -0.21143346 0.17734712 0.21170308 0.21329926 -0.20714119
0.15235238 -0.22479641 -0.16003826 -0.20089465 -0.19018355 -0.21256642 -0.20468155 0.14896213
00000000: 70b8 3f3e 7fb9 843e 765b f53d 3a04 853e
00000010: db9d 75be f4f9 803e 62c7 5a3e 852a 7c3e
00000020: cadc 1d3e aa97 683d 00cd 89be ac6a 8c3e
00000030: b28a 3cbe 07a8 183e ceb6 1cbe 7429 2abe
00000040: 1de0 1dbe b099 523e 915e 653e 0b6a b3be
00000050: a66f 6fbe e35a 23be fb47 1ebe a01c b3be
00000060: 7842 83be a94d 883e cf31 ea3d abe1 823e
00000070: 6a97 063e 1a2c 353e 1fcd 1a3e 07bd 43be
00000080: 83c9 50be f0c6 1bbe dbef 67be e307 5fbe
00000090: 7b32 483e 1fc4 4abe f4cb 4abe ce6e 4abe
000000a0: 481f 20be afb3 28be d3fa 2f3e 5eb3 38be
000000b0: fbe2 3f3e 5575 33be 46a0 593e 630a 373e
000000c0: 0254 103e f70d 67be 3517 34be 6d31 30be
000000d0: 135d 603e d6e0 5d3e a5ce 593e d72a 29be
000000e0: 879d 373e a2b7 1fbe 5e3e 27be 67e0 12be
000000f0: 12fe 2ebe d6dc 63be 5f94 4fbe db88 613e
00000100: 3e41 64be 1397 45be 0117 66be 59eb 38be
00000110: 7122 573e dbb6 d4bd b298 4abe 5d71 21be
00000120: 7b83 61be 2e8a 3fbe e834 643e 3a6a 22be
00000130: 5c27 463e 7d7a 3ebe f07a 693e fc28 463e
00000140: 82a5 5d3e b2b8 2dbe 0e38 11be 63a7 52be
00000150: 6920 403e 5650 4b3e 4e59 2a3e b043 54be
00000160: d89c 343e cbf9 4fbe 67a0 67be 49eb 55be
00000170: 1a32 53be 4eb2 15be d1a5 6abe fce7 2a3e
00000180: a5ac 53be 6d04 29be 4fda 40be 9fc6 36be
00000190: fe39 523e f8dc 35be eacd 28be 87b3 55be
000001a0: 7d9d 44be 32cc 72be 407d 473e 41b0 4bbe
000001b0: 291b 283e fd62 42be 5b92 3e3e c5ec 5a3e
000001c0: 054e 2f3e ab14 1fbe 35bc 40be dfc2 41be
000001d0: d3ce 1f3e 04ac 2c3e 5363 263e d80e 44be
000001e0: 7b76 473e 6075 28be fd02 6cbe fa95 4ebe
000001f0: b3fa 1abe dd0f 31be 9f32 3cbe 9d57 673e
00000200: 1899 18be ee29 23be 7c98 57be 680d 33be
00000210: 72b9 5a3e f5d8 3cbe 4725 49be c7b0 fabd
00000220: f7a4 60be 476f 32be 4d63 103e 6513 08be
00000230: b262 223e 03b4 5cbe ab28 3b3e edd6 223e
00000240: b766 683e 6560 12be 186d 5dbe 0382 58be
00000250: 7c9a 353e b1c8 583e 1f6b 5a3e d21c 54be
00000260: 4302 1c3e 0831 66be 12e1 23be 54b7 4dbe
00000270: 7abf 42be 03ab 59be 0a98 51be 8789 183e

lstm.weight_ih_l0 f4 [128, 32]
-0.148859 -0.14089648 -0.17558862 -0.18576433 0.1260577 -0.1390655 -0.13820194 -0.16528083
-0.1517231 -0.14383712 0.1057936 -0.11883568 0.17869213 -0.15410155 0.15484187 0.18240604
0.15297559 -0.1434848 -0.20125473 -0.26957563 0.12043519 0.14956506 0.14922297 -0.24564858
0.1856222 -0.1115428 -0.16453865 -0.14668821 -0.19969103 -0.20008287 -0.17408048 0.19210212
-0.20834963 -0.19738653 -0.18570481 -0.12761213 0.123682395 -0.16262828 -0.16638027 -0.13148049
-0.21774612 -0.1441851 0.15927881 -0.13964373 0.16553923 -0.23125964 0.17088781 0.18098086
0.15808183 -0.16913705 -0.17987531 -0.20917165 0.15304255 0.20923652 0.17622022 -0.27282465
0.19555436 -0.17403384 -0.19084 -0.19105391 -0.20268738 -0.21791652 -0.22235307 0.21426742
0.11146484 0.23737584 0.14059158 0.19970246 -0.14024857 0.20172076 0.12911618 0.15903847
0.17441836 0.058685128 -0.16337484 0.22765842 -0.116868794 0.16985707 -0.106751546 -0.14721501
-0.1676658 0.18017724 0.17279236 -0.25089288 -0.15827487 -0.1027337 -0.17056814 -0.29777992
-0.22655873 0.18804635 0.12628952 0.1921512 0.12458652 0.19411696 0.1491252 -0.18673953
-0.00066311116 0.08845437 -0.06951926 -0.012193978 -0.007630455 0.09810946 0.00981251 0.004228707
-0.04779114 -0.117500566 -0.057773925 0.057164963 0.045389567 -0.111060195 0.11414039 0.09854116
0.032536853 -0.041160874 0.040030267 -0.29828897 -0.015139908 0.05675041 0.06376051 -0.2695642
-0.005092045 0.016978566 -0.10100955 0.008823893 -0.11310715 -0.059572093 -0.102416225 0.033424627
-0.18277143 -0.0992328 -0.17389546 -0.10467984 0.18450858 -0.1455582 -0.17624709 -0.17913727
-0.19535393 -0.2092989 0.17388143 -0.12032701 0.14032358 -0.16699967 0.14149046 0.20582195
0.13933772 -0.11487888 -0.14246923 -0.22643691 0.12537415 0.16406778 0.21132523 -0.26825792
0.108817205 -0.10708947 -0.17086275 -0.20016968 -0.1610717 -0.22076324 -0.16781655 0.16045958
-0.197088 -0.17963035 -0.1569882 -0.14570887 0.20467082 -0.12815219 -0.18047124 -0.17718138
-0.21708027 -0.1829461 0.17740802 -0.07806557 0.21552955 -0.20749822 0.15825644 0.1987886
0.20001341 -0.110254325 -0.1671813 -0.30131897 0.17987204 0.14411826 0.16543296 -0.24284767
0.16915137 -0.12216295 -0.13900393 -0.102874644 -0.18580452 -0.16682926 -0.15738621 0.19848487
0.21120633 0.18397914 0.19191247 0.19193326 -0.27300078 0.20507865 0.22524697 0.22671242
0.15661983 0.083053194 -0.18630724 0.17956683 -0.1737221 0.22661813 -0.1901048 -0.25154242
-0.18302852 0.26353577 0.24514809 -0.18204573 -0.22393556 -0.22655931 -0.12720864 -0.25003824
-0.23656207 0.2601864 0.14212061 0.25369334 0.107793815 0.20469183 0.17211589 -0.22329497
-0.13780117 -0.1368414 -0.1763729 -0.14679533 0.20691954 -0.2018861 -0.20235157 -0.19532351
-0.2145601 -0.1640644 0.16792902 -0.18146811 0.19796006 -0.21668166 0.15244535 0.22968513
0.15161365 -0.18039443 -0.21019436 -0.20114648 0.19259451 0.14927286 0.16365404 -0.21262415
0.20640026 -0.21162516 -0.16348165 -0.20675308 -0.15957074 -0.16570039 -0.190859 0.14844891
00000000: 7e6e 18be 2b47 10be 81cd 33be 0139 3ebe
00000010: 4515 013e 3067 0ebe cf84 0dbe 613f 29be
00000020: 4d5d 1bbe 0a4a 13be 51aa d83d 1f60 f3bd
00000030: 12fb 363e cccc 1dbe de8e 1e3e a6c8 3a3e
00000040: a2a5 1c3e aeed 12be b815 4ebe d105 8abe
00000050: baa6 f63d 9527 193e e8cd 183e 4d8b 7bbe
00000060: bf13 3e3e 8d70 e4bd d27c 28be 6f35 16be
00000070: ce7b 4cbe 86e2 4cbe 2742 32be 6bb6 443e
00000080: 9b59 55be b21f 4abe 6729 3ebe c1ac 02be
00000090: 324d fd3d 0788 26be 975f 2abe d2a2 06be
000000a0: d7f8 5ebe 42a5 13be fc19 233e c4fe 0ebe
000000b0: 1e83 293e 54cf 6cbe 37fd 2e3e 0c53 393e
000000c0: 34e0 213e 4332 2dbe 3c31 38be 1831 56be
000000d0: 30b7 1c3e 1942 563e 1373 343e acaf 8bbe
000000e0: 673f 483e ed35 32be 906b 43be a3a3 43be
000000f0: 488d 4fbe 8225 5fbe 86b0 63be eb68 5b3e
00000100: ae47 e43d a712 733e 3df7 0f3e cd7e 4c3e
00000110: 529d 0fbe e38f 4e3e 0837 043e fbda 223e
00000120: ba9a 323e d15f 703d bc4b 27be 4a1f 693e
00000130: e858 efbd 03ef 2d3e 8ea0 dabd 88bf 16be
00000140: 95b0 2bbe 6280 383e 7bf0 303e 0875 80be
00000150: cf12 22be 0c66 d2bd 6aa9 2ebe 9c76 98be
00000160: 03ff 67be 398f 403e 0a52 013e 49c3 443e
00000170: 3827 ff3d 99c6 463e 47b4 183e a638 3fbe
00000180: a3d4 2dba 9127 b53d 1d60 8ebd 40c9 47bc
00000190: e508 fabb 9ded c83d a6c4 203c f790 8a3b
000001a0: a4c0 43bd 23a4 f0bd 5aa4 6cbd cf25 6a3d
000001b0: 69ea 393d 8773 e3bd 70c2 e93d f3cf c93d
000001c0: 5d45 053d 4e98 28bd c7f6 233d 55b9 98be
000001d0: 600d 78bc 1e73 683d df94 823d 5204 8abe
000001e0: 2bdb a6bb a216 8b3c 18de cebd 1792 103c
000001f0: b9a4 e7bd de01 74bd 99bf d1bd 43e8 083d
00000200: 6f28 3bbe 913a cbbd a711 32be 6262 d6bd
00000210: d1ef 3c3e 350d 15be 1e7a 34be c36f 37be
00000220: dc0a 48be 7352 56be f90d 323e 026e f6bd
00000230: fcb0 0f3e f601 2bbe e0e2 103e fdc2 523e
00000240: 8cae 0e3e 9e45 ebbd 74e3 11be 14df 67be
00000250: 1562 003e 6201 283e a465 583e 1a59 89be
00000260: 8edb de3d b951 dbbd a5f6 2ebe 48f9 4cbe
00000270: fbef 24be c20f 62be 1ad8 2bbe 844f 243e
00000280: 70d1 49be 05f1 37be 84c1 20be b534 15be
00000290: 3a95 513e 543a 03be 74cd 38be 096f 35be
000002a0: 4a4a 5ebe 3956 3bbe 73aa 353e d7e0 9fbd
000002b0: c7b3 5c3e 6a7a 54be fa0d 223e 3d8f 4b3e
000002c0: 51d0 4c3e 05cd e1bd 9331 2bbe 7b46 9abe
000002d0: 6030 383e bd93 133e 4267 293e 0fad 78be
000002e0: 0436 2d3e 9230 fabd 0c57 0ebe f1af d2bd
000002f0: 8a43 3ebe 4ad5 2abe da29 21be 9e3f 4b3e
00000300: 7946 583e 0765 3c3e b484 443e 278a 443e
00000310: c2c6 8bbe 2300 523e 24a7 663e 4d27 683e
00000320: f360 203e cb17 aa3d 53c7 3ebe 5ee0 373e
00000330: 35e4 31be 950e 683e d5aa 42be 2bca 80be
00000340: d46b 3bbe 29ee 863e 1a08 7b3e 326a 3abe
00000350: 5d4f 65be 2aff 67be fb42 02be 0305 80be
00000360: 543d 72be 2737 853e 1188 113e 18e4 813e
00000370: 01c3 dc3d bc9a 513e 263f 303e 70a7 64be
00000380: c01b 0dbe 2720 0cbe 199b 34be 8451 16be
00000390: b7e2 533e 3bbb 4ebe 4035 4fbe e302 48be
000003a0: a5b5 5bbe 8000 28be 96f5 2b3e c7d2 39be
000003b0: 0bb6 4a3e cce1 5dbe a21a 1c3e 9432 6b3e
000003c0: 9c40 1b3e 51b9 38be 313d 57be 58f9 4dbe
000003d0: 7f37 453e fcda 183e ed94 273e 25ba 59be
000003e0: 975a 533e 44b4 58be bc67 27be 14b7 53be
000003f0: 8366 23be 5dad 29be 8b70 43be fe02 183e

lstm.weight_hh_l0 f4 [128, 32]
-0.12522541 0.1392415 -0.29560035 0.32965955 0.17027436 -0.20136414 0.28401798 0.2028391
0.08918421 0.0064663975 -0.09495988 -0.09392843 0.3340849 0.12513824 -0.13945189 0.16634206
-0.19694175 0.27939695 0.24064846 -0.19110747 0.102917306 0.19838549 0.0023034206 -0.10016696
0.17266181 -0.19686633 -0.19473273 -0.10296063 0.28478858 -0.32747674 -0.10494266 -0.1995391
-0.17868572 0.14951195 -0.29362544 0.27446556 0.12692754 -0.21184266 0.22412701 0.17070712
0.1729555 0.019944862 -0.122970715 -0.04352212 0.33053428 0.17585632 -0.085698016 0.18963763
-0.1685278 0.2920024 0.22367567 -0.2205023 0.09255825 0.18951592 0.008140035 -0.10481357
0.1699192 -0.21336295 -0.12035768 -0.05034911 0.29492193 -0.28084087 -0.07120295 -0.21875113
-0.15604219 0.12997648 -0.23905316 -0.016344674 0.081038885 -0.1535945 0.17501353 0.14903378
0.13852526 0.12249126 -0.13676012 0.14028087 0.17154476 0.09384244 -0.09265299 0.06843791
-0.106120825 0.21717626 0.29503798 -0.1168434 0.115173616 0.14321388 0.0471706 0.059880696
0.083214425 -0.10845779 -0.06773855 -0.15354475 -0.08091774 0.0236031 -0.14590667 -0.14704046
-0.14814562 0.15387769 -0.27384862 0.2106684 0.14254148 -0.18892463 0.19674616 0.15855303
0.117976524 0.12263016 -0.088029355 0.058470123 0.31432265 0.18616283 -0.1536381 0.16027066
-0.12036307 0.2789339 0.25978255 -0.14143164 0.084397934 0.20330513 0.11742625 0.01110889
0.18138663 -0.19993651 -0.09744426 -0.15459353 0.16235846 -0.2532039 -0.10278144 -0.18181854
-0.16856578 0.17793135 -0.25024378 0.32781658 0.19016658 -0.1569084 0.21574593 0.1348144
0.14915925 0.0142694935 -0.13918841 -0.053837247 0.32320717 0.17511451 -0.06662187 0.13234147
-0.16739036 0.1940228 0.2737099 -0.12498479 0.10518001 0.16397057 -0.07473233 -0.040728573
0.12183211 -0.23110017 -0.1427946 -0.09446072 0.25237626 -0.2790588 -0.14538568 -0.16107696
-0.21260832 0.23056562 -0.22714302 0.26084962 0.16127808 -0.20688692 0.2664532 0.1727759
0.12217589 0.053733494 -0.07486928 -0.056051526 0.34338102 0.1365652 -0.09650163 0.11450778
-0.15549289 0.2441464 0.2440053 -0.15250371 0.05004849 0.23441106 -0.050809033 -0.13210689
0.17326352 -0.16063868 -0.1950973 -0.04873979 0.26765156 -0.3387859 -0.11460454 -0.18035194
0.0041029495 -0.05134239 -0.18703385 0.054700587 -0.008294159 0.020235047 0.1521545 0.01901352
-0.06503565 -0.03442388 0.0010298917 0.009888201 0.0006024001 -0.052252304 0.04221361 0.02912911
0.014421618 0.0825554 0.15038756 0.026414745 -0.059459858 0.021232521 -0.056184445 -0.020914398
-0.0630977 -0.01205363 0.03891173 0.027120037 -0.00012691905 -0.027866336 0.008030392 -0.02193611
-0.19894099 0.15527454 -0.26059988 0.25797358 0.10867382 -0.16915509 0.20922183 0.20256266
0.08948076 0.04937563 -0.12483865 -0.017690988 0.25610244 0.21587686 -0.028993241 0.17503664
-0.22892566 0.19425173 0.21889375 -0.17981218 0.025581589 0.16967528 -0.0017430816 -0.08980781
0.14804004 -0.14886568 -0.19468577 -0.07232504 0.23563811 -0.3698912 -0.07758777 -0.12837507
00000000: 173b 00be 5395 0e3e ee58 97be 23c9 a83e
00000010: 675c 2e3e 6732 4ebe ce6a 913e 0eb5 4f3e
00000020: 36a6 b63d 13e4 d33b 537a c2bd 8c5d c0bd
00000030: 2d0d ab3e 3d24 003e 7acc 0ebe 9355 2a3e
00000040: 19ab 49be 1e0d 8f3e 8d6c 763e adb1 43be
00000050: 4fc6 d23d 9125 4b3e fcf4 163b 5624 cdbd
00000060: 42ce 303e 5497 49be 0468 47be 06dd d2bd
00000070: cfcf 913e 08ab a7be 2dec d6bd fa53 4cbe
00000080: 64f9 36be a919 193e 1356 96be c086 8c3e
00000090: 4bf9 013e 48ed 58be 8d81 653e d9cd 2e3e
000000a0: 3f1b 313e 6863 a33c 12d8 fbbd 4044 32bd
000000b0: ca3b a93e ae13 343e 7182 afbd 5e30 423e
000000c0: 8d92 2cbe 5781 953e 3c0b 653e 5bcb 61be
000000d0: 2e8f bd3d 7610 423e c85d 053c 7fa8 d6bd
000000e0: 4cff 2d3e d17b 5abe 167e f6bd de3a 4ebd
000000f0: 0200 973e 60ca 8fbe dad2 91bd 4c00 60be
00000100: 86c9 1fbe 8e18 053e 5aca 74be 44e5 85bc
00000110: b7f7 a53d e047 1dbe bf36 333e 509c 183e
00000120: 91d9 0d3e b3dc fa3d d80a 0cbe caa5 0f3e
00000130: 6ea9 2f3e 7730 c03d dac0 bdbd 2d29 8c3d
00000140: e055 d9bd 7463 5e3e 380f 973e 984b efbd
00000150: 25e0 eb3d a9a6 123e f635 413d 7645 753d
00000160: 536c aa3d 1e1f debd 82ba 8abd d63a 1dbe
00000170: 33b8 a5bd 4a5b c13c 8f68 15be c691 16be
00000180: 7cb3 17be 1d92 1d3e e335 8cbe 75b9 573e
00000190: 65f6 113e 7575 41be d377 493e ba5b 223e
000001a0: ad9d f13d 8525 fb3d bc48 b4bd 5e7e 6f3d
000001b0: e6ee a03e 78a1 3e3e 4e53 1dbe fe1d 243e
000001c0: ea80 f6bd 6dd0 8e3e 3802 853e 75d3 10be
000001d0: d3d8 ac3d 382f 503e 2c7d f03d 1002 363c
000001e0: 6bbd 393e 28bc 4cbe db90 c7bd c44d 1ebe
000001f0: 4c41 263e f1a3 81be 137f d2bd a42e 3abe
00000200: 829c 2cbe a333 363e f41f 80be 93d7 a73e
00000210: 07bb 423e 98ac 20be 80ec 5c3e c90c 0a3e
00000220: 34bd 183e 98ca 693c 6887 0ebe 7284 5cbd
00000230: 697b a53e 3851 333e 0c71 88bd 8684 073e
00000240: 6168 2bbe eaad 463e b423 8c3e 07f8 ffbd
00000250: 9e68 d73d e7e7 273e 440d 99bd 01d3 26bd
00000260: 1d83 f93d 86a5 6cbe bf38 12be 9f74 c1bd
00000270: 7637 813e cce0 8ebe fcdf 14be 5cf1 24be
00000280: ffb5 59be 6519 6c3e 2e98 68be 158e 853e
00000290: 1526 253e 2ada 53be 8e6c 883e 2aec 303e
000002a0: 5a37 fa3d a717 5c3d 1155 99bd 4996 65bd
000002b0: a3cf af3e bfd7 0b3e a6a2 c5bd 0e83 ea3d
000002c0: 8739 1fbe 8401 7a3e 86dc 793e ef29 1cbe
000002d0: a5ff 4c3d 7409 703e 221d 50bd 0747 07be
000002e0: fe6b 313e 777e 24be 96c7 47be 60a3 47bd
000002f0: a009 893e 5875 adbe c9b5 eabd 2eae 38be
00000300: 0972 863b 664c 52bd cd85 3fbe b90d 603d
00000310: 39e4 07bc f8c3 a53c 64ce 1b3e 3ec2 9b3c
00000320: 6931 85bd 0e00 0dbd 6efd 863a 1f02 223c
00000330: 63ea 1d3a 8306 56bd 2ee8 2c3d 2ca0 ee3c
00000340: a648 6c3c ce12 a93d 32ff 193e bc63 d83c
00000350: 2e8c 73bd d3ef ad3c a921 66bd ac54 abbc
00000360: 5e39 81bd 977c 45bc e861 1f3d d72a de3c
00000370: 9315 05b9 f147 e4bc e891 033c 5bb3 b3bc
00000380: 30b7 4bbe 4a00 1f3e 596d 85be 1d15 843e
00000390: 6190 de3d fe36 2dbe 3f3e 563e 966c 4f3e
000003a0: b041 b73d 1a3e 4a3d 68ab ffbd b1ec 90bc
000003b0: dc1f 833e d30e 5d3e 3c83 edbc ce3c 333e
000003c0: 7d6b 6abe ede9 463e af25 603e af20 38be
000003d0: 7b90 d13c 5bbf 2d3e 1d78 e4ba 28ed b7bd
000003e0: cf97 173e 3f70 18be b55b 47be 271f 94bd
000003f0: 1e4b 713e 6162 bdbe 56e6 9ebd c174 03be

lstm.bias_ih_l0 f4 [128]
0.22489697 0.24018918 0.22823802 0.22902232 0.2569884 0.24860442 0.21969675 0.18553126
0.17777738 0.25655502 0.24291766 0.18797745 0.26474673 0.2094416 0.26211965 0.17364691
0.19939111 0.21009661 0.19460359 0.1927006 0.2417601 0.21073137 0.2254158 0.24591699
0.17745478 0.2290705 0.22860414 0.21545559 0.27792248 0.20656674 0.21321228 0.23330972
-0.12359468 -0.15059355 -0.23663342 -0.16510737 -0.12944484 -0.17278719 0.13967639 -0.11955158
-0.16810341 -0.1912423 -0.15962568 -0.10679913 -0.1736893 -0.22663675 -0.14174531 -0.14624865
-0.16763328 0.13473102 -0.17543297 -0.17121923 -0.103319004 -0.12590405 -0.14589034 -0.15839984
-0.12227441 -0.074531235 -0.15011622 -0.114589475 -0.24198274 -0.18848215 -0.15728194 -0.12089866
-0.15643042 0.13887224 -0.11233786 0.014070748 0.14276554 -0.1617188 0.18445326 0.15994176
0.090906024 0.07445057 -0.15525562 0.035816897 0.10317674 0.14499955 -0.104940146 0.1449635
-0.13673018 0.1631704 0.10821014 -0.088308364 0.116960645 0.13602462 0.068661325 0.093368724
0.12247915 -0.108694375 -0.12627596 -0.12904024 -0.06694525 0.013701988 -0.14284113 -0.1578201
0.23394176 0.23819582 0.21823104 0.19743451 0.20632046 0.22120377 0.23301488 0.25631186
0.18853138 0.25453034 0.19838192 0.23315586 0.28489354 0.24912797 0.2507177 0.2523152
0.2559584 0.16239224 0.23420341 0.20729649 0.27659917 0.25921842 0.21505573 0.21923849
0.27190068 0.19997025 0.25227907 0.27006346 0.20521015 0.2732601 0.22699223 0.22319785
00000000: 644b 663e 27f4 753e 3ab7 693e d484 6a3e
00000010: fc93 833e 2892 7e3e 2ff8 603e e8fb 3d3e
00000020: 460b 363e 2e5b 833e 68bf 783e 297d 403e
00000030: e28c 873e dc77 563e 8c34 863e 7fd0 313e
00000040: 2f2d 4c3e 9123 573e 2a46 473e 4e53 453e
00000050: f68f 773e f7c9 573e 66d3 663e aad1 7b3e
00000060: b5b6 353e 7591 6a3e 3417 6a3e 64a0 5c3e
00000070: db4b 8e3e 3b86 533e 5254 5a3e bee8 6e3e
00000080: 351f fdbd 3235 1abe 0850 72be e811 29be
00000090: 308d 04be 20ef 30be 5407 0f3e 75d7 f4bd
000000a0: 4d23 2cbe 06d5 43be ea74 23be 81b9 dabd
000000b0: 9cdb 31be 7713 68be af25 11be 35c2 15be
000000c0: 0fa8 2bbe eef6 093e b3a4 33be 1854 2fbe
000000d0: ea98 d3bd feec 00be 4764 15be 9133 22be
000000e0: 026b fabd d5a3 98bd 11b8 19be e3ad eabd
000000f0: 53ca 77be 7701 41be 840e 21be b799 f7bd
00000100: 4c2f 20be 8634 0e3e 6411 e6bd ff88 663c
00000110: 2131 123e 9d99 25be 51e1 3c3e c6c7 233e
00000120: f02c ba3d 8a79 983d 54fb 1ebe bdb4 123d
00000130: 544e d33d c37a 143e dcea d6bd 5071 143e
00000140: ff02 0cbe 2416 273e 479d dd3d 04db b4bd
00000150: 1089 ef3d 0a4a 0b3e 4f9e 8c3d 1a38 bf3d
00000160: 59d6 fa3d 289b debd 7c4e 01be 2023 04be
00000170: 971a 89bd 4e7e 603c f244 12be 989b 21be
00000180: 6e8e 6f3e 9be9 733e f577 5f3e 462c 4a3e
00000190: ac45 533e 3e83 623e 749b 6e3e 4f3b 833e
000001a0: 5f0e 413e cd51 823e a124 4b3e 69c0 6e3e
000001b0: 91dd 913e 671b 7f3e 125e 803e 752f 813e
000001c0: fb0c 833e 274a 263e 05d3 6f3e 8845 543e
000001d0: 689e 8d3e 47b8 843e 9237 5c3e 0e80 603e
000001e0: 9136 8b3e 00c5 4c3e b92a 813e c245 8a3e
000001f0: 9c22 523e bfe8 8b3e a770 683e fa8d 643e

lstm.bias_hh_l0 f4 [128]
0.25287208 0.19485898 0.16340978 0.20902893 0.2156604 0.17465591 0.14985567 0.2492929
0.18874525 0.2261335 0.22384557 0.19606471 0.21388972 0.17938158 0.19637205 0.19250384
0.19753067 0.19726783 0.18181726 0.25734055 0.26439935 0.20311177 0.23368874 0.2730692
0.25523877 0.16669777 0.2520334 0.18537003 0.2708653 0.2506039 0.19826609 0.18074945
-0.14278696 -0.09673352 -0.23028609 -0.21393508 -0.09048795 -0.13439861 0.06449649 -0.072525054
-0.1716001 -0.14851144 -0.12826113 -0.16682677 -0.20245801 -0.20414464 -0.15046464 -0.12927376
-0.11165212 0.14599492 -0.21070197 -0.13342692 -0.20025286 -0.16483319 -0.15594508 -0.12223189
-0.09793126 -0.15848088 -0.14921486 -0.109218106 -0.17054157 -0.23567514 -0.106938094 -0.14814119
-0.14833868 0.11488731 -0.15244636 -0.03334612 0.13225272 -0.08132512 0.18553641 0.10225422
0.12992236 0.13087322 -0.072001696 0.13217786 0.039124515 0.079793446 -0.14169088 0.092688605
-0.15200754 0.16233672 0.14885128 -0.1606466 0.11509922 0.1417092 0.11633169 0.07699991
0.11406134 -0.149233 -0.14333728 -0.091757424 -0.016731339 -0.065406576 -0.095261775 -0.09771479
0.2549089 0.1934098 0.24018575 0.25335535 0.19262917 0.22559524 0.19304046 0.25355762
0.2533324 0.27656704 0.21482222 0.19291453 0.19116396 0.16575605 0.2544577 0.22729504
0.2089834 0.23769827 0.22177495 0.18947263 0.19977185 0.25717103 0.23730719 0.25176084
0.18565947 0.25362787 0.22521777 0.20525703 0.27679121 0.22758798 0.21027048 0.2231305
00000000: 7378 813e 1d89 473e e554 273e ae0b 563e
00000010: 14d6 5c3e 00d9 323e c473 193e a346 7f3e
00000020: 6f46 413e 8a8f 673e c637 653e 30c5 483e
00000030: e805 5b3e ceaf 373e c115 493e ba1f 453e
00000040: 7b45 4a3e 9400 4a3e 4e2e 3a3e 24c2 833e
00000050: 5a5f 873e 88fc 4f3e 1a4c 6f3e bacf 8b3e
00000060: a8ae 823e d2b2 2a3e 860a 813e a4d1 3d3e
00000070: dbae 8a3e 284f 803e 4406 4b3e 6216 393e
00000080: bf36 12be 391c c6bd 1ed0 6bbe cc11 5bbe
00000090: bf51 b9bd ca9f 09be bc16 843d 0488 94bd
000000a0: f0b7 2fbe 6213 18be e356 03be a3d4 2abe
000000b0: 2751 4fbe 4b0b 51be 6713 1abe 5760 04be
000000c0: dea9 e4bd b17f 153e 42c2 57be 11a1 08be
000000d0: 160f 4dbe 08ca 28be 11b0 1fbe b754 fabd
000000e0: 2f90 c8bd d048 22be c8cb 18be bead dfbd
000000f0: 73a2 2ebe d354 71be 5c02 dbbd 53b2 17be
00000100: 18e6 17be 0a4a eb3d e61a 1cbe f195 08bd
00000110: 426d 073e c98d a6bd 42fd 3d3e a96a d13d
00000120: 5e0a 053e a103 063e a075 93bd a259 073e
00000130: 0741 203d bf6a a33d 6a17 11be 86d3 bd3d
00000140: dda7 1bbe 993b 263e 786c 183e 8b80 24be
00000150: 24b9 eb3d 371c 113e 4f3f ee3d 21b2 9d3d
00000160: fe98 e93d 89d0 18be 02c7 12be 51eb bbbd
00000170: 2910 89bc e2f3 85bd 9b18 c3bd b11e c8bd
00000180: 6b83 823e 380d 463e 41f3 753e cbb7 813e
00000190: 9540 453e 7002 673e 66ac 453e 4ed2 813e
000001a0: c9b4 813e 329a 8d3e 5bfa 5b3e 638b 453e
000001b0: 7cc0 433e f4bb 293e 4848 823e 08c0 683e
000001c0: bfff 553e 2d67 733e f918 633e 1d05 423e
000001d0: fe90 4c3e ecab 833e a800 733e cce6 803e
000001e0: 841d 3e3e 83db 813e 7d9f 663e e62e 523e
000001f0: 94b7 8d3e d30c 693e 2551 573e 527c 643e

lin.weight f4 [5, 32]
-0.24555564 0.23701471 0.25306776 -0.24054402 0.20556952 -0.2383506 -0.12330147 0.2224852
0.22263993 0.24449867 -0.2292138 0.2070118 -0.25835678 0.19217803 -0.24576633 0.2411746
-0.19773751 -0.10809824 -0.25379166 -0.23831464 0.19873673 0.20526297 0.24250308 0.257577
0.2365861 -0.23816428 -0.23357895 -0.21343617 -0.2517681 0.24201919 -0.23737332 -0.21973258
0.18399087 -0.20518182 -0.1562071 0.2039713 -0.2050878 0.16152044 0.04185011 -0.20356447
-0.22332244 -0.23907329 0.18632503 -0.1834077 0.21900956 -0.21915539 0.1415286 -0.17658731
0.21636815 -0.048746698 0.19658923 0.21020046 -0.22978114 -0.17566067 -0.15769477 -0.22830659
-0.16346884 0.20185594 0.22127219 0.21703401 0.20313998 -0.22553605 0.2212116 0.1725415
0.14362721 -0.22736692 -0.18740106 0.18354622 -0.20849933 0.23713706 -0.047881298 -0.21029279
-0.15359755 -0.15593252 0.17559272 -0.24033271 0.16176638 -0.16491133 0.14888284 -0.15924694
0.21245968 -0.04163574 0.14496559 0.17377838 -0.23947455 -0.2246183 -0.2345831 -0.18574561
-0.16750558 0.24201006 0.20499311 0.16257386 0.24665847 -0.21938169 0.18801942 0.24607338
0.20771645 -0.23978963 -0.1744386 0.16354036 -0.16558273 0.19030829 0.03435397 -0.19763546
-0.1635886 -0.22539161 0.18371743 -0.22938971 0.18562475 -0.244731 0.17111823 -0.15775754
0.17599435 -0.06012175 0.20053695 0.16698383 -0.16583288 -0.24594606 -0.18779004 -0.194408
-0.20880508 0.2309892 0.16454348 0.22596367 0.25453284 -0.17958528 0.1698412 0.15704603
0.1685866 -0.16571008 -0.18297583 0.23094837 -0.21711874 0.16323693 -0.020297516 -0.14499243
-0.15483864 -0.17316289 0.18362305 -0.22510211 0.13642491 -0.16859396 0.21700136 -0.19736339
0.24012801 -0.058213606 0.18930389 0.2346349 -0.2013946 -0.16921198 -0.23481017 -0.16787325
-0.21621192 0.20493327 0.21416652 0.19810916 0.18499966 -0.13622844 0.21974166 0.2170153
00000000: f072 7bbe fcb3 723e 1992 813e 2c51 76be
00000010: d180 523e 2e12 74be 7b85 fcbd 29d3 633e
00000020: b9fb 633e dc5d 7a3e 06b7 6abe e7fa 533e
00000030: 5747 84be 51ca 443e 2baa 7bbe 79f6 763e
00000040: b47b 4abe 9c62 ddbd fbf0 81be c108 74be
00000050: a481 4b3e 7530 523e ba52 783e 22e1 833e
00000060: a043 723e 56e1 73be 522f 6fbe 038f 5abe
00000070: c0e7 80be e1d3 773e fe11 73be 9401 61be
00000080: 1a68 3c3e 2f1b 52be c1f4 1fbe dadd 503e
00000090: 8902 52be 9d65 253e 056b 2b3d 3473 50be
000000a0: a3ae 64be a1cf 74be fdcb 3e3e 3acf 3bbe
000000b0: 0b44 603e 456a 60be e0ec 103e 4ed3 34be
000000c0: 9d8f 5d3e 9eaa 47bd b04e 493e ca3e 573e
000000d0: bf4b 6bbe 64e0 33be bd7a 21be 34c9 69be
000000e0: 6064 27be 53b3 4e3e 2d95 623e 2a3e 5e3e
000000f0: ed03 503e ecf2 66be 4b85 623e b8ae 303e
00000100: 0313 133e e0d2 68be 10e6 3fbe 8af3 3b3e
00000110: d980 55be 0fd4 723e 2e1f 44bd fe56 57be
00000120: ad48 1dbe c6ac 1fbe 94ce 333e c719 76be
00000130: 16a6 253e 84de 28be be74 183e a111 23be
00000140: 088f 593e 3d8a 2abd dc71 143e f6f2 313e
00000150: d138 75be 5702 66be 8d36 70be 1934 3ebe
00000160: 9586 2bbe 7cd1 773e b7e9 513e c379 263e
00000170: 0a94 7c3e 98a5 60be 2a88 403e a9fa 7b3e
00000180: 9fb3 543e 6a8b 75be 08a0 32be 2077 273e
00000190: 858e 29be 2de0 423e c0b6 0c3d f360 4abe
000001a0: c583 27be 0fcd 66be 6c20 3c3e 23e5 6abe
000001b0: 6a14 3e3e c39a 7abe 9e39 2f3e 318b 21be
000001c0: dd37 343e 3942 76bd 8f59 4d3e cffd 2a3e
000001d0: 18d0 29be 49d9 7bbe 084c 40be e412 47be
000001e0: 00d1 55be 6f88 6c3e 167e 283e 0563 673e
000001f0: 2152 823e 34e5 37be daea 2d3e add0 203e
00000200: f7a1 2c3e e7af 29be 045e 3bbe bb7d 6c3e
00000210: 6054 5ebe 9527 273e fa46 a6bc e578 14be
00000220: 058e 1ebe 9d51 31be ae07 3c3e 2b81 66be
00000230: f9b2 0b3e e5a3 2cbe 9b35 5e3e a119 4abe
00000240: 1ee4 753e 6471 6ebd e1d8 413e 2244 703e
00000250: 633a 4ebe e845 2dbe 1472 70be f7e6 2bbe
00000260: a866 5dbe 07da 513e 784e 5b3e 21dd 4a3e
00000270: 8d70 3d3e 787f 0bbe f503 613e 4239 5e3e

lin.bias f4 [5]
0.07215316 -0.06608587 -0.022763574 -0.025452545 -0.020841608
00000000: 09c5 933d 0758 87bd ad7a babc db81 d0bc
00000010: 05bc aabc
