checkpoints/MLE_space_False_length_3_preTrainG_epoch_41.pth (torch_old, 36090 bytes, 7 tensors)

emb.weight f4 [5, 32]
000000 a1 ca 17 3e 6d a3 3a 3e e6 ee da 3d 12 32 53 3e
       0.1482339 0.18226404 0.106900975 0.20624569
000010 c1 ef 43 be db dc 3b 3e 64 7c 26 3e d3 11 38 3e
       -0.19134428 0.18345968 0.16258389 0.1797555
000020 72 40 fb 3d 99 56 e4 3b 61 e3 51 be 36 15 50 3e
       0.12268151 0.006968331 -0.20496894 0.20320591
000030 42 f2 04 be 27 bb e4 3d 4e f7 f8 bd 00 24 fe bd
       -0.12983039 0.11168509 -0.121565446 -0.1240921
000040 f0 d0 ed bd 3b 05 10 3e af 4b 28 3e 43 4e 19 be
       -0.11612117 0.14064495 0.16435121 -0.1497126
000050 95 49 33 be d2 40 f5 bd 1a c6 ec bd dc 5c 58 be
       -0.17508538 -0.11975254 -0.115612224 -0.21129173
000060 09 68 41 be d3 dd 51 3e a5 2e c3 3d cb 48 47 3e
       -0.18887343 0.20494775 0.09530381 0.19461362
000070 35 03 a0 3d b7 bd 02 3e e2 46 f8 3d e5 a3 14 be
       0.07813112 0.12767683 0.12122895 -0.14515646
000080 98 c9 3c be ba b6 0a be 16 c5 4f be f7 b9 4d be
       -0.18436277 -0.13546267 -0.20290026 -0.20090471
000090 a0 94 34 3e 9a 42 39 be e3 a9 37 be 29 9d 38 be
       0.17634821 -0.18091813 -0.179359 -0.18028702
0000a0 ba 87 0b be 45 4b 11 be fb c7 1f 3e e7 7b 28 be
       -0.13625994 -0.1418887 0.1560363 -0.16453515
0000b0 6e c0 2a 3e ae 4b 1c be a6 b1 44 3e b2 82 22 3e
       0.16674969 -0.15263245 0.19208393 0.15870169
0000c0 43 45 f5 3d 4e a9 53 be 8e 2f 22 be 38 91 0e be
       0.11976101 -0.20670053 -0.15838453 -0.13922584
0000d0 8c 5c 4f 3e e2 87 49 3e 44 81 44 3e 44 09 0a be
       0.20250148 0.19680741 0.19189936 -0.13480097
0000e0 34 65 26 3e 6c ab 0e be 76 ca 10 be fc f2 01 be
       0.16249543 -0.1393258 -0.14139733 -0.12690347
0000f0 b2 fb 16 be f6 a9 4f be d1 98 3a be 21 46 4e 3e
       -0.14744452 -0.20279679 -0.18222357 0.2014394
000100 7a 92 4e be d6 f2 32 be 6d 85 48 be 65 d0 25 be
       -0.20173064 -0.17475447 -0.19582148 -0.16192777
000110 ae 07 42 3e 77 d5 ae bd ba b1 35 be 48 98 0d be
       0.18948242 -0.08536809 -0.17743579 -0.13827622
000120 11 4f 4b be d4 b5 26 be 61 4c 52 3e e3 98 10 be
       -0.1985438 -0.162803 0.20536949 -0.14120822
000130 ed 2c 30 3e d9 5c 27 be 9b 32 53 3e 56 62 30 3e
       0.17204638 -0.16344012 0.20624773 0.17225012
000140 2c 74 46 3e cf 57 18 be 06 57 fa bd 28 42 31 be
       0.19380254 -0.14877246 -0.1222363 -0.17310393
000150 57 eb 2d 3e b5 5d 35 3e 1a 84 13 3e 0e 92 34 be
       0.16984306 0.17711528 0.14405861 -0.1763384
000160 a1 e8 21 3e ad f5 3c be f0 b8 4f be a9 52 43 be
       0.15811397 -0.18453093 -0.20285392 -0.19074501
000170 47 b7 3a be 58 a2 ff bd 39 fa 53 be 0c 1d 16 3e
       -0.18233977 -0.124821365 -0.20700921 0.14659518
000180 a5 89 3c be 07 1a 14 be 1b 38 27 be 76 7f 22 be
       -0.18411882 -0.14463054 -0.16329996 -0.15868935
000190 f0 85 3b 3e ec 6d 20 be ed 31 12 be 68 3f 3d be
       0.18312812 -0.15666932 -0.14276858 -0.18481219
0001a0 9a 29 2d be 8f b4 58 be cf 7d 34 3e a3 ad 38 be
       -0.16910401 -0.21162628 0.17626117 -0.18034987
0001b0 ed 2f 10 3e 6b 6a 2b be 43 df 26 3e 51 1c 43 3e
       0.14080782 -0.16739814 0.16296105 0.1905377
0001c0 28 df 16 3e d6 a2 08 be 40 10 2c be 05 b8 1d be
       0.14733565 -0.13343367 -0.16803074 -0.15402229
0001d0 9b 4e 0c 3e 7f 9e 15 3e 5f 65 0e 3e 9b 36 22 be
       0.1370186 0.14611243 0.13905858 -0.15841143
0001e0 3c 98 33 3e d2 59 14 be 8b c0 52 be cb eb 3a be
       0.17538542 -0.14487389 -0.20581262 -0.1825401
0001f0 61 25 00 be 2e 1a 1a be 8b 49 24 be 56 2b 51 3e
       -0.12514259 -0.1504905 -0.1604368 0.20426688
000200 6a 6c 01 be 27 f6 0e be 35 5a 3a be 20 72 1e be
       -0.12639013 -0.13961087 -0.18198474 -0.15473223
000210 5a 2f 44 3e eb 38 28 be 9f 29 33 be 16 6b d7 bd
       0.19158688 -0.16427962 -0.17496346 -0.10518472
000220 0c 53 49 be eb 72 18 be c1 6d fa 3d b4 ef e9 bd
       -0.19660586 -0.14887588 0.12227965 -0.11422673
000230 5f af 0a 3e 6b bc 43 be 73 60 23 3e e0 03 0c 3e
       0.13543461 -0.19114845 0.15954761 0.13673353
000240 a9 fc 4f 3e 52 bf f7 bd 6d 1e 48 be a1 03 35 be
       0.20311226 -0.12097038 -0.19542857 -0.17677166
000250 5c b5 21 3e 29 90 41 3e f8 4c 42 3e f8 cd 33 be
       0.1579184 0.18902649 0.18974674 -0.1755904
000260 03 37 09 3e 35 25 52 be 64 98 0a be a7 cb 39 be
       0.13399892 -0.20522006 -0.13534695 -0.18144093
000270 14 dd 28 be 33 81 42 be c4 b1 39 be 4b 3c 02 3e
       -0.16490585 -0.18994598 -0.18134218 0.12718312

lstm.weight_ih_l0 f4 [128, 32]
000000 9f d3 11 be 54 eb 1f be fb 05 22 be b6 57 46 be
       -0.14240883 -0.15617114 -0.15822594 -0.19369397
000010 6b 4e 01 3e b2 14 1b be a6 95 0c be 8a 04 34 be
       0.1262757 -0.15144613 -0.13728961 -0.17579857
000020 2b 34 0f be 2f 2f f1 bd aa 1d f1 3d 24 67 11 be
       -0.13984744 -0.11776578 0.11773236 -0.14199501
000030 2b 8d 32 3e 8a 6c 11 be ce 12 12 3e 12 96 31 3e
       0.17436664 -0.1420156 0.14264986 0.17342404
000040 2b 6a 0a 3e 07 1d 17 be db 67 50 be 74 fb 43 be
       0.13517062 -0.14757167 -0.20352118 -0.1913889
000050 36 6d fe 3d 87 7d 0d 3e 99 bc 0d 3e e7 fc 29 be
       0.12423174 0.13817416 0.13841476 -0.16600381
000060 e8 60 49 3e d3 f1 f7 bd 77 67 15 be 92 1b 1d be
       0.19665873 -0.12106671 -0.1459025 -0.15342548
000070 4a 03 3b be 77 65 45 be b2 2a 25 be b4 8f 3f 3e
       -0.18262973 -0.19276987 -0.16129568 0.18707162
000080 88 4c 4f be 38 73 5d be 8d 9c 2b be d2 85 0d be
       -0.20244038 -0.21625984 -0.16758938 -0.1382058
000090 f7 42 00 3e 18 f0 36 be 19 a8 2a be 10 d9 14 be
       0.12525545 -0.17865026 -0.16665687 -0.14535928
0000a0 c2 c0 52 be 23 05 f4 bd 26 b5 32 3e f7 21 24 be
       -0.20581344 -0.11915042 0.17451915 -0.16028582
0000b0 87 ee 25 3e da 9f 60 be b1 4d 22 3e f8 97 30 3e
       0.16204272 -0.21935979 0.1584995 0.17245471
0000c0 a9 da 15 3e f5 37 2e be 50 0c 3c be db 6d 01 be
       0.14634193 -0.17013533 -0.18364072 -0.12639563
0000d0 21 66 22 3e 15 82 4a 3e be 54 29 3e 5d 0f 42 be
       0.15859272 0.19776185 0.16536233 -0.18951173
0000e0 f9 89 56 3e c8 e1 3e be 5e 8e 2e be f9 d1 4c be
       0.2095107 -0.18640816 -0.17046496 -0.20001973
0000f0 0b 9f 40 be 0e f9 57 be 72 53 56 be ea 2a 57 3e
       -0.1881067 -0.210911 -0.2093027 0.21012464
000100 17 a1 81 bc c4 11 de 3d 6e 9f 9f 3c f7 5a ac 3d
       -0.015823884 0.10843232 0.019485202 0.08415788
000110 c6 46 a7 bc d6 2b a5 3d f6 b2 75 3b 53 6f 0c 3d
       -0.02041949 0.08065002 0.0037490702 0.034285855
000120 5e 43 2b 3d 6f 30 e8 bd ac b4 2e bd da 15 e9 3d
       0.041812293 -0.11337363 -0.04265277 0.11381121
000130 7c 9b 91 3c 1e fa 00 3d 14 e0 dc 3c 6d d5 3d bc
       0.017774336 0.03148853 0.026962318 -0.011586529
000140 f6 e5 ef bc 68 7a 36 3d c7 ad 42 3d 24 5e 0e be
       -0.029284459 0.04455033 0.04752901 -0.139031
000150 49 a5 04 bd 23 94 09 3d fb ed 16 bd 21 b0 44 be
       -0.03238419 0.03358854 -0.03684805 -0.19207813
000160 63 58 d1 bd 75 d7 90 3d 40 9c 37 bc 58 24 91 3d
       -0.102219366 0.07072345 -0.0112066865 0.0708701
000170 c5 0d 15 bd 7a 2d 71 3d 49 2c 82 3c 2f bb 68 bd
       -0.036390085 0.05888126 0.015890257 -0.056819137
000180 72 67 c0 bd c0 2d a7 bd b8 c2 cb bd e5 ec 1d be
       -0.09394731 -0.08163023 -0.09949249 -0.154224
000190 04 03 e0 3d 7d 42 89 bd 1c fd dc bd 65 e6 1b be
       0.10938075 -0.06702135 -0.10790464 -0.15224607
0001a0 54 90 e2 bd d4 f9 04 be 1f f1 c5 3d 82 34 e6 bd
       -0.11062685 -0.12985927 0.09665131 -0.11240484
0001b0 6b dd 20 3e 0c 87 37 be b1 ed 34 3e 63 ef 3d 3e
       0.15709464 -0.1792261 0.17668797 0.1854835
0001c0 94 33 ca 3d ac 75 2c be 3e 3a bb bd a5 72 25 be
       0.09873119 -0.16841763 -0.09141968 -0.16157015
0001d0 88 1c f2 3d a1 7b fb 3d b7 1d 0a 3e b2 5f 0e be
       0.11821848 0.1227944 0.13487898 -0.13903692
0001e0 be 0c 1c 3e 4b 87 07 be 2d 6f 10 be 4f a9 07 be
       0.15239236 -0.13235204 -0.1410491 -0.1324818
0001f0 7e 4f 3a be b1 e5 15 be 2e 58 25 be 94 1b 0a 3e
       -0.18194386 -0.14638402 -0.16146919 0.13487083
000200 5a 61 38 be 34 1f fb bd ea 62 21 be 0b 77 f4 bd
       -0.18005887 -0.12261811 -0.15760389 -0.11936768
000210 f3 49 42 3e 15 0f 2d be e4 8d 38 be 87 f8 46 be
       0.18973522 -0.16900285 -0.18022877 -0.19430743
000220 fd 50 41 be 0f 42 3e be e2 48 41 3e 06 5b 11 be
       -0.18878551 -0.18579887 0.18875459 -0.14194879
000230 ed d2 0f 3e 1f 58 21 be f4 2c 07 3e 8e ed 4c 3e
       0.14045306 -0.15756272 0.13200742 0.20012495
000240 88 67 0b 3e f7 b9 fd bd 94 69 1a be bd 4c 0d be
       0.13613713 -0.123889856 -0.15079337 -0.13798805
000250 23 5c 0a 3e 19 5c 1f 3e 94 2b 53 3e 55 ed 39 be
       0.1351171 0.15562476 0.20622092 -0.18156941
000260 81 c1 02 3e 2f dc fd bd 85 16 22 be 7f d8 59 be
       0.12769128 -0.12395512 -0.15828903 -0.21273993
000270 29 43 1b be 7d 48 5e be 28 1c 21 be 54 e2 22 3e
       -0.15162338 -0.2170734 -0.15733397 0.1590665
000280 f7 1f 47 be 31 bd 55 be 07 76 10 be fe e6 28 be
       -0.19445787 -0.20872952 -0.14107524 -0.16494367
000290 1f 36 58 3e 49 08 1a be d4 29 3e be ae 46 4b be
       0.21114396 -0.15042223 -0.18570644 -0.19851181
0002a0 c2 e5 52 be 00 32 21 be 41 ab 4b 3e 0d 76 d5 bd
       -0.20595458 -0.1574173 0.19889547 -0.10422907
0002b0 d7 1e 5e 3e cf 54 4b be 1a 73 16 3e 2f 4a 46 3e
       0.21691452 -0.1985657 0.14692345 0.19364236
0002c0 6e c1 3e 3e 55 5b f2 bd 78 64 34 be 58 64 5b be
       0.18628475 -0.118338265 -0.17616451 -0.21424997
0002d0 e3 44 43 3e 19 fc 0a 3e 4e 5d 21 3e dc 2a 1b be
       0.19069247 0.1357273 0.15758249 -0.15153068
0002e0 d1 ec 44 3e e6 a0 12 be a8 6d f9 bd 00 09 f9 bd
       0.19230963 -0.1431919 -0.121791184 -0.1215992
0002f0 53 83 32 be 82 4c 27 be 7c cf 16 be d4 1c 4b 3e
       -0.17432909 -0.16337779 -0.14727587 0.19835216
000300 5c 1a 0b 3e db c4 ee 3d 63 bb eb 3d dd a3 00 3e
       0.13584274 0.11658641 0.115103506 0.12562509
000310 ae 0f 52 be 88 50 0b 3e 31 8a 1d 3e 1c 97 22 3e
       -0.20513794 0.13604939 0.15384747 0.15877956
000320 01 ac 93 3d 4b 95 e9 bd db d5 f8 bd 84 6c f0 3d
       0.072105415 -0.114054285 -0.12150165 0.11739448
000330 29 f6 bc bd 11 93 0d 3e 6c 64 d6 bd 70 61 28 be
       -0.09226639 0.13825633 -0.10468373 -0.1644342
000340 25 c7 c9 bd 63 b9 3e 3e d1 c1 30 3e 30 9d d5 bd
       -0.09852437 0.18625407 0.17261435 -0.10430372
000350 7d f3 1c be 61 3d 10 be 7c 8f 44 bd b3 3c 35 be
       -0.15327258 -0.14085914 -0.0479884 -0.17698936
000360 4a be 2c be 74 48 47 3e db c2 65 3d cf 72 3f 3e
       -0.16869465 0.19461232 0.05609403 0.1869614
000370 51 71 a0 3b b6 1d f4 3d 71 5b b4 3d 55 b1 0f be
       0.004896321 0.119197294 0.088065036 -0.1403249
000380 7a 77 00 be ab 00 16 be 3b 6e 22 be 75 33 17 be
       -0.12545577 -0.14648692 -0.15862362 -0.14765723
000390 95 b0 4d 3e 90 4b 55 be d6 76 47 be 70 b2 48 be
       0.20086892 -0.20829606 -0.19478926 -0.19599319
0003a0 8a be 4d be 77 ae 0e be 20 90 30 3e 13 46 3f be
       -0.20092216 -0.1393374 0.1724248 -0.18679075
0003b0 dc 1f 3f 3e 6f 9f 51 be 7b 07 0e 3e a2 e5 5c 3e
       0.18664497 -0.20470975 0.13870041 0.21571973
0003c0 aa d4 0f 3e 8d 66 2f be 29 ed 52 be f3 26 04 be
       0.14045969 -0.17128964 -0.20598282 -0.12905483
0003d0 6b 5d 42 3e 78 3a 0e 3e 02 25 1b 3e 91 49 0e be
       0.18980949 0.13889492 0.15150836 -0.13895251
0003e0 53 76 58 3e ae 03 5c be a2 b9 16 be a0 18 54 be
       0.21138887 -0.21485779 -0.14719251 -0.20712519
0003f0 aa 67 12 be d1 73 20 be c7 cf 32 be 87 99 0e 3e
       -0.14297357 -0.1566918 -0.17462073 0.13925754

lstm.weight_hh_l0 f4 [128, 32]
000000 49 ca f4 bd 8a d0 01 3e c4 d6 5e be a9 11 5d 3e
       -0.11952645 0.12677208 -0.21761614 0.21588768
000010 ce f2 2f 3e d3 74 4c be 4a 5d 66 3e fd bf 3f 3e
       0.17182466 -0.1996644 0.22496524 0.18725581
000020 47 8e f2 3d 14 4e 3a 3d 2e c7 0d be e3 59 12 bd
       0.118435435 0.045484617 -0.13845512 -0.035730254
000030 cf da 57 3e 04 8d fc 3d 27 b1 27 be 81 45 37 3e
       0.21079563 0.12331584 -0.16376172 0.17897607
000040 ce 32 37 be 68 78 61 3e 24 c9 20 3e 7a 84 3f be
       -0.17890474 0.22018588 0.15701729 -0.1870288
000050 bf d4 1d 3e c5 06 40 3e 6e 7e bb 3d 13 2f c0 bc
       0.15413187 0.18752582 0.09154974 -0.023459947
000060 89 f1 33 3e ab 31 3b be db 24 50 be e0 da 07 be
       0.17572607 -0.18280666 -0.20326559 -0.13267088
000070 e3 60 29 3e 9d 91 33 be a9 39 f9 bd 60 f8 45 be
       0.16540866 -0.17536016 -0.12169201 -0.19333029
000080 63 46 25 be 42 c9 01 3e db f2 56 be 93 06 1e 3e
       -0.16140132 0.1267443 -0.2099108 0.15432195
000090 ba bd e7 3d 4e b2 41 be bc 46 24 3e 99 38 16 3e
       0.11315484 -0.18915674 0.16042608 0.14670028
0000a0 ba 71 20 3e 63 dd 53 3c 60 80 f1 bd 20 dd 53 bd
       0.15668383 0.012931201 -0.11792064 -0.051724553
0000b0 c0 55 4b 3e f0 e1 1e 3e c4 53 8a bd 8b b1 2e 3e
       0.1985693 0.15515876 -0.06754258 0.17059915
0000c0 e5 87 11 be 40 80 69 3e 6e 2d 09 3e 9a 04 4d be
       -0.14211996 0.2280283 0.13396236 -0.20021287
0000d0 20 91 da 3d b8 6d 2a 3e 3c b7 ef 3c e7 93 c2 bd
       0.10672212 0.16643417 0.029262178 -0.095008664
0000e0 39 c8 0a 3e 28 1d 41 be 54 b6 e2 bd e6 1e 25 bd
       0.13552941 -0.18858778 -0.110699326 -0.04031267
0000f0 d2 65 48 3e 04 62 04 be 7e c2 52 bd 29 14 48 be
       0.19570091 -0.12928015 -0.051455013 -0.1953894
000100 68 69 2e be 9c 6e 10 3e a9 78 d6 bd ad b7 01 be
       -0.17032397 0.14104694 -0.10472233 -0.12667723
000110 51 70 cc 3d b3 4e 2c be c7 45 cc 3d 78 fb 21 3e
       0.0998236 -0.16826896 0.099742465 0.15818584
000120 a9 fe 2a 3e 35 83 20 3e 7c 7d 2b be 43 93 3d 3e
       0.16698708 0.15675052 -0.16747087 0.18513207
000130 96 7c bb 3c f3 d4 ee 3d 23 e9 f5 bd 49 21 b0 3d
       0.022886556 0.116617106 -0.12007358 0.08600099
000140 e3 80 e9 bd dd 16 11 3e 19 ef 17 3e e5 ad 06 be
       -0.11401536 0.14168878 0.14837302 -0.13152273
000150 64 2c 10 3e d9 54 21 3e 08 bf be 3d 34 8f df 3d
       0.14079434 0.15755023 0.0931378 0.10915986
000160 75 89 d0 3d 28 70 f3 bd 7e 26 b6 bd c6 e0 39 be
       0.10182468 -0.118866265 -0.088940606 -0.1815215
000170 3a 05 2f be e1 68 2a 3e e6 7c 2a be 4d cd 25 be
       -0.17091838 0.1664157 -0.16649207 -0.16191597
000180 4b c3 24 be 9e c0 26 3e f8 fb 2f be 38 a4 8d 3c
       -0.16090123 0.16284415 -0.17185962 0.01729022
000190 78 9d 28 3e b2 db 52 be eb 41 01 3e f4 b0 28 3e
       0.1646632 -0.2059162 0.12622802 0.16473752
0001a0 dd 4b 1f 3e e1 54 39 3e 28 13 0d be 0a f4 20 3e
       0.15556283 0.18098785 -0.13776839 0.15718094
0001b0 69 eb 10 3e 54 d1 58 3e 9e 24 48 be 59 19 37 3e
       0.14152302 0.21173602 -0.19545218 0.17880763
0001c0 91 0f fb bd e6 c9 54 3e 75 4d 19 3e 75 6c 21 be
       -0.122588284 0.20780143 0.14970954 -0.1576403
0001d0 1b 9f 00 3e 81 29 5d 3e 7a 61 59 3e a1 d8 f3 3d
       0.12560694 0.21597864 0.2122859 0.11906553
0001e0 b6 4d 56 3e b1 6e 53 be 64 72 fe bd 30 99 4b be
       0.20928082 -0.20647694 -0.12424162 -0.19882655
0001f0 d6 4f 68 bd 39 f9 2c 39 6e c1 05 be 98 10 4a be
       -0.056716762 0.00016496041 -0.13062069 -0.19732893
000200 10 1e 2d be 3b c0 2b 3e 7e c5 2d be 72 c7 4e 3e
       -0.16905999 0.16772549 -0.16969869 0.2019327
000210 7e 90 4a 3e 1b 21 1c be 97 bc 1e 3e 67 2b fb 3d
       0.19781682 -0.15247004 0.15501629 0.12264138
000220 32 9e 2f 3e d1 00 36 3d e6 5f 30 be 93 70 09 3b
       0.1715019 0.044434372 -0.17224082 0.002097164
000230 a5 9c 48 3e 87 72 3b 3e d9 02 a0 bd 4e 3b 08 3e
       0.19591005 0.18305407 -0.07813043 0.13303873
000240 b0 8e 1f be 6b aa 08 3e b0 71 3f 3e 54 5a f6 bd
       -0.15581775 0.1334626 0.18695712 -0.120289475
000250 f7 10 12 3e 9a 30 22 3e b8 e5 65 3c c3 8c 09 3d
       0.14264284 0.15838853 0.01403182 0.033581506
000260 19 78 f4 3d b9 80 60 be 2e 31 20 be 6c 5d ec bd
       0.11936969 -0.21924104 -0.1564376 -0.11541256
000270 f8 aa 01 3e da 55 fa bd 91 37 1b be ed 59 22 be
       0.12662876 -0.12223406 -0.15157916 -0.15854616
000280 87 05 43 be b5 d3 51 3e 98 1d 10 be 83 c5 13 3e
       -0.19045077 0.20490916 -0.14073789 0.14430813
000290 fe b1 10 3e be f6 33 be c8 fd 4a 3e 92 75 17 3e
       0.14130399 -0.17574593 0.19823372 0.14790943
0002a0 1e 53 b7 3d f3 32 c3 3c 17 b4 64 bd 9a 5b 59 bd
       0.089514 0.023828005 -0.05583581 -0.053065874
0002b0 24 c1 5c 3e b3 32 e5 3d 90 f6 84 bd d9 fa a5 3d
       0.21558052 0.11191311 -0.064923406 0.08104486
0002c0 48 e7 ff bd 83 0a 34 3e d5 b7 1b 3e 17 ed fc bd
       -0.12495285 0.17582135 0.15206845 -0.12349909
0002d0 4d e9 72 3d 62 33 57 3e e1 25 fe bc 16 db e3 bd
       0.059304524 0.21015695 -0.031023921 -0.11125772
0002e0 28 50 01 3e be a5 05 be a1 4b 37 be 4b b6 db bc
       0.12628233 -0.13051507 -0.17899944 -0.026820322
0002f0 8a 28 28 3e 21 da 40 be 5a 31 a1 bd 96 07 18 be
       0.16421714 -0.1883321 -0.07870741 -0.14846644
000300 5e b6 a7 bb 6b 37 25 bd e7 4b 05 be 84 e2 40 3d
       -0.0051181754 -0.040336054 -0.13017236 0.047091022
000310 14 e9 21 3a 80 7d 20 3c eb a6 0b 3e 8e 46 f0 3c
       0.0006176394 0.0097955465 0.13637893 0.029330518
000320 c8 ad 70 bd 6b f1 df bc ac 6b 01 bc ef f5 8a 3c
       -0.05875948 -0.027336797 -0.007899206 0.016962973
000330 17 3e fe 3a 0f d9 48 bd c8 a8 12 3d 28 8a 18 3d
       0.0019397166 -0.04903513 0.035805494 0.03724113
000340 44 ad 93 3b b7 55 93 3d f8 b3 dd 3d da e7 86 3c
       0.004506739 0.07194083 0.10825342 0.016467977
000350 af bc 56 bd 0c b4 f7 3c 0a dc 42 bd 38 90 8f bc
       -0.052426036 0.03023722 -0.047573127 -0.017524824
000360 20 4a 4d bd c3 4d b5 bc 5a 0d f0 3c 18 79 a9 3c
       -0.05011952 -0.022131806 0.029303242 0.020687625
000370 0e 1d 33 bc 74 4b 64 bc 93 5b d1 3a 6d ec fc bc
       -0.01093222 -0.013934005 0.0015972726 -0.030874455
000380 a9 bb 3b be 2e 51 07 3e 0c f8 3e be 1b 1e 05 3e
       -0.18333305 0.13214561 -0.1864931 0.12999766
000390 f9 26 c4 3d c6 c8 16 be af 04 1b 3e b7 a8 37 3e
       0.09577746 -0.14725026 0.15138505 0.17935453
0003a0 07 52 ab 3d a1 7c 69 3d 70 96 04 be 40 f3 df b8
       0.08365255 0.05700362 -0.12948012 -0.000106787775
0003b0 bc 62 08 3e 3a f4 52 3e 56 17 9c bc d6 62 26 3e
       0.13318914 0.20600978 -0.019054096 0.1624864
0003c0 d4 70 57 be 90 49 0d 3e d0 b7 0c 3e 3a 68 24 be
       -0.21039134 0.13797593 0.13741994 -0.16055384
0003d0 98 04 52 3d 78 0e 17 3e 4f 94 2c 3d 2c 13 4d bd
       0.051273912 0.14751613 0.042133626 -0.05006711
0003e0 c5 d7 d4 3d 10 fa fd bd 29 b9 40 be 5b 44 98 bd
       0.10392717 -0.12401211 -0.18820633 -0.07434913
0003f0 b3 0c e8 3d 31 61 63 be 0d 5b 85 bd 52 b4 dd bd
       0.11330547 -0.22205044 -0.06511507 -0.10825409

lstm.bias_ih_l0 f4 [128]
000000 25 fd 3a 3e e4 13 46 3e 71 1a 1f 3e a9 48 1b 3e
       0.1826063 0.19343525 0.1553743 0.15164436
000010 cf ad 54 3e 3d e5 4b 3e b7 26 34 3e 2a 80 13 3e
       0.20769428 0.19911666 0.17592894 0.1440436
000020 7e 9d 00 3e ba 3e 4d 3e 92 56 3f 3e 40 9b 03 3e
       0.12560079 0.2004346 0.18685368 0.12852192
000030 a8 9c 33 3e 4a 63 1b 3e 5b e9 57 3e df 85 f8 3d
       0.17540228 0.15174595 0.21085112 0.12134909
000040 ca 7a 1c 3e a7 39 2e 3e 8a 80 ed 3d c5 f3 14 3e
       0.15281215 0.1701418 0.115967825 0.14546116
000050 5b 9e 41 3e 9b 3d 23 3e 22 32 29 3e a0 9b 3d 3e
       0.18908064 0.1594147 0.1652303 0.18516397
000060 4d ba fd 3d 94 e7 3c 3e ae 76 3a 3e 2d da 25 3e
       0.1238905 0.18447715 0.18209335 0.16196509
000070 16 36 56 3e 95 c1 f6 3d 60 4a 27 3e 1f 4f 3e 3e
       0.2091907 0.120486416 0.16336966 0.1858487
000080 d1 b8 9a bd 7c 07 cf bd b5 cb 50 be 10 ce f0 bd
       -0.07554782 -0.101088494 -0.20390208 -0.11758053
000090 43 5b a3 bd d9 61 f8 bd a1 38 0f 3e fc 4b 94 bd
       -0.07976391 -0.12128038 0.13986446 -0.07241055
0000a0 f6 0f ef bd 59 59 1b be 4a 38 e0 bd 47 46 7b bd
       -0.11672966 -0.15170802 -0.10948236 -0.06134632
0000b0 de 62 fd bd cc 22 2d be 33 4b cf bd ae be c0 bd
       -0.12372373 -0.16907805 -0.10121765 -0.09411369
0000c0 9d 6d d9 bd c3 02 e4 3d 77 7f 0b be 31 76 02 be
       -0.1061661 0.11133339 -0.13622843 -0.12740399
0000d0 a7 49 4e bd c9 70 93 bd 20 9d c5 bd e0 3e ed bd
       -0.05036321 -0.071992464 -0.0964911 -0.11584258
0000e0 52 bb 8e bd 08 c5 ef bc d9 05 e0 bd 06 16 91 bd
       -0.06969322 -0.029268757 -0.10938615 -0.07084279
0000f0 c4 ee 4f be 60 75 07 be df fe ee bd bb 82 9d bd
       -0.20305926 -0.13228369 -0.116697066 -0.076909505
000100 96 9a 29 be db 04 16 3e f5 86 5e bd 56 81 1d bd
       -0.16562876 0.1465029 -0.054327924 -0.038453422
000110 18 3b 20 3e b0 17 31 be da 6a 27 3e 90 2f 2c 3e
       0.15647542 -0.17294192 0.16349354 0.16815019
000120 19 62 e1 3d 9a ec be 3d 9c 47 32 be 32 20 75 3d
       0.11005039 0.09322472 -0.1741013 0.059845157
000130 05 bd 10 3d 1e 0d 1e 3e fe f4 fa bd cc 92 22 3e
       0.035336513 0.15434691 -0.1225376 0.15876311
000140 7d 42 14 be 48 ac 11 3e 35 0a 4f 3d cc 18 cb bd
       -0.14478488 0.14225876 0.050546844 -0.09916839
000150 7f 8e 0e 3e 17 aa 0d 3e 06 2e bd 3d ca fa f0 3d
       0.13921545 0.13834415 0.09237294 0.11766584
000160 84 2e 09 3e 9a 51 ee bd 2a 28 0f be e3 c7 17 be
       0.1339665 -0.11636658 -0.13980165 -0.14822344
000170 04 ca d9 bd 50 cb b0 3d fe 3f 21 be 95 be 2c be
       -0.106342345 0.08632529 -0.15747067 -0.16869576
000180 a4 71 39 3e a6 68 3a 3e f6 d8 10 3e fc 41 f6 3d
       0.18109757 0.18203983 0.14145264 0.12024304
000190 5a e0 19 3e b7 e9 26 3e ec cb 38 3e 78 9a 52 3e
       0.1502699 0.16300093 0.1804654 0.20566738
0001a0 f4 de 06 3e d2 eb 44 3e d8 cc 0a 3e 95 c9 2d 3e
       0.13170987 0.19230583 0.13554704 0.16971429
0001b0 53 31 45 3e 6d f3 3d 3e d5 dd 46 3e 9f d5 44 3e
       0.19257097 0.18549891 0.1942056 0.19222115
0001c0 4b d8 4c 3e e1 e8 e3 3d c6 96 1c 3e 34 f3 1a 3e
       0.20004384 0.111284025 0.1529189 0.15131837
0001d0 cc 90 5f 3e 77 5a 4a 3e a7 75 19 3e 91 b9 1e 3e
       0.2183258 0.19761072 0.14986287 0.15500475
0001e0 cd b7 56 3e d1 61 15 3e fc 73 4a 3e da 57 56 3e
       0.20968552 0.14588095 0.19770807 0.2093195
0001f0 1c 96 09 3e a6 98 3f 3e 9b 40 2e 3e d4 df 2a 3e
       0.13436168 0.18710575 0.17016833 0.16686946

lstm.bias_hh_l0 f4 [128]
000000 af a2 57 3e db a8 17 3e 3a 70 b9 3d 84 cf 06 3e
       0.21058153 0.14810507 0.09054609 0.13165098
000010 e9 5b 2a 3e 10 2c 00 3e 93 44 d9 3d e0 ca 54 3e
       0.16636623 0.12516809 0.106087826 0.20780516
000020 a5 d8 0b 3e e5 17 2e 3e f0 ce 2b 3e 47 e3 0b 3e
       0.13656862 0.17001303 0.16778159 0.13660918
000030 9d 11 ff 3d 70 36 f9 3d 07 96 14 3e 29 92 0f 3e
       0.12454531 0.12168586 0.14510356 0.140206
000040 17 93 1a 3e ab 16 21 3e da 50 d3 3d c1 24 57 3e
       0.15095173 0.15731303 0.103181556 0.21010114
000050 1f cd 58 3e 2a 70 1b 3e d6 aa 31 3e 64 69 59 3e
       0.21171997 0.15179506 0.17350325 0.2123161
000060 bd 83 4e 3e e1 11 fa 3d 84 74 52 3e 6c 0b 07 3e
       0.20167442 0.122104414 0.2055226 0.13187951
000070 15 fc 4e 3e e1 78 28 3e 4f fc 17 3e be 7c 08 3e
       0.20213349 0.16452362 0.14842342 0.13328835
000080 1a 07 c2 bd a1 72 41 bd cc 4b 4a be ea 66 2a be
       -0.09474011 -0.04722846 -0.19755477 -0.16640821
000090 46 25 27 bd 30 c3 a9 bd 4b 79 84 3d 23 f2 cf bc
       -0.04080703 -0.08289182 0.06468447 -0.025384014
0000a0 3d 39 f6 bd 66 2f df bd 40 fc 9f bd ee 92 f8 bd
       -0.12022636 -0.108977124 -0.07811785 -0.121373996
0000b0 f7 26 1c be a2 1a 16 be a8 26 e1 bd fb fa 9d bd
       -0.15249239 -0.14658597 -0.10993701 -0.07713886
0000c0 be 8e 4d bd 4f 14 fb 3d 06 9d 2f be 52 86 b7 bd
       -0.050184958 0.12259733 -0.17149743 -0.089611664
0000d0 0a d5 16 be de 2a e3 bd ae 34 da bd 7f 2c a3 bd
       -0.14729705 -0.11092161 -0.10654579 -0.07967471
0000e0 f5 c0 39 bd 0b df e7 bd 45 2d de bd e2 15 86 bd
       -0.045350034 -0.11321839 -0.10848478 -0.065471426
0000f0 e7 c6 06 be ba c8 37 be 3a e4 87 bd a5 4d d5 bd
       -0.13161813 -0.17947665 -0.06635328 -0.104152
000100 63 51 21 be a4 ea fa 3d e1 67 c1 bd bf dc af bd
       -0.15753703 0.122517854 -0.094436415 -0.08587026
000110 37 77 15 3e e5 89 bd bd cb 86 28 3e 30 3a e2 3d
       0.14596258 -0.09254817 0.1645767 0.11046255
000120 eb a4 18 3e 2b 3d 19 3e 26 0e ba bd 7e f4 1f 3e
       0.14906661 0.1496474 -0.0908473 0.1562061
000130 30 3d eb bc 67 8f b6 3d 82 1c 23 be 74 16 da 3d
       -0.0287157 0.089140706 -0.15928844 0.10648814
000140 59 e7 23 be be d1 10 3e d2 c0 ba 3d 7c 9f 2f be
       -0.16006221 0.1414251 0.09118809 -0.17150682
000150 8a a6 0c 3e 45 7c 13 3e 83 67 0f 3e d1 74 cf 3d
       0.13735405 0.14402874 0.1400433 0.10129703
000160 db 8f 00 3e ad ab 20 be ac a0 20 be cf 34 e3 bd
       0.12554877 -0.15690489 -0.15686291 -0.11094057
000170 e6 e6 65 bd 16 7a ec 3b ad 0e e1 bd b9 64 de bd
       -0.056128405 0.007216702 -0.10989127 -0.10859055
000180 07 ea 4e 3e 47 8c 0c 3e 43 54 27 3e 4a 64 34 3e
       0.20206462 0.13725387 0.16340737 0.17616382
000190 45 db 0b 3e ea 68 2b 3e dd dc 0f 3e 78 c8 4f 3e
       0.13657863 0.1673924 0.14049096 0.20291317
0001a0 25 3a 49 3e 97 7c 5b 3e 93 a2 1b 3e 91 94 04 3e
       0.19651087 0.21434246 0.15198736 0.12947299
0001b0 6d 6d ca 3d f3 27 d1 3d 42 b2 4a 3e c1 36 2b 3e
       0.098841526 0.10212698 0.19794562 0.16720106
0001c0 0f be 1c 3e 75 11 3f 3e bb dc 0f 3e c8 b2 08 3e
       0.15306877 0.18659003 0.14049046 0.1334945
0001d0 ee e4 10 3e c2 41 48 3e bd 3e 30 3e 19 07 40 3e
       0.1414983 0.19556335 0.17211433 0.18752708
0001e0 6b d0 fc 3d d2 53 4c 3e 04 be 2e 3e 39 fb 13 3e
       0.1234444 0.1995385 0.17064673 0.14451303
0001f0 a7 e2 52 3e fe d3 10 3e 15 21 1d 3e 2c ce 2a 3e
       0.20594274 0.14143369 0.15344651 0.16680211

lin.weight f4 [5, 32]
000000 40 79 4e be 45 1b 41 3e 51 88 24 3e ea 58 37 be
       -0.2016344 0.18858059 0.16067626 -0.17905012
000010 20 17 22 3e 8c 1b 41 be 67 16 76 3d 52 1b 33 3e
       0.15829134 -0.18858165 0.06007996 0.1749089
000020 9d 8e 31 3e 1c 77 46 3e cb 28 37 be 3e 3f 1f 3e
       0.17339559 0.19381374 -0.17886655 0.15551469
000030 41 9f 38 be b6 91 0f 3e ce d3 4a be 46 97 41 3e
       -0.180295 0.14020428 -0.1980736 0.18905362
000040 34 20 15 be 66 a8 53 3d 3b 67 22 be ec a6 42 be
       -0.14563066 0.05167427 -0.15859692 -0.19008988
000050 b0 18 1b 3e 55 f9 1f 3e ca 6d 43 3e 05 1a 53 3e
       0.15146136 0.15622456 0.1908485 0.20615394
000060 39 31 3d 3e 2f 66 42 be 5a fd 40 be 1f 0c 29 be
       0.18475808 -0.18984292 -0.18846646 -0.1650853
000070 51 a9 46 be e9 0d 32 3e 5f 90 41 be 89 77 2e be
       -0.19400527 0.17388119 -0.1890273 -0.17037787
000080 0a c4 15 3e 0a 08 2d be df 37 df bd 33 b8 1e 3e
       0.14625564 -0.16897598 -0.108993284 0.15499954
000090 f1 60 28 be 40 66 fc 3d c4 4d ca bb 17 22 2d be
       -0.1644323 0.1232419 -0.006173821 -0.16907535
0000a0 f2 c5 41 be b9 47 4d be 56 a0 17 3e 0a 95 14 be
       -0.18923166 -0.20046891 0.14807257 -0.14509979
0000b0 1e 2d 2b 3e e9 6f 3e be 3c 82 cf 3d 0e 9c 0a be
       0.1671643 -0.18597378 0.10132262 -0.13536093
0000c0 e3 21 29 3e 9c c2 ab bd d0 ad 16 3e 9e 9b 31 3e
       0.16516833 -0.08386728 0.14714742 0.1734452
0000d0 73 63 43 be a9 fb 0c be f1 9b ef bd 3d 5a 42 be
       -0.19080906 -0.13767876 -0.11699665 -0.18979736
0000e0 1e 38 f5 bd ac 78 24 3e 5b ad 3c 3e 63 6a 36 3e
       -0.11973594 0.16061658 0.18425505 0.17814021
0000f0 02 8d 25 3e df ff 35 be e6 85 38 3e fd b4 03 3e
       0.16167071 -0.17773388 0.18019828 0.1286201
000100 8c dc d0 3d 4e f7 39 be 22 6e 02 be 80 e4 0a 3e
       0.10198316 -0.18160746 -0.12737325 0.13563728
000110 49 d5 28 be 4d 89 43 3e 28 58 f4 bd 92 5c 29 be
       -0.16487612 0.19095345 -0.11930877 -0.16539219
000120 73 87 e5 bd 3e 6f e1 bd a4 6e 05 3e b0 ff 48 be
       -0.112074755 -0.11007546 0.13030487 -0.19628787
000130 68 ef d8 3d ce 8d f9 bd 7f 3e d7 3d 3f 35 e7 bd
       0.10592538 -0.1218525 0.10509967 -0.11289453
000140 b8 91 26 3e 58 d0 ab bd be 82 a9 3d 85 68 03 3e
       0.16266525 -0.08389348 0.0827689 0.1283284
000150 5f 78 49 be 58 ca 37 be 3c 98 41 be e0 87 10 be
       -0.19674824 -0.17948282 -0.18905729 -0.14114332
000160 8f 43 f8 bd 9b f6 47 3e 81 13 27 3e 68 c5 f1 3d
       -0.12122261 0.19527666 0.16316034 0.118052304
000170 7e 38 4c 3e d2 b2 2b be fb d4 12 3e 11 e1 4c 3e
       0.19943425 -0.16767433 0.14339058 0.20007731
000180 24 c4 2b 3e 7e 86 47 be 2c 7c f9 bd 3f b0 f5 3d
       0.1677404 -0.19484898 -0.12181887 0.11996507
000190 69 17 f9 bd bb e1 12 3e 69 e5 0a bd 76 86 1b be
       -0.12162668 0.14343922 -0.03391019 -0.15188012
0001a0 2d b0 00 be 0e 02 39 be 69 b2 0e 3e f4 56 3f be
       -0.12567206 -0.1806719 0.13935246 -0.18685514
0001b0 19 ec 09 3e 06 4a 55 be 32 ce 02 3e e3 33 e6 bd
       0.1346897 -0.20829019 0.1277397 -0.11240365
0001c0 82 44 02 3e 66 26 db bd 58 75 14 3e 95 b5 f5 3d
       0.12721446 -0.10700683 0.14497888 0.11997525
0001d0 48 6c fc bd 03 0f 50 be f6 18 12 be fa 9d 1a be
       -0.123253405 -0.20318227 -0.14267334 -0.15099326
0001e0 14 62 26 be 75 2c 3d 3e 46 da f9 3d ff ce 3a 3e
       -0.16248351 0.1847399 0.121998355 0.18243025
0001f0 b1 44 56 3e e5 2b 07 be e0 92 fe 3d 18 7c e1 3d
       0.20924641 -0.13200338 0.12430358 0.11009997
000200 fa 37 0d 3e 65 cd 02 be b9 c6 21 be c5 07 4e 3e
       0.13790885 -0.12773664 -0.15798463 0.20120151
000210 a1 0e 3b be fc 19 fd 3d b7 0e f5 bd 77 8f dc bd
       -0.18267299 0.12358472 -0.11965697 -0.10769551
000220 7a 39 09 be fe 9a 0e be 16 04 1a 3e 17 5e 48 be
       -0.13400832 -0.13926312 0.15040621 -0.19567142
000230 cc 12 db 3d fa f9 17 be ca 15 3c 3e e2 75 24 be
       0.106969446 -0.14841452 0.18367687 -0.16060594
000240 d7 69 48 3e d9 9e 0e be 2f 96 24 3e d8 f4 49 3e
       0.19571625 -0.13927783 0.16072915 0.19722307
000250 2f 1e 2e be d0 8d 06 be be 5f 4d be 79 23 0d be
       -0.17003702 -0.13140035 -0.20056054 -0.13783063
000260 c7 bb 34 be 19 84 26 3e 29 05 3a 3e 8e ef 28 3e
       -0.17649756 0.16261329 0.18166031 0.16497633
000270 7f 5e 1d 3e 7e a2 d8 bd ab 43 3c 3e 3a 32 34 3e
       0.15368079 -0.10577868 0.18385188 0.17597285

lin.bias f4 [5]
000000 28 47 de 3d 5d 10 a6 bd 8b 80 3e bd 24 b9 5e bd
       0.10853416 -0.0810859 -0.046509307 -0.054375783
000010 e3 f6 3c bd
       -0.046133887
