checkpoints/MLE_space_False_length_3_preTrainG_epoch_194.pth (torch_old, 36090 bytes, 7 tensors)

emb.weight f4 [5, 32]
0.1964658 0.25406212 0.13371512 0.27577186 -0.25058088 0.25877142 0.21970028 0.248967
0.15991823 -0.13324837 -0.27140698 0.27698782 -0.18517803 0.14646253 -0.15550676 -0.16862622
-0.163844 0.2064097 0.22688428 -0.32195324 -0.23579565 -0.16225052 -0.16209395 -0.3553447
-0.25721654 0.26938185 0.121905856 0.25800288 0.095152475 0.17909814 0.1552131 -0.19430771
-0.20483585 -0.1539708 -0.22549112 -0.21861614 0.19548456 -0.19940253 -0.19889899 -0.1986081
-0.15748456 -0.17188936 0.17293078 -0.18150973 0.18801227 -0.17521599 0.21368372 0.18005557
0.14164354 -0.22669785 -0.17705213 -0.17339247 0.2201046 0.2178526 0.21311477 -0.16997914
0.18058531 -0.15699749 -0.1643553 -0.14442284 -0.17307685 -0.22343643 -0.20389394 0.22148857
-0.22076368 -0.19192004 -0.21687783 -0.17835264 0.20724277 -0.10252141 -0.19558738 -0.15528072
-0.21829127 -0.19101983 0.2210064 -0.15693311 0.19184399 -0.1844925 0.22636388 0.19213696
0.21419863 -0.1673719 -0.13955447 -0.20534553 0.18616545 0.19670963 0.16382499 -0.20955633
0.17488952 -0.20090476 -0.22427872 -0.20697697 -0.20633663 -0.14402865 -0.22718325 0.16523965
-0.20459488 -0.16317771 -0.1858728 -0.1763987 0.20227641 -0.17519613 -0.16229846 -0.20314807
-0.19031022 -0.24166705 0.19314347 -0.1973367 0.16208842 -0.18999232 0.18454614 0.21190016
0.169208 -0.1534403 -0.18668394 -0.18822888 0.15459183 0.16712964 0.16024783 -0.19357747
0.19349276 -0.1625495 -0.22876506 -0.2000463 -0.15081792 -0.17111476 -0.1820841 0.22431104
-0.14822638 -0.15941721 -0.20601739 -0.17368674 0.21202107 -0.18405783 -0.19582231 -0.12478986
-0.21921085 -0.18060549 0.14038084 -0.13241838 0.15810905 -0.21518748 0.18255116 0.15948747
0.22640322 -0.14231186 -0.21537374 -0.21272475 0.17674896 0.21143922 0.21234304 -0.21258381
0.15336819 -0.2241485 -0.15975483 -0.2001902 -0.1921081 -0.21194623 -0.20441653 0.14857751
00000000: 552e 493e 6e14 823e 9eec 083e f831 8d3e
00000010: 234c 80be b07d 843e 1cf9 603e 35f1 7e3e
00000020: 9bc1 233e 4372 08be dbf5 8abe 59d1 8d3e
00000030: 4f9f 3dbe 46fa 153e 2a3d 1fbe 5aac 2cbe
00000040: b9c6 27be 105d 533e 5a54 683e 0ed7 a4be
00000050: 6a74 71be 0025 26be f5fb 25be beef b5be
00000060: e3b1 83be 6bec 893e c7a9 f93d f418 843e
00000070: 4ddf c23d 8165 373e 2ff0 1e3e 9af8 46be
00000080: 7dc0 51be 85aa 1dbe 25e7 66be e9dc 5fbe
00000090: 1b2d 483e 2d30 4cbe 2dac 4bbe ec5f 4bbe
000000a0: a243 21be c403 30be c414 313e b0dd 39be
000000b0: 4a86 403e d26b 33be e8cf 5a3e 7d60 383e
000000c0: 010b 113e 7b23 68be 274d 35be cc8d 31be
000000d0: 1a63 613e c114 5f3e c23a 5a3e 030f 2ebe
000000e0: 5beb 383e f3c3 20be c14c 28be 95e3 13be
000000f0: 0f3b 31be 85cc 64be 93c9 50be e6cd 623e
00000100: e00f 62be b086 44be 3915 5ebe 13a2 36be
00000110: 7337 543e bff6 d1bd 0f48 48be e901 1fbe
00000120: bf87 5fbe b49a 43be 804f 623e 13b3 20be
00000130: c072 443e 9aeb 3cbe efcb 673e 8dbf 443e
00000140: e356 5b3e 8a63 2bbe 5ee7 0ebe 1946 52be
00000150: 28a2 3e3e 406e 493e bdc1 273e ef95 56be
00000160: 3d16 333e fab9 4dbe 52a9 65be c5f1 53be
00000170: e949 53be 3f7c 13be baa2 68be 9534 293e
00000180: 5281 51be 0f18 27be 7055 3ebe dca1 34be
00000190: 8c21 4f3e 9d66 33be 9131 26be 0c06 50be
000001a0: afe0 42be 9177 77be 67c7 453e a212 4abe
000001b0: 82fa 253e 598d 42be aaf9 3c3e 5bfc 583e
000001c0: dd44 2d3e 741f 1dbe 132a 3fbe 12bf 40be
000001d0: 524d 1e3e 0824 2b3e 0218 243e 2c39 46be
000001e0: f722 463e 6073 26be 6341 6abe f0d8 4cbe
000001f0: 0370 1abe b538 2fbe 4174 3abe cbb1 653e
00000200: a8c8 17be 443e 23be 39f6 52be f0da 31be
00000210: 0d1c 593e a879 3cbe a585 48be d391 ffbd
00000220: cf78 60be a5f0 38be ffbf 0f3e af98 07be
00000230: 57e7 213e 1b5a 5cbe b1ee 3a3e af50 233e
00000240: 3fd6 673e 33ba 11be ef8a 5cbe 84d4 59be
00000250: aefd 343e 8683 583e 7470 593e 92af 59be
00000260: 8d0c 1d3e 2f87 65be c596 23be a9fe 4cbe
00000270: fcb7 44be 6f08 59be 9152 51be b424 183e

lstm.weight_ih_l0 f4 [128, 32]
-0.1446092 -0.13879071 -0.17200421 -0.17892238 0.12100013 -0.13292481 -0.13426495 -0.16155177
-0.1485384 -0.16270436 0.10185072 -0.11893639 0.17583543 -0.1525087 0.15239039 0.17944548
0.14296728 -0.14459197 -0.19764754 -0.26707536 0.11730974 0.14721973 0.14643742 -0.24510674
0.18204802 -0.106868684 -0.16029914 -0.14265968 -0.20028053 -0.19798353 -0.17145249 0.18915798
-0.20601095 -0.20014982 -0.18301916 -0.12450392 0.12114101 -0.161513 -0.16491008 -0.13238187
-0.21602052 -0.16622399 0.15968034 -0.13845557 0.16498521 -0.23145197 0.16977765 0.17999096
0.15567763 -0.16856791 -0.17906898 -0.20469953 0.15284427 0.20835075 0.17494409 -0.27146253
0.19610038 -0.17327528 -0.1865503 -0.19035831 -0.20752446 -0.21762551 -0.22100438 0.21361971
0.11232081 0.22972634 0.15382817 0.20277405 -0.14185661 0.20200136 0.12906286 0.15607095
0.1753077 -0.22792076 -0.16057105 0.23135953 -0.11419574 0.16658361 -0.10625046 -0.1453488
-0.16842112 0.17761439 0.17296532 -0.2627508 -0.15593898 -0.10310392 -0.17524084 -0.3032034
-0.22260827 0.18845482 0.12536123 0.1908061 0.100673646 0.19515222 0.14978538 -0.18606114
0.024568653 0.102010414 -0.0416761 0.019182483 -0.03720417 0.12057048 0.034309104 0.02424663
-0.022771 -0.20359215 -0.07809474 0.07670274 0.027159983 -0.09614445 0.09635601 0.08085416
0.0043939664 -0.023943854 0.06252688 -0.29383123 -0.03481444 0.038594708 0.041562885 -0.26846036
-0.023692012 0.040495567 -0.08295943 0.03147701 -0.12842971 -0.039708395 -0.08371245 0.014645311
-0.17724389 -0.09506145 -0.16939902 -0.0953331 0.17761147 -0.1400344 -0.17076665 -0.1707487
-0.19407697 -0.23579183 0.16332409 -0.107533716 0.13633151 -0.16492517 0.13870871 0.20190899
0.14013231 -0.11430008 -0.13767637 -0.22414288 0.12088807 0.16139828 0.21052542 -0.2716987
0.103699416 -0.100545704 -0.17069513 -0.19365664 -0.16755073 -0.2178804 -0.16456851 0.1560569
-0.19258995 -0.18422201 -0.15292463 -0.14360027 0.20067321 -0.12470433 -0.17771447 -0.17760664
-0.21168244 -0.20537253 0.17625548 -0.0735245 0.21392979 -0.20627812 0.15395804 0.19612482
0.19086353 -0.11027333 -0.16486597 -0.29771727 0.17827958 0.1419344 0.16245954 -0.23942557
0.17102267 -0.12246108 -0.13424292 -0.1047825 -0.19015764 -0.16497874 -0.15481383 0.19633304
0.18703035 0.16758247 0.16984023 0.17420243 -0.25383836 0.18729314 0.20454426 0.20954053
0.12528048 -0.25754914 -0.16991396 0.16659306 -0.14631613 0.19207983 -0.15731558 -0.21822938
-0.15595841 0.24196576 0.22417746 -0.17931543 -0.20362155 -0.19545141 -0.10396728 -0.23735723
-0.21864137 0.24284968 0.11256777 0.235886 0.059082426 0.17479236 0.14117411 -0.19234017
-0.13412118 -0.13788591 -0.1777905 -0.14079323 0.20255104 -0.19885466 -0.19878 -0.19007003
-0.21552046 -0.18713465 0.16451916 -0.17284803 0.19507742 -0.22112778 0.15419982 0.22806425
0.15438043 -0.17563835 -0.20751412 -0.2047341 0.19011286 0.15379506 0.16563967 -0.21763806
0.20500603 -0.20856047 -0.16705038 -0.20388162 -0.16615017 -0.16825777 -0.19048432 0.14789487
00000000: 6f14 14be 271f 0ebe df21 30be 6e37 37be
00000010: ebce f73d 711d 08be c07c 09be d46d 25be
00000020: 731a 18be f99b 26be 1c97 d03d ec94 f3bd
00000030: 340e 343e 3e2b 1cbe 3a0c 1c3e 8ec0 373e
00000040: 0466 123e eb0f 14be 1e64 4abe 1abe 88be
00000050: 1740 f03d c5c0 163e b1f3 153e 43fd 7abe
00000060: cc6a 3a3e f8dd dabd 7525 24be 6115 12be
00000070: 5716 4dbe 32bc 4abe 3e91 2fbe a1b2 413e
00000080: 89f4 52be 13f4 4cbe 6069 3bbe e9fb febd
00000090: c718 f83d aa63 25be 30de 28be 1d8f 07be
000000a0: 7c34 5dbe 9f36 2abe 3e83 233e 4cc7 0dbe
000000b0: e2f1 283e bf01 6dbe 31da 2d3e 8d4f 383e
000000c0: f569 1f3e 119d 2cbe dc5d 37be c19c 51be
000000d0: 3583 1c3e e659 553e 8b24 333e 23fd 8abe
000000e0: 8ace 483e 136f 31be 0b07 3fbe 4aed 42be
000000f0: 4b81 54be 39d9 5ebe f94e 62be 20bf 5a3e
00000100: 7408 e63d 623d 6b3e 2285 1d3e 00a4 4f3e
00000110: dc42 11be 72d9 4e3e 0e29 043e 10d1 1f3e
00000120: dd83 333e 0f64 69be bd6c 24be 83e9 6c3e
00000130: 75df e9bd e594 2a3e d799 d9bd 51d6 14be
00000140: 9676 2cbe 8ce0 353e d21d 313e 4687 86be
00000150: 78ae 1fbe 2628 d3bd 5672 33be 7a3d 9bbe
00000160: 6cf3 63be 4dfa 403e b25e 003e ad62 433e
00000170: fc2d ce3d fcd5 473e 5761 193e d086 3ebe
00000180: 3344 c93c d6ea d03d 8fb4 2abd 9524 9d3c
00000190: 6663 18bd a8ed f63d b487 0c3d dea0 c63c
000001a0: 408a babc 767a 50be 23f0 9fbd 5316 9d3d
000001b0: 9d7e de3c 62e7 c4bd 4d56 c53d de96 a53d
000001c0: 43fb 8f3b e725 c4bc 180e 803d 0c71 96be
000001d0: 9699 0ebd 7c15 1e3d d83d 2a3d a373 89be
000001e0: c015 c2bc aede 253d a2e6 a9bd 0aee 003d
000001f0: 1483 03be 45a5 22bd 6f71 abbd e3f2 6f3c
00000200: 6c7f 35be 94af c2bd f076 2dbe 003e c3bd
00000210: c8df 353e 2e65 0fbe 74dd 2ebe bfd8 2ebe
00000220: 1dbc 46be 6a73 71be 6e3e 273e a33a dcbd
00000230: 7d9a 0b3e 25e2 28be a809 0e3e 3bc1 4e3e
00000240: d87e 0f3e 2916 eabd 09fb 0cbe b685 65be
00000250: 2a94 f73d 9745 253e fa93 573e 181c 8bbe
00000260: 5c60 d43d e8ea cdbd b4ca 2ebe ed4d 46be
00000270: 6b92 2bbe 0a1c 5fbe a684 28be 61cd 1f3e
00000280: 4d36 45be b2a4 3cbe 4698 1cbe f30b 13be
00000290: 477d 4d3e fc64 ffbd c8fa 35be 84de 35be
000002a0: 48c3 58be 2d4d 52be 517c 343e 0394 96bd
000002b0: 6910 5b3e 923a 53be 2da7 1d3e f2d4 483e
000002c0: bb71 433e fcd6 e1bd a0d2 28be 666e 98be
000002d0: ec8e 363e 4057 113e cb5b 263e fa2b 75be
000002e0: 9120 2f3e e0cc fabd fa76 09be 3598 d6bd
000002f0: afb8 42be 30f0 28be 8487 1ebe 870b 493e
00000300: e284 3f3e bd9a 2b3e 99ea 2d3e 1f62 323e
00000310: 1af7 81be c6c9 3f3e 0d74 513e cb91 563e
00000320: 8749 003e 7bdd 83be edfd 2dbe 5f97 2a3e
00000330: e5d3 15be 93b0 443e 5617 21be 8677 5fbe
00000340: 90b3 1fbe dfc5 773e c78e 653e 779e 37be
00000350: 2b82 50be 6a24 48be ccec d4bd c60d 73be
00000360: 86e3 5fbe 96ad 783e ee89 e63d 198c 713e
00000370: 6a00 723d c5fc 323e f28f 103e d2f4 44be
00000380: 1057 09be f731 0dbe b60e 36be 1a2c 10be
00000390: 8a69 4f3e 8ea0 4bbe fc8c 4bbe b8a1 42be
000003a0: 65b1 5cbe 3aa0 3fbe b677 283e 13ff 30be
000003b0: 60c2 473e 526f 62be 8fe6 1d3e ad89 693e
000003c0: e715 1e3e 8ada 33be 957e 54be d1a5 51be
000003d0: f2ac 423e 747c 1d3e 729d 293e 83dc 5ebe
000003e0: 1aed 513e e090 55be 410f 2bbe 58c6 50be
000003f0: 4523 2abe c44b 2cbe 520e 43be c171 173e

lstm.weight_hh_l0 f4 [128, 32]
-0.11895076 0.13803393 -0.2962159 0.3594457 0.16548857 -0.20557728 0.28216097 0.1981329
0.102368474 -0.006884759 -0.10766137 -0.11937187 0.33197892 0.115412205 -0.13545643 0.18015644
-0.19108704 0.2773034 0.2396741 -0.19107692 0.1396142 0.18843678 0.01983865 -0.12119131
0.16880786 -0.19478443 -0.19262625 -0.10428381 0.3025892 -0.32794783 -0.112240516 -0.1959808
-0.17439404 0.1526315 -0.29051802 0.28586018 0.12309508 -0.21213801 0.22154897 0.1709512
0.16441087 -0.0070813596 -0.113624975 -0.09274011 0.31909716 0.16985373 -0.063887216 0.1910446
-0.16624558 0.28879768 0.21862827 -0.22069578 0.11177079 0.18372652 -0.0014878107 -0.15079758
0.14937477 -0.21517563 -0.11695422 -0.038055938 0.30689996 -0.27189803 -0.06274179 -0.21506749
-0.153537 0.1292994 -0.24610396 0.0077470373 0.07832601 -0.1518958 0.17489067 0.14764345
0.13863862 0.115986474 -0.13391285 0.1328941 0.23384666 0.08981959 -0.0888248 0.065324426
-0.10411494 0.21825601 0.2971748 -0.11488285 0.115635335 0.13872951 0.046094503 0.05276767
0.077174805 -0.10736055 -0.06631944 -0.14973083 -0.07645026 0.020791234 -0.14245413 -0.14404172
-0.14179836 0.15165147 -0.27462342 0.21618842 0.13834856 -0.18770683 0.19081375 0.15509634
0.11713977 0.117769636 -0.08921407 0.0694934 0.31483492 0.17795055 -0.15005496 0.15433995
-0.11504386 0.27292472 0.2581458 -0.13881351 0.09181192 0.19447681 0.13490272 0.02297687
0.17811301 -0.19576669 -0.095071465 -0.1523768 0.105369955 -0.20552169 -0.09898813 -0.17680855
-0.16919035 0.18110463 -0.25230142 0.34362772 0.19185689 -0.1600099 0.2164959 0.13560882
0.1547934 -0.011452111 -0.1395467 -0.08598855 0.31976295 0.17520073 -0.047918964 0.1353356
-0.17026663 0.19467865 0.2736771 -0.12579231 0.12762386 0.16026852 -0.061522003 -0.06807506
0.11260117 -0.23344824 -0.14564969 -0.08493638 0.26116824 -0.2727112 -0.1421455 -0.16256
-0.20340344 0.232434 -0.21984273 0.26092404 0.15093414 -0.20020181 0.25943488 0.17360406
0.096787624 -0.00045717266 -0.049491726 -0.097381644 0.3291089 0.12682165 -0.05915691 0.102576435
-0.14994688 0.23656012 0.235094 -0.14517897 0.06361776 0.22804156 -0.06635654 -0.16902125
0.14048997 -0.15880397 -0.1844008 -0.022721775 0.26123238 -0.3163105 -0.090149984 -0.1692496
-0.0027837795 -0.039872523 -0.23594092 0.08694311 -0.003018699 0.010809426 0.19469611 0.030107459
-0.06396086 -0.037112117 -0.0005338088 0.004468602 0.08601804 -0.05303593 0.04287047 0.034962986
0.0029208562 0.13154696 0.21717796 0.017952118 -0.057365213 0.028262997 -0.058715343 -0.031880327
-0.05377964 -0.022697633 0.033876207 0.027593076 0.014943989 -0.059551988 0.0057790205 -0.029174328
-0.19842358 0.16045876 -0.26857707 0.2617934 0.10811114 -0.17285797 0.21439737 0.20590366
0.09419733 0.039815772 -0.12798451 -0.038959082 0.25496227 0.22360446 -0.018012064 0.18575664
-0.2368977 0.2005515 0.22356997 -0.18353666 0.058860675 0.1672812 0.014082977 -0.10413068
0.12054778 -0.15303311 -0.19679478 -0.07484782 0.22528934 -0.3645246 -0.079058 -0.13049123
00000000: 759c f3bd c458 0d3e 9ca9 97be 4409 b83e
00000010: d675 293e da82 52be 6777 903e 5ae3 4a3e
00000020: 90a6 d13d 8b99 e1bb 907d dcbd 3d79 f4bd
00000030: 24f9 a93e 3c5d ec3d 17b5 0abe ee7a 383e
00000040: 52ac 43be b6fa 8d3e 216d 753e aba9 43be
00000050: 06f7 0e3e 92f5 403e aa84 a23c 2633 f8bd
00000060: f8db 2c3e 9275 47be d13f 45be c092 d5bd
00000070: f9ec 9a3e c7e8 a7be 5bde e5bd 31af 48be
00000080: 5a94 32be 6f4b 1c3e c7be 94be 445c 923e
00000090: 4619 fc3d b53a 59be bcdd 623e d50d 2f3e
000000a0: 535b 283e c00a e8bb 36b4 e8bd 87ee bdbd
000000b0: b460 a33e 23ee 2d3e 4dd7 82bd 32a1 433e
000000c0: 483c 2abe 4add 933e 17e0 5f3e 13fe 61be
000000d0: 15e8 e43d ce22 3c3e a502 c3ba ae6a 1abe
000000e0: b3f5 183e 0057 5cbe b285 efbd 8be0 1bbd
000000f0: fe21 9d3e 3836 8bbe c57e 80bd a73a 5cbe
00000100: ce38 1dbe 1067 043e ad02 7cbe dcda fd3b
00000110: 6369 a03d 938a 1bbe 8a16 333e d82f 173e
00000120: 48f7 0d3e 518a ed3d 7320 09be 6415 083e
00000130: 8075 6f3e 55f3 b73d c7e9 b5bd d0c8 853d
00000140: 373a d5bd 817e 5f3e 4c27 983e b347 ebbd
00000150: 38d2 ec3d 1c0f 0e3e 97cd 3c3d ea22 583d
00000160: d30d 9e3d d9df dbbd 7dd2 87bd 0a53 19be
00000170: f491 9cbd 6152 aa3c 7fdf 11be ac7f 13be
00000180: 9733 11be 864a 1b3e 719b 8cbe 7f60 5d3e
00000190: 3fab 0d3e 3836 40be ae64 433e 93d1 1e3e
000001a0: fae6 ef3d 3531 f13d deb5 b6bd 8e52 8e3d
000001b0: 0b32 a13e ab38 363e 02a8 19be 4b0b 1e3e
000001c0: 1e9c ebbd cabc 8b3e b02b 843e 2125 0ebe
000001d0: e307 bc3d ee24 473e f023 0a3e fd39 bc3c
000001e0: 4263 363e 1077 48be d4b4 c2bd aa08 1cbe
000001f0: 34cc d73d 4774 52be 4aba cabd 4d0d 35be
00000200: 3c40 2dbe 7e73 393e a72d 81be f9ef af3e
00000210: 2276 443e a3d9 23be 1ab1 5d3e 0add 0a3e
00000220: 2982 1e3e a3a1 3bbc 55e5 0ebe c41a b0bd
00000230: f8b7 a33e d267 333e ad46 44bd 6a95 0a3e
00000240: 605a 2ebe d759 473e 681f 8c3e b3cf 00be
00000250: d4af 023e 6e1d 243e 7ffe 7bbd f06a 8bbd
00000260: 719b e63d 0e0d 6fbe 3125 15be 20f3 adbd
00000270: d8b7 853e cda0 8bbe 978e 11be 2176 26be
00000280: fe48 50be 2e03 6e3e 741e 61be d697 853e
00000290: 7b8e 1a3e b401 4dbe a6d4 843e 43c5 313e
000002a0: 9738 c63d adb0 efb9 d6b7 4abd 0770 c7bd
000002b0: f680 a83e 89dd 013e 844e 72bd 9813 d23d
000002c0: ad8b 19be d13c 723e 7bbc 703e cca9 14be
000002d0: 074a 823d ba83 693e f0e5 87bd e813 2dbe
000002e0: 9adc 0f3e 829d 22be 90d3 3cbe 0423 babc
000002f0: 40c0 853e 73f3 a1be 8ea0 b8bd c44f 2dbe
00000300: 1270 36bb 5f51 23bd 7f9a 71be 3b0f b23d
00000310: 5dd5 45bb 051a 313c 6b5e 473e eba3 f63c
00000320: e9fd 82bd e002 18bd 4def 0bba 5a6d 923b
00000330: 3a2a b03d 343c 59bd f298 2f3d 5935 0f3d
00000340: d66b 3f3b 3fb4 063e e663 5e3e 5210 933c
00000350: c9f7 6abd cd87 e73c 807f 70bd f294 02bd
00000360: 0a48 5cbd 63f0 b9bc c7c1 0a3d e00a e23c
00000370: a2d7 743c c9ec 73bd f05d bd3b 00ff eebc
00000380: 8d2f 4bbe 4d4f 243e ef82 89be c909 863e
00000390: 6069 dd3d ae01 31be fc8a 5b3e 69d8 523e
000003a0: 88ea c03d dd15 233d 5f0e 03be 8f93 1fbd
000003b0: 6a8a 823e 91f8 643e 098e 93bc fd36 3e3e
000003c0: 5095 72be 5f5d 4d3e 87ef 643e 09f1 3bbe
000003d0: e417 713d c34b 2b3e 49bc 663c 7742 d5bd
000003e0: c1e1 f63d b6b4 1cbe 9284 49be d049 99bd
000003f0: 40b2 663e f8a2 babe 29e9 a1bd 7e9f 05be

lstm.bias_ih_l0 f4 [128]
0.22531791 0.23935544 0.23043446 0.22943461 0.25757328 0.24832575 0.21389528 0.1890076
0.17738988 0.25660518 0.24251337 0.18964547 0.26034817 0.20753518 0.2638076 0.17422077
0.20015614 0.20505518 0.19438224 0.1923513 0.23985082 0.21085648 0.22542317 0.24594258
0.17763239 0.22863977 0.22834794 0.21518548 0.27753007 0.20278585 0.21314657 0.2348231
-0.121619195 -0.1472187 -0.24042618 -0.16583759 -0.1315451 -0.17148064 0.1726336 -0.119559415
-0.1642588 -0.19907156 -0.16145556 -0.10724151 -0.17105229 -0.22333714 -0.14681756 -0.1463258
-0.17197223 0.14706501 -0.17493922 -0.17599286 -0.09907594 -0.12856434 -0.14290927 -0.16141893
-0.12322952 -0.073315166 -0.15503511 -0.11813365 -0.24683459 -0.1858842 -0.16345112 -0.12879367
-0.15414885 0.13823567 -0.11054948 0.02869099 0.14201625 -0.1613349 0.18331125 0.15942399
0.09082757 0.06998278 -0.1544017 0.030461375 0.11587631 0.13916259 -0.10220541 0.14472677
-0.13947348 0.16071099 0.10935165 -0.087108046 0.12210318 0.12873375 0.06957508 0.09065122
0.11899202 -0.10801691 -0.12540938 -0.12657028 -0.0636088 0.010996417 -0.14164515 -0.15702775
0.23366982 0.23691703 0.22027057 0.19691424 0.20659404 0.22023126 0.22819735 0.25960958
0.18814898 0.25377157 0.19783689 0.2341583 0.28066975 0.24690805 0.25132266 0.25223264
0.25653252 0.15670376 0.23446332 0.20664294 0.27548155 0.25832665 0.21465695 0.21869758
0.27098694 0.19898006 0.25167996 0.2690531 0.2048827 0.26945612 0.22649448 0.22415675
00000000: bdb9 663e 9819 753e 03f7 6b3e e8f0 6a3e
00000010: a5e0 833e 1b49 7e3e 5d07 5b3e 358b 413e
00000020: b1a5 353e c161 833e 6d55 783e 6c32 423e
00000030: 5b4c 853e 1a84 543e ca11 873e ee66 323e
00000040: bbf5 4c3e fcf9 513e 230c 473e bdf7 443e
00000050: 749b 753e c3ea 573e 55d5 663e 5fd8 7b3e
00000060: 44e5 353e 8b20 6a3e 0bd4 693e 9559 5c3e
00000070: 6c18 8e3e 18a7 4f3e 1843 5a3e 7775 703e
00000080: 7c13 f9bd 80c0 16be 4832 76be 54d1 29be
00000090: c2b3 06be 9f98 2fbe ddc6 303e 91db f4bd
000000a0: 7533 28be 6ad9 4bbe 9b54 25be 70a1 dbbd
000000b0: 5528 2fbe 7eb2 64be 5857 16be 6ed6 15be
000000c0: 7d19 30be 3698 163e 4423 33be 7937 34be
000000d0: 54e8 cabd 5fa6 03be cf56 12be 014b 25be
000000e0: c25f fcbd 4326 96bd 86c1 1ebe 0ef0 f1bd
000000f0: 35c2 7cbe 6d58 3ebe bb5f 27be 7de2 03be
00000100: 32d9 1dbe a78d 0d3e c467 e2bd 5e09 eb3c
00000110: b56c 113e fa34 25be f2b5 3b3e 0b40 233e
00000120: ce03 ba3d 2253 8f3d 7b1b 1ebe 228a f93c
00000130: 8f50 ed3d a380 0e3e 1251 d1bd 4133 143e
00000140: 23d2 0ebe 6c91 243e c2f3 df3d b465 b2bd
00000150: 3b11 fa3d c8d2 033e 617d 8e3d 59a7 b93d
00000160: 17b2 f33d f837 ddbd 516b 00be a49b 01be
00000170: 5545 82bd 512a 343c 6d0b 11be e2cb 20be
00000180: 2447 6f3e 619a 723e 9c8e 613e e3a3 493e
00000190: 638d 533e 4e84 613e 91ac 693e 8ceb 843e
000001a0: 20aa 403e 59ee 813e c195 4a3e 32c7 6f3e
000001b0: f2b3 8f3e 77d5 7c3e 5dad 803e a324 813e
000001c0: 3b58 833e f376 203e 2717 703e 359a 533e
000001d0: eb0b 8d3e 6443 843e 08cf 5b3e 42f2 5f3e
000001e0: cdbe 8a3e 6ec1 4b3e 32dc 803e 54c1 893e
000001f0: c5cc 513e 27f6 893e 2bee 673e 5989 653e

lstm.bias_hh_l0 f4 [128]
0.2532931 0.19402526 0.16560632 0.20944123 0.21624528 0.17437717 0.14405417 0.25276923
0.18835771 0.22618365 0.22344129 0.19773273 0.20949118 0.17747508 0.19805986 0.19307768
0.19829571 0.19222641 0.18159598 0.25699118 0.26249015 0.20323685 0.23369612 0.2730946
0.25541633 0.16626702 0.2517772 0.1850999 0.27047294 0.24682303 0.19820033 0.18226275
-0.14081152 -0.09335861 -0.23407887 -0.21466525 -0.0925882 -0.13309214 0.0974536 -0.0725329
-0.16775548 -0.15634063 -0.13009106 -0.16726921 -0.19982097 -0.20084506 -0.1555369 -0.12935098
-0.11599108 0.15832894 -0.21020822 -0.13820045 -0.19600983 -0.16749358 -0.15296398 -0.12525113
-0.09888634 -0.15726481 -0.15413374 -0.11276229 -0.17539346 -0.23307715 -0.11310729 -0.15603614
-0.14605711 0.11425071 -0.15065797 -0.018725848 0.1315034 -0.08094116 0.1843944 0.10173622
0.12984386 0.12640542 -0.0711476 0.12682231 0.051824104 0.073956355 -0.13895628 0.09245176
-0.15475081 0.15987733 0.1499929 -0.15944646 0.12024173 0.13441834 0.11724546 0.07428241
0.110574245 -0.14855523 -0.14247064 -0.089287475 -0.0133949295 -0.06811218 -0.094065815 -0.09692259
0.25463694 0.19213107 0.2422253 0.25283504 0.19290277 0.22462274 0.18822291 0.25685537
0.25295004 0.27580816 0.21427721 0.193917 0.18694024 0.16353613 0.25506264 0.22721261
0.2095574 0.23200974 0.22203487 0.18881907 0.1986541 0.25627932 0.2369084 0.2512199
0.18474568 0.25263765 0.22461858 0.20424661 0.27646366 0.223784 0.20977266 0.2240894
00000000: a2af 813e 8fae 463e b494 293e c377 563e
00000010: 676f 5d3e ee8f 323e f082 133e f86a 813e
00000020: d8e0 403e b09c 673e cbcd 643e 737a 4a3e
00000030: db84 563e 07bc 353e 34d0 4a3e 28b6 453e
00000040: 080e 4b3e 00d7 443e 4cf4 393e 5994 833e
00000050: 1c65 863e 521d 503e 094e 6f3e 0ed3 8b3e
00000060: eec5 823e e741 2a3e f1e8 803e d48a 3d3e
00000070: 6e7b 8a3e 2dbf 7c3e 07f5 4a3e 16a3 3a3e
00000080: e530 10be cd32 bfbd 5fb2 6fbe 35d1 5bbe
00000090: e29e bdbd 4e49 08be c195 c73d 218c 94bd
000000a0: 18c8 2bbe c217 20be 9736 05be 9f48 2bbe
000000b0: de9d 4cbe 54aa 4dbe 1145 1fbe 9574 04be
000000c0: bb8c edbd fb20 223e d340 57be 6b84 0dbe
000000d0: cdb6 48be 7083 2bbe 97a2 1cbe d541 00be
000000e0: ec84 cabd 070a 21be 3cd5 1dbe eaef e6bd
000000f0: 589a 33be c7ab 6ebe cba4 e7bd f0c7 1fbe
00000100: ff8f 15be 47fc e93d 1546 1abe f366 99bc
00000110: d4a8 063e 7bc4 a5bd e3d1 3c3e 145b d03d
00000120: caf5 043e 6c70 013e d5b5 91bd b5dd 013e
00000130: 8345 543d 6e76 973d 8e4a 0ebe 5957 bd3d
00000140: ff76 1ebe e2b6 233e bd97 193e ef45 23be
00000150: 4c41 f63d f6a4 093e 631e f03d 6021 983d
00000160: c074 e23d dd1e 18be d3e3 11be 5adc b6bd
00000170: 6876 5bbc 667e 8bbd 94a5 c0bd 5a7f c6bd
00000180: c65f 823e 02be 443e e909 783e 9873 813e
00000190: 4e88 453e 8103 663e 82bd 403e 8c82 833e
000001a0: ab82 813e ba36 8d3e 7c6b 5b3e 2e92 463e
000001b0: 436d 3f3e 0476 273e 9297 823e 6caa 683e
000001c0: 3796 563e f693 6d3e 1c5d 633e c959 413e
000001d0: fb6b 4b3e 0b37 833e 1e98 723e e59f 803e
000001e0: f92d 3d3e b959 813e 6a02 663e 0626 513e
000001f0: a58c 8d3e a227 653e a5ce 563e b177 653e

lin.weight f4 [5, 32]
-0.24534358 0.23636363 0.25447324 -0.2422729 0.20504427 -0.23809615 -0.07642553 0.22070232
0.22194505 0.24395058 -0.22868514 0.20713463 -0.25909314 0.19121298 -0.24548589 0.24075562
-0.19616334 -0.097951755 -0.25496492 -0.23743379 0.19784464 0.2063146 0.2418946 0.25708944
0.23654698 -0.23776716 -0.23306236 -0.21285154 -0.25162593 0.24089701 -0.23673503 -0.21925077
0.1841718 -0.21195525 -0.14784648 0.19113353 -0.20400727 0.1672518 0.024936153 -0.20999822
-0.22339933 -0.23944663 0.18730661 -0.18243246 0.20523144 -0.22046438 0.14049052 -0.17755897
0.21013133 -0.056387465 0.18667048 0.21449926 -0.2287816 -0.18032825 -0.15671517 -0.22623856
-0.16283722 0.20495445 0.22221981 0.21684329 0.19943736 -0.21471173 0.22017625 0.17163177
0.14343417 -0.22612308 -0.18863212 0.18623033 -0.20870104 0.2365662 -0.07754274 -0.20822679
-0.15512739 -0.15573357 0.17571841 -0.24159175 0.16312827 -0.16580342 0.14950566 -0.16067643
0.21131445 -0.056453947 0.1451094 0.17359038 -0.23951906 -0.22524512 -0.23492841 -0.18615267
-0.1693271 0.24061623 0.20517011 0.16254115 0.24796218 -0.21984574 0.188248 0.24573313
0.20586419 -0.23767328 -0.17597845 0.16526406 -0.1637468 0.18852158 0.020892257 -0.19322585
-0.16254131 -0.22252047 0.18129265 -0.22762144 0.18557942 -0.24510975 0.16885479 -0.15673499
0.17660975 -0.060941532 0.20006399 0.16315019 -0.16351564 -0.24614105 -0.18562388 -0.19167395
-0.20710918 0.23098761 0.16211955 0.22314656 0.2533705 -0.1789538 0.16685316 0.15577024
0.17022558 -0.1672724 -0.2070412 0.2378985 -0.21913426 0.1661276 -0.039167464 -0.14488412
-0.159265 -0.175099 0.18574771 -0.22836207 0.15044568 -0.17295007 0.21904787 -0.19795834
0.24212585 -0.06291991 0.210437 0.23488656 -0.20371544 -0.17017373 -0.23793449 -0.17074396
-0.21630275 0.20783088 0.21597217 0.19998716 0.19098634 -0.14490622 0.22062182 0.21821983
00000000: 593b 7bbe 4f09 723e 514a 823e 6316 78be
00000010: 20f7 513e 7acf 73be fd84 9cbd caff 613e
00000020: 9045 633e 2ece 793e 702c 6abe 1a1b 543e
00000030: dba7 84be 56cd 433e a760 7bbe a488 763e
00000040: 0bdf 48be ee9a c8bd c38a 82be d821 73be
00000050: c997 4a3e 2244 533e 38b3 773e 3aa1 833e
00000060: 5f39 723e 3c79 73be e6a7 6ebe c1f5 59be
00000070: 1dd5 80be b5ad 763e ab6a 72be 4683 60be
00000080: 8897 3c3e cc0a 59be 1165 17be 82b8 433e
00000090: 48e7 50be 0e44 2b3e e746 cc3c c609 57be
000000a0: cbc2 64be 7f31 75be 4ecd 3f3e 93cf 3abe
000000b0: 3128 523e 6ac1 61be bfdc 0f3e 05d2 35be
000000c0: ab2c 573e 8bf6 66bd 8c26 3f3e b2a5 5b3e
000000d0: b945 6abe f8a7 38be f179 20be 15ab 67be
000000e0: cdbe 26be 94df 513e 978d 633e 2b0c 5e3e
000000f0: 4f39 4c3e 64dd 5bbe e275 613e 3dc0 2f3e
00000100: 68e0 123e cf8c 67be c728 41be 2ab3 3e3e
00000110: bab5 55be 693e 723e bace 9ebd 6739 55be
00000120: b7d9 1ebe 9f78 1fbe 87ef 333e d463 77be
00000130: 190b 273e 5fc8 29be 0318 193e 5d88 24be
00000140: d162 583e 413c 67bd 8f97 143e adc1 313e
00000150: 7c44 75be a8a6 66be 1391 70be ce9e 3ebe
00000160: 1564 2dbe 1a64 763e 1d18 523e 3071 263e
00000170: cce9 7d3e 3e1f 61be 15c4 403e 77a1 7b3e
00000180: 10ce 523e a060 73be b233 34be fb3a 293e
00000190: 3ead 27be cd0b 413e 3d26 ab3c ffdc 45be
000001a0: 3b71 26be 68dc 63be c8a4 393e 9815 69be
000001b0: 8808 3e3e 0dfe 7abe 45e8 2c3e 237f 20be
000001c0: 30d9 343e d49d 79bd 93dd 4c3e d810 273e
000001d0: a570 27be 660c 7cbe 3014 3ebe 2d46 44be
000001e0: 6e14 54be 0488 6c3e ab02 263e 8880 643e
000001f0: c7b9 813e aa3f 37be 8edb 2a3e 3c82 1f3e
00000200: 9d4f 2e3e 7549 2bbe 9c02 54be aa9b 733e
00000210: bb64 60be 5b1d 2a3e 106e 20bd 815c 14be
00000220: 5d16 23be 274d 33be a634 3e3e bfd7 69be
00000230: 6f0e 1a3e d319 31be 164e 603e 97b5 4abe
00000240: d7ef 773e 27dc 80bd cc7c 573e 1a86 703e
00000250: c89a 50be 0642 2ebe 19a5 73be 81d7 2ebe
00000260: 787e 5dbe 9ed1 543e cf27 5d3e 6fc9 4c3e
00000270: ec91 433e 4c62 14be b0ea 613e 0575 5f3e

lin.bias f4 [5]
0.07209492 -0.06267016 -0.022100413 -0.02874807 -0.021287398
00000000: 80a6 933d 3659 80bd ed0b b5bc 1381 ebbc
00000010: e962 aebc
