checkpoints/MLE_space_False_length_3_preTrainG_epoch_1.pth (torch_old, 36090 bytes, 7 tensors)

emb.weight f4 [5, 32]
0.16848056 0.20723705 0.12317449 0.2314591 -0.21393052 0.20902766 0.18477283 0.20411654
0.14107905 -0.0032928274 -0.22910088 0.22845598 -0.15151682 0.13020778 -0.13935468 -0.14483923
-0.13748077 0.16538459 0.18767206 -0.19442916 -0.1981042 -0.1399973 -0.13726757 -0.25070092
-0.21307793 0.22833748 0.11311373 0.2180484 0.097073175 0.14985073 0.13917251 -0.16582666
-0.1948186 -0.14570071 -0.21395355 -0.21065083 0.1865727 -0.19124809 -0.18961877 -0.1902974
-0.14689085 -0.15503693 0.16543858 -0.1742075 0.17762804 -0.16381787 0.20280145 0.16949017
0.13070983 -0.21717748 -0.16831827 -0.15359642 0.21194509 0.20735358 0.20253019 -0.14945845
0.17247628 -0.14905572 -0.15254807 -0.13646525 -0.1596911 -0.2133099 -0.19300926 0.21174915
-0.21204929 -0.18488824 -0.2067667 -0.17150947 0.19957514 -0.09560208 -0.18754713 -0.14814758
-0.20903283 -0.17599626 0.21458882 -0.15073235 0.18283886 -0.17453824 0.21682854 0.18292244
0.20464656 -0.15913326 -0.13200127 -0.18762678 0.17907397 0.18751462 0.15454973 -0.1911467
0.16796643 -0.19409639 -0.21390472 -0.20011774 -0.19459283 -0.13518885 -0.21766558 0.15675592
-0.1952023 -0.15554056 -0.17503811 -0.16897653 0.19397749 -0.16768663 -0.15362315 -0.19541843
-0.1803566 -0.22575113 0.18615767 -0.19058438 0.15240102 -0.17931403 0.17430973 0.20199719
0.15896733 -0.14456025 -0.17851233 -0.1695588 0.14691336 0.15726088 0.15030052 -0.1742142
0.18597794 -0.15515028 -0.2176626 -0.19259992 -0.13829814 -0.1616097 -0.17186573 0.21517123
-0.13844015 -0.15140249 -0.19462863 -0.1660807 0.20338313 -0.17615116 -0.18682143 -0.11677431
-0.2088459 -0.163524 0.13329147 -0.12548515 0.14788108 -0.20390934 0.17187466 0.14910184
0.21564454 -0.13301717 -0.20697898 -0.1925381 0.16900794 0.20118739 0.2019927 -0.19168553
0.14556646 -0.21655388 -0.1480805 -0.19262047 -0.17865388 -0.20207001 -0.19372591 0.13910598
00000000: 2b86 2c3e f335 543e e842 fc3d 9d03 6d3e
00000010: 9a10 5bbe 590b 563e 1735 3d3e ed03 513e
00000020: 0777 103e 7acc 57bb 6c99 6abe 5df0 693e
00000030: 3a27 1bbe 3055 053e feb2 0ebe bc50 14be
00000040: c2c7 0cbe 945a 293e 1b2d 403e 7018 47be
00000050: d4db 4abe 745b 0fbe df8f 0cbe df5b 80be
00000060: 1a31 5abe 4dd1 693e 2ca8 e73d 1448 5f3e
00000070: 4dce c63d 7872 193e 3d83 0e3e 77ce 29be
00000080: 877e 47be 9132 15be a416 5bbe dab4 57be
00000090: ea0c 3f3e 8ad6 43be 6c2b 42be 52dd 42be
000000a0: 8e6a 16be 00c2 1ebe bb68 293e 7363 32be
000000b0: 20e4 353e dfbf 27be 2fab 4f3e d58e 2d3e
000000c0: ccd8 053e c663 5ebe a05b 2cbe 6148 1dbe
000000d0: 2208 593e 7f54 543e 1364 4f3e a30b 19be
000000e0: 9f9d 303e 10a2 18be 9035 1cbe 8cbd 0bbe
000000f0: 1086 23be e96d 5abe 38a4 45be c5d4 583e
00000100: 7323 59be 5853 3dbe a6ba 53be 2ea0 2fbe
00000110: 6d5d 4c3e 06cb c3bd 5b0c 40be 00b4 17be
00000120: b40c 56be 5d38 34be 2cbd 5b3e 9559 1abe
00000130: 1c3a 3b3e 27ba 32be 4d08 5e3e 0550 3b3e
00000140: de8e 513e d4f3 22be 572b 07be 3c21 40be
00000150: 2b5f 373e d503 403e 4942 1e3e f6bb 43be
00000160: 64ff 2b3e 34c1 46be d709 5bbe aaeb 4cbe
00000170: 5843 47be f26e 0abe bae3 5ebe a084 203e
00000180: 1de3 47be 0646 1fbe 313d 33be 2f08 2dbe
00000190: 09a2 463e 0bb6 2bbe 634f 1dbe c51b 48be
000001a0: 67af 38be 4e2b 67be 1ea0 3e3e 8d28 43be
000001b0: 030f 1c3e 199e 37be 407e 323e 5ad8 4e3e
000001c0: 55c8 223e 9a07 14be f0cb 36be d2a0 2dbe
000001d0: 7570 163e ff08 213e 61e8 193e 3565 32be
000001e0: 0071 3e3e b7df 1ebe f2e2 5ebe ea38 45be
000001f0: 079e 0dbe 037d 25be 92fd 2fbe d955 5c3e
00000200: 41c3 0dbe 4109 1bbe ba4c 47be 0f11 2abe
00000210: ab43 503e f860 34be 1e4e 3fbe 5f27 efbd
00000220: b3db 55be d672 27be 8f7d 083e 2e7f 00be
00000230: 236e 173e 9ccd 50be e9ff 2f3e 27ae 183e
00000240: ecd1 5c3e a735 08be 4cf2 53be b528 45be
00000250: 6b10 2d3e 1104 4e3e 2dd7 4e3e 3649 44be
00000260: 600f 153e 4dc0 5dbe 6aa2 17be 4d3e 45be
00000270: 0bf1 36be 71eb 4ebe 1660 46be cc71 0e3e

lstm.weight_ih_l0 f4 [128, 32]
-0.15293583 -0.16372867 -0.17086859 -0.20081799 0.13512665 -0.15889217 -0.1469606 -0.18365042
-0.15179482 -0.13591747 0.12465505 -0.14805998 0.18555506 -0.15455382 0.15454915 0.18514499
0.14736104 -0.15782933 -0.21293187 -0.2167679 0.1329279 0.15010528 0.15045922 -0.1927358
0.20430335 -0.12843642 -0.15910666 -0.1614598 -0.1970042 -0.20422196 -0.17328772 0.19766912
-0.21298268 -0.22322936 -0.180554 -0.1448422 0.13388996 -0.18547744 -0.17614834 -0.1527583
-0.21791843 -0.13816188 0.18093838 -0.16564672 0.1731686 -0.23208223 0.17060952 0.18428043
0.15865535 -0.1802398 -0.19279237 -0.15339565 0.16701584 0.20987736 0.17754059 -0.21811882
0.21667275 -0.1932597 -0.1840226 -0.20767733 -0.20279148 -0.22242561 -0.22151126 0.22073738
0.0363297 0.15678401 0.0758028 0.13192748 -0.069817916 0.12904322 0.05447687 0.08284614
0.096953325 -0.13444163 -0.09009504 0.1607503 -0.035070255 0.08716245 -0.02847811 -0.06602875
-0.0856396 0.097376116 0.0980735 -0.1828909 -0.08230866 -0.022211889 -0.09272792 -0.2336892
-0.15046795 0.11846777 0.04625241 0.119340174 0.020906372 0.11388515 0.07158681 -0.10931473
-0.06735642 -0.025906876 -0.091912985 -0.10301065 0.071346425 -0.01034851 -0.07294871 -0.09989989
-0.09498833 -0.14759642 0.043553185 -0.05168645 0.12844054 -0.16548729 0.16273037 0.164854
0.08252911 -0.13426375 -0.052244112 -0.19956185 0.07799725 0.10872832 0.11889155 -0.17815664
0.10009307 -0.081658036 -0.13375092 -0.086292416 -0.17666817 -0.1260538 -0.1484249 0.10802263
-0.19031139 -0.1289381 -0.17047629 -0.12540439 0.19796094 -0.17518243 -0.18935613 -0.20109738
-0.2007172 -0.20508425 0.19452684 -0.14651455 0.15127616 -0.17013401 0.14395995 0.21171558
0.14825277 -0.1336147 -0.1595328 -0.16562575 0.14310525 0.16757675 0.21821395 -0.210751
0.13424774 -0.13023096 -0.17173831 -0.21987526 -0.16622329 -0.22836196 -0.16939422 0.16938631
-0.20356421 -0.21353994 -0.15305957 -0.16959348 0.21812181 -0.15509418 -0.19359416 -0.20384945
-0.21687229 -0.17615496 0.20324427 -0.10724605 0.22653162 -0.21012942 0.15789202 0.20414369
0.19738086 -0.12681757 -0.18362081 -0.2420984 0.1974032 0.14669934 0.16855896 -0.1813315
0.19742475 -0.14808004 -0.13434787 -0.1273956 -0.18801624 -0.17359829 -0.15836707 0.20752127
0.15226167 0.13348144 0.13136794 0.14195965 -0.22130205 0.15299734 0.17033985 0.17557226
0.08853886 -0.15160877 -0.13785172 0.1339879 -0.10915947 0.15460563 -0.12095099 -0.18108402
-0.115754776 0.20372918 0.18935713 -0.12988871 -0.1698624 -0.15739155 -0.0648376 -0.1988008
-0.1853344 0.2109134 0.072457194 0.20330714 0.020242833 0.13628484 0.10438543 -0.15693797
-0.13776113 -0.15592587 -0.17289765 -0.1566065 0.21148019 -0.21759255 -0.20618586 -0.20577179
-0.21452007 -0.15902436 0.18124858 -0.19484127 0.19956438 -0.2188879 0.15227827 0.22917865
0.15426557 -0.18330155 -0.21712047 -0.15563664 0.20025352 0.15245926 0.16517359 -0.16679054
0.22091755 -0.22398806 -0.16208339 -0.21695887 -0.15892458 -0.1697878 -0.18826711 0.15163678
00000000: 369b 1cbe 7da8 27be 2df8 2ebe 3ba3 4dbe
00000010: a45e 0a3e a1b4 22be d77c 16be db0e 3cbe
00000020: 1a70 1bbe f32d 0bbe 264b ff3d 099d 17be
00000030: 2502 3e3e 5b43 1ebe 2242 1e3e a696 3d3e
00000040: d0e5 163e 039e 21be d00a 5abe 68f8 5dbe
00000050: 401e 083e 33b5 193e fb11 1a3e 895c 45be
00000060: e634 513e d684 03be dbec 22be b855 25be
00000070: 78bb 49be 901f 51be 5672 31be c669 4a3e
00000080: 2218 5abe 3d96 64be 26e3 38be 8451 14be
00000090: 731a 093e cced 3dbe 3b60 34be ac6c 1cbe
000000a0: 0226 5fbe 4f7a 0dbe e947 393e 4b9f 29be
000000b0: 1c53 313e f7a6 6dbe 43b4 2e3e 02b4 3c3e
000000c0: 8c76 223e c890 38be 5d6b 45be c013 1dbe
000000d0: 3306 2b3e 17ea 563e 33cd 353e 8a5a 5fbe
000000e0: 76df 5d3e dfe5 45be 6c70 3cbe 5ea9 54be
000000f0: 92a8 4fbe 8ac3 63be d9d3 62be fb08 623e
00000100: 74ce 143d fd8b 203e 803e 9b3d ff17 073e
00000110: b2fc 8ebd e823 043e 2323 5f3d 3dab a93d
00000120: 778f c63d 11ab 09be c083 b8bd ba9b 243e
00000130: d4a5 0fbd 3a82 b23d ed4a e9bc 153a 87bd
00000140: d163 afbd 216d c73d c2da c83d c147 3bbe
00000150: 7191 a8bd b5f5 b5bc 23e8 bdbd 394c 6fbe
00000160: 4514 1abe 3b9f f23d 2b73 3d3d 9f68 f43d
00000170: d743 ab3c 9e3c e93d 1b9c 923d 67e0 dfbd
00000180: 2af2 89bd a83a d4bc e03c bcbd 3ff7 d2bd
00000190: 131e 923d cc8c 29bc 2266 95bd 5098 ccbd
000001a0: 3e89 c2bd 8423 17be d364 323d 2cb5 53bd
000001b0: eb85 033e 8075 29be caa2 263e 7dcf 283e
000001c0: 0605 a93d 707c 09be ecfd 55bd f159 4cbe
000001d0: 06bd 9f3d f4ac de3d 6a7d f33d b26e 36be
000001e0: 98fd cc3d 543c a7bd 00f6 08be 14ba b0bd
000001f0: 80e8 34be 3f14 01be b2fc 17be f83a dd3d
00000200: fde0 42be 5908 04be 5691 2ebe 026a 00be
00000210: 46b6 4a3e 0663 33be 93e6 41be 79ec 4dbe
00000220: cf88 4dbe 9b01 52be 0b32 473e e907 16be
00000230: 23e8 1a3e 9c37 2ebe 3d6a 133e f8cb 583e
00000240: 93cf 173e 4bd2 08be 915c 23be cc99 29be
00000250: 2f8a 123e 3d99 2b3e 7a73 5f3e 1ccf 57be
00000260: 3d78 093e 445b 05be 2bdc 2fbe fb26 61be
00000270: 7036 2abe b8d7 69be ae75 2dbe 9b73 2d3e
00000280: 2373 50be 37aa 5abe a6bb 1cbe eaa9 2dbe
00000290: 535b 5f3e 02d1 1ebe 8c3d 46be e9bd 50be
000002a0: c513 5ebe f761 34be 441f 503e d1a3 dbbd
000002b0: e8f7 673e 2b2c 57be 72ae 213e 0b0b 513e
000002c0: 351e 4a3e 77dc 01be 1807 3cbe a5e8 77be
000002d0: 1124 4a3e 5a38 163e b89a 2c3e f7ae 39be
000002e0: b729 4a3e 4ba2 17be 7d92 09be fe73 02be
000002f0: 5487 40be c0c3 31be fa2a 22be 7580 543e
00000300: 7cea 1b3e 5caf 083e 5185 063e df5d 113e
00000310: 019d 62be 56ab 1c3e 926d 2e3e 37c9 333e
00000320: dd53 b53d 543f 1bbe 0029 0dbe 2034 093e
00000330: 008f dfbd f050 1e3e 27b5 f7bd 176e 39be
00000340: d710 edbd 629e 503e d6e6 413e 8c01 05be
00000350: 69f0 2dbe 402b 21be 93c9 84bd 7092 4bbe
00000360: 4dc8 3dbe aff9 573e 7064 943d bf2f 503e
00000370: 4cd4 a53c 418e 0b3e 07c8 d53d 59b4 20be
00000380: 4111 0dbe 08ab 1fbe 150c 31be 745d 20be
00000390: 438e 583e 95d0 5ebe 6322 53be d7b5 52be
000003a0: 26ab 5bbe 48d7 22be 3a99 393e 7884 47be
000003b0: 9b5a 4c3e 2624 60be d6ee 1b3e cfad 6a3e
000003c0: cbf7 1d3e 67b3 3bbe d454 5ebe 365f 1fbe
000003d0: 420f 4d3e 481e 1c3e 4423 293e 24cb 2abe
000003e0: 3638 623e 205d 65be 30f9 25be 772a 5ebe
000003f0: 20bd 22be dadc 2dbe 18c9 40be ac46 1b3e

lstm.weight_hh_l0 f4 [128, 32]
-0.124442466 0.136227 -0.24952756 0.26591927 0.1751358 -0.20789635 0.24996047 0.19652149
0.11845986 0.032789394 -0.13374428 -0.06205688 0.2538647 0.12662633 -0.15928245 0.18553373
-0.18873504 0.24549726 0.19013618 -0.19382726 0.15508704 0.19418202 0.07098556 -0.057627574
0.18008333 -0.19232087 -0.20451981 -0.128895 0.21629447 -0.22851448 -0.12402366 -0.20014721
-0.17394108 0.14437161 -0.24207509 0.19677 0.12547696 -0.20678478 0.18692951 0.16344495
0.1691868 0.015637483 -0.12650959 -0.05762225 0.2398501 0.17040041 -0.07582923 0.18772571
-0.15867877 0.25470704 0.16728638 -0.21624632 0.11818271 0.18203725 0.02759348 -0.108830765
0.15095219 -0.20631091 -0.12128623 -0.04972006 0.23179303 -0.17561305 -0.06496038 -0.2116514
-0.1717383 0.144132 -0.1503949 -0.09831001 0.100370616 -0.1704208 0.12646274 0.16145822
0.1660594 0.1528202 -0.16531034 0.1790071 0.08837931 0.11659668 -0.11807347 0.08728682
-0.11811347 0.16924994 0.19621922 -0.13324268 0.14037402 0.15927896 0.087984264 0.10181399
0.10227507 -0.1219946 -0.08877633 -0.17963535 -0.15457024 0.13482097 -0.16639142 -0.16359931
-0.16203223 0.16650432 -0.20686764 0.07377611 0.16418271 -0.20794585 0.15101197 0.1687197
0.15165065 0.17005964 -0.13124038 0.1390023 0.19478117 0.20972502 -0.18934028 0.17926
-0.12778343 0.23310564 0.1862206 -0.15902038 0.12298126 0.21740639 0.19714928 0.098004
0.20814198 -0.21024708 -0.1224468 -0.1926708 -0.010507633 -0.056991473 -0.12848012 -0.19864811
-0.17483383 0.1781766 -0.20265184 0.24684858 0.20176208 -0.16125362 0.18152206 0.13294415
0.1704704 0.028454302 -0.16584057 -0.024408553 0.23891754 0.18608339 -0.07242938 0.13980252
-0.1671312 0.16020332 0.22109002 -0.12767148 0.14328218 0.16577773 -0.010449533 0.0027928916
0.12342655 -0.2298767 -0.15810266 -0.109507956 0.16570003 -0.17028807 -0.15348372 -0.16603053
-0.20544183 0.22625443 -0.17207216 0.18081489 0.15661241 -0.19794062 0.2248847 0.16782728
0.10689637 0.027621191 -0.06847936 -0.06532681 0.25383857 0.13224705 -0.076706804 0.103262626
-0.14391932 0.20258236 0.1844919 -0.14368 0.07446018 0.22938627 -0.040475164 -0.13118179
0.14667065 -0.15198404 -0.19235097 -0.040714372 0.19521351 -0.22868273 -0.09698738 -0.16898768
-0.008936056 -0.034756843 -0.18235873 0.067243285 0.003546255 0.0052951802 0.17550606 0.03519894
-0.057327427 -0.028978033 -0.008005772 0.01358165 0.046274524 -0.046594616 0.03562718 0.04091644
-0.0026998527 0.11163941 0.16142488 0.0123299835 -0.050666157 0.034364577 -0.05012196 -0.02213691
-0.047343943 -0.027809853 0.027257312 0.020405393 0.00064315944 -0.03698152 -0.00059245015 -0.03499465
-0.1964684 0.15025498 -0.21930403 0.17347969 0.10877504 -0.16538474 0.17847833 0.19656277
0.097091325 0.06196269 -0.13938032 0.00076214736 0.17548442 0.22213338 -0.028615756 0.18021832
-0.22752775 0.16522191 0.17139517 -0.17710677 0.06347288 0.1637108 0.045280244 -0.056679852
0.1200357 -0.14223662 -0.19955072 -0.084996745 0.14843842 -0.26935378 -0.07934913 -0.12507646
00000000: b1db febd 177f 0b3e 2784 7fbe 9226 883e
00000010: cd56 333e c8e2 54be a3f5 7f3e ee3c 493e
00000020: 159b f23d 2c4e 063d 43f4 08be 5b2f 7ebd
00000030: 8efa 813e 55aa 013e f01a 23be 8efc 3d3e
00000040: c243 41be a263 7b3e 0fb3 423e a77a 46be
00000050: 23cf 1e3e a7d7 463e e160 913d e40a 6cbd
00000060: c467 383e c3ef 44be a46d 51be 0dfd 03be
00000070: 4c7c 5d3e b3ff 69be 1e00 febd 64f3 4cbe
00000080: 9c1d 32be 27d6 133e 88e2 77be 137e 493e
00000090: 087d 003e 64bf 53be 736a 3f3e 1d5e 273e
000000a0: 4e3f 2d3e 2e1a 803c bb8b 01be 4f05 6cbd
000000b0: 449b 753e 727d 2e3e 5b4c 9bbd 2b3b 403e
000000c0: b07c 22be f668 823e 1f4d 2b3e ad6f 5dbe
000000d0: c709 f23d f967 3a3e b90b e23c aae2 debd
000000e0: 3693 1a3e 2b43 53be ea64 f8bd 43a7 4bbd
000000f0: 275b 6d3e e8d3 33be f309 85bd 25bb 58be
00000100: 2adc 2fbe 5797 133e 1f01 1abe c256 c9bd
00000110: 1c8f cd3d ca82 2ebe 737f 013e 4e55 253e
00000120: 7a0b 2a3e e67c 1c3e 1d47 29be a34d 373e
00000130: 3600 b53d 3dca ee3d 81d0 f1bd 6fc3 b23d
00000140: 7ae5 f1bd db4f 2d3e b1ed 483e c570 08be
00000150: 35be 0f3e 061a 233e 1831 b43d da83 d03d
00000160: 9875 d13d 4ed8 f9bd 5dd0 b5bd 54f2 37be
00000170: a947 1ebe 820e 0a3e 8362 2abe 9486 27be
00000180: c7eb 25be 1c80 2a3e 1cd5 53be ee17 973d
00000190: 831f 283e c2ef 54be e2a2 1a3e dbc4 2c3e
000001a0: 4f4a 1b3e 1d24 2e3e e163 06be 9e56 0e3e
000001b0: b774 473e 28c2 563e 6be2 41be ef8f 373e
000001c0: a9d9 02be 3fb3 6e3e 9db0 3e3e 3dd6 22be
000001d0: 99dd fb3d c89f 5e3e 80e1 493e 52b6 c83d
000001e0: 2c23 553e 034b 57be 63c5 fabd 7f4b 45be
000001f0: 3528 2cbc e46f 69bd 4b90 03be 696a 4bbe
00000200: a407 33be ed73 363e f783 4fbe e0c5 7c3e
00000210: b89a 4e3e ab1f 25be ebe0 393e 8322 083e
00000220: cb8f 2e3e ff18 e93c 1cd2 29be 72f4 c7bc
00000230: cda6 743e a58c 3e3e db55 94bd 6428 0f3e
00000240: 7124 2bbe 570c 243e 6c65 623e 50bc 02be
00000250: 90b8 123e a3c1 293e 8534 2bbc f208 373b
00000260: 0fc7 fc3d cc64 6bbe aae5 21be b545 e0bd
00000270: 45ad 293e ff5f 2ebe d62a 1dbe e803 2abe
00000280: 585f 52be 3eaf 673e af33 30be 8a27 393e
00000290: 015f 203e f2b0 4abe 2d48 663e eada 2b3e
000002a0: 7cec da3d d645 e23c e83e 8cbd 10ca 85bd
000002b0: 21f7 813e c56b 073e 7518 9dbd 5b7b d33d
000002c0: 965f 13be c071 4f3e 72eb 3c3e da20 13be
000002d0: 947e 983d 3ce4 6a3e 49c9 25bd 8554 06be
000002e0: d530 163e b4a1 1bbe a7f7 44be 1dc4 26bd
000002f0: 0de6 473e ce2b 6abe 52a1 c6bd 1b0b 2dbe
00000300: 8968 12bc 315d 0ebd 3fbc 3abe d9b6 893d
00000310: 4968 683b 3183 ad3b dcb7 333e c42c 103d
00000320: 2ad0 6abd 5763 edbc a42a 03bc 9285 5e3c
00000330: 5b8a 3d3d ffd9 3ebd ceed 113d ff97 273d
00000340: 03f0 30bb 34a3 e43d 904c 253e b303 4a3c
00000350: 5187 4fbd dfc1 0c3d af4c 4dbd 7758 b5bc
00000360: b9eb 41bd 7dd1 e3bc ba4a df3c 3629 a73c
00000370: b399 283a ef79 17bd a84e 1bba 8d56 0fbd
00000380: 032f 49be 71dc 193e 3c91 60be a9a4 313e
00000390: 73c5 de3d 9e5a 29be 06c3 363e c047 493e
000003a0: d1d7 c63d 97cc 7d3d b7b9 0ebe d8ca 473a
000003b0: 30b2 333e ef76 633e 976b eabc 278b 383e
000003c0: 09fd 68be ef2f 293e 3782 2f3e 7a5b 35be
000003d0: 12fe 813d cea3 273e c777 393d 2229 68bd
000003e0: 47d5 f53d 7aa6 11be 0657 4cbe c612 aebd
000003f0: 3e00 183e bde8 89be cc81 a2bd 0b14 00be

lstm.bias_ih_l0 f4 [128]
0.19980311 0.21229231 0.18682669 0.17832398 0.2269135 0.2187883 0.19226824 0.16273499
0.1457348 0.22129957 0.20776336 0.15062855 0.20751609 0.1736651 0.23044518 0.141764
0.1718645 0.18474896 0.14849892 0.16387755 0.20853567 0.17987888 0.18694372 0.20709886
0.144317 0.20261964 0.20015359 0.18205206 0.23358361 0.14951456 0.18259026 0.20517954
-0.09195057 -0.11798796 -0.21966802 -0.13569143 -0.09778917 -0.13974795 0.16397028 -0.08953126
-0.13405664 -0.16910146 -0.12821999 -0.07875108 -0.1426634 -0.18915795 -0.11805982 -0.11317115
-0.12735888 0.13560262 -0.15270424 -0.14492595 -0.06801536 -0.092202336 -0.11385596 -0.13255604
-0.08888415 -0.045370206 -0.12588918 -0.08819185 -0.21998377 -0.15235369 -0.13365778 -0.095544815
-0.1629411 0.14514188 -0.08159519 -0.0113715 0.15261343 -0.17043224 0.17385851 0.16671322
0.104438245 0.08543947 -0.16820261 0.049660712 0.07123055 0.15100041 -0.1160717 0.15561268
-0.1452976 0.15149446 0.078736916 -0.096172445 0.13393594 0.13698785 0.084767625 0.10806118
0.1304185 -0.11495467 -0.13541454 -0.14119826 -0.09001292 0.055464424 -0.15274128 -0.16613442
0.20207094 0.20459425 0.17356968 0.14707007 0.17236379 0.18601923 0.20006971 0.22797094
0.15411028 0.21575569 0.15945959 0.19385374 0.22508547 0.2098634 0.21605377 0.21577983
0.2224917 0.12975465 0.18578798 0.1731401 0.24085294 0.22185056 0.17405024 0.17890508
0.23329054 0.16745219 0.21895958 0.23234846 0.16011882 0.21651326 0.19227481 0.18948768
00000000: 3099 4c3e 2863 593e 7f4f 3f3e 909a 363e
00000010: 035c 683e 0a0a 603e f7e1 443e 00a4 263e
00000020: 813b 153e 5b9c 623e ebbf 543e 5f3e 1a3e
00000030: 197f 543e 44d5 313e d2f9 6b3e 952a 113e
00000040: 3ffd 2f3e d52e 3d3e 1a10 183e 84cf 273e
00000050: 608a 553e 2b32 383e 2d6e 3f3e b911 543e
00000060: d6c7 133e 867b 4f3e 10f5 4c3e db6b 3a3e
00000070: 8b30 6f3e 581a 193e f1f8 3a3e 961a 523e
00000080: 9550 bcbd aca3 f1bd a7f0 60be b2f2 0abe
00000090: b045 c8bd 161a 0fbe d3e7 273e 2a5c b7bd
000000a0: 2546 09be ef28 2dbe 1a4c 03be 3f48 a1bd
000000b0: 5b16 12be 9fb2 41be 59c9 f1bd 47c6 e7bd
000000c0: 5e6a 02be 6adb 0a3e 805e 1cbe 7867 14be
000000d0: a34b 8bbd 94d4 bcbd 502d e9bd c5bc 07be
000000e0: e508 b6bd 1cd6 39bd 18e9 00be ee9d b4bd
000000f0: 6d43 61be 9b02 1cbe 96dd 08be 00ad c3bd
00000100: 08da 26be 13a0 143e 611b a7bd 874f 3abc
00000110: b246 1c3e ca85 2ebe f707 323e dfb6 2a3e
00000120: b8e3 d53d e4fa ae3d 4e3d 2cbe 0869 4b3d
00000130: 53e1 913d da9f 1a3e 00b7 edbd ee58 1f3e
00000140: e5c8 14be 5d21 1b3e d240 a13d 0ff6 c4bd
00000150: 8126 093e 8b46 0c3e a69a ad3d 2e4f dd3d
00000160: 6d8c 053e 5b6d ebbd 1caa 0abe 4796 10be
00000170: b258 b8bd aa2e 633d 3668 1cbe 241f 2abe
00000180: afeb 4e3e 2881 513e 40bc 313e 8999 163e
00000190: 2280 303e d37b 3e3e 13df 4c3e 3771 693e
000001a0: 16cf 1d3e 0fef 5c3e 6049 233e 9881 463e
000001b0: ce7c 663e 6ee6 563e 333d 5d3e 63f5 5c3e
000001c0: ddd4 633e 67de 043e 343f 3e3e a34b 313e
000001d0: 27a2 763e cb2c 633e 3a3a 323e e532 373e
000001e0: b7e3 6e3e 9678 2b3e f136 603e c1ec 6d3e
000001f0: 30f6 233e a7b5 5d3e b0e3 443e 0f09 423e

lstm.bias_hh_l0 f4 [128]
0.22777835 0.16696213 0.1219984 0.1583306 0.18558548 0.14483975 0.122427136 0.22649655
0.15670267 0.19087802 0.18869126 0.15871581 0.15665914 0.14360507 0.16469762 0.16062091
0.17000407 0.1719202 0.13571267 0.22851749 0.231175 0.17225924 0.19521666 0.23425098
0.2221009 0.14024684 0.22358283 0.15196645 0.22652641 0.19355173 0.16764405 0.1526192
-0.11114286 -0.064127885 -0.2133207 -0.1845191 -0.05883228 -0.10135941 0.0887903 -0.042504713
-0.13755333 -0.1263706 -0.096855454 -0.13877867 -0.1714321 -0.16666585 -0.12677917 -0.09619632
-0.071377724 0.14686657 -0.18797322 -0.10713364 -0.16494918 -0.13113149 -0.12391065 -0.09638815
-0.064540975 -0.12931988 -0.1249878 -0.08282048 -0.14854266 -0.19954666 -0.083313994 -0.12278729
-0.15484937 0.12115681 -0.1217037 -0.058788307 0.14210059 -0.09003851 0.17494166 0.10902557
0.14345458 0.14186215 -0.084948614 0.14602166 0.0071783615 0.085794225 -0.15282251 0.10333775
-0.16057494 0.15066078 0.11937815 -0.16851093 0.13207452 0.1426724 0.13243791 0.091692366
0.12200076 -0.15549298 -0.15247579 -0.103915334 -0.039798968 -0.023644155 -0.105161905 -0.106029235
0.223038 0.15980828 0.19552441 0.20299098 0.15867251 0.19041069 0.16009529 0.22521673
0.21891129 0.23779231 0.1758999 0.1536124 0.1313561 0.12649144 0.2197938 0.19075972
0.17551659 0.20506069 0.1733595 0.15531619 0.16402544 0.21980318 0.19630171 0.21142742
0.1470494 0.22110972 0.19189826 0.16754195 0.23169984 0.17084122 0.17555304 0.18942031
00000000: ba3e 693e 1ff8 2a3e 4cda f93d 6b21 223e
00000010: 1f0a 3e3e df50 143e 14bb fa3d b6ee 673e
00000020: aa76 203e 8775 433e 4838 413e 6686 223e
00000030: 416b 203e 350d 133e 7ea6 283e cf79 243e
00000040: 8c15 2e3e d90b 303e 43f8 0a3e 7d00 6a3e
00000050: 24b9 6c3e ba64 303e e0e6 473e 7ddf 6f3e
00000060: 6b6e 633e de9c 0f3e e6f2 643e 189d 1b3e
00000070: 8af6 673e 6d32 463e e2aa 2b3e 3548 1c3e
00000080: de9e e3bd 7b55 83bd be70 5abe 93f2 3cbe
00000090: 1efa 70bd 8695 cfbd b0d7 b53d 6c19 2ebd
000000a0: c8da 0cbe 4b67 01be 275c c6bd ff1b 0ebe
000000b0: e58b 2fbe 74aa 2abe 66d2 01be 9402 c5bd
000000c0: 7c2e 92bd 3164 163e 0d7c 40be e268 dbbd
000000d0: 70e8 28be 5547 06be dec4 fdbd 2667 c5bd
000000e0: 0f2e 84bd 6e6c 04be 9bf9 ffbd c99d a9bd
000000f0: 911b 18be f655 4cbe 87a0 aabd e777 fbbd
00000100: d590 1ebe 1021 f83d ca3f f9bd 02cc 70bd
00000110: d182 113e 1c66 b8bd e823 333e cc48 df3d
00000120: c2e5 123e 5044 113e 8af9 adbd b486 153e
00000130: 7638 eb3b e2b4 af3d 817d 1cbe bea2 d33d
00000140: c26d 24be d246 1a3e 887c f43d 218e 2cbe
00000150: 8b3e 073e b718 123e ce9d 073e 35c9 bb3d
00000160: 89db f93d 8d39 1fbe 9d22 1cbe 90d1 d4bd
00000170: 3e04 23bd 63b1 c1bc 205f d7bd db25 d9bd
00000180: 1364 643e c8a4 233e 8d37 483e dedc 4f3e
00000190: 0c7b 223e 05fb 423e 05f0 233e 379f 663e
000001a0: 482a 603e d47f 733e 1a1f 343e 924c 1d3e
000001b0: 3782 063e f986 013e a011 613e 8456 433e
000001c0: 9fba 333e 6efb 513e 2785 313e 350b 1f3e
000001d0: 49f6 273e 1614 613e 5103 493e 6e80 583e
000001e0: 1e94 163e 966a 623e fa80 443e 1e90 2b3e
000001f0: b942 6d3e 00f1 2e3e 2dc4 333e 66f7 413e

lin.weight f4 [5, 32]
-0.21942614 0.208092 0.19488037 -0.20191307 0.17702918 -0.20858939 0.011133793 0.1937038
0.19330974 0.21365558 -0.19864929 0.175775 -0.20778742 0.16108024 -0.21705368 0.20985048
-0.16583224 -0.0047710016 -0.1934488 -0.20933242 0.17018959 0.17632917 0.2108168 0.22605477
0.20541027 -0.20932758 -0.20649736 -0.18421027 -0.21555342 0.19766892 -0.20823583 -0.19005184
0.16306928 -0.18755527 -0.12799112 0.17250451 -0.18208182 0.1423024 -0.0009944533 -0.18700308
-0.20554228 -0.218008 0.16580445 -0.16252227 0.18547896 -0.2024248 0.11880257 -0.1541536
0.18459871 -0.08499479 0.1662611 0.19149347 -0.2080843 -0.1563968 -0.13502161 -0.20679858
-0.1386087 0.17949232 0.20126817 0.19540364 0.1794071 -0.19557741 0.19797555 0.1473826
0.12292493 -0.20385215 -0.16089284 0.1619183 -0.18637078 0.21341282 -0.103543505 -0.18695818
-0.13613859 -0.13349 0.15357059 -0.22040951 0.135419 -0.14704412 0.12721822 -0.13696188
0.18456192 -0.075599015 0.116445996 0.15024914 -0.21868286 -0.20283736 -0.21231806 -0.16487363
-0.14508308 0.21634074 0.18398415 0.14068362 0.22473666 -0.19479689 0.16554348 0.22185868
0.18414268 -0.21311742 -0.14606708 0.13972843 -0.13944155 0.16246293 -0.011964824 -0.16951647
-0.14254412 -0.19878677 0.15742224 -0.20478423 0.15733922 -0.22506177 0.14553687 -0.13171521
0.14753395 -0.089405514 0.16988042 0.13850908 -0.1406796 -0.22153005 -0.16110194 -0.16875194
-0.18171217 0.20401812 0.13909021 0.20001233 0.22825237 -0.15222338 0.14251564 0.12938288
0.14960715 -0.14284861 -0.16559055 0.20993015 -0.1958069 0.13961864 -0.08491698 -0.12182844
-0.14070486 -0.15147832 0.16270663 -0.20640458 0.11563837 -0.15414922 0.19632892 -0.1743568
0.2120504 -0.09816505 0.16838036 0.21116622 -0.18220705 -0.14590083 -0.21374041 -0.14806953
-0.19100952 0.17915143 0.19407693 0.17722629 0.16473582 -0.11508232 0.19718058 0.19149825
00000000: 3fb1 60be 1216 553e b88e 473e 4dc2 4ebe
00000010: 2347 353e 7598 55be 836a 363c 4a5a 463e
00000020: fdf2 453e 87c8 5a3e b86a 4bbe 5dfe 333e
00000030: 3ac6 54be 38f2 243e 5243 5ebe 0be3 563e
00000040: edcf 29be 1056 9cbb 7117 46be 3d5b 56be
00000050: 2e46 2e3e a28f 343e 5ce0 573e e77a 673e
00000060: 1257 523e f859 56be 0b74 53be 9ea1 3cbe
00000070: 09ba 5cbe b969 4a3e c63b 55be f39c 42be
00000080: a2fb 263e 7d0e 40be 1b10 03be 06a5 303e
00000090: a873 3abe b8b7 113e 5158 82ba bc7d 3fbe
000000a0: ad79 52be 7d3d 5fbe a4c8 293e 3d6c 26be
000000b0: 32ee 3d3e 7248 4fbe c34e f33d 71da 1dbe
000000c0: 7207 3d3e c011 aebd 5a40 2a3e dd16 443e
000000d0: 0d14 55be 7c26 20be 1b43 0abe 02c3 53be
000000e0: 70ef 0dbe d6cc 373e 3e19 4e3e e417 483e
000000f0: 7fb6 373e 7245 48be 1aba 4a3e 77eb 163e
00000100: 11c0 fb3d 9ebe 50be 18c1 24be e9cd 253e
00000110: fbd7 3ebe e488 5a3e 9e0e d4bd f771 3fbe
00000120: ea67 0bbe 9ab1 08be 9c41 1d3e 08b3 61be
00000130: 47ab 0a3e bc92 16be 7e45 023e bc3f 0cbe
00000140: cdfd 3c3e a8d3 9abd 3d7b ee3d e9da 193e
00000150: 66ee 5fbe 99b4 4fbe e869 59be a2d4 28be
00000160: a990 14be 6d88 5d3e 5766 3c3e 5e0f 103e
00000170: 5e21 663e d678 47be 3b84 293e ec2e 633e
00000180: e68f 3c3e 743b 5abe 9c92 15be f814 0f3e
00000190: c4c9 0ebe af5c 263e 1c08 44bc ba95 2dbe
000001a0: 16f7 11be c28e 4bbe 4c33 213e f5b2 51be
000001b0: 881d 213e 9876 66be 9e07 153e 5ae0 06be
000001c0: 2413 173e 3d1a b7bd 22f5 2d3e 53d5 0d3e
000001d0: 500e 10be c6d8 62be e8f7 24be 4fcd 2cbe
000001e0: c112 3abe 20ea 503e aa6d 0e3e 08d0 4c3e
000001f0: fdba 693e 72e0 1bbe 9fef 113e f27c 043e
00000200: 9e32 193e e846 12be 9290 29be eef7 563e
00000210: 9b81 48be 30f8 0e3e f4e8 adbd 3081 f9bd
00000220: ef14 10be 221d 1bbe 919c 263e b95b 53be
00000230: cfd3 ec3d 4bd9 1dbe 730a 493e 978a 32be
00000240: bd23 593e c20a c9bd e76b 2c3e f53b 583e
00000250: 7c94 3abe 0767 15be c4de 5abe 8a9f 17be
00000260: 0098 43be 7973 373e 1abc 463e cf7a 353e
00000270: 82b0 283e 48b0 ebbd b5e9 493e 1e18 443e

lin.bias f4 [5]
0.09447648 -0.06985448 -0.03477359 -0.04677155 -0.03828391
00000000: e27c c13d de0f 8fbd c06e 0ebd 8693 3fbd
00000010: 97cf 1cbd
