checkpoints/REBAR_G_space_False_pretrain_2.5_batch_190.pth (torch_old, 36090 bytes, 7 tensors)

emb.weight f4 [5, 32]
0.018443864 -0.057459075 0.034603685 0.11244497 0.03956725 0.09753376 0.03515607 -0.14037238
0.10687035 0.07909816 0.15297434 -0.14410384 -0.10225378 0.038639076 0.08941842 0.101965524
-0.05144032 -0.14257923 -0.058086675 -0.10132203 0.1428929 0.27184325 0.008988416 0.12230189
0.0048457514 0.05286383 -0.06811892 -0.118275315 -0.1185565 -0.14764692 0.044290446 0.08134794
-0.29846495 0.2634546 -0.2830084 -0.27113456 0.24203946 -0.26859418 -0.27187604 0.29112932
-0.268435 -0.30404928 -0.31968933 0.29903516 0.29846147 -0.2733606 -0.29955712 -0.30549332
0.29543516 0.26387322 0.27231467 0.3063366 -0.25387123 -0.012894476 -0.28080893 -0.31849694
0.20359297 0.2546972 0.23927297 0.29850888 0.29996616 0.22927631 -0.24165651 -0.2237227
-0.22897173 0.26498312 -0.2739437 -0.31143546 0.22126825 -0.31758523 -0.3091548 0.31998312
-0.31104633 -0.33294818 -0.32924548 0.31495437 0.29490873 -0.28286365 -0.2663419 -0.23473798
0.2628037 0.29424345 0.3105925 0.33596784 -0.329073 -0.012761253 -0.28142938 -0.26843828
0.2521926 0.25736243 0.24216746 0.32127506 0.31714976 0.30999964 -0.28851518 -0.3163757
-0.30495262 0.2321988 -0.23394567 -0.27204597 0.19838646 -0.2857821 -0.28316054 0.32885048
-0.32543486 -0.30977637 -0.3185239 0.30369604 0.2616896 -0.25948566 -0.28405583 -0.28983453
0.2759722 0.29374826 0.2751397 0.26029727 -0.32583934 -0.02319053 -0.22195616 -0.33248782
0.25610244 0.28856224 0.22762199 0.2843705 0.3216906 0.2885889 -0.30238926 -0.33084652
-0.25765043 0.22267382 -0.22913279 -0.33860135 0.23993269 -0.24257496 -0.27872872 0.2529706
-0.2565163 -0.3470244 -0.33908612 0.33458278 0.2971762 -0.3029494 -0.2928119 -0.28265026
0.28749785 0.31484792 0.2899484 0.3064531 -0.2589519 -0.033492185 -0.24279064 -0.3342902
0.26854903 0.24665055 0.2857415 0.26884827 0.2785483 0.29643944 -0.2820652 -0.2847548
00000000: 9617 973c 355a 6bbd 98bc 0d3d 8c49 e63d
00000010: 4511 223d c8bf c73d d0ff 0f3d c7bd 0fbe
00000020: d8de da3d 37fe a13d 4ea5 1c3e f58f 13be
00000030: 6e6a d1bd 0244 1e3d 0121 b73d 4dd3 d03d
00000040: 16b3 52bd 4a00 12be 4bec 6dbd ed81 cfbd
00000050: 8452 123e 0a2f 8b3e 2644 133c 6a79 fa3d
00000060: 1cc9 9e3b be87 583d ef81 8bbd 543a f2bd
00000070: c0cd f2bd c130 17be e669 353d c099 a63d
00000080: 66d0 98be 85e3 863e 7ae6 90be 26d2 8abe
00000090: 31d9 773e 2d85 89be 5633 8bbe e70e 953e
000000a0: 5070 89be 59ac 9bbe 52ae a3be 231b 993e
000000b0: f1cf 983e ecf5 8bbe 8d5f 99be 9f69 9cbe
000000c0: 4743 973e 641a 873e d46c 8b3e 27d8 9c3e
000000d0: 69fb 81be 5a43 53bc 30c6 8fbe 0812 a3be
000000e0: ad7a 503e ac67 823e f903 753e 28d6 983e
000000f0: 2a95 993e 69c7 6a3e ce74 77be 9017 65be
00000100: 9177 6abe deab 873e 5942 8cbe 7874 9fbe
00000110: 2594 623e 889a a2be 8a49 9ebe d4d4 a33e
00000120: 7741 9fbe 2f78 aabe dd92 a8be b341 a13e
00000130: 47fe 963e 81d3 90be f75d 88be 275f 70be
00000140: 358e 863e 14a7 963e fb05 9f3e fa03 ac3e
00000150: 427c a8be 9314 51bc 8317 90be be70 89be
00000160: 631f 813e 02c5 833e bffa 773e 2a7e a43e
00000170: 7461 a23e 46b8 9e3e 43b8 93be fffb a1be
00000180: c022 9cbe 86c5 6d3e 748f 6fbe 9c49 8bbe
00000190: d225 4b3e 0852 92be 6bfa 90be 175f a83e
000001a0: 669f a6be 029b 9ebe 9115 a3be 0c7e 9b3e
000001b0: 2efc 853e 4edb 84be c46f 91be 3165 94be
000001c0: 3a4c 8d3e 2c66 963e 1cdf 8c3e af45 853e
000001d0: 6ad4 a6be 11fa bdbc 7a48 63be d83b aabe
000001e0: dc1f 833e 6ebe 933e bd15 693e 0399 913e
000001f0: a1b4 a43e edc1 933e c4d2 9abe b764 a9be
00000200: c2ea 83be 9b04 643e c9a1 6abe 285d adbe
00000210: eab0 753e 9265 78be 88b5 8ebe 5d85 813e
00000220: 1b56 83be 2fad b1be b29c adbe 6f4e ab3e
00000230: 7b27 983e 2f1c 9bbe 71eb 95be 89b7 90be
00000240: eb32 933e bf33 a13e 1e74 943e 6ce7 9c3e
00000250: 5895 84be 1a2f 09bd 1c9e 78be 1628 abbe
00000260: 427f 893e f691 7c3e b64c 923e 7ba6 893e
00000270: e29d 8e3e e9c6 973e da6a 90be 62cb 91be

lstm.weight_ih_l0 f4 [128, 32]
-0.16130713 0.18687776 -0.15847136 -0.25935578 0.20483784 -0.16490577 -0.20345205 0.26517582
-0.23648019 -0.26075196 -0.19570325 0.28612548 0.24921504 -0.19997472 -0.1664258 -0.16323328
0.16667362 0.2811515 0.21549167 0.22972156 -0.22775635 0.020651685 -0.21451198 -0.23376451
0.16368082 0.1775077 0.18844883 0.18885353 0.25109178 0.18670097 -0.16356006 -0.16609691
-0.21267776 0.19395483 -0.2602269 -0.2185012 0.21122622 -0.21452957 -0.19149053 0.20335604
-0.20355664 -0.19723102 -0.2563428 0.2381283 0.22908524 -0.18940097 -0.21011819 -0.23704301
0.24622253 0.25614208 0.27834675 0.21576977 -0.26393792 0.050295595 -0.17019019 -0.26856488
0.23932658 0.2578587 0.20196457 0.22012232 0.28580093 0.28786364 -0.2504492 -0.24417867
-0.17418279 0.12880474 -0.16244161 -0.20418419 0.26672286 -0.16076109 -0.22780208 0.21549669
-0.1333852 -0.19130157 -0.21845065 0.2054019 0.17031857 -0.21635029 -0.17604564 -0.16298506
0.2191665 0.22997893 0.16811636 0.18397248 -0.14714822 0.15525098 -0.24578327 -0.16328208
0.25466946 0.19161929 0.21031956 0.15002485 0.16293891 0.13330658 -0.1950485 -0.23635349
-0.21785918 0.20483924 -0.2693698 -0.23112144 0.22167638 -0.23223518 -0.20326282 0.28650677
-0.2580907 -0.28851095 -0.30791023 0.22748792 0.21280323 -0.2016785 -0.23139487 -0.23955594
0.25325602 0.20555252 0.2965791 0.30873352 -0.26320907 0.085935295 -0.2187745 -0.29045615
0.2358263 0.3073079 0.26945674 0.29028365 0.26884454 0.27865323 -0.2571342 -0.26391038
-0.22676331 0.17417026 -0.19188368 -0.22408293 0.25218168 -0.2134341 -0.23721634 0.21524212
-0.18105684 -0.22308807 -0.16353922 0.22308823 0.143499 -0.19770104 -0.18106988 -0.2041159
0.1926069 0.18700343 0.22383924 0.22077474 -0.21129574 0.12756908 -0.16078208 -0.17749684
0.23375903 0.24996622 0.17052607 0.17458767 0.24143498 0.16270258 -0.19668543 -0.15496407
-0.1729215 0.21122555 -0.19080807 -0.27993733 0.17562886 -0.27144405 -0.23241498 0.22545928
-0.22241025 -0.19948386 -0.23457797 0.25212717 0.23770346 -0.23715164 -0.25078198 -0.24026862
0.27484718 0.20786059 0.24233575 0.2668617 -0.20463033 0.043056212 -0.17781654 -0.21552598
0.18833794 0.26263615 0.2497605 0.2658974 0.25509393 0.25857663 -0.2606758 -0.22911957
-0.20136216 0.16959065 -0.25935054 -0.27388287 0.2714542 -0.23442185 -0.20325081 0.21341296
-0.27937123 -0.2127015 -0.2915624 0.24098982 0.2270151 -0.22793905 -0.21272372 -0.20766886
0.24497285 0.19379184 0.22725837 0.24640203 -0.2812072 0.04944505 -0.23241992 -0.2101824
0.23524797 0.19093992 0.22225071 0.25618395 0.22082533 0.20758438 -0.2529807 -0.28222767
-0.2666748 0.22750103 -0.22918853 -0.21687405 0.23249808 -0.21020003 -0.25780648 0.25363934
-0.20262192 -0.29031473 -0.28034082 0.3022168 0.27840787 -0.2264258 -0.2393944 -0.19224238
0.25133798 0.2604625 0.25015533 0.2552726 -0.2079502 0.020417487 -0.2503291 -0.26293913
0.2163914 0.21153179 0.17875674 0.2630308 0.23933521 0.2277378 -0.20628804 -0.21483703
00000000: b22d 25be e25c 3f3e 5146 22be 48ca 84be
00000010: 03c1 513e 0fdd 28be bc55 50be 20c5 873e
00000020: dd27 72be 4881 85be 6f66 48be 0a7f 923e
00000030: 3a32 7f3e 2cc6 4cbe 866b 2abe a026 27be
00000040: 7dac 2a3e 17f3 8f3e d9a9 5c3e 213c 6b3e
00000050: f638 69be b92d a93c 07a9 5bbe f75f 6fbe
00000060: f29b 273e 94c4 353e bbf8 403e d262 413e
00000070: 1a8f 803e 8a2e 3f3e 4a7c 27be 4f15 2abe
00000080: 33c8 59be 189c 463e 763c 85be c7be 5fbe
00000090: b04b 583e a4ad 5bbe 1816 44be 913c 503e
000000a0: 2771 50be eef6 49be 5d3f 83be e8d7 733e
000000b0: 5295 6a3e 54f2 41be 3929 57be 67bb 72be
000000c0: c221 7c3e 0e25 833e 7783 8e3e c0f2 5c3e
000000d0: df22 87be c102 4e3d 5646 2ebe 5681 89be
000000e0: 0712 753e 0e06 843e cdcf 4e3e bf67 613e
000000f0: 8054 923e dd62 933e e13a 80be f909 7abe
00000100: f95c 32be 64e5 033e 1857 26be a915 51be
00000110: e68f 883e 8e9e 24be f344 69be 2aab 5c3e
00000120: 2196 08be 8fe4 43be 87b1 5fbe e054 523e
00000130: fe67 2e3e ee8a 5dbe 4f45 34be 8ee5 26be
00000140: 2f6d 603e 997f 6b3e b226 2c3e 4863 3c3e
00000150: 06ae 16be 1dfa 1e3e 9cae 7bbe 6b33 27be
00000160: 0964 823e d937 443e 035e 573e 1da0 193e
00000170: 75d9 263e 8581 083e cbba 47be a606 72be
00000180: 7a16 5fbe 61c1 513e d7ea 89be 19ab 6cbe
00000190: 22ff 623e 0fcf 6dbe 2124 50be 04b1 923e
000001a0: 7724 84be b5b7 93be 69a6 9dbe 98f2 683e
000001b0: 17e9 593e cf84 4ebe c7f2 6cbe 274e 75be
000001c0: c6aa 813e 5c7c 523e 37d9 973e 5212 9e3e
000001d0: 57c3 86be d8fe af3d 6c06 60be abb6 94be
000001e0: 737c 713e 7657 9d3e 3cf6 893e 0fa0 943e
000001f0: fea5 893e a3ab 8e3e 18a7 83be 431f 87be
00000200: a434 68be b059 323e 287d 44be ff75 65be
00000210: f51d 813e 788e 5abe d7e8 72be 6e68 5c3e
00000220: f766 39be 3371 64be d376 27be 3e71 643e
00000230: 67f1 123e 2472 4abe 626a 39be c203 51be
00000240: be3a 453e d47d 3f3e 1d36 653e c612 623e
00000250: e95d 58be 78a1 023e 0fa4 24be bbc1 35be
00000260: 875e 6f3e 25f7 7f3e 639e 2e3e 1cc7 323e
00000270: bb3a 773e 819b 263e e867 49be e7ae 1ebe
00000280: 5512 31be 834b 583e 3163 43be f253 8fbe
00000290: 0dd8 333e b7fa 8abe 31fe 6dbe ccde 663e
000002a0: 83bf 63be 7f45 4cbe 3535 70be d016 813e
000002b0: 8968 733e e1d7 72be 7f66 80be fa08 76be
000002c0: c5b8 8c3e 68d9 543e dd26 783e 19a2 883e
000002d0: 9d8a 51be b65b 303d 8a15 36be d8b2 5cbe
000002e0: a9db 403e 3f78 863e 37c1 7f3e b423 883e
000002f0: ac9b 823e 2864 843e 4c77 85be 529e 6abe
00000300: e231 4ebe 2ca9 2d3e 98c9 84be 603a 8cbe
00000310: 0bfc 8a3e 480c 70be fb20 50be ed88 5a3e
00000320: bf09 8fbe 6cce 59be ab47 95be 09c6 763e
00000330: a576 683e db68 69be 3fd4 59be 25a7 54be
00000340: 2ada 7a3e 5e71 463e 6bb6 683e d050 7c3e
00000350: 64fa 8fbe e586 4a3d 7dff 6dbe 0e3a 57be
00000360: d8e4 703e c185 433e b195 633e 8b2a 833e
00000370: 0920 623e 0091 543e b086 81be 2580 90be
00000380: 9989 88be 08f6 683e 66b0 6abe 3b14 5ebe
00000390: fa13 6e3e ad3e 57be 36ff 83be 04dd 813e
000003a0: 1f7c 4fbe 22a4 94be d588 8fbe 29bc 9a3e
000003b0: 7a8b 8e3e 2adc 67be ce23 75be 30db 44be
000003c0: 5faf 803e 575b 853e 5c14 803e 17b3 823e
000003d0: e6f0 54be 9342 a73c 232b 80be f59f 86be
000003e0: b595 5d3e ca9b 583e 020c 373e f9ab 863e
000003f0: 4a14 753e 1934 693e 2c3d 53be 3dfe 5bbe

lstm.weight_hh_l0 f4 [128, 32]
0.008912996 0.015205182 -0.0021304497 -0.011890808 0.0038723557 -0.010750498 -0.055829827 -0.057348445
-0.11017762 0.0149041405 -0.045791913 0.06955412 0.07122856 -0.0124183 0.030566085 0.021356074
-0.012738897 0.048611615 -0.0182717 -0.026396452 -0.042069998 -0.02110961 0.021896724 0.0522589
0.010078151 -0.010229258 -0.04371922 0.009537245 0.0048601837 0.019890962 0.06674925 -0.0647848
-0.0317627 -0.004600983 -0.04349446 0.02104606 -0.062116764 -0.006197403 0.026110578 -0.010056398
-0.07968612 0.080586635 -0.028414503 0.058668677 -0.045530245 -0.10650672 0.07244418 0.061539583
0.019129269 0.09976294 0.09658387 -0.0173737 0.023031414 0.13193141 -0.00023341284 -0.022270275
0.111818835 -0.08625225 0.0027930168 0.061787564 -0.045317747 -0.044605907 0.06360818 0.08169231
-0.14559604 0.12232426 0.09723484 0.09400113 0.11621771 -0.17639245 -0.0847984 -0.09635901
0.07458628 -0.11200258 -0.10891081 -0.04788413 0.12083718 0.012884866 -0.03471451 -0.067892715
-0.15701553 -0.09735279 -0.12273912 0.07439252 -0.09769972 -0.06813713 0.11568769 0.15219638
-0.08097378 0.1478697 -0.1241589 -0.11671064 0.07732403 -0.09172486 -0.0201518 -0.07666364
-0.01585647 0.07519637 -0.0565165 -0.0069199447 0.022857489 0.0015186793 -0.030720258 -0.043968186
-0.12993094 0.0017977542 -0.027594574 0.028749403 -0.0014842263 -0.09587375 0.031309687 0.039751995
-0.010926815 0.005139239 0.051121097 -0.0028534657 -0.056345858 0.07076047 0.054613944 0.044844124
0.015802683 0.035471857 0.016253103 0.011756286 -0.066684015 -0.065357484 0.018004794 0.034686297
-0.12192684 0.14139459 -0.008523805 0.09448086 0.08752399 -0.12850013 -0.12468345 -0.11418248
-0.034647286 -0.07714106 -0.047978982 -0.060444187 0.11699845 0.025498305 -0.00044120822 -0.0682166
-0.060469653 -0.038352255 0.009680054 0.07318348 -0.056843966 -0.026215455 0.06400615 0.037160117
-0.0949085 0.05848057 -0.09767083 -0.0860322 0.07972821 -0.13576794 -0.017120976 -0.10486921
0.033755977 -0.036319096 -0.088932306 -0.04022276 -0.09208835 -0.009184791 0.022051344 0.03524591
-0.09030565 0.03888063 0.013859413 0.020887276 -0.02674494 -0.07214165 0.024551824 0.048787262
0.015038906 0.07771255 0.101062454 -0.07027524 0.007117761 0.07368715 0.015607523 -0.086701974
0.108225375 -0.084232606 0.030315412 0.038854152 -0.023233 0.023980616 0.04165554 0.06715855
-0.018139757 0.052337527 -0.04475574 0.0011424738 0.030868053 -0.015621482 -0.048794463 -0.07141181
-0.10649913 -0.010906659 -0.023746144 0.020758258 0.034002297 -0.08490174 -0.03408912 0.060409922
-0.027351698 0.0021409816 -0.011895714 0.020319393 -0.031952027 -0.007885685 0.024631623 0.013070447
-0.0038014124 0.04381086 -0.06431091 -0.033316225 -0.034583103 -0.007690481 0.08258651 -0.06907827
-0.016991455 0.043063123 -0.06387822 -0.030493734 -0.059001856 -0.02323284 0.01556524 0.027831033
-0.09068809 0.041821506 -0.064871445 0.070546396 0.023075815 -0.102601804 0.029589487 0.07988608
-0.03467944 0.015772464 0.0950972 0.035203885 0.021029772 0.08908481 -0.03059108 -0.030495262
0.09979027 0.015647212 -0.056476604 -0.0051964317 -0.072571084 0.0066249133 0.10753258 -0.025992243
00000000: d107 123c 281f 793c 049f 0bbb aad1 42bc
00000010: 59c7 7d3b db22 30bc d1ad 64bd 34e6 6abd
00000020: cea4 e1bd 7f30 743c 4d90 3bbd 6472 8e3d
00000030: 47e0 913d 2076 4bbc ba65 fa3c eff2 ae3c
00000040: cfb6 50bc f91c 473d 88ae 95bc 5f3d d8bc
00000050: 9751 2cbd 10ee acbc c260 b33c 6e0d 563d
00000060: d41e 253c 9e98 27bc ed12 33bd 1b42 1c3c
00000070: 2d42 9f3b 5ff2 a23c d5b3 883d e5ad 84bd
00000080: 9b19 02bd d8c3 96bb 3f27 32bd c968 ac3c
00000090: 266e 7ebd 9613 cbbb dae5 d53c 97c3 24bc
000000a0: 7a32 a3bd 9b0a a53d 88c5 e8bc 914e 703d
000000b0: ec7d 3abd 3220 dabd 9d5d 943d ee10 7c3d
000000c0: fcb4 9c3c 8350 cc3d c4cd c53d 4a53 8ebc
000000d0: 60ac bc3c 0719 073e 48c0 74b9 2770 b6bc
000000e0: 4601 e53d 05a5 b0bd 0c0b 373b f514 7d3d
000000f0: 1a9f 39bd afb4 36bd 0145 823d 4c4e a73d
00000100: 2117 15be 2485 fa3d 0f23 c73d aa83 c03d
00000110: 8d03 ee3d 39a0 34be c9aa adbd df57 c5bd
00000120: b1c0 983d 9c61 e5bd a10c dfbd 2622 44bd
00000130: 7c79 f73d 0c1b 533c cd30 0ebd 560b 8bbd
00000140: aec8 20be e660 c7bd a65e fbbd 1b5b 983d
00000150: ca16 c8bd 7b8b 8bbd abed ec3d 5ed9 1b3e
00000160: 95d5 a5bd 286b 173e 0547 febd fd05 efbd
00000170: 105c 9e3d 3eda bbbd 6315 a5bc d401 9dbd
00000180: 6ee5 81bc 8e00 9a3d d87d 67bd b4c0 e2bb
00000190: a13f bb3c 6c0e c73a 0da9 fbbc fc17 34bd
000001a0: 9e0c 05be 9fa2 eb3a 040e e2bc de83 eb3c
000001b0: 5f8a c2ba 7559 c4bd 963e 003d fdd2 223d
000001c0: 6206 33bc 1067 a83b 5b64 513d 3601 3bbb
000001d0: eaca 66bd deea 903d dfb2 5f3d 79ae 373d
000001e0: a174 813c f04a 113d 3a25 853c 709d 403c
000001f0: a191 88bd 25da 85bd ca7e 933c 3813 0e3d
00000200: c7b4 f9bd bec9 103e 6ea7 0bbc 2e7f c13d
00000210: c73f b33d 8a95 03be 095a ffbd 81d8 e9bd
00000220: 50ea 0dbd 22fc 9dbd 9c85 44bd 5394 77bd
00000230: e29c ef3d d2e1 d03c f751 e7b9 25b5 8bbd
00000240: 07af 77bd 4117 1dbd 1799 1e3c 38e1 953d
00000250: 38d5 68bd cbc1 d6bc a815 833d 3535 183d
00000260: 635f c2bd 5289 6f3d a507 c8bd a631 b0bd
00000270: 8b48 a33d c006 0bbe 4a41 8cbc abc5 d6bd
00000280: b543 0a3d 55c3 14bd 2422 b6bd 9fc0 24bd
00000290: d198 bcbd ce7b 16bc 05a5 b43c 045e 103d
000002a0: 2bf2 b8bd 4c41 1f3d 9712 633c cb1b ab3c
000002b0: 3418 dbbc 00bf 93bd e820 c93c 27d5 473d
000002c0: be65 763c c227 9f3d d5f9 ce3d 77ec 8fbd
000002d0: 1b3c e93b 4ae9 963d b2b6 7f3c ce90 b1bd
000002e0: 44a5 dd3d 2582 acbd 0758 f83c 8825 1f3d
000002f0: 2253 bebc ff72 c43c 009f 2a3d 6c8a 893d
00000300: d499 94bc e05f 563d cb51 37bd 0fbf 953a
00000310: 00df fc3c 3ff1 7fbc b4dc 47bd 5b40 92bd
00000320: 371c dabd d8b1 32bc 4687 c2bc 390d aa3c
00000330: fe45 0b3d f7e0 adbd 08a1 0bbd 6570 773d
00000340: ab10 e0bc b64f 0c3b 3ee6 42bc db74 a63c
00000350: 21e0 02bd f632 01bc 42c8 c93c 6e25 563c
00000360: 1e21 79bb 0473 333d 70b5 83bd 9876 08bd
00000370: 03a7 0dbd 6e00 fcbb 1e23 a93d e878 8dbd
00000380: aa31 8bbc f562 303d 96d2 82bd ffcd f9bc
00000390: eeab 71bd cc52 bebc 5905 7f3c e8fd e33c
000003a0: adba b9bd 074d 2b3d 52db 84bd a17a 903d
000003b0: 7e09 bd3c e520 d2bd a765 f23c 509b a33d
000003c0: 070c 0ebd 4135 813c 52c2 c23d f331 103d
000003d0: a146 ac3c 1972 b63d 259a fabc 33d1 f9bc
000003e0: d75e cc3d 952e 803c 0354 67bd d446 aabb
000003f0: 26a0 94bd cd15 d93b 0b3a dc3d afed d4bc

lstm.bias_ih_l0 f4 [128]
0.20345378 0.17940745 0.23415701 0.26145497 0.24161775 0.21707976 0.29338464 0.27897692
0.2959201 0.28659168 0.2017295 0.23275661 0.238532 0.28005448 0.25709862 0.28212917
0.25897342 0.22309743 0.28046075 0.2174934 0.22017816 0.27200896 0.23296103 0.27140296
0.24282427 0.28500763 0.23247497 0.2566325 0.2757281 0.23052308 0.25689146 0.27614847
0.032627933 0.034768283 -0.17028017 0.018566571 -0.08582413 0.12275076 0.04436236 0.011773549
-0.14325191 -0.11788751 0.11035204 -0.11327236 0.10281416 -0.20036393 -0.17947073 -0.14368626
-0.056496542 -0.090696625 -0.11784253 0.021472404 -0.12072455 -0.1734311 0.06769361 -0.040182866
-0.103856094 -0.07355706 0.08606657 -0.06924986 -0.069585085 0.12070145 -0.21444704 -0.052112255
-0.029912794 0.06852826 -0.049031027 0.052389108 -0.013874566 -0.0006824345 -0.029914113 -0.053407513
-0.097509846 0.05497396 -0.05892789 -0.016485192 0.06193379 -0.1046459 0.044567887 0.08997943
-0.036674738 0.016887981 0.013835463 -0.022068989 0.0022145608 0.068571866 -0.009924794 0.014580712
0.03917123 0.02086693 -0.07496617 -0.04321261 -0.039865635 -0.07457496 0.07496653 0.033431306
0.1555825 0.12103894 0.20922305 0.21343161 0.22057274 0.08256303 0.15166108 0.18233158
0.2512621 0.22975767 0.10956377 0.21041164 0.13458927 0.23541416 0.16010512 0.2225856
0.15971018 0.24615073 0.1827729 0.18936658 0.23456015 0.27505368 0.16255736 0.20517428
0.18261784 0.24444927 0.17016095 0.24870078 0.20034008 0.036531102 0.23467469 0.21346232
00000000: 3056 503e 96b6 373e dbc6 6f3e 6ddd 853e
00000010: a56a 773e 284a 5e3e 8336 963e 10d6 8e3e
00000020: d782 973e 25bc 923e 2e92 4e3e c057 6e3e
00000030: bc41 743e 4d63 8f3e 6ea2 833e 3c73 903e
00000040: 2a98 843e a773 643e 8d98 8f3e 97b6 5e3e
00000050: 6276 613e c244 8b3e 568d 6e3e 54f5 8a3e
00000060: eda6 783e 85ec 913e eb0d 6e3e 5665 833e
00000070: 3c2c 8d3e 3e0e 6c3e 4787 833e 5563 8d3e
00000080: dea4 053d 3069 0e3d ed5d 2ebe ec18 983c
00000090: 90c4 afbd c064 fb3d 4eb5 353d d8e5 403c
000000a0: a1b0 12be 026f f1bd 4000 e23d 57fb e7bd
000000b0: 3b90 d23d 342c 4dbe 2dc7 37be 7e22 13be
000000c0: eb68 67bd 27bf b9bd 6d57 f1bd e5e6 af3c
000000d0: 6f3e f7bd ec97 31be f3a2 8a3d ca96 24bd
000000e0: 81b2 d4bd 15a5 96bd ab43 b03d dfd2 8dbd
000000f0: a082 8ebd 5232 f73d 0198 5bbe a973 55bd
00000100: ad0b f5bc 8b58 8c3d c2d4 48bd f695 563d
00000110: 2652 63bc 67e5 32ba 710e f5bc d6c1 5abd
00000120: 3eb3 c7bd 602c 613d 5f5e 71bd f40b 87bc
00000130: 49ae 7d3d 9750 d6bd d18c 363d 2347 b83d
00000140: 4038 16bd aa58 8a3c 23ae 623c 06ca b4bc
00000150: 2a22 113b 686f 8c3d 9a9b 22bc f0e3 6e3c
00000160: 0372 203d 20f1 aa3c dd87 99bd b5ff 30bd
00000170: 264a 23bd c2ba 98bd 0d88 993d 44ef 083d
00000180: 0551 1f3e 44e3 f73d 913e 563e d18d 5a3e
00000190: d2dd 613e ce16 a93d 0b4d 1b3e 21b5 3a3e
000001a0: 6da5 803e 9845 6b3e f862 e03d 2676 573e
000001b0: c5d1 093e 6910 713e 99f2 233e 7bed 633e
000001c0: 118b 233e f00e 7c3e d228 3b3e 50e9 413e
000001d0: 8930 703e d6d3 8c3e 7075 263e 3519 523e
000001e0: 2c00 3b3e e950 7a3e ac3e 2e3e 6bab 7e3e
000001f0: f325 4d3e a3a1 153d 904e 703e de95 5a3e

lstm.bias_hh_l0 f4 [128]
0.16782658 0.20971502 0.27460396 0.2978601 0.22457159 0.22121632 0.24802965 0.1943373
0.30519873 0.2430012 0.21853358 0.25755218 0.20373245 0.22726637 0.25057116 0.24892116
0.24277847 0.22014049 0.26815325 0.30961195 0.29626894 0.22945002 0.2127979 0.27706912
0.21321382 0.22164737 0.18002461 0.21801446 0.2777659 0.18354134 0.25783703 0.2954745
0.04492025 0.07214742 -0.1667358 0.058332812 -0.096873134 0.03161203 -0.009730824 0.044056285
-0.23542081 -0.16247177 0.07584466 -0.10897693 0.011870177 -0.16269672 -0.19318415 -0.19617333
-0.049537603 -0.14786464 -0.17714798 0.019333879 -0.11604598 -0.15764274 0.035252728 -0.09285641
-0.15861762 -0.10997535 0.03864697 -0.04957937 -0.12672916 0.12984972 -0.20590693 -0.010485664
-0.038056053 0.0217819 -0.035504043 0.0513397 -0.023321072 -0.0926228 -0.0017075218 -0.054469604
-0.069262035 -0.00068696996 -0.067781545 0.054992843 0.07611202 -0.059371386 0.022196908 0.017652458
-0.040968884 0.012290257 0.08634769 0.05321209 -0.008510027 0.01996353 0.07136947 -0.04724807
0.05801696 -0.017685814 0.007524693 0.013432925 -0.025994485 -0.07287872 0.063213244 -0.06118159
0.17140415 0.078694105 0.24822584 0.16725527 0.20531149 0.12328302 0.15701029 0.1517059
0.24916726 0.22873458 0.1122829 0.20077664 0.1469337 0.17361026 0.1860053 0.2362516
0.2454645 0.21642192 0.24390723 0.17987223 0.25157785 0.22363898 0.18264982 0.20185088
0.23847695 0.2038408 0.13888688 0.25444683 0.19258563 0.07524047 0.19377895 0.18158503
00000000: bbda 2b3e 89bf 563e e498 8c3e 1e81 983e
00000010: 18f6 653e 8886 623e 7cfb 7d3e 5b00 473e
00000020: 0243 9c3e 4ed5 783e 44c7 5f3e e1dd 833e
00000030: 3d9f 503e 84b8 683e dd4a 803e 30e5 7e3e
00000040: eb9a 783e 826c 613e 624b 893e 7585 9e3e
00000050: 90b0 973e f2f4 6a3e b1e7 593e 01dc 8d3e
00000060: b954 5a3e 87f7 623e 5f58 383e 2f3f 5f3e
00000070: 5537 8e3e 43f2 3b3e 3703 843e 6f48 973e
00000080: 4cfe 373d 07c2 933d cabc 2abe 63ee 6e3d
00000090: 6c65 c6bd 9e7b 013d 096e 1fbc 5d74 343d
000000a0: 2712 71be 005f 26be 7254 9b3d 4c2f dfbd
000000b0: 227b 423c f899 26be 11d2 45be a9e1 48be
000000c0: f1e7 4abd d469 17be 4866 35be 1562 9e3c
000000d0: 84a9 edbd 196d 21be 2a65 103d 802b bebd
000000e0: a86c 22be c23a e1bd 494c 1e3d bd13 4bbd
000000f0: 4ac5 01be 53f7 043e 44d9 52be 10cc 2bbc
00000100: aae0 1bbd f56f b23c b06c 11bd 9449 523d
00000110: d50b bfbc 06b1 bdbd edce dfba 851b 5fbd
00000120: 41d9 8dbd c615 34ba 0dd1 8abd 2d40 613d
00000130: 9ee0 9b3d 692f 73bd 4ad6 b53c e39b 903c
00000140: fdce 27bd 135d 493c 0fd7 b03d ecf4 593d
00000150: a46d 0bbc 8f8a a33c 282a 923d 3187 41bd
00000160: 31a3 6d3d d7e1 90bc b391 f63b c515 5c3c
00000170: 63f2 d4bc 7041 95bd f275 813d 8c99 7abd
00000180: 9284 2f3e 602a a13d ea2e 7e3e f744 2b3e
00000190: 2d3d 523e cf7b fc3d 4ec7 203e cb58 1b3e
000001a0: b425 7f3e 6639 6a3e 94f4 e53d 6498 4d3e
000001b0: ca75 163e e3c6 313e 2c78 3e3e f0eb 713e
000001c0: 0c5b 7b3e b59d 5d3e d1c2 793e 6d30 383e
000001d0: d0ce 803e 9e01 653e 8e08 3b3e ffb1 4e3e
000001e0: 4d33 743e a5bb 503e 5d38 0e3e db46 823e
000001f0: 2b35 453e ad17 9a3d fd6d 463e 6df1 393e

lin.weight f4 [5, 32]
-0.21589531 0.2475964 0.29018882 0.30378205 0.25800124 -0.27852866 -0.25416926 -0.25976196
0.31450826 -0.2996498 -0.20961036 -0.32718763 0.27865928 0.27381676 -0.27492914 -0.32443216
-0.26075065 -0.2837329 -0.29899052 0.28682315 -0.2707724 -0.2808294 0.26504022 0.3075089
-0.27706808 0.30017838 -0.25522768 -0.29400566 0.32405484 -0.23155308 -0.25397232 -0.2642456
0.16026852 -0.14787339 -0.21086068 -0.18246582 -0.2119822 0.15497199 0.21238793 0.18175098
-0.18891375 0.15441394 0.12921458 0.17905736 -0.22378238 -0.16448988 0.14757596 0.2075772
0.22178477 0.1623334 0.13800493 -0.16938153 0.20764022 0.22033565 -0.20970638 -0.15348533
0.2042958 -0.19015403 0.12925394 0.23945512 -0.16322501 0.14155768 0.12420079 0.21013632
0.15663047 -0.18617201 -0.15511192 -0.21623409 -0.15086259 0.118757255 0.21761745 0.14432272
-0.117176734 0.17301697 0.12940282 0.1301923 -0.1362972 -0.17016545 0.16316386 0.14932646
0.23642741 0.22562261 0.16453831 -0.21274818 0.20801936 0.21142438 -0.17153755 -0.204415
0.19894826 -0.15464526 0.1747644 0.16045086 -0.20411392 0.14429292 0.12088134 0.215014
0.15446192 -0.16794747 -0.22097641 -0.1916177 -0.19905442 0.21567205 0.20941459 0.13704793
-0.25883427 0.24054487 0.20642902 0.21166058 -0.13753456 -0.21189225 0.1873429 0.2013276
0.21635821 0.18264268 0.17716329 -0.24773 0.16715111 0.24615425 -0.14527163 -0.21959254
0.22450972 -0.19512692 0.14502354 0.18140422 -0.19489689 0.15224272 0.23902288 0.19532715
0.09258205 -0.1367131 -0.12650716 -0.20954065 -0.14451227 0.13805147 0.16216 0.11734266
-0.20271564 0.16265303 0.13488185 0.1744758 -0.21291806 -0.13191493 0.1098069 0.12449453
0.14829902 0.18066081 0.16653883 -0.11827524 0.13099678 0.151527 -0.13755289 -0.1032156
0.10202527 -0.12969705 0.1274593 0.15857299 -0.16298929 0.19064568 0.14230113 0.18889341
00000000: a913 5dbe e989 7d3e a193 943e 5289 9b3e
00000010: bd18 843e 4f9b 8ebe 7922 82be 85ff 84be
00000020: 3a07 a13e b36b 99be 19a4 56be 2385 a7be
00000030: 6eac 8e3e b631 8c3e 83c3 8cbe f91b a6be
00000040: 1c81 85be 7045 91be 4915 99be 7cda 923e
00000050: aea2 8abe dfc8 8fbe 5ab3 873e ce71 9d3e
00000060: dedb 8dbe fbb0 993e 34ad 82be e987 96be
00000070: 84ea a53e 401c 6dbe a908 82be 334b 87be
00000080: 6e1d 243e 1f6c 17be ddeb 57be 52d8 3abe
00000090: dd11 59be fab0 1e3e 397c 593e ee1c 3a3e
000000a0: 9b72 41be b01e 1e3e d450 043e d05a 373e
000000b0: 3527 65be 0970 28be 271e 173e 1e8f 543e
000000c0: 8c1b 633e ba3a 263e 2a51 0d3e 5a72 2dbe
000000d0: a39f 543e ab9f 613e 45bd 56be 422b 1dbe
000000e0: eb32 513e bdb7 42be 255b 043e b933 753e
000000f0: 7524 27be 7ff4 103e fc5c fe3d fa2d 573e
00000100: bd63 203e e0a3 3ebe a9d5 1ebe 786c 5dbe
00000110: b97b 1abe 0137 f33d 1cd7 5e3e 56c9 133e
00000120: 5bfa efbd 5c2b 313e 2c82 043e 2151 053e
00000130: 7e91 0bbe da3f 2ebe 6d14 273e 09e9 183e
00000140: 071a 723e 9d09 673e bb7c 283e a9da 59be
00000150: 0703 553e a27f 583e 8aa7 2fbe 2a52 51be
00000160: 18b9 4b3e 545b 1ebe 70f5 323e 3b4d 243e
00000170: 3d03 51be 86c1 133e a390 f73d a12c 5c3e
00000180: 442b 1e3e 6cfa 2bbe a447 62be 6e37 44be
00000190: ecd4 4bbe 22d9 5c3e c770 563e 4b56 0c3e
000001a0: ed85 84be 6551 763e 2162 533e 8dbd 583e
000001b0: dcd5 0cbe 48fa 58be d1d6 3f3e d328 4e3e
000001c0: 028d 5d3e af06 3b3e 4b6a 353e efac 7dbe
000001d0: a929 2b3e dc0f 7c3e 16c2 14be dedc 60be
000001e0: e0e5 653e 5acf 47be 0d81 143e 07c2 393e
000001f0: 0d93 47be 84e5 1b3e 6ac2 743e d703 483e
00000200: a89b bd3d 85fe 0bbe 188b 01be d391 56be
00000210: 06fb 13be 5d5d 0d3e 450d 263e 5951 f03d
00000220: b094 4fbe 848e 263e 781e 0a3e c9a9 323e
00000230: 3107 5abe b514 07be 71e2 e03d fdf6 fe3d
00000240: b3db 173e 26ff 383e 2889 2a3e 4a3a f2bd
00000250: 0524 063e e529 1b3e aada 0cbe b362 d3bd
00000260: a0f2 d03d 4ecf 04be b184 023e f560 223e
00000270: aae6 26be 9f38 433e 63b7 113e 466d 413e

lin.bias f4 [5]
-0.07565218 -0.007864299 -0.020486565 0.040473998 -0.028939987
00000000: 88ef 9abd 43d9 00bc 71d3 a7bc 10c8 253d
00000010: 8d13 edbc
