checkpoints/REINFORCE_G_space_False_pretrain_1_batch_0.pth (torch_old, 36112 bytes, 7 tensors)

emb.weight f4 [5, 32]
0.052155394 -0.05764226 0.048562944 0.11813038 -0.015338774 0.09803661 0.061482783 -0.13636588
0.10685502 0.106883675 0.15464781 -0.14482883 -0.10446222 0.064727396 0.10056464 0.09625335
-0.06957035 -0.13789435 -0.08352223 -0.11561667 0.13988015 0.15134364 0.04142863 0.12471179
-0.034088533 -0.019393599 -0.06613008 -0.12092496 -0.12235685 -0.13431823 0.06292964 0.09346231
-0.2562641 0.22164851 -0.24139464 -0.2321875 0.1968842 -0.22917944 -0.23004147 0.25279012
-0.22903726 -0.26384068 -0.28159636 0.2607221 0.2594117 -0.23177612 -0.25997952 -0.2662312
0.2543163 0.2257395 0.23162293 0.26720437 -0.21562131 -0.0072407094 -0.23795515 -0.2798688
0.16016844 0.21002598 0.19876671 0.2598783 0.2610285 0.19139811 -0.2004113 -0.18383892
-0.1678914 0.205157 -0.21345249 -0.2570368 0.15320387 -0.26264578 -0.24870822 0.26735103
-0.2555929 -0.2762155 -0.27677104 0.26233613 0.24011223 -0.22346616 -0.21049266 -0.17964579
0.20389074 0.24173689 0.2530391 0.2815635 -0.27672237 -0.032719474 -0.2188559 -0.21482627
0.18797429 0.19116047 0.18379459 0.2678612 0.2628818 0.25774798 -0.22965814 -0.2598676
-0.24588755 0.1744699 -0.1754601 -0.21870717 0.13347587 -0.23203814 -0.2246757 0.27712014
-0.27130923 -0.254274 -0.26687828 0.2519213 0.20802788 -0.20179644 -0.22952272 -0.23607446
0.2188088 0.24212731 0.21906342 0.20679614 -0.27439722 -0.026411805 -0.16167215 -0.27985346
0.19455862 0.22529557 0.17114916 0.23196514 0.26846898 0.23736729 -0.2452397 -0.2757379
-0.19764517 0.16429722 -0.16988492 -0.28461495 0.17437434 -0.18804964 -0.21954519 0.20057051
-0.20165461 -0.29088578 -0.28683844 0.28219557 0.24287859 -0.24456379 -0.23763086 -0.22823551
0.22965254 0.2625504 0.23315723 0.25237066 -0.2068232 -0.0398288 -0.18168552 -0.28087094
0.206326 0.18237066 0.22868171 0.2155822 0.2245906 0.24448165 -0.22409186 -0.22877678
00000000: e5a0 553d 4a1a 6cbd f0e9 463d 57ee f13d
00000010: 7b4f 7bbc 6bc7 c83d 5fd5 7b3d 7fa3 0bbe
00000020: ced6 da3d d4e5 da3d ff5b 1e3e 024e 14be
00000030: 4af0 d5bd cc8f 843d d5f4 cd3d 7a20 c53d
00000040: e67a 8ebd 2d34 0dbe b40d abbd 6fc8 ecbd
00000050: be3c 0f3e d4f9 1a3e 11b1 293d e568 ff3d
00000060: 6ba0 0bbd 53df 9ebc 356f 87bd 81a7 f7bd
00000070: 3a96 fabd b88a 09be 41e1 803d 2b69 bf3d
00000080: 0c35 83be d4f7 623e 2830 77be 8fc2 6dbe
00000090: 039c 493e 04ae 6abe fe8f 6bbe b56d 813e
000000a0: be88 6abe 2016 87be 662d 90be 5e7d 853e
000000b0: 9cd1 843e b856 6dbe 091c 85be 754f 88be
000000c0: bf35 823e 4128 673e 902e 6d3e 03cf 883e
000000d0: d5cb 5cbe 7943 edbb 84aa 73be f74a 8fbe
000000e0: 3203 243e 0d11 573e 8089 4b3e c50e 853e
000000f0: 87a5 853e defd 433e 9f38 4dbe 4540 3cbe
00000100: b9eb 2bbe ad14 523e 4a93 5abe 549a 83be
00000110: 7ae1 1c3e 8279 86be 5ead 7ebe 3ce2 883e
00000120: 13dd 82be 1e6c 8dbe efb4 8dbe ec50 863e
00000130: fbdf 753e 50d4 64be 638b 57be 11f5 37be
00000140: bcc8 503e e089 773e 578e 813e 1729 903e
00000150: 8eae 8dbe db04 06bd c31b 60be 6bfb 5bbe
00000160: 557c 403e 92bf 433e a634 3c3e 1a25 893e
00000170: 7198 863e 8bf7 833e 812b 6bbe 5e0d 85be
00000180: f2c9 7bbe 3da8 323e d0ab 33be c6f4 5fbe
00000190: e6ad 083e 689b 6dbe 6311 66be b1e2 8d3e
000001a0: 0be9 8abe 3430 82be 45a4 88be d4fb 803e
000001b0: 4305 553e baa3 4ebe 0108 6bbe 81bd 71be
000001c0: 6a0f 603e 39f0 773e 2952 603e 5ec2 533e
000001d0: cb7d 8cbe 925d d8bc 628d 25be f448 8fbe
000001e0: 603a 473e e2b3 663e ba41 2f3e 4588 6d3e
000001f0: c474 893e 6910 733e 1e20 7bbe 852d 8dbe
00000200: 7f63 4abe 883d 283e 50f6 2dbe 0db9 91be
00000210: 308f 323e 1690 40be 74d0 60be 5b62 4d3e
00000220: 8c7e 4ebe fbee 94be 7ddc 92be f07b 903e
00000230: 2ab5 783e ee6e 7abe 8155 73be 92b6 69be
00000240: 092a 6b3e 026d 863e c5c0 6e3e ba36 813e
00000250: 76c9 53be 8623 23bd c50b 3abe 51ce 8fbe
00000260: 1f47 533e 60bf 3a3e 8a2b 6a3e 95c1 5c3e
00000270: 14fb 653e 6659 7a3e 5678 65be 7644 6abe

lstm.weight_ih_l0 f4 [128, 32]
-0.08000583 0.11218529 -0.078488074 -0.19772115 0.10624407 -0.10061205 -0.12408957 0.21006942
-0.17355028 -0.1915591 -0.14084385 0.23053871 0.18543288 -0.121820375 -0.1009419 -0.099449776
0.09141305 0.22671519 0.14279486 0.16638972 -0.1738418 -0.023467906 -0.12922856 -0.17320843
0.07474839 0.079696685 0.11628117 0.12939613 0.1907387 0.13346538 -0.086150534 -0.09783611
-0.14002955 0.12869343 -0.18948215 -0.16583835 0.120391846 -0.16004376 -0.12062979 0.15881112
-0.15053476 -0.13627157 -0.21138977 0.19230244 0.17463839 -0.11925751 -0.1535704 -0.18306997
0.17955513 0.21162744 0.21389966 0.16143748 -0.22043519 -0.015447222 -0.09337842 -0.21755974
0.15805309 0.16814001 0.1384734 0.17053604 0.23528196 0.24506499 -0.18176275 -0.18499024
-0.12334378 0.09903379 -0.11755299 -0.20954794 0.17263094 -0.1578192 -0.18322463 0.23459789
-0.13282126 -0.17617896 -0.23945364 0.22486013 0.17078619 -0.17691422 -0.17137396 -0.16218813
0.18752168 0.25183073 0.14366466 0.18568441 -0.1686616 0.026368452 -0.18665148 -0.16996633
0.18265806 0.09466756 0.18830769 0.16037853 0.17003506 0.15759335 -0.15470822 -0.22081266
-0.15062259 0.14880566 -0.20504643 -0.19333507 0.1272349 -0.19086984 -0.13874494 0.25793707
-0.21827647 -0.23943064 -0.27975583 0.19828644 0.17266499 -0.13926204 -0.18852833 -0.19942622
0.1956837 0.17779174 0.24246581 0.2690578 -0.23583674 0.01566708 -0.14582382 -0.25424856
0.15546054 0.21289475 0.21666686 0.25613636 0.23302859 0.25236785 -0.19522145 -0.2154553
-0.15238619 0.11483257 -0.12157614 -0.1928982 0.14690258 -0.17518239 -0.16692342 0.1961777
-0.1448121 -0.17496328 -0.14641592 0.20449577 0.10814111 -0.13096735 -0.14142904 -0.16786031
0.13187736 0.17050184 0.16825972 0.18652628 -0.1943924 0.012722627 -0.080038436 -0.1476187
0.1438767 0.14340785 0.11695857 0.14772794 0.21171778 0.14828911 -0.12958634 -0.1065425
-0.10247832 0.14911342 -0.12233384 -0.23230328 0.0846652 -0.22148801 -0.16442403 0.18636917
-0.17415951 -0.14258815 -0.19523601 0.21190077 0.18778525 -0.169942 -0.19854565 -0.19075175
0.2113022 0.16918844 0.18152921 0.21705018 -0.16688775 -0.033194575 -0.10256175 -0.16947149
0.10920674 0.17350589 0.19007617 0.22128727 0.20952368 0.22187625 -0.19536448 -0.17444417
-0.12877819 0.10888017 -0.19003582 -0.23202509 0.17119586 -0.18897688 -0.13376951 0.18139175
-0.23561206 -0.15895556 -0.25983635 0.20817131 0.18258896 -0.1604214 -0.16537613 -0.1632687
0.18241888 0.16256487 0.1683209 0.20241404 -0.2505528 -0.027766172 -0.15414037 -0.16994776
0.14959997 0.090777166 0.16484152 0.21811764 0.18109463 0.17806667 -0.18631455 -0.22954841
-0.19072282 0.16080427 -0.15587103 -0.16579325 0.13565925 -0.15603761 -0.18459028 0.21070874
-0.14988188 -0.22943269 -0.23770139 0.25866774 0.22494403 -0.15459277 -0.18338455 -0.13861087
0.18319593 0.21833572 0.18507998 0.20227832 -0.16636747 -0.05168847 -0.17022558 -0.2129609
0.13090473 0.11521528 0.11479921 0.2148951 0.1898257 0.18729286 -0.13533357 -0.15508637
00000000: 19da a3bd 67c1 e53d 5bbe a0bd 6a77 4abe
00000010: 7e96 d93d b10d cebd ac22 febd 701c 573e
00000020: 2ab7 31be 1228 44be 5f39 10be 5712 6c3e
00000030: 1ee2 3d3e f67c f9bd a0ba cebd 53ac cbbd
00000040: c436 bb3d 0728 683e d138 123e 1162 2a3e
00000050: 9603 32be c43f c0bc 7e54 04be 8d5d 31be
00000060: af15 993d 0438 a33d d224 ee3d 6b80 043e
00000070: 0151 433e 26ab 083e b16f b0bd 4c5e c8bd
00000080: e863 0fbe 36c8 033e 9c07 42be 87d1 29be
00000090: 0090 f63d 83e2 23be c00c f7bd 629f 223e
000000a0: c925 1abe c68a 0bbe 8f76 58be eeea 443e
000000b0: 68d4 323e 483d f4bd 8f41 1dbe b276 3bbe
000000c0: 4ddd 373e ddb4 583e 8308 5b3e de4f 253e
000000d0: c3b9 61be 5816 7dbc 2f3d bfbd fbc7 5ebe
000000e0: abd8 213e e52c 2c3e f9cb 0d3e 00a1 2e3e
000000f0: c1ed 703e 51f2 7a3e 0420 3abe 156e 3dbe
00000100: aa9b fcbd 3ad2 ca3d 9fbf f0bd bc93 56be
00000110: 2ac6 303e 5b9b 21be 3d9f 3bbe 6e3a 703e
00000120: 4c02 08be 4268 34be 5633 75be bc41 663e
00000130: 93e2 2e3e 0029 35be a87c 2fbe a514 26be
00000140: af05 403e f5ef 803e d41c 133e 0e24 3e3e
00000150: a0b5 2cbe a702 d83c 9121 3fbe a70b 2ebe
00000160: b70a 3b3e 11e1 c13d bbd3 403e 453a 243e
00000170: ac1d 2e3e 2760 213e d56b 1ebe b71c 62be
00000180: cf3c 1abe 8360 183e b1f7 51be a1f9 45be
00000190: de49 023e 6273 43be 2713 0ebe 5410 843e
000001a0: de83 5fbe 4e2d 75be 283c 8fbe 9a0b 4b3e
000001b0: 17cf 303e b59a 0ebe 920d 41be 6336 4cbe
000001c0: 4f61 483e 0a0f 363e f548 783e f2c1 893e
000001d0: 307f 71be 4058 803c d752 15be de2c 82be
000001e0: 0c31 1f3e 1501 5a3e ebdd 5d3e 4e24 833e
000001f0: 0c9f 6e3e 5c36 813e 22e8 47be 50a0 5cbe
00000200: 200b 1cbe 572d eb3d e9fc f8bd 1b87 45be
00000210: a16d 163e 0363 33be f9ed 2abe cfe2 483e
00000220: a049 14be 9329 33be 0eee 15be 5767 513e
00000230: 1679 dd3d 4e1c 06be c6d2 10be 93e3 2bbe
00000240: dc0a 073e 0998 2e3e 474c 2c3e bf00 3f3e
00000250: cd0e 47be 9172 503c 31eb a3bd 5b29 17be
00000260: 6a54 133e 82d9 123e fa87 ef3d fe45 173e
00000270: 8ccc 583e 1ad9 173e 48b2 04be f432 dabd
00000280: 27e0 d1bd 30b1 183e 2a8a fabd e9e0 6dbe
00000290: f364 ad3d c1cd 62be c65e 28be 8fd7 3e3e
000002a0: df56 32be a102 12be f3eb 47be 84fc 583e
000002b0: c74a 403e 4705 2ebe 8d4f 4bbe 6d54 43be
000002c0: 9b5f 583e bc3f 2d3e cbe2 393e 6742 5e3e
000002d0: 9fe4 2abe 09f7 07bd e50b d2bd ef89 2dbe
000002e0: c9a7 df3d 87ab 313e 54a3 423e 2199 623e
000002f0: 608d 563e 8733 633e a00d 48be 7ea1 32be
00000300: 6ede 03be 91fc de3d c098 42be fc97 6dbe
00000310: f84d 2f3e 2883 41be e0fa 08be c2be 393e
00000320: 4a44 71be 3fc5 22be 4509 85be dc2a 553e
00000330: 9af8 3a3e 8245 24be 5c58 29be e92f 27be
00000340: 04cc 3a3e 6877 263e 505c 2c3e a045 4f3e
00000350: 7548 80be e275 e3bc f9d6 1dbe c906 2ebe
00000360: bc30 193e 61e9 b93d 37cc 283e 3b5a 5f3e
00000370: df70 393e 1c57 363e 3ec9 3ebe bd0e 6bbe
00000380: d84c 43be e0a9 243e a89c 1fbe b5c5 29be
00000390: 42ea 0a3e 53c8 1fbe 3c05 3dbe 08c4 573e
000003a0: a37a 19be 67f0 6abe fe67 73be 1970 843e
000003b0: ba57 663e 914d 1ebe 29c9 3bbe 02f0 0dbe
000003c0: b797 3b3e 6693 5f3e 9b85 3d3e 0c22 4f3e
000003d0: 3c5c 2abe 4ab7 53bd 9d4f 2ebe 6c12 5abe
000003e0: e40b 063e fdf5 eb3d d91b eb3d 760d 5c3e
000003f0: ab61 423e b3c9 3f3e e294 0abe f6ce 1ebe

lstm.weight_hh_l0 f4 [128, 32]
0.020401176 0.00058778195 0.044553645 -0.02203994 0.029420484 0.0028609342 -0.048428774 -0.044812176
-0.051822696 0.0018909352 -0.030890606 0.031145342 0.059665818 0.033468917 -0.0074624065 -0.005628031
-0.008275109 0.027968626 -0.062416337 -0.028725376 -0.052410115 -0.046140082 0.010479379 0.06298326
-0.007791486 0.0027596273 -0.030684745 0.0075427294 0.045339227 0.035646405 0.007478893 -0.062956266
-0.061441235 0.01590907 0.036863334 0.053333458 0.006554303 -0.027965264 -0.0092620235 -0.036591463
-0.0007475772 0.019084057 -0.050304186 -0.016704576 -0.018254604 -0.024549183 -0.004162079 -0.01111112
-0.018737217 0.034298845 0.015315547 0.02467634 -0.032573618 0.061543774 0.028470155 0.03419113
0.045412697 -0.028725237 -0.022394432 0.016139615 0.031410526 -0.06269088 -0.02180152 0.038646735
-0.07503781 0.052119102 0.082455166 0.02396941 0.07754075 -0.10662481 -0.016867599 -0.02600837
0.07278413 -0.06280057 -0.037935082 -0.024493013 0.050819088 -0.006782416 -0.010358785 -0.030658444
-0.09313604 -0.055367723 -0.102547914 0.012009744 -0.04586982 -0.0297168 0.04487484 0.1019154
-0.03491025 0.09977587 -0.05335221 -0.057955775 0.055906862 -0.021823816 -0.017286945 -0.013462419
-0.025099292 0.083368614 -0.02041197 0.00082884333 0.048084226 -0.007214173 -0.040351845 -0.051058523
-0.084005356 -0.016845653 -0.035515804 -0.0021141823 0.0059261443 -0.058083724 -0.0005229142 0.014022221
-0.020328695 -0.016871708 0.015248629 0.0082929535 -0.0733713 0.04606334 0.062989786 0.062036768
-0.0057442063 0.052924294 0.0078062 -0.0006834642 -0.034150008 -0.07256043 -0.02892209 0.023105804
-0.06046596 0.0797583 -0.0008136178 0.033890408 0.065183096 -0.067449965 -0.06618575 -0.05258916
-0.009740382 -0.04115413 0.014053272 -0.057048004 0.05588992 0.029333921 0.0035383622 -0.048259955
-0.0058169924 -0.011545871 0.00742492 0.020503031 -0.017336829 -0.004312476 0.0024622302 -0.0010500841
-0.06354713 0.023051538 -0.035929333 -0.037518922 0.07911387 -0.074106395 -0.04180014 -0.051845286
0.0010658607 -0.013327649 -0.012312385 -0.005087693 -0.024350202 -0.033458922 -0.01608844 0.0060017905
-0.016562628 -0.023282384 -0.010595541 -0.051797044 0.0031777318 0.0053115324 -0.049228646 -0.022319404
-0.025618535 0.012585385 0.025139708 -0.025530148 -0.04945183 0.0045204354 0.04692212 -0.029504875
0.04397629 -0.026227063 0.0024275891 -0.008808937 0.05065405 0.0035423401 -0.036714222 0.021542255
0.0015218043 0.032650705 -0.013353192 -0.018123291 0.04156214 0.0031775741 -0.0320699 -0.05048853
-0.06183997 -0.01160189 -0.0033401577 -0.0021744142 0.013694073 -0.05388785 -0.056625005 0.047547646
-0.0124178445 -0.004551969 -0.040782824 0.007630946 -0.029669426 -0.018953083 0.0051748333 0.011424749
-0.008840258 0.043569576 -0.04419637 -0.023979776 -0.009319985 0.012696055 0.03783049 -0.056841575
-0.02861479 0.04986888 -0.0056983465 -0.018925758 -0.017869176 -0.030384943 0.0013703349 0.019338375
-0.02466149 0.009548581 -0.07191634 0.019730428 0.032321375 -0.04279972 -0.021703217 0.035595674
-0.04954649 -0.021488188 0.03730085 0.052939143 -0.007729546 0.046828747 -0.01987266 -0.0016938059
0.062491566 0.045118958 -0.064658724 -0.026078695 -0.019340225 -3.1455776e-05 0.03930597 -0.044926263
00000000: 5e20 a73c 6115 1a3a e27d 363d 1b8d b4bc
00000010: 3a03 f13c 837e 3b3b 405d 46bd f98c 37bd
00000020: 0944 54bd 42d9 f73a 4c0e fdbc 8424 ff3c
00000030: 2564 743d b416 093d 3487 f4bb 596b b8bb
00000040: 5394 07bc 761e e53c 46a8 7fbd 7b51 ebbc
00000050: fdab 56bd 62fd 3cbd b4b1 2b3c 5efd 803d
00000060: b94f ffbb ddda 343b 935e fbbc 0029 f73b
00000070: a0b5 393d f701 123d 8011 f53b 37ef 80bd
00000080: cea9 7bbd bd53 823c 02fe 163d 2f74 5a3d
00000090: 7bc5 d63b 6917 e5bc bebf 17bc eee0 15bd
000000a0: 0ff9 43ba 2b56 9c3c c30b 4ebd 09d8 88bc
000000b0: ae8a 95bc 5e1b c9bc 0d62 88bb 6a0b 36bc
000000c0: cb7e 99bc f27c 0c3d 0fee 7a3c 0926 ca3c
000000d0: ea6b 05bd 5315 7c3d 3e3a e93c 000c 0c3d
000000e0: aa02 3a3d 3051 ebbc 8774 b7bc 3a37 843c
000000f0: 53a8 003d 1364 80bd 1a99 b2bc 0a4c 1e3d
00000100: 6cad 99bd d77a 553d 41de a83d 7f5b c43c
00000110: afcd 9e3d 1c5e dabd eb2d 8abc 810f d5bc
00000120: d90f 953d 969d 80bd d161 1bbd 92a5 c8bc
00000130: ad27 503d 073f debb e5b7 29bc 6b27 fbbc
00000140: 1cbe bebd 44c9 62bd a404 d2bd 84c4 443c
00000150: fee1 3bbd a670 f3bc aece 373d 05b9 d03d
00000160: 0dfe 0ebd 4b57 cc3d d987 5abd 0963 6dbd
00000170: 98fe 643d dcc7 b2bc 5a9d 8dbc 7a91 5cbc
00000180: 089d cdbc 2abd aa3d 0137 a7bc bc46 593a
00000190: f7f3 443d df64 ecbb fa47 25bd be22 51bd
000001a0: 000b acbd e5ff 89bc 0579 11bd 188e 0abb
000001b0: 1a30 c23b 33e9 6dbd 2e14 09ba 75bd 653c
000001c0: 5d88 a6bc 8936 8abc 63d5 793c 2bdf 073c
000001d0: b143 96bd eaac 3c3d ca00 813d 441a 7e3d
000001e0: e539 bcbb 25c7 583d 27cb ff3b 822a 33ba
000001f0: e1e0 0bbd 909a 94bd 05ee ecbc 6248 bd3c
00000200: 28ab 77bd 5258 a33d f748 55ba abd0 0a3d
00000210: b77e 853d 3523 8abd 658c 87bd bb67 57bd
00000220: 2096 1fbc 3c91 28bd b23f 663c 2bab 69bd
00000230: d4ec 643d b14d f03c dee3 673b 3bac 45bd
00000240: 789c bebb e52a 3dbc be4c f33b f9f5 a73c
00000250: f705 8ebc ac4f 8dbb 5e5d 213b faa2 89ba
00000260: ff24 82bd 94d6 bc3c a32a 13bd 71ad 19bd
00000270: 7406 a23d 18c5 97bd a036 2bbd b95b 54bd
00000280: 5ab4 8b3a 365c 5abc e3b9 49bc aab6 a6bb
00000290: 137a c7bc 390c 09bd e7cb 83bc abaa c43b
000002a0: 59ae 87bc b3ba bebc ec98 2dbc 2329 54bd
000002b0: 7e41 503b 5d0c ae3b faa3 49bd 2fd7 b6bc
000002c0: f6dd d1bc ee32 4e3c caf1 cd3c 9a24 d1bc
000002d0: 018e 4abd 2920 943b 6931 403d 35b4 f1bc
000002e0: 7b20 343d 23da d6bc 3018 1f3b 5c53 10bc
000002f0: 9f7a 4f3d 9b26 683b a761 16bd 6279 b03c
00000300: 4777 c73a bfbc 053d 59c7 5abc 4c77 94bc
00000310: 103d 2a3d d93e 503b ba5b 03bd 10cd 4ebd
00000320: e94b 7dbd db15 3ebc 8ce6 5abb 9e80 0ebb
00000330: 1b5d 603c 82b9 5cbd 9fef 67bd 52c1 423d
00000340: 3774 4bbc af28 95bb e40b 27bd 040d fa3b
00000350: 4c0d f3bc 7f43 9bbc a691 a93b df2e 3b3c
00000360: bbd6 10bc 0376 323d 4107 35bd 3c71 c4bc
00000370: dab2 18bc 1d03 503c 25f4 1a3d b6d2 68bd
00000380: 9069 eabc 5043 4c3d 32b9 babb 310a 9bbc
00000390: 6162 92bc d8e9 f8bc cf9c b33a 836b 9e3c
000003a0: e506 cabc a771 1c3c e048 93bd b5a1 a13c
000003b0: 6b63 043d c24e 2fbd f2ca b1bc c5cc 113d
000003c0: 43f1 4abd ff07 b0bc c7c8 183d b7d6 583d
000003d0: 2248 fdbb 80cf 3f3d fdcb a2bc b202 deba
000003e0: 28f7 7f3d a8ce 383d cb6b 84bd fda2 d5bc
000003f0: 646f 9ebc 62ef 03b8 4cff 203d 9a04 38bd

lstm.bias_ih_l0 f4 [128]
0.0533061 0.04672516 0.078928635 0.109529495 0.08028748 0.08076612 0.13137224 0.12919778
0.14906746 0.11891048 0.06941277 0.07862512 0.09773102 0.12450711 0.09679919 0.123353615
0.09100514 0.065188855 0.12425425 0.04916331 0.050513398 0.107036464 0.07793066 0.10041022
0.07664003 0.12154955 0.08031191 0.09656826 0.12019377 0.11207842 0.11042934 0.115361
0.042926192 0.0053813052 -0.050112326 0.018381063 0.025490185 0.09137493 0.074521214 0.0035076763
-0.02688 0.0048788176 0.079605594 0.0029973062 0.08771127 -0.06479258 -0.04923659 -0.01046086
-0.00550314 0.023641152 0.00943379 0.07758824 -0.029746471 -0.03932513 0.044496197 0.0524741
0.02621915 0.01882572 0.059239548 -0.009982883 0.045005146 0.08673744 -0.08419133 0.0039012046
-0.066091724 0.09752268 0.05388829 0.09862252 0.07464629 -0.032052025 -0.082677916 -0.09768896
0.03488859 -0.03532595 -0.089593984 -0.1093385 0.103260376 0.022282206 -0.05801767 -0.024152542
-0.105104156 -0.06827645 -0.090846926 0.040555786 -0.07893361 -0.035972394 0.028116325 0.093569875
-0.05991045 0.105373636 -0.11156763 -0.11284475 0.05390238 -0.09881927 -0.050557256 -0.028994871
0.03993473 0.06105928 0.06458353 0.071237005 0.06342646 0.010382437 0.0012176185 0.06910875
0.12594274 0.061399177 0.037509955 0.06534098 0.02003038 0.094403856 0.002545289 0.06829982
0.0025789877 0.08736692 0.039710235 0.027198749 0.070456505 0.11455801 0.029911753 0.033291604
0.016001634 0.08216698 0.067838676 0.091464706 0.05153813 -0.013744375 0.09783655 0.050149716
00000000: 7f57 5a3d e262 3f3d 56a5 a13d 0051 e03d
00000010: c36d a43d b568 a53d 7286 063e 6c4c 043e
00000020: 24a5 183e 5687 f33d 4828 8e3d 3506 a13d
00000030: 3327 c83d 95fd fe3d a73e c63d d2a0 fc3d
00000040: e760 ba3d bc81 853d 0379 fe3d 785f 493d
00000050: 23e7 4e3d ef35 db3d 1c9a 9f3d e0a3 cd3d
00000060: 73f5 9c3d f8ee f83d 927a a43d 94c5 c53d
00000070: 2728 f63d 5f89 e53d c728 e23d 6342 ec3d
00000080: 60d3 2f3d a955 b03b 9542 4dbd e293 963c
00000090: cbd0 d03c c822 bb3d 949e 983d 0be1 653b
000000a0: 7233 dcbc 7dde 9f3b 4208 a33d 746e 443b
000000b0: f7a1 b33d f9b1 84bd 4eac 49bd 0764 2bbc
000000c0: af53 b4bb 17ab c13c 2f90 1a3c 95e6 9e3d
000000d0: dfae f3bc 6313 21bd a541 363d 15ef 563d
000000e0: 8bc9 d63c 6538 9a3c 2ba5 723d 3f8f 23bc
000000f0: 5157 383d 66a3 b13d 816c acbd 5aab 7f3b
00000100: 195b 87bd f9b9 c73d f8b9 5c3d 9bfa c93d
00000110: 27e0 983d fc48 03bd 0a53 a9bd 2611 c8bd
00000120: 57e7 0e3d f1b1 10bd 0d7d b7bd ddec dfbd
00000130: 2d7a d33d 2c89 b63c f0a3 6dbd 8ddb c5bc
00000140: d940 d7bd 86d4 8bbd f40d babd d31d 263d
00000150: f2a7 a1bd ca57 13bd 3554 e63c 90a1 bf3d
00000160: a964 75bd 22ce d73d 927d e4bd 261b e7bd
00000170: bec8 5c3d c261 cabd 2015 4fbd a786 edbc
00000180: 9992 233d 4c19 7a3d 5f44 843d b5e4 913d
00000190: bbe5 813d 191b 2a3c 7f98 9f3a e388 8d3d
000001a0: 22f7 003e b47d 7b3d 0aa4 193d 7ed1 853d
000001b0: c016 a43c cf56 c13d ddce 263b c7e0 8b3d
000001c0: 3c04 293b 6eed b23d 33a7 223d e9cf de3c
000001d0: 804b 903d 649d ea3d 7e09 f53c c75c 083d
000001e0: dc15 833c 2947 a83d 01ef 8a3d d951 bb3d
000001f0: a519 533d 1630 61bc 875e c83d ca69 4d3d

lstm.bias_hh_l0 f4 [128]
0.01767888 0.07703273 0.11937555 0.14593469 0.06324126 0.084902674 0.08601736 0.044558175
0.15834609 0.07531998 0.08621685 0.10342063 0.062931515 0.07171897 0.09027175 0.09014551
0.07481019 0.06223192 0.11194677 0.14128198 0.12660411 0.064477615 0.05776764 0.10607639
0.0470296 0.0581893 0.027861606 0.057950206 0.12223157 0.06509664 0.111374885 0.13468696
0.055218518 0.042760447 -0.046567965 0.058147315 0.014441186 0.00023620826 0.020428028 0.035790417
-0.11904877 -0.03970536 0.04509823 0.007292739 -0.003232743 -0.027125387 -0.06295001 -0.06294785
0.0014558046 -0.033526838 -0.049871687 0.075449705 -0.02506789 -0.023536734 0.012055302 -0.00019947067
-0.028542407 -0.017592555 0.01181995 0.009687622 -0.01213896 0.09588571 -0.0756512 0.045527782
-0.074234985 0.050776288 0.06741528 0.09757312 0.0651998 -0.1239924 -0.054471336 -0.09875105
0.06313639 -0.09098685 -0.09844764 -0.03786053 0.1174386 0.067556724 -0.08038868 -0.09647952
-0.10939831 -0.07287418 -0.018334692 0.11583682 -0.08965816 -0.084580734 0.109410584 0.031741068
-0.04106472 0.066820875 -0.029076735 -0.056199197 0.06777352 -0.09712303 -0.062310554 -0.1236078
0.055756368 0.018714458 0.10358628 0.025060678 0.04816523 0.05110245 0.006566821 0.03848308
0.123847894 0.060376097 0.040229093 0.05570596 0.032374874 0.032599933 0.028445475 0.08196579
0.08833339 0.05763817 0.10084459 0.017704431 0.08747428 0.06314339 0.050004218 0.029968187
0.07186072 0.04155846 0.036564633 0.09721075 0.04378369 0.024965 0.056940876 0.018272463
00000000: 4cd3 903c 56c3 9d3d 2b7b f43d e76f 153e
00000010: a284 813d 74e1 ad3d df29 b03d a282 363d
00000020: 7a25 223e 5d41 9a3d 7692 b03d 32ce d33d
00000030: 3de2 803d 65e1 923d 65e0 b83d 369e b83d
00000040: 1636 993d e6e6 7e3d 5944 e53d 39ac 103e
00000050: 82a4 013e d70c 843d c39d 6c3d 943e d93d
00000060: 1ca2 403d e757 6e3d 063e e43c 325d 6d3d
00000070: 8c54 fa3d 6351 853d 8418 e43d 61eb 093e
00000080: d02c 623d 9425 2f3d 0dbe 3ebd e12b 6e3d
00000090: b99a 6c3c acae 7739 ae58 a73c f998 123d
000000a0: d7cf f3bd 16a2 22bd ecb8 383d eef7 ee3b
000000b0: 6ddc 53bb 0f36 debc efeb 80bd cdea 80bd
000000c0: b2d0 be3a 7053 09bd 4146 4cbd 6085 9a3d
000000d0: 2d5b cdbc 1cd0 c0bc 9a83 453c 0029 51b9
000000e0: c4d1 e9bc 431e 90bc 77a8 413c d5b8 1e3c
000000f0: 7de2 46bc ba5f c43d 04ef 9abd 577b 3a3d
00000100: 8308 98bd ccfa 4f3d 0611 8a3d 6ad4 c73d
00000110: 7987 853d baef fdbd 561d 5fbd fe3d cabd
00000120: a74d 813d 5057 babd eb9e c9bd a513 1bbd
00000130: a683 f03d 2e5b 8a3d d2a2 a4bd 0e97 c5bd
00000140: 390c e0bd 0f3f 95bd a332 96bc db3b ed3d
00000150: b39e b7bd aa38 adbd a812 e03d ec02 023d
00000160: 7b33 28bd 62d9 883d 5532 eebc 2131 66bd
00000170: d8cc 8a3d 70e8 c6bd 5a39 7fbd 1626 fdbd
00000180: ca60 643d 104f 993c 0b25 d43d 0d4c cd3c
00000190: e748 453d cd50 513d 7d2e d73b 6fa0 1d3d
000001a0: f7a3 fd3d ed4c 773d 43c7 243d ef2b 643d
000001b0: 849b 043d 8287 053d 7c06 e93c aedd a73d
000001c0: 23e8 b43d 0016 6c3d 9c87 ce3d e208 913c
000001d0: b725 b33d 5251 813d 39d1 4c3d d87f f53c
000001e0: b72b 933d 3439 2a3d ccc4 153d 6e16 c73d
000001f0: 8756 333d 6683 cc3c d63a 693d 22b0 953c

lin.weight f4 [5, 32]
-0.110317074 0.15373304 0.14873406 0.19584258 0.11551243 -0.18257624 -0.14234746 -0.15848328
0.18529326 -0.16254456 -0.1128829 -0.18660416 0.1763868 0.13056122 -0.13018309 -0.18171225
-0.14669779 -0.1459569 -0.15621005 0.16799615 -0.13800077 -0.13913883 0.1597477 0.17382592
-0.13655731 0.16733764 -0.15409786 -0.1714723 0.1824688 -0.14157291 -0.11629787 -0.14426237
0.09891076 -0.093052246 -0.16688758 -0.11704197 -0.15969568 0.09839383 0.14774871 0.12207676
-0.1529416 0.09655556 0.072416276 0.1316115 -0.1625576 -0.120442376 0.099187925 0.15632333
0.16396879 0.10890602 0.09206401 -0.10928152 0.15162387 0.1682623 -0.14701319 -0.09622048
0.15046975 -0.13602711 0.06867015 0.18080054 -0.116198756 0.08934823 0.08704613 0.14705539
0.11044756 -0.14122555 -0.11641663 -0.16713047 -0.100064375 0.07202745 0.15940304 0.09681978
-0.083160765 0.11254021 0.082659535 0.0869977 -0.089342006 -0.13105221 0.11953819 0.099996425
0.16375679 0.17386873 0.12505415 -0.13970216 0.14690699 0.16054155 -0.122553825 -0.14295515
0.14288126 -0.09605581 0.12766929 0.08937373 -0.16309007 0.100426316 0.08560354 0.1435346
0.10457013 -0.12392992 -0.14693405 -0.13116492 -0.121288456 0.16870457 0.14603683 0.08445691
-0.1947048 0.16220035 0.16054983 0.13660388 -0.0816707 -0.13746728 0.111468956 0.121609144
0.14735274 0.10419951 0.102286726 -0.17935833 0.089709654 0.16678075 -0.08938732 -0.14436252
0.14420745 -0.118548624 0.094795756 0.10485692 -0.11983933 0.11059191 0.17290662 0.12095837
0.047138132 -0.09885394 -0.1069406 -0.16162136 -0.13125467 0.09993255 0.11936813 0.07392029
-0.17993607 0.14929664 0.09524242 0.1591141 -0.16919433 -0.10709938 0.095065616 0.10714145
0.12401305 0.16594614 0.1439501 -0.09533118 0.11864606 0.1349997 -0.09305283 -0.090563275
0.08629514 -0.11834305 0.085590065 0.14565794 -0.14567421 0.15538684 0.119643 0.16619095
00000000: ebed e1bd 326c 1d3e be4d 183e f58a 483e
00000010: c891 ec3d 44f5 3abe 88c3 11be 7149 22be
00000020: 84bd 3d3e 1572 26be 262f e7bd 2915 3fbe
00000030: be9e 343e d7b1 053e b74e 05be c712 3abe
00000040: f237 16be ba75 15be 87f5 1fbe 2f07 2c3e
00000050: 1350 0dbe 697a 0ebe e794 233e 6cff 313e
00000060: aed5 0bbe 8f5a 2b3e d4cb 1dbe 6f96 2fbe
00000070: 1ad9 3a3e 7df8 10be 942d eebd 84b9 13be
00000080: b991 ca3d 2d92 bebd 94e4 2abe b3b3 efbd
00000090: 4487 23be b482 c93d 704b 173e 6103 fa3d
000000a0: b99c 1cbe ecbe c53d fc4e 943d 2ac5 063e
000000b0: 8075 26be 7eaa f6bd 0a23 cb3d 3913 203e
000000c0: 6fe7 273e 1f0a df3d 0e8c bc3d fdce dfbd
000000d0: 4a43 1b3e f44c 2c3e a08a 16be 3e0f c5bd
000000e0: be14 1a3e b14a 0bbe f0a2 8c3d c723 393e
000000f0: 9df9 edbd 34fc b63d 3e45 b23d b095 163e
00000100: 5532 e23d 6e9d 10be d86b eebd 4024 2bbe
00000110: 8dee ccbd 2183 933d 8d3a 233e 7349 c63d
00000120: 3150 aabd 7b7b e63d 6749 a93d da2b b23d
00000130: f1f8 b6bd 8d32 06be 70d0 f43d edca cc3d
00000140: dcaf 273e a50a 323e 320e 003e 150e 0fbe
00000150: c96e 163e 0165 243e 80fd fabd d662 12be
00000160: 774f 123e e9b8 c4bd bdbb 023e 9309 b73d
00000170: 1501 27be 50ac cd3d e950 af3d bcfa 123e
00000180: dd28 d63d f8ce fdbd e175 16be 1950 06be
00000190: 1566 f8bd e4c0 2c3e ae8a 153e bff7 ac3d
000001a0: b260 47be d917 263e 2d67 243e e3e1 0b3e
000001b0: f842 a7bd 39c4 0cbe d649 e43d 370e f93d
000001c0: a3e3 163e 8d66 d53d b47b d13d b6a9 37be
000001d0: b2b9 b73d 93c8 2a3e b310 b7bd c5d3 13be
000001e0: 1eab 133e 9fc9 f2bd 4724 c23d 3abf d63d
000001f0: 536e f5bd 037e e23d 6f0e 313e 06b9 f73d
00000200: ea13 413d ef73 cabd ac03 dbbd 1280 25be
00000210: a067 06be 70a9 cc3d 4777 f43d 8563 973d
00000220: 2941 38be 38e1 183e 750e c33d ceee 223e
00000230: 4741 2dbe eb56 dbbd c3b1 c23d fa6c db3d
00000240: 8efa fd3d c9ed 293e a867 133e fe3c c3bd
00000250: b5fc f23d 5d3d 0a3e 7b92 bebd 3d79 b9bd
00000260: 82bb b03d d75d f2bd d849 af3d 5b27 153e
00000270: 9f2b 15be ba1d 1f3e 6407 f53d f62d 2a3e

lin.bias f4 [5]
0.036808334 -0.046240903 -0.03763308 -0.009029421 -0.047941837
00000000: 56c4 163d 1a67 3dbd 2525 1abd 23f0 13bc
00000010: a95e 44bd
