checkpoints/REINFORCE_space_False_preTrainG_epoch_2.pth (torch_old, 36090 bytes, 7 tensors)

emb.weight f4 [5, 32]
0.10412104 -0.064395204 0.13159183 0.004021778 0.089539915 -0.16266419 -0.07212221 0.035824522
-0.030019606 0.10196665 0.056862604 -0.2074492 0.09953598 -0.20986754 -0.01524944 -0.041025564
-0.12547305 -0.007944699 -0.03862142 -0.06900259 -0.050228808 -0.11473685 0.0778921 0.13870011
0.05705636 -0.11663008 0.049466655 -0.032974705 -0.048034597 -0.1110356 -0.10615144 0.103439115
-0.21312167 0.21876046 -0.23147814 -0.1749542 -0.2086403 0.286182 0.21193391 -0.252784
0.19084416 -0.18891814 -0.17124638 0.16052036 -0.20011912 0.17612511 0.23201232 0.23293741
0.21790434 0.16661014 0.1544885 0.23648298 0.21015508 0.25149924 -0.22436771 -0.22170636
-0.23906353 0.25828558 -0.2204133 0.1645266 0.19851716 0.2685445 0.26712474 -0.23173514
-0.25173688 0.24185605 -0.20377305 -0.19051653 -0.270782 0.2456767 0.20185083 -0.22484702
0.22005907 -0.26531136 -0.20821153 0.16506884 -0.25158417 0.104414694 0.24370427 0.18175459
0.2157754 0.22975789 0.19442233 0.217394 0.21106978 0.17368017 -0.25397065 -0.27942935
-0.21559204 0.25419962 -0.23516136 0.22753838 0.24438708 0.23496948 0.18689013 -0.25593215
-0.26884845 0.21507256 -0.26933935 -0.21277373 -0.17288573 0.26037246 0.24279687 -0.23437165
0.21222998 -0.1821385 -0.20428842 0.10019112 -0.21922068 0.15793394 0.21931241 0.16749117
0.26747108 0.1828561 0.22553304 0.14954355 0.25674444 0.26715976 -0.2562818 -0.261977
-0.23346187 0.21678694 -0.19605708 0.25508636 0.2436595 0.2708605 0.2199149 -0.2657459
-0.24716015 0.26456743 -0.26847243 -0.22951066 -0.24848084 0.2367221 0.1655475 -0.24632864
0.1623913 -0.24191843 -0.2190811 0.09536766 -0.25316036 0.086740725 0.19953483 0.18978028
0.28020287 0.19730026 0.18486603 0.19216819 0.20138092 0.2551953 -0.19850442 -0.27702066
-0.1789744 0.21078368 -0.2001899 0.19312553 0.25476322 0.27534592 0.25320128 -0.21132101
00000000: 693d d53d a2e1 83bd 02c0 063e 1ec9 833b
00000010: b460 b73d 7191 26be cfb4 93bd bcbc 123d
00000020: adeb f5bc e4d3 d03d c3e8 683d 906d 54be
00000030: 85d9 cb3d 84e7 56be cad8 79bc 6c0a 28bd
00000040: 027c 00be 7c2a 02bc 7e31 1ebd 3b51 8dbd
00000050: b9bc 4dbd 27fb eabd e585 9f3d 6707 0e3e
00000060: eeb3 693d c0db eebd 8c9d 4a3d 7c10 07bd
00000070: edbf 44bd a266 e3bd ed65 d9bd e3d7 d33d
00000080: 913c 5abe be02 603e 9b08 6dbe 3227 33be
00000090: cea5 55be 7286 923e 3405 593e e86c 81be
000000a0: a76c 433e c273 41be 365b 2fbe 735f 243e
000000b0: 07ec 4cbe 245a 343e a394 6d3e 2587 6e3e
000000c0: 5122 5f3e d99b 2a3e 3c32 1e3e 9828 723e
000000d0: e532 573e 82c4 803e a6c0 65be fe06 63be
000000e0: 12cd 74be 023e 843e 06b4 61be a979 283e
000000f0: 1548 4b3e aa7e 893e 93c4 883e fa4b 6dbe
00000100: a8e3 80be 1da9 773e e2a9 50be c416 43be
00000110: f0a3 8abe ac92 7b3e fcb1 4e3e 4c3e 66be
00000120: 2a57 613e e4d6 87be 6735 55be ce07 293e
00000130: a4cf 80be 5fd7 d53d 9d8d 793e e01d 3a3e
00000140: 3af4 5c3e a745 6b3e a616 473e 889c 5e3e
00000150: ad22 583e 37d9 313e 7108 82be 5d11 8fbe
00000160: 29c4 5cbe 7426 823e 24ce 70be d2ff 683e
00000170: 9b40 7a3e d79b 703e 2060 3f3e 8a09 83be
00000180: 81a6 89be fb3b 5c3e d9e6 89be 5be1 59be
00000190: f508 31be 8a4f 853e be9f 783e 1fff 6fbe
000001a0: d152 593e 8482 3abe fc30 51be 0031 cd3d
000001b0: 637b 60be 6fb9 213e 6f93 603e ce82 2b3e
000001c0: f8f1 883e a13e 3b3e 22f2 663e f221 193e
000001d0: 0274 833e 2ac9 883e 5e37 83be d921 86be
000001e0: a110 6fbe 65fd 5d3e 30c3 48be ae9a 823e
000001f0: e081 793e 3aae 8a3e 5f31 613e d90f 88be
00000200: 8d17 7dbe 6275 873e 3875 89be d804 6bbe
00000210: c371 7ebe 4767 723e 4985 293e 933d 7cbe
00000220: e849 263e 77b9 77be cc56 60be 1f50 c33d
00000230: 3c9e 81be 1fa5 b13d dc52 4c3e c355 423e
00000240: c076 8f3e 1409 4a3e 854d 3d3e bdc7 443e
00000250: cd36 4e3e f5a8 823e be44 4bbe a7d5 8dbe
00000260: 1145 37be add7 573e 95fe 4cbe b3c2 453e
00000270: 5370 823e 24fa 8c3e 99a3 813e 8964 58be

lstm.weight_ih_l0 f4 [128, 32]
-0.17900996 0.17619264 -0.14674897 -0.15460218 -0.14203902 0.18522334 0.19142699 -0.15440476
0.1684485 -0.20325382 -0.15398403 0.05784141 -0.13516156 0.06800449 0.12592171 0.17909187
0.22040121 0.08159416 0.12731263 0.15090775 0.15596145 0.19251974 -0.20208324 -0.14101861
-0.11782678 0.21894197 -0.15092231 0.15959775 0.12720716 0.20558198 0.17213875 -0.15372127
-0.1750468 0.1273369 -0.25439084 -0.15649372 -0.17264715 0.29057828 0.18843229 -0.18863109
0.17798866 -0.20031726 -0.21032137 0.117146865 -0.21775886 0.13259614 0.104988284 0.122533716
0.20917477 0.13739981 0.20406896 0.20847504 0.15150212 0.22369586 -0.18440156 -0.17204885
-0.20372002 0.25704423 -0.16976228 0.15919183 0.11841668 0.19705561 0.19165899 -0.17780265
-0.23394023 0.20921223 -0.182669 -0.16579886 -0.14199306 0.24358676 0.22846948 -0.19332297
0.16272014 -0.16668332 -0.11750349 0.122764446 -0.19101754 0.083534226 0.14826477 0.1927292
0.17421977 0.15988584 0.11647438 0.17144452 0.122658 0.22747901 -0.13565078 -0.21326205
-0.21214819 0.21862195 -0.20892993 0.14866273 0.12280344 0.21013671 0.23020253 -0.1678305
-0.19216041 0.11573389 -0.23820734 -0.16361375 -0.16055802 0.1850748 0.10285972 -0.1788114
0.15496348 -0.19139136 -0.19863886 -0.021646824 -0.19310492 -0.03084362 0.10850677 0.15761185
0.19126886 0.16223986 0.17668232 0.12167489 0.12242013 0.20878959 -0.12841426 -0.22722636
-0.19076765 0.21907847 -0.11641232 0.16657828 0.14683816 0.24106804 0.17481123 -0.22406141
-0.2143405 0.17088819 -0.22014059 -0.15317078 -0.21620043 0.27140138 0.22578853 -0.12557815
0.12903126 -0.1485508 -0.15893637 0.053069536 -0.17371848 0.07493909 0.18477629 0.19963366
0.24977803 0.12832671 0.14466566 0.17420332 0.16770847 0.16945897 -0.20668982 -0.22449511
-0.18669103 0.20390505 -0.20302305 0.18652076 0.15912917 0.21408142 0.20938447 -0.24138859
-0.15741868 0.1908142 -0.22110145 -0.12854072 -0.18841784 0.21233423 0.17942205 -0.1545074
0.09197648 -0.19299486 -0.14571033 0.10087672 -0.13346939 0.077842034 0.14206187 0.18431006
0.14787817 0.15337619 0.14173093 0.18456855 0.10500384 0.20098414 -0.19292639 -0.18846962
-0.119225934 0.17968181 -0.17630829 0.100615054 0.18882458 0.16876967 0.1671651 -0.15046778
-0.23893334 0.16202949 -0.17935394 -0.1417824 -0.16370797 0.22363998 0.23536241 -0.14417085
0.13324437 -0.15517327 -0.21474598 0.12049514 -0.21253179 0.044891085 0.14374492 0.15820904
0.21300843 0.18001215 0.19995627 0.18480608 0.12543769 0.18603605 -0.178612 -0.26011464
-0.21465096 0.18126962 -0.14366941 0.122241825 0.12089041 0.22691974 0.1748678 -0.21334223
-0.2095773 0.20817436 -0.16972376 -0.120408796 -0.2084462 0.17509463 0.14623198 -0.15542106
0.11279779 -0.17789935 -0.21535814 0.10519349 -0.19013445 0.06376105 0.17792279 0.14179866
0.23350121 0.16693011 0.1898422 0.2011443 0.19421296 0.1914313 -0.1989097 -0.22304423
-0.119905956 0.21637155 -0.14136311 0.17582001 0.19808662 0.18516366 0.14054552 -0.17934404
00000000: 634e 37be d86b 343e 5d45 16be 0950 1ebe
00000010: ad72 11be 30ab 3d3e 7005 443e 481c 1ebe
00000020: c37d 2c3e c521 50be fdad 1dbe 1deb 6c3d
00000030: cb67 0abe f045 8b3d 9ff1 003e dc63 373e
00000040: dbb0 613e d71a a73d 3e5e 023e 9087 1a3e
00000050: 5cb4 1f3e e523 453e e9ee 4ebe 2f67 10be
00000060: 2b4f f1bd 5332 603e 618b 1abe 986d 233e
00000070: 9842 023e 1584 523e 2445 303e 1c69 1dbe
00000080: 783f 33be 9b64 023e 843f 82be e43f 20be
00000090: 6aca 30be adc6 943e 65f4 403e 8228 41be
000000a0: a942 363e f81f 4dbe 7c5e 57be b2ea ef3d
000000b0: 2efc 5ebe 48c7 073e 1904 d73d f5f2 fa3d
000000c0: e931 563e 89b2 0c3e 74f7 503e 7b7a 553e
000000d0: 5f23 1b3e 8710 653e c3d3 3cbe 932d 30be
000000e0: fb9b 50be 4d9b 833e 2ad6 2dbe 2f03 233e
000000f0: 7284 f23d f2c8 493e 4142 443e e611 36be
00000100: 078e 6fbe bb3b 563e 950d 3bbe 2dc7 29be
00000110: a166 11be cf6e 793e e7f3 693e 75f6 45be
00000120: 1ca0 263e 08af 2abe aba5 f0bd ed6b fb3d
00000130: 1a9a 43be fe13 ab3d b8d2 173e ce5a 453e
00000140: ab66 323e 1db9 233e 1f8a ee3d 278f 2f3e
00000150: 1e34 fb3d 42f0 683e 0ae8 0abe 5e61 5abe
00000160: 603d 59be 6fde 5f3e baf1 55be 0b3b 183e
00000170: 5f80 fb3d 142e 573e 36ba 6b3e c2db 2bbe
00000180: b3c5 44be e405 ed3d a0ec 73be 5d8a 27be
00000190: 5269 24be 4084 3d3e 1ea8 d23d 561a 37be
000001a0: bfae 1e3e 19fc 43be fc67 4bbe ae54 b1bc
000001b0: 4cbd 45be c2ab fcbc cc38 de3d 0065 213e
000001c0: fcdb 433e 3522 263e 36ec 343e af30 f93d
000001d0: 68b7 fa3d f0cc 553e 077f 03be 07ae 68be
000001e0: 9858 43be 1b56 603e 9569 eebd 7f93 2a3e
000001f0: be5c 163e 8ada 763e b701 333e 5b70 65be
00000200: 137c 5bbe 50fd 2e3e 896c 61be cdd8 1cbe
00000210: a563 5dbe 1ff5 8a3e 1c35 673e 8f97 00be
00000220: c520 043e b31d 18be 37c0 22be 715f 593d
00000230: 42e3 31be aa79 993d ff35 3d3e c46c 4c3e
00000240: d0c5 7f3e 1468 033e 3c23 143e 5b62 323e
00000250: c5bb 2b3e a786 2d3e 7fa6 53be 0ce2 65be
00000260: ef2b 3fbe 7ccc 503e 46e5 4fbe 4cff 3e3e
00000270: c2f2 223e 2938 5b3e e268 563e 922e 77be
00000280: 5d32 21be cc64 433e 6b68 62be 2ea0 03be
00000290: 9bf0 40be 256e 593e 6aba 373e 3037 1ebe
000002a0: 2a5e bc3d 72a0 45be 1735 15be 7498 ce3d
000002b0: 33ac 08be a56b 9f3d ab78 113e c7bb 3c3e
000002c0: 606d 173e a60e 1d3e ea21 113e 8aff 3c3e
000002d0: 410c d73d c9ce 4d3e 7f8e 45be 2efe 40be
000002e0: ba2c f4bd 82fe 373e 298a 34be 440f ce3d
000002f0: 3b5b 413e f5d1 2c3e 542d 2b3e 3a14 1abe
00000300: f1aa 74be 0feb 253e 8fa8 37be 682f 11be
00000310: 10a3 27be e101 653e d802 713e 86a1 13be
00000320: 3671 083e bee5 1ebe 5fe6 5bbe 28c6 f63d
00000330: efa1 59be b7df 373d de31 133e 8d01 223e
00000340: e21e 5a3e 1b55 383e 56c1 4c3e ce3d 3d3e
00000350: bd72 003e 3c80 3e3e 10e6 36be bf2d 85be
00000360: 76cd 5bbe be9e 393e 131e 13be ec59 fa3d
00000370: 6495 f73d a65d 683e 8b10 333e 6376 5abe
00000380: 6f9b 56be a92b 553e 11cc 2dbe e398 f6bd
00000390: ec72 55be 024c 333e d6bd 153e b326 1fbe
000003a0: 8702 e73d 3f2b 36be d886 5cbe af6f d73d
000003b0: 9bb2 42be 2795 823d 6431 363e ab33 113e
000003c0: f11a 6f3e baef 2a3e fe65 423e c5f8 4d3e
000003d0: c3df 463e 9106 443e fcae 4bbe b565 64be
000003e0: 4191 f5bd 8190 5d3e 7ec1 10be 290a 343e
000003f0: 38d7 4a3e 8b9b 3d3e 2aeb 0f3e f7a5 37be

lstm.weight_hh_l0 f4 [128, 32]
0.004834493 -0.0731194 0.019900251 0.0861027 -0.059866473 0.06906371 0.012382026 -0.00737632
0.0055226614 -0.036588047 -0.0713484 -0.122171886 0.07931787 -0.01259271 0.04822534 -0.0016066775
-0.0175718 0.0140532665 0.01785639 0.016099865 -0.033071876 -0.060317237 -0.12880646 0.06434254
0.011365438 0.02221167 -0.0143912835 0.019540915 -0.07904095 0.07027787 0.054714963 0.011931476
-0.07460373 -0.01164826 0.022876892 0.169728 0.0072927144 0.012938131 -0.051043715 -0.060336612
-0.04889046 -0.010531337 -0.10708063 -0.2092717 0.07272514 -0.022729138 0.07885086 0.032199167
-0.009370861 0.0339911 0.035524826 0.041890297 0.015382032 -0.054078065 -0.17957921 0.0022426783
-0.0015860575 0.060365804 0.011230844 -0.048845842 -0.04599678 0.07584169 0.016295739 0.0054657944
0.005170263 0.008029715 0.05708374 0.08480485 -0.029240461 0.06423302 -0.033315666 0.00019719508
-0.02536794 -0.046316206 -0.111136034 -0.11258562 0.052446116 -0.050498564 0.04162895 0.0061350665
0.020744763 0.014238453 0.03465888 0.0549607 -0.05494846 -0.023006726 -0.14150329 0.045138683
-0.04441598 0.008886235 -0.0041482323 -0.03462507 -0.02865874 0.027426189 0.046471715 0.011598191
-0.12885185 -0.16845152 0.11795334 -0.18434128 -0.077457085 0.08140633 -0.0770657 -0.13048102
0.13611819 0.158361 0.118334524 -0.2159334 0.11591139 -0.16337766 0.16329972 0.13114648
0.110103354 0.08990673 0.15678893 0.12531878 -0.13201416 -0.16276444 0.16199712 0.16875772
-0.16795544 0.13492745 0.10911751 0.14170235 -0.11084782 0.07628838 0.13271292 -0.17222719
-0.06260624 -0.027012318 0.0109839635 0.17072336 -0.05880046 0.056276016 0.02197627 -0.055476274
0.016174536 -0.0296235 -0.1284358 -0.16481803 -0.0109986635 -0.021781985 0.012296817 0.057958324
0.07612833 0.030124046 -0.0041458462 0.05521557 0.023871249 0.008056243 -0.17515555 0.069882005
-0.027619567 0.04390762 0.053592153 -0.07113127 -0.0077648303 0.049442325 0.009837923 0.021675687
-0.045355435 -0.03964527 -0.0061453586 0.1362185 -0.03218753 0.055704527 -0.036141742 -0.060745496
0.0040974584 0.0069880118 -0.088780195 -0.1387278 0.08208365 -0.024955066 0.0491324 0.075860664
0.051971 0.022873363 0.030980757 0.05225027 -0.06718165 -0.008588621 -0.101020746 0.0383329
-0.040575672 -0.012078143 -0.019263614 -0.047018357 -0.01395432 0.050257757 0.021249726 0.02037904
0.0027328432 -0.0027701436 0.022889104 0.15989347 -0.03322454 0.06415764 -0.040065326 -0.020004902
0.0065184445 -0.017230958 -0.12423523 -0.12307053 0.013396535 -0.029466044 0.06926655 -0.004693908
0.05288469 0.0012503344 0.016090425 -0.033456936 -0.015457423 -0.04094664 -0.18233278 0.06504073
-0.07396359 0.019860817 0.04907064 -0.08159796 -0.08405637 0.067695774 0.03129057 -0.03161524
-0.062232126 -0.056924235 0.013084978 0.16976835 -0.054581862 0.03083122 0.014516891 -0.0042124116
-0.027107654 -0.009525821 -0.05099605 -0.19646686 0.04333586 -0.075349845 -0.00033101175 0.059349537
-0.0007666545 0.04959373 0.04969425 0.0503611 -0.029374816 -0.019125557 -0.09313888 0.025203051
-0.06999669 0.019952746 0.05763782 -0.012817829 -0.024860958 0.07697445 0.087751456 -0.045087915
00000000: ab6a 9e3b a0bf 95bd da05 a33c 9d56 b03d
00000010: 8c36 75bd 4671 8d3d fbdd 4a3c 0fb5 f1bb
00000020: 71f7 b43b 59dd 15bd 1c1f 92bd 4135 fabd
00000030: 6871 a23d a751 4ebc ef87 453d 2797 d2ba
00000040: bcf2 8fbc ac3f 663c 9047 923c dde3 833c
00000050: 6076 07bd 350f 77bd d7e5 03be 06c6 833d
00000060: 1a36 3a3c 40f5 b53c 6bc9 6bbc 4514 a03c
00000070: 39e0 a1bd d8ed 8f3d cc1c 603d 3d7c 433c
00000080: d7c9 98bd 58d8 3ebc 5268 bb3c 2dcd 2d3e
00000090: b9f7 ee3b 74fa 533c 3713 51bd 8623 77bd
000000a0: 5d41 48bd a18b 2cbc 174d dbbd 524b 56be
000000b0: ebf0 943d 7532 babc 8f7c a13d 46e3 033d
000000c0: 3d88 19bc 403a 0b3d 7b82 113d 2995 2b3d
000000d0: eb04 7c3c f680 5dbd 9de3 37be e6f9 123b
000000e0: 42e3 cfba 2242 773d 9301 383c 9412 48bd
000000f0: 1f67 3cbd e352 9b3d a47e 853c 681a b33b
00000100: 4f6b a93b 118f 033c a4d0 693d 2aae ad3d
00000110: b189 efbc 9a8c 833d 0276 08bd 27c6 4e39
00000120: 6dd0 cfbc 10b6 3dbd 4a9b e3bd 4a93 e6bd
00000130: bdd1 563d 95d7 4ebd 1e83 2a3d ab08 c93b
00000140: ecf0 a93c 6648 693c 78f6 0d3d 791e 613d
00000150: a311 61bd 9a78 bcbc 3de6 10be 57e3 383d
00000160: 88ed 35bd 9297 113c e5ed 87bb 04d3 0dbd
00000170: bcc5 eabc e3ac e03c 2059 3e3d 5706 3e3c
00000180: bdf1 03be 8e7e 2cbe 8591 f13d f6c3 3cbe
00000190: d2a1 9ebd 5db8 a63d 9fd4 9dbd d19c 05be
000001a0: 9162 0b3e 6329 223e 5f59 f23d a51d 5dbe
000001b0: f362 ed3d 794c 27be 0b38 273e 434b 063e
000001c0: de7d e13d 0521 b83d 478d 203e 9153 003e
000001d0: b82e 07be b9ab 26be 93e2 253e d3ce 2c3e
000001e0: 83fc 2bbe 6c2a 0a3e 0079 df3d 6c1a 113e
000001f0: 2f04 e3bd 153d 9c3d e5e5 073e 535c 30be
00000200: b337 80bd f048 ddbc 15f6 333c 1bd2 2e3e
00000210: c0d8 70bd ae81 663d 9407 b43c 173b 63bd
00000220: 7680 843c fbac f2bc ad84 03be 0fc6 28be
00000230: bd33 34bc 2270 b2bc 9778 493c b565 6d3d
00000240: 2be9 9b3d b4c6 f63c e1d9 87bb b929 623d
00000250: a38d c33c 55fe 033c fa5b 33be 4c1e 8f3d
00000260: 6e42 e2bc 7ad8 333d 7283 5b3d 45ad 91bd
00000270: 1e70 febb 0984 4a3d 3d2f 213c 3691 b13c
00000280: 9fc6 39bd 1463 22bd 015f c9bb dd7c 0b3e
00000290: 12d7 03bd 6e2a 643d 5d09 14bd 45d0 78bd
000002a0: f943 863b b1fb e43b 64d2 b5bd a90e 0ebe
000002b0: 791b a83d 916e ccbc 0e3f 493d d65c 9b3d
000002c0: 8bdf 543d eb60 bb3c 5bcb fd3c 6104 563d
000002d0: 8896 89bd 4ab7 0cbc f7e3 cebd f502 1d3d
000002e0: ad32 26bd 67e3 45bc bace 9dbc 5296 40bd
000002f0: a9a0 64bc 14db 4d3d e813 ae3c f2f1 a63c
00000300: 8019 333b 4c8b 35bb ee81 bb3c 1dbb 233e
00000310: 7516 08bd 1565 833d 8a1b 24bd 52e1 a3bc
00000320: ad98 d53b f027 8dbc 0a6f febd 670c fcbd
00000330: 247d 5b3c c662 f1bc 9fdb 8d3d 5bcf 99bb
00000340: 9e9d 583d 43e2 a33a 11d0 833c 240a 09bd
00000350: 2241 7dbc aab7 27bd 72b5 3abe 1334 853d
00000360: 397a 97bd 27b3 a23c 4cfe 483d d51c a7bd
00000370: bf25 acbd 15a4 8a3d 8a2a 003d fb7e 01bd
00000380: 1de7 7ebd 6329 69bd 6062 563c c1d7 2d3e
00000390: 3b91 5fbd c191 fc3c 41d8 6d3c 4508 8abb
000003a0: df10 debc 3012 1cbc 3ce1 50bd 9c2e 49be
000003b0: f180 313d 0551 9abd a58b adb9 8018 733d
000003c0: 50f9 48ba cc22 4b3d 338c 4b3d 7147 4e3d
000003d0: 74a3 f0bc 33ad 9cbc 99bf bebd a176 ce3c
000003e0: 6d5a 8fbd f173 a33c a215 6c3d df01 52bc
000003f0: 35a9 cbbc c8a4 9d3d 09b7 b33d 1bae 38bd

lstm.bias_ih_l0 f4 [128]
0.057049345 0.06902399 0.07891622 0.18971163 0.094442435 0.055690985 0.06736763 0.08018051
0.10768526 0.14535148 0.13086452 0.2112514 0.122555986 0.13800456 0.090762675 0.12464506
0.09329887 0.037704274 0.1277789 0.04196125 0.06818117 0.043431513 0.1722007 0.067070544
0.09264877 0.05321249 0.084221974 0.096607104 0.07576531 0.12332526 0.092951946 0.06840171
0.056715347 0.023400487 0.10020195 -0.23184024 0.036920484 -0.019099765 0.08476847 0.090797946
-0.016224356 -0.047419276 -0.11165309 -0.22969773 0.0096689565 0.0023859662 0.036672354 0.0021493682
0.005221238 0.028885772 0.0056138644 0.07715387 -0.014318049 0.01655189 -0.21144299 0.005755886
0.06180511 0.0240445 0.06753647 0.08389255 0.0035585358 -0.0046610627 0.01974622 -0.0024040146
-0.08015752 -0.09731416 0.097577155 -0.00789909 -0.1012621 0.097195365 -0.060048953 -0.05997324
0.09975822 0.034459803 0.027051365 -0.017667074 0.117340855 -0.08730526 0.111641355 0.098384894
0.107059695 0.08813862 0.12181499 0.05575514 -0.076093815 -0.05487718 0.009480542 0.08330892
-0.054610435 0.070899405 0.100936554 0.084108025 -0.07934013 0.106289856 0.10884253 -0.055825006
0.08589913 0.059637927 0.042200517 0.13840473 0.07675877 0.024124676 0.102158636 0.06707824
0.055284463 0.08547022 0.16970061 0.18025008 0.046902336 0.015613687 0.053087767 0.075326666
0.023034384 0.0012622279 0.018490918 0.047032483 0.05697904 0.007628766 0.18757954 0.06278142
0.076467246 0.06936852 0.083318844 0.13877818 0.034867737 0.0767112 0.060636077 0.04461203
00000000: 93ac 693d 735c 8d3d d49e a13d c443 423e
00000010: 096b c13d 3b1c 643d 0af8 893d ae35 a43d
00000020: 178a dc3d 05d7 143e 5901 063e 4952 583e
00000030: a2fe fa3d 1151 0d3e c8e1 b93d e945 ff3d
00000040: 7a13 bf3d cc6f 1a3d 79d8 023e 8fdf 2b3d
00000050: 92a2 8b3d 3ee5 313d 6155 303e 485c 893d
00000060: a3be bd3d 57f5 593d 927c ac3d f2d9 c53d
00000070: d82a 9b3d f491 fc3d 975d be3d 3216 8c3d
00000080: 5a4e 683d 61b2 bf3c ae36 cd3d 8767 6dbe
00000090: ef39 173d 1c77 9cbc 179b ad3d 46f4 b93d
000000a0: f1e8 84bc b73a 42bd 60aa e4bd e235 6bbe
000000b0: 8b6a 1e3c df5d 1c3b c035 163d 6adc 0c3b
000000c0: eb16 ab3b dba1 ec3c 82f4 b73b d902 9e3d
000000d0: 4096 6abc d497 873c 8384 58be df9b bc3b
000000e0: 5b27 7d3d f9f8 c43c 9050 8a3d dbcf ab3d
000000f0: 5336 693b d4bb 98bb d3c2 a13c ac8c 1dbb
00000100: a029 a4bd a54c c7bd 88d6 c73d 2f6b 01bc
00000110: 8162 cfbd 5d0e c73d e4f5 75bd 80a6 75bd
00000120: 0a4e cc3d b925 0d3d d39a dd3c 8aba 90bc
00000130: 6750 f03d 1acd b2bd 39a4 e43d 057e c93d
00000140: 1d42 db3d 0582 b43d 237a f93d 805f 643d
00000150: 13d7 9bbd e5c6 60bd 4654 1b3c de9d aa3d
00000160: 31af 5fbd b533 913d d3b7 ce3d d440 ac3d
00000170: 147d a2bd 7fae d93d d5e8 de3d c3a8 64bd
00000180: e2eb af3d e646 743d 73da 2c3d f8b9 0d3e
00000190: b433 9d3d 1da1 c53c 8c38 d13d 5160 893d
000001a0: f671 623d 030b af3d ffc5 2d3e 7a93 383e
000001b0: aa1c 403d 8dd0 7f3c 8f72 593d de44 9a3d
000001c0: 9bb2 bc3c 5771 a53a 447a 973c 22a5 403d
000001d0: db62 693d bafa f93b da14 403e 8c93 803d
000001e0: dc9a 9c3d 1511 8e3d 12a3 aa3d de1b 0e3e
000001f0: 79d1 0e3d c31a 9d3d 895d 783d 1bbb 363d

lstm.bias_hh_l0 f4 [128]
0.10368187 0.056762993 0.0834212 0.15172797 0.13102116 0.03040635 0.11604628 0.118378334
0.07089108 0.078123085 0.17156592 0.22080338 0.048154052 0.081852734 0.10776328 0.07204717
0.047001336 0.047503084 0.05296911 0.11271503 0.07944312 0.06214815 0.17466107 0.0076597217
0.06610695 0.09974857 0.075218566 0.066269204 0.048911124 0.10493164 0.046829663 0.078635484
0.021806028 0.033311535 0.037846733 -0.2226749 0.08871676 -0.016577575 0.028930917 0.0990644
-0.008656659 -0.001012961 -0.09696234 -0.2154015 0.055809677 0.09028184 0.087830886 0.08595198
0.03988531 0.056338057 0.05955174 0.0063607357 -0.020119257 0.08683763 -0.13586031 0.0013887814
0.07731184 0.013879764 0.059239794 0.0015126723 0.037300583 0.0059392983 0.072951965 0.015001393
-0.07258461 -0.08310054 0.077028275 -0.013063365 -0.1200002 0.09296112 -0.107294396 -0.11421033
0.039482966 0.0812558 0.063144594 -0.04026253 0.091657445 -0.087400384 0.06673334 0.055401646
0.06867864 0.043519914 0.11294106 0.09659665 -0.065861136 -0.09816272 0.019966714 0.0837182
-0.10875418 0.100152604 0.09961789 0.09216627 -0.07733117 0.069464944 0.11475509 -0.093861096
0.05800677 0.08317222 0.050816957 0.16503702 0.06226763 0.0948879 0.07627159 0.020786693
0.028510766 0.1283805 0.10476311 0.16821545 0.010260797 0.0555986 0.011990872 -0.0011424758
0.024670681 0.01195927 0.008248785 0.07544478 0.057702575 0.07883998 0.1226652 0.0790962
0.010038591 0.060228795 0.09009988 0.15256043 0.01581495 0.09352736 0.037613794 0.08018733
00000000: 2957 d43d 5080 683d bcd8 aa3d 945e 1b3e
00000010: 692a 063e bd16 f93c aca9 ed3d 5770 f23d
00000020: 582f 913d fffe 9f3d faae 2f3e 481a 623e
00000030: 2f3d 453d 68a2 a73d ffb2 dc3d 778d 933d
00000040: 7984 403d 9892 423d 23f6 583d 23d7 e63d
00000050: 13b3 a23d 0f8f 7e3d 5ada 323e 67fe fa3b
00000060: 1563 873d fa48 cc3d 310c 9a3d 26b8 873d
00000070: 0857 483d 66e6 d63d 76d0 3f3d a40b a13d
00000080: 8ea2 b23c ad71 083d 2d05 1b3d e404 64be
00000090: 22b1 b53d b2cd 87bc 8800 ed3c 47e2 ca3d
000000a0: a9d4 0dbc 55c5 84ba 3194 c6bd 3692 5cbe
000000b0: b098 643d afe5 b83d aee0 b33d 9707 b03d
000000c0: c75e 233d bcc2 663d 86ec 733d b86d d03b
000000d0: 24d1 a4bc edd7 b13d f71e 0bbe c507 b63a
000000e0: ac55 9e3d f367 633c 6da5 723d dc44 c63a
000000f0: 7fc8 183d 729e c23b d767 953d 67c8 753c
00000100: 3da7 94bd 9e30 aabd 00c1 9d3d b907 56bc
00000110: aac2 f5bd 6662 be3d 2abd dbbd 1be7 e9bd
00000120: e4b8 213d 7169 a63d f451 813d 53ea 24bd
00000130: e6b6 bb3d f9fe b2bd 7dab 883d d6ec 623d
00000140: 63a7 8c3d f041 323d a44d e73d 77d4 c53d
00000150: 34e2 86bd 8909 c9bd 3c91 a33c 7374 ab3d
00000160: 83ba debd cf1c cd3d 7704 cc3d abc1 bc3d
00000170: ce5f 9ebd a343 8e3d b704 eb3d 3f3a c0bd
00000180: 8298 6d3d 3256 aa3d 7125 503d 77ff 283e
00000190: 580c 7f3d 9654 c23d 4834 9c3d db48 aa3c
000001a0: 698f e93c 2e76 033e 0b8e d63d ac40 2c3e
000001b0: e71c 283c 5cbb 633d 5d75 443c 20bf 95ba
000001c0: 2b1a ca3c d0f0 433c e925 073c cb82 9a3d
000001d0: 8959 6c3d db76 a13d e437 fb3d 30fd a13d
000001e0: e778 243c 78b2 763d 4986 b83d cd38 1c3e
000001f0: 5b8e 813c 468b bf3d ec10 1a3d 4139 a43d

lin.weight f4 [5, 32]
-0.11565455 -0.16793479 0.17351511 -0.20232576 -0.16877225 0.09882122 -0.16857372 -0.15143636
0.16485447 0.17208427 0.18168786 0.19931829 0.119054504 -0.16407451 0.11281345 0.15259115
0.12826578 0.11132739 0.112035595 0.1647924 -0.15356399 -0.14421302 0.18036418 0.09042154
-0.16083658 0.15074895 0.1657059 0.10715914 -0.07787242 0.12972885 0.11389539 -0.117668584
0.15153149 0.18043993 -0.11163097 0.1605467 0.080428176 -0.15672047 0.15655024 0.0879809
-0.17130199 -0.15243009 -0.17178538 -0.13290954 -0.15453088 0.12385484 -0.066440694 -0.12934184
-0.12322596 -0.08542098 -0.09201863 -0.12368651 0.11491818 0.12515141 -0.18017797 -0.13956997
0.11351811 -0.13108306 -0.14103116 -0.14124623 0.043113697 -0.16421339 -0.092823654 0.084827654
0.14625421 0.14998159 -0.10229283 0.18410173 0.077672146 -0.14561635 0.15876798 0.120971486
-0.13147277 -0.14911845 -0.15699466 -0.20422754 -0.093085825 0.14986536 -0.1461 -0.113780744
-0.07296845 -0.117898375 -0.136404 -0.14530878 0.14108871 0.12907857 -0.097647965 -0.13496551
0.15431027 -0.09605352 -0.1165862 -0.096399434 0.03511048 -0.15634342 -0.101571575 0.06427874
0.10413928 0.12172238 -0.1495391 0.17879142 0.15565848 -0.14371425 0.10754471 0.14511234
-0.09241373 -0.14896879 -0.1498644 -0.2173946 -0.07406071 0.15344259 -0.07896886 -0.15159045
-0.1712276 -0.11533495 -0.1610246 -0.081890054 0.14182508 0.15966664 -0.15958111 -0.071763255
0.14814681 -0.14103875 -0.09465906 -0.16732517 0.075141564 -0.11519913 -0.11597796 0.08091443
0.11071195 0.14753789 -0.09741918 0.19222857 0.15878917 -0.1296519 0.1343494 0.1567537
-0.12672615 -0.11010997 -0.17751183 -0.21233167 -0.06594297 0.17598608 -0.12082771 -0.110598
-0.15806738 -0.12692484 -0.11737191 -0.16844344 0.109929554 0.096558504 -0.16573204 -0.09186501
0.09886949 -0.092617504 -0.16493362 -0.14645018 0.10544023 -0.124804094 -0.12848851 0.13993576
00000000: 4bdc ecbd 19f7 2bbe f2ad 313e 7c2e 4fbe
00000010: a2d2 2cbe c862 ca3d 979e 2cbe 2212 1bbe
00000020: 9ccf 283e dc36 303e 620c 3a3e 181a 4c3e
00000030: d9d2 f33d 2603 28be bd0a e73d db40 1c3e
00000040: 1b58 033e 9dff e33d eb72 e53d 57bf 283e
00000050: e13f 1dbe 94ac 13be 63b1 383e ee2e b93d
00000060: 58b2 24be ef5d 1a3e cfae 293e 4076 db3d
00000070: 937b 9fbd a4d7 043e fc41 e93d 3afc f0bd
00000080: 122b 1b3e 3fc5 383e c79e e4bd 5b66 243e
00000090: 87b7 a43d 557b 20be b54e 203e 552f b43d
000000a0: ca69 2fbe a216 1cbe 82e8 2fbe 7019 08be
000000b0: 583d 1ebe 9ba7 fd3d 0f12 88bd 3072 04be
000000c0: e45d fcbd 32f1 aebd 4374 bcbd 5a4f fdbd
000000d0: 395a eb3d b127 003e 9380 38be 6eeb 0ebe
000000e0: 2f7c e83d a33a 06be 796a 10be daa2 10be
000000f0: fd97 303d 8e27 28be 541a bebd 1fba ad3d
00000100: aac3 153e c694 193e e77e d1bd 2a85 3c3e
00000110: 9312 9f3d 741c 15be 1394 223e e6bf f73d
00000120: cca0 06be 82b2 18be 35c3 20be 0621 51be
00000130: c8a3 bebd 4e76 193e 3d9b 15be e105 e9bd
00000140: 7c70 95bd b474 f1bd 7dad 0bbe d3cb 14be
00000150: 8f79 103e 2c2d 043e a8fb c7bd 6634 0abe
00000160: 8303 1e3e b5b7 c4bd bfc4 eebd 116d c5bd
00000170: 02d0 0f3d 7d18 20be c204 d0bd 92a4 833d
00000180: fa46 d53d 9549 f93d c720 19be 1915 373e
00000190: f064 1f3e d429 13be 6740 dc3d 5498 143e
000001a0: 6943 bdbd 468b 18be 0e76 19be b19c 5ebe
000001b0: 24ad 97bd 0e20 1d3e 6dba a1bd 873a 1bbe
000001c0: 4a56 2fbe bb34 ecbd a2e3 24be f9b5 a7bd
000001d0: 983a 113e a77f 233e 3b69 23be 9df8 92bd
000001e0: ccb3 173e 766c 10be 9cdc c1bd 4a57 2bbe
000001f0: d2e3 993d 85ed ebbd da85 edbd 77b6 a53d
00000200: f2bc e23d 2c14 173e b583 c7bd 91d7 443e
00000210: a199 223e 78c3 04be e492 093e 0b84 203e
00000220: 80c4 01be 5681 e1bd a9c5 35be 796d 59be
00000230: 1c0d 87bd b235 343e 8574 f7bd 3481 e2bd
00000240: 6adc 21be 96f8 01be af60 f0bd 707c 2cbe
00000250: bf22 e13d 77c0 c53d a9b5 29be b923 bcbd
00000260: 167c ca3d 3fae bdbd 5ce4 28be 09f7 15be
00000270: 0cf1 d73d 4a99 ffbd 7e92 03be 524b 0f3e

lin.bias f4 [5]
0.02652568 -0.02555878 -0.024880895 -0.044326603 -0.026638981
00000000: 624c d93c a660 d1bc 05d3 cbbc d08f 35bd
00000010: fe39 dabc
