checkpoints/RELAX_G_space_False_pretrain_1_batch_160.pth (torch_old, 36090 bytes, 7 tensors)

emb.weight f4 [5, 32]
0	0xbd4608ed	-0.048348356
1	0xbc819979	-0.015820252
2	0xbdb38e4c	-0.08767375
3	0x3c63e1f7	0.013908855
4	0x3b9fe9f8	0.004880186
5	0xbc86514a	-0.016396184
6	0xbd06dc18	-0.03292474
7	0xbc8eb118	-0.01741843
8	0xbd8e417d	-0.06946085
9	0xbe114448	-0.14186203
10	0xbc62f626	-0.013852632
11	0x3c31cb40	0.010851681
12	0x3d8914c6	0.06693415
13	0xbda4d90c	-0.08049211
14	0x3d9319ff	0.07182693
15	0x3d8af105	0.06784252
16	0x3da39cb1	0.07988871
17	0xbd670e23	-0.056409966
18	0xbd0586fd	-0.032599438
19	0xbe7052a0	-0.23469019
20	0x3c95d0b1	0.018287988
21	0x3d935462	0.07193829
22	0x3d9a4785	0.075331725
23	0xbe96ca09	-0.29451016
24	0x3c09770b	0.008390198
25	0x3c18df4f	0.009330585
26	0xbdc0c65d	-0.09412835
27	0x3aa8eca4	0.0012887907
28	0xbdd714cd	-0.10502014
29	0xbd891d48	-0.06695038
30	0xbd94f716	-0.072736904
31	0x3d4da7a2	0.050208695
32	0xbe48d24e	-0.19611475
33	0xbe1313f4	-0.1436308
34	0xbe5dbaab	-0.2165324
35	0xbe56d1a5	-0.2097841
36	0x3e3e041e	0.18556258
37	0xbe413eae	-0.18871567
38	0xbe42a54e	-0.19008371
39	0xbe41f7b9	-0.18942155
40	0xbe18f676	-0.14937767
41	0xbe1fbb50	-0.15598798
42	0x3e290dd3	0.1650918
43	0xbe306e3f	-0.17229556
44	0x3e36bf97	0.17846523
45	0xbe299d98	-0.16564023
46	0x3e526405	0.20545967
47	0x3e2f7738	0.17135322
48	0x3e07ea5c	0.13272995
49	0xbe5f3602	-0.21797946
50	0xbe2d8622	-0.16945699
51	0xbe1c57d0	-0.15267873
52	0x3e5ae0e9	0.21374859
53	0x3e575d5f	0.21031712
54	0x3e52534a	0.20539585
55	0xbe18be61	-0.14916374
56	0x3e2f316b	0.17108695
57	0xbe177e13	-0.14794187
58	0xbe1f4828	-0.15554869
59	0xbe0c2f77	-0.13689981
60	0xbe247432	-0.1605995
61	0xbe5cf8ed	-0.21579333
62	0xbe48078b	-0.19534127
63	0x3e5a94b9	0.21345796
64	0xbe4cc85d	-0.19998308
65	0xbe2dc0a1	-0.16968013
66	0xbe48ea7a	-0.19620696
67	0xbe210940	-0.15726185
68	0x3e3db40b	0.18525712
69	0xbda3eee6	-0.08004551
70	0xbe32ea79	-0.17472257
71	0xbe097f66	-0.13427505
72	0xbe4b236a	-0.19837728
73	0xbe26bf80	-0.16283989
74	0x3e4df467	0.20112763
75	0xbe0b2fa9	-0.135924
76	0x3e2e590b	0.17026155
77	0xbe26c040	-0.16284275
78	0x3e531dc3	0.20616822
79	0x3e2f4802	0.17117313
80	0x3e45fa69	0.19333805
81	0xbe164023	-0.14672904
82	0xbdf5a478	-0.119942605
83	0xbe306c02	-0.17228702
84	0x3e2bd64a	0.16780964
85	0x3e357a5e	0.1772246
86	0x3e1382f2	0.1440542
87	0xbe341646	-0.17586622
88	0x3e1d1845	0.1534129
89	0xbe385bc9	-0.18003763
90	0xbe503736	-0.20333561
91	0xbe3fc67e	-0.18728063
92	0xbe3a0463	-0.18165736
93	0xbdfe973c	-0.124311894
94	0xbe53c51c	-0.2068066
95	0x3e14b298	0.14521253
96	0xbe575a85	-0.21030624
97	0xbe29849a	-0.1655449
98	0xbe45c996	-0.1931518
99	0xbe3902b8	-0.18067443
100	0x3e52d114	0.2058757
101	0xbe3597b9	-0.17733659
102	0xbe2ba8ca	-0.16763607
103	0xbe53e9d0	-0.20694661
104	0xbe4a8a7c	-0.1977939
105	0xbe78214b	-0.2423145
106	0x3e4b3b4a	0.19846836
107	0xbe4d7d08	-0.20067227
108	0x3e2bd689	0.16781057
109	0xbe495d81	-0.19664575
110	0x3e447465	0.19185026
111	0x3e603dbb	0.21898548
112	0x3e34e66e	0.17666027
113	0xbe23c161	-0.15991737
114	0xbe45bfdf	-0.19311474
115	0xbe3dbaf8	-0.18528354
116	0x3e25d094	0.16192847
117	0x3e33e2af	0.17566942
118	0x3e2cfdd9	0.1689371
119	0xbe441c53	-0.1915143
120	0x3e49d81b	0.19711344
121	0xbe2a2445	-0.16615398
122	0xbe723352	-0.2365239
123	0xbe52c295	-0.2058204
124	0xbe1d861c	-0.1538319
125	0xbe37c7ac	-0.17947263
126	0xbe41d6dd	-0.1892962
127	0x3e6c9486	0.23103532
128	0xbe0306dc	-0.12795585
129	0xbe0d92fa	-0.13825598
130	0xbe3dc5fd	-0.18532558
131	0xbe1dc8e1	-0.1540866
132	0x3e43c014	0.1911624
133	0xbe269726	-0.16268596
134	0xbe33ec6a	-0.17570654
135	0xbdd66bb2	-0.1046976
136	0xbe4c2a87	-0.19938098
137	0xbe1c9a41	-0.15293218
138	0x3df95e8d	0.12176237
139	0xbde6d29b	-0.112706386
140	0x3e0c3ad7	0.1369432
141	0xbe466a20	-0.19376421
142	0x3e266d71	0.16252686
143	0x3e0e39f3	0.13889293
144	0x3e529d00	0.20567703
145	0xbdf9d363	-0.12198522
146	0xbe49104d	-0.19635125
147	0xbe3909a7	-0.18070088
148	0x3e22ed7c	0.15910906
149	0x3e44a536	0.19203648
150	0x3e457719	0.19283713
151	0xbe38a916	-0.18033251
152	0x3e083f3b	0.1330537
153	0xbe5154ea	-0.20442548
154	0xbe0e444f	-0.13893245
155	0xbe39d7c5	-0.18148716
156	0xbe2bd247	-0.16779433
157	0xbe450b1e	-0.19242522
158	0xbe3c9a83	-0.18418317
159	0x3e0417b5	0.12899669

lstm.weight_ih_l0 f4 [128, 32]
0	0xbe246ee8	-0.16057932
1	0xbde04121	-0.10949922
2	0xbe5e5abb	-0.21714298
3	0xbdf947e2	-0.12171914
4	0x3dab3a90	0.08360779
5	0xbdd8d14b	-0.105867945
6	0xbe057ffb	-0.13037102
7	0xbe0c6c44	-0.13713175
8	0xbe3c2f6b	-0.18377464
9	0xbe56652f	-0.20937036
10	0x3d356b53	0.044291805
11	0xbd80b5f0	-0.06284702
12	0x3e5b88b9	0.21438874
13	0xbe4a1aab	-0.19736736
14	0x3e40dfba	0.18835345
15	0x3e5fc13e	0.2185106
16	0x3e3ff387	0.18745242
17	0xbe343d7d	-0.17601581
18	0xbe4907e1	-0.19631912
19	0xbe97d037	-0.29651043
20	0x3dc3cb0f	0.09560215
21	0x3e3dd68a	0.18538871
22	0x3e42d643	0.19027047
23	0xbe8cc27b	-0.27492127
24	0x3e14cfd0	0.14532399
25	0xbd598723	-0.053107392
26	0xbe596440	-0.21229649
27	0xbdc95cfc	-0.098321885
28	0xbe823e1a	-0.25438005
29	0xbe725055	-0.23663457
30	0xbe5497d9	-0.2076105
31	0x3e580c03	0.21098332
32	0xbe64a6b2	-0.22329214
33	0xbe3c9db1	-0.1841953
34	0xbe63ca6d	-0.22245188
35	0xbda844c7	-0.08216243
36	0x3dc2f2ad	0.09518943
37	0xbe17c25f	-0.1482024
38	0xbe2ae44c	-0.16688651
39	0xbdf73e56	-0.120724365
40	0xbe7dc182	-0.24780849
41	0xbe50d76b	-0.20394675
42	0x3defbbee	0.117057666
43	0xbdca7689	-0.0988589
44	0x3e4e9bb6	0.20176587
45	0xbe8b2158	-0.27173877
46	0x3e4ed26f	0.20197462
47	0x3e5d93c7	0.21638404
48	0x3e483094	0.19549781
49	0xbe4d0b1d	-0.2002377
50	0xbe3cebac	-0.18449277
51	0xbe63e479	-0.22255124
52	0x3e102a9b	0.14078753
53	0x3e785040	0.24249363
54	0x3e5b9a4e	0.21445581
55	0xbe93bab9	-0.28853396
56	0x3e318163	0.17334513
57	0xbe090242	-0.13379768
58	0xbe6df561	-0.23238136
59	0xbe23127f	-0.15925024
60	0xbe825f7d	-0.25463477
61	0xbe81be1c	-0.25340354
62	0xbe819ef8	-0.25316596
63	0x3e723282	0.2365208
64	0xbe46284b	-0.19351308
65	0xbcda4b93	-0.026647365
66	0xbe1c3943	-0.15256219
67	0xbced8f86	-0.028999101
68	0x3dee0f6c	0.11624035
69	0xbd5810ef	-0.052750524
70	0xbe242bd8	-0.1603235
71	0xbdd3602b	-0.10321077
72	0xbe166448	-0.14686692
73	0xbe49bf73	-0.19701938
74	0x3d8e4ed1	0.06948627
75	0x3bc01ca3	0.0058627888
76	0x3e5b7dfb	0.21434776
77	0xbe2509fe	-0.16117093
78	0x3e57fddb	0.21092932
79	0x3e38efdc	0.18060249
80	0x3e2807f7	0.16409288
81	0xbe10af6f	-0.14129423
82	0xbded4790	-0.11585915
83	0xbe315210	-0.1731646
84	0x3de9e5b4	0.114207655
85	0x3e606f47	0.21917449
86	0x3e1ed5fd	0.15511318
87	0xbe5aec6d	-0.21379252
88	0x3ce31d16	0.02772383
89	0xbd3e97f9	-0.04653165
90	0xbe39bef2	-0.18139246
91	0xbd65e130	-0.05612296
92	0xbe5cf63c	-0.21578306
93	0xbe07e41b	-0.13270609
94	0xbe2b713a	-0.16742411
95	0x3dfaa532	0.1223854
96	0xbe14ebff	-0.1454315
97	0xbdc3ac57	-0.095543556
98	0xbe3b16dc	-0.18270439
99	0xbe121b85	-0.1426831
100	0x3ddbbe0c	0.10729608
101	0xbdaa4815	-0.0831453
102	0xbe0d6254	-0.1380704
103	0xbe2d8379	-0.16944684
104	0xbe3a5624	-0.18196923
105	0xbe6cefe4	-0.23138386
106	0x3db328cc	0.08748016
107	0xbde3df5a	-0.11126585
108	0x3e6dc2be	0.2321882
109	0xbe8597b8	-0.26092315
110	0x3e7f958a	0.24959388
111	0x3e854f2c	0.26036966
112	0x3e37a28f	0.17933105
113	0xbe713055	-0.23553593
114	0xbdfbddc5	-0.122981586
115	0xbe851dd8	-0.2599933
116	0x3e06bf63	0.13158946
117	0x3e4a0908	0.19730008
118	0x3e5bcbf3	0.21464519
119	0xbe6da8f4	-0.23208982
120	0x3e23550f	0.15950416
121	0xbdfba592	-0.122874394
122	0xbe6bdfec	-0.23034638
123	0xbe01d339	-0.12678231
124	0xbe8e2ff6	-0.27770966
125	0xbe60915b	-0.21930449
126	0xbe705434	-0.23469621
127	0x3e42f598	0.19038999
128	0xbe4a5bac	-0.19761533
129	0xbd965fa2	-0.07342459
130	0xbe5f1502	-0.21785358
131	0xbd35f5f3	-0.04442401
132	0x3e12e848	0.14346421
133	0xbdf7812f	-0.12085187
134	0xbe2f7c79	-0.17137326
135	0xbe1c5722	-0.15267614
136	0xbe6f22cb	-0.23353116
137	0xbe8ee8f3	-0.279121
138	0x3de5f6ac	0.112286896
139	0xbd774b4c	-0.060374543
140	0x3e397047	0.18109237
141	0xbe5af65f	-0.21383046
142	0x3e36ea53	0.17862825
143	0x3e7b9397	0.2456802
144	0x3e423ee3	0.18969302
145	0xbe1c0342	-0.15235618
146	0xbe10df24	-0.14147621
147	0xbe7c0c8d	-0.24614163
148	0x3dd4158c	0.10355672
149	0x3e508ee2	0.20367005
150	0x3e8488f4	0.25885737
151	0xbe964acf	-0.2935395
152	0x3d961e7e	0.07330035
153	0xbd597d3d	-0.053097952
154	0xbe6779ce	-0.22605059
155	0xbe1df19f	-0.15424202
156	0xbe669516	-0.2251781
157	0xbe85bd04	-0.2612077
158	0xbe51846e	-0.20460674
159	0x3e3a808e	0.18213102
160	0xbe5a6511	-0.21327616
161	0xbe28196e	-0.1641595
162	0xbe4ec292	-0.2019141
163	0xbdc36838	-0.095413625
164	0x3e2cdeff	0.16881941
165	0xbddc724b	-0.10763987
166	0xbe37c02c	-0.17944402
167	0xbe255b49	-0.16148104
168	0xbe80df05	-0.2517015
169	0xbe804026	-0.2504894
170	0x3e02c8fe	0.12771985
171	0xbced8293	-0.028992927
172	0x3e84a0a2	0.25903803
173	0xbe83154f	-0.25602195
174	0x3e46e33f	0.19422625
175	0x3e75e524	0.24013191
176	0x3e76b111	0.24090983
177	0xbe180493	-0.14845495
178	0xbe2e57b3	-0.17025642
179	0xbea4c1fe	-0.32179254
180	0x3e265b91	0.16245867
181	0x3e3d30e4	0.18475682
182	0x3e588bed	0.21147127
183	0xbe86613e	-0.26246065
184	0x3e124991	0.14285876
185	0xbd9e8a14	-0.0774118
186	0xbe4211e7	-0.18952142
187	0xbd8ab16d	-0.067721225
188	0xbe7ea188	-0.24866307
189	0xbe560c0b	-0.20903032
190	0xbe480347	-0.195325
191	0x3e64593d	0.22299667
192	0x3dcdd184	0.100497276
193	0x3daa9374	0.08328906
194	0x3d94f805	0.072738685
195	0x3dc306f7	0.09522813
196	0xbe31a7b8	-0.17349136
197	0x3dd2bf30	0.10290372
198	0x3df4c994	0.119525105
199	0x3e014c87	0.12626849
200	0x3d00c375	0.031436402
201	0xbded8847	-0.115982585
202	0xbdba6f4a	-0.09103258
203	0x3db15c47	0.08660179
204	0xbd589925	-0.052880425
205	0x3dc3d6e7	0.09562474
206	0xbd857ae3	-0.065175794
207	0xbe002eff	-0.12517928
208	0xbd5f171a	-0.05446539
209	0x3e186111	0.14880778
210	0x3e0d3741	0.13790609
211	0xbd9bdbc4	-0.07610276
212	0xbdf6f626	-0.12058668
213	0xbdce122d	-0.100620605
214	0xbbd53fbf	-0.0065078433
215	0xbe19aab3	-0.15006523
216	0xbe0be400	-0.13661194
217	0x3e2711cc	0.16315383
218	0x3c4e2e4e	0.012584282
219	0x3e1f000a	0.15527359
220	0xbd223f2f	-0.039611038
221	0x3da2f2b6	0.0795645
222	0x3d442952	0.04789097
223	0xbdd6bb1f	-0.10484909
224	0xbe10a084	-0.14123732
225	0xbdc7432d	-0.0972961
226	0xbe5c098f	-0.21488021
227	0xbd9457d1	-0.07243312
228	0x3e1eba1e	0.15500686
229	0xbe24983f	-0.16073702
230	0xbe3dd1b1	-0.18537022
231	0xbe1eb096	-0.1549705
232	0xbe785f13	-0.24255018
233	0xbe696140	-0.22791004
234	0x3dc3fddf	0.095699064
235	0xbdd6fd00	-0.10497475
236	0x3e65df97	0.22448574
237	0xbe8403d2	-0.25784165
238	0x3e3a3d6a	0.1818749
239	0x3e84761f	0.2587137
240	0x3e42e24e	0.19031641
241	0xbe4a7f5d	-0.19775148
242	0xbe49a26a	-0.19690862
243	0xbe6c5949	-0.23080935
244	0x3e2202b5	0.15821345
245	0x3e3c163e	0.1836786
246	0x3e4de08d	0.2010519
247	0xbe7a1a93	-0.244242
248	0x3e212554	0.15736896
249	0xbe1326ee	-0.14370319
250	0xbe57e6bb	-0.2108411
251	0xbe187e9e	-0.1489205
252	0xbe58f1af	-0.21185945
253	0xbe4b48cf	-0.19851993
254	0xbe5fa9ea	-0.21842161
255	0x3e2529cd	0.16129227

lstm.weight_hh_l0 f4 [128, 32]
0	0xbd72dd71	-0.059293214
1	0x3d849bc3	0.06475022
2	0xbe5f92fa	-0.21833411
3	0x3e40c1f2	0.18823984
4	0x3dda2d4f	0.10653173
5	0xbe0937a4	-0.13400131
6	0x3e35975c	0.1773352
7	0x3dfd7ec5	0.12377695
8	0x3cadab66	0.021199893
9	0xbcd03625	-0.025416443
10	0xbd8abdbc	-0.0677447
11	0xbdb1a588	-0.08674151
12	0x3e4c7aaf	0.19968675
13	0x3cc227d6	0.023700636
14	0xbdcaf3f3	-0.09909811
15	0x3dcd2ae6	0.10017948
16	0xbdf3e846	-0.11909537
17	0x3e2b5d5a	0.1673483
18	0x3e1e22a3	0.154429
19	0xbdf98691	-0.1218387
20	0x3dab089f	0.08351254
21	0x3df525bd	0.11970089
22	0x3d04fed9	0.032469604
23	0xbd9f8d22	-0.07790591
24	0x3dd9a234	0.10626641
25	0xbdfdf1b3	-0.12399616
26	0xbe11782b	-0.14205997
27	0xbd76da69	-0.060266886
28	0x3e1415d7	0.14461456
29	0xbe1c6872	-0.15274218
30	0xbd560bf6	-0.0522575
31	0xbe04f904	-0.12985617
32	0xbde30a5b	-0.110859595
33	0x3d981b03	0.07427027
34	0xbe53617d	-0.20642658
35	0x3df009b7	0.11720603
36	0x3d6e5c68	0.058193594
37	0xbe08e1f8	-0.1336745
38	0x3dea31f0	0.11435306
39	0x3dbe4fcb	0.09292563
40	0x3d90ddaa	0.07073529
41	0xbd3bb86d	-0.04583018
42	0xbd6fb9cf	-0.05852681
43	0xbdb77d71	-0.08959473
44	0x3e38644b	0.18007009
45	0x3d88368a	0.066510275
46	0xbc67ef28	-0.01415614
47	0x3dd1ac4d	0.10237942
48	0xbdb77c77	-0.08959287
49	0x3e34dc45	0.17662151
50	0x3e02130a	0.12702575
51	0xbe148ce6	-0.14506873
52	0x3d400f49	0.046889577
53	0x3dde98f9	0.10869021
54	0xbc8f8635	-0.01752005
55	0xbe0aa04d	-0.13537712
56	0x3d9d168a	0.076703146
57	0xbe0eba34	-0.13938218
58	0xbd747105	-0.059678096
59	0x3cab9046	0.020942818
60	0x3e26604d	0.16247673
61	0xbdc7449e	-0.097298846
62	0x3bf1f6e7	0.0073841694
63	0xbe1194bc	-0.14216894
64	0xbe5c4bf0	-0.21513343
65	0x3e36cb19	0.17850913
66	0xbdd59f26	-0.10430746
67	0xbdf72849	-0.12068231
68	0x3e103e2a	0.14086214
69	0xbe53536f	-0.20637296
70	0x3e127e03	0.14305882
71	0x3e4da973	0.20084171
72	0x3e3b30cd	0.18280335
73	0x3e3497e0	0.1763606
74	0xbe481dee	-0.19542667
75	0x3e463343	0.19355492
76	0x3d2d7ec4	0.04235722
77	0x3e07b8ec	0.13254136
78	0xbe1d0d59	-0.15337123
79	0x3defaada	0.11702509
80	0xbe2a3559	-0.16621913
81	0x3e3670a6	0.1781641
82	0x3e10fcda	0.14158955
83	0xbe2ba913	-0.16763715
84	0x3e2f2689	0.17104544
85	0x3e4a18b0	0.1973598
86	0x3de3d684	0.111249
87	0x3de45bed	0.11150346
88	0x3e0c14db	0.1367983
89	0xbe259ebe	-0.16173837
90	0xbe031d29	-0.12804092
91	0xbe518437	-0.20460592
92	0xbe2f8755	-0.17141469
93	0x3e2162cd	0.15760346
94	0xbe49d95c	-0.19711822
95	0xbe50deae	-0.20397446
96	0xbe0cabaa	-0.1373736
97	0x3e0a6b63	0.13517527
98	0xbe350300	-0.17676926
99	0x3c9e6d4b	0.019339224
100	0x3e0ab6c0	0.13546276
101	0xbe34b182	-0.17645839
102	0x3de81a01	0.11333085
103	0x3e0d6f5e	0.13812014
104	0x3dbcd0ce	0.09219514
105	0x3e0c3404	0.13691717
106	0xbdca2e24	-0.09872082
107	0x3dd6a67c	0.10480973
108	0x3de46aba	0.11153169
109	0x3e1580ac	0.14599866
110	0xbe26e93f	-0.16299914
111	0x3e0c8187	0.13721286
112	0xbdd1e273	-0.1024827
113	0x3e4077fb	0.18795769
114	0x3e1966b3	0.14980583
115	0xbe021dd6	-0.12706694
116	0x3db3d103	0.087801
117	0x3e3ddc90	0.18541169
118	0x3e2b1f1f	0.1671109
119	0x3d77863f	0.06043076
120	0x3e33a5a6	0.17543659
121	0xbe3c3b38	-0.18381965
122	0xbdc63dd8	-0.096797645
123	0xbe208fde	-0.15679881
124	0xbc7019cb	-0.014654587
125	0xbbb8352f	-0.0056215744
126	0xbdc19ae5	-0.09453372
127	0xbe2ec4e6	-0.17067298
128	0xbe034efd	-0.128231
129	0x3dfe5dbb	0.124202214
130	0xbe27e365	-0.16395338
131	0x3e1a8231	0.15088727
132	0x3e1bf74f	0.1523106
133	0xbdda3255	-0.10654131
134	0x3de25ca5	0.11052827
135	0x3d9d91f1	0.07693852
136	0x3dbfcbff	0.09365081
137	0xbb6f70ce	-0.0036535743
138	0xbdfbfd4e	-0.123041734
139	0xbcc802e2	-0.024415437
140	0x3e2b9d8f	0.16759323
141	0x3dcfd62b	0.10148271
142	0xbd120714	-0.03565128
143	0x3d975ac7	0.07390361
144	0xbde54b75	-0.11196033
145	0x3da8eab1	0.08247889
146	0x3e353d9a	0.1769928
147	0xbd98378f	-0.07432472
148	0x3dbc3c65	0.09191207
149	0x3de16849	0.11006219
150	0xbcbc9ae9	-0.023023086
151	0x3b9b6996	0.0047428114
152	0x3d8f83ba	0.07007547
153	0xbe382353	-0.17982225
154	0xbdebeefe	-0.115201935
155	0xbd828b57	-0.06374233
156	0x3d97753d	0.07395408
157	0xbd9dfbbe	-0.07714032
158	0xbdd123d1	-0.102119096
159	0xbdeba014	-0.11505142
160	0xbe054a34	-0.13016587
161	0x3e11c266	0.14234313
162	0xbe123f92	-0.14282063
163	0x3df8b2d6	0.12143485
164	0x3d9ca9ee	0.07649599
165	0xbddf9a99	-0.10918159
166	0x3e176013	0.14782743
167	0x3da7f926	0.08201818
168	0xbbae9f2a	-0.0053290324
169	0xbcc590c2	-0.024116877
170	0x3c05351b	0.008130337
171	0xbd530d05	-0.05152609
172	0x3e57c044	0.21069437
173	0x3c620f34	0.01379757
174	0xbbc8aef0	-0.00612437
175	0x3aa86510	0.0012847502
176	0xbd80c09d	-0.06286738
177	0x3df73560	0.12070727
178	0x3e1ad6e9	0.15121044
179	0xbd6dcd73	-0.05805726
180	0xbc22e212	-0.009941595
181	0x3e11220a	0.14173141
182	0xbd0efec6	-0.03491094
183	0xbde33932	-0.110948935
184	0x3d6a8b4e	0.057261758
185	0xbd916669	-0.07099611
186	0xbdf3a3b7	-0.118964605
187	0x3d1a1cf2	0.03762526
188	0x3e0c7eca	0.13720241
189	0xbe2fdc81	-0.1717396
190	0xbc2c316f	-0.010509833
191	0xbdad38d1	-0.084581025
192	0x3d89f44e	0.067360505
193	0xbdec9287	-0.115513854
194	0xbda796f9	-0.081830926
195	0x3dee9fb5	0.116515554
196	0xbd9731f4	-0.07382575
197	0x3db06d51	0.086146004
198	0x3d8bf5c8	0.068339884
199	0xbd387531	-0.045033637
200	0xbe0d6b7b	-0.13810532
201	0xbdd68cd5	-0.1047608
202	0x3d8da212	0.06915678
203	0xbd731b8a	-0.059352435
204	0x3d1e7715	0.038687784
205	0xbe040236	-0.12891468
206	0x3de3be85	0.11120323
207	0xbd24ae2d	-0.04020517
208	0x3d98d978	0.07463354
209	0x3b4f6a0f	0.003164891
210	0x3d75152b	0.05983464
211	0x3dbc7f45	0.09203962
212	0xbe049569	-0.1294762
213	0xbd38dfc6	-0.045135282
214	0xbdfcf9eb	-0.123523556
215	0xbdc136c0	-0.09434271
216	0xbe021802	-0.12704471
217	0x3d542c58	0.051800102
218	0x3dd51173	0.10403719
219	0x3dc89757	0.09794491
220	0x3d8097f2	0.06278981
221	0xbdac6ba9	-0.08418972
222	0x3da0d250	0.07852614
223	0x3d359301	0.044329647
224	0xbe10b1d5	-0.14130338
225	0x3db35891	0.08757127
226	0xbe37cdd1	-0.17949606
227	0x3da14e49	0.0787626
228	0x3d4c60a1	0.04989684
229	0xbdce45ca	-0.10071905
230	0x3dd90cee	0.10598169
231	0x3e08b22f	0.13349222
232	0x3c17321b	0.009228255
233	0x3c28d4f4	0.010304678
234	0xbda6b81e	-0.08140586
235	0xbd067c72	-0.032833524
236	0x3dd4c709	0.103895254
237	0x3e02f8e6	0.1279026
238	0x3cbd5166	0.023110103
239	0x3dd58c6d	0.10427175
240	0xbe2ad315	-0.16682084
241	0x3db17062	0.086640134
242	0x3e01865f	0.12648915
243	0xbde9b10b	-0.114107214
244	0x3aa18215	0.0012322093
245	0x3dca44de	0.098764166
246	0x3b98cdd9	0.004663211
247	0xbdad1b59	-0.08452482
248	0x3d608adf	0.054819938
249	0xbda9f1fc	-0.08298108
250	0xbe15e3cd	-0.1463768
251	0xbcc4f1df	-0.024041114
252	0x3d870a63	0.06593778
253	0xbe3498ce	-0.17636415
254	0xbc847cc6	-0.016172778
255	0xbd830628	-0.063976586

lstm.bias_ih_l0 f4 [128]
0	0x3e915cb1	0.2839103
1	0x3e91d63d	0.28483763
2	0x3e37bd37	0.17943273
3	0x3e7980c6	0.2436553
4	0x3e9fe140	0.3122654
5	0x3e9aece3	0.30258855
6	0x3e199cc6	0.1500121
7	0x3e76d6fb	0.24105446
8	0x3e6d0b03	0.23148732
9	0x3e9a8a51	0.30183652
10	0x3e93d65c	0.2887448
11	0x3e6c1ab0	0.23057055
12	0x3e7f923c	0.24958128
13	0x3e8033f5	0.2503964
14	0x3ea33ce0	0.3188238
15	0x3e6b7bac	0.22996396
16	0x3e7a0f00	0.24419785
17	0x3e12fe6d	0.14354868
18	0x3e127da7	0.14305745
19	0x3e7a9e25	0.2447439
20	0x3e961099	0.29309538
21	0x3e8463ba	0.25857335
22	0x3e88dc78	0.26730704
23	0x3e913e50	0.28367853
24	0x3e69d5e9	0.22835506
25	0x3e9029f4	0.28157008
26	0x3e905b3f	0.28194615
27	0x3e8753ae	0.2643103
28	0x3e9b3f9e	0.30321974
29	0x3e5d4505	0.2160836
30	0x3e87a48c	0.26492727
31	0x3e9441d2	0.28956467
32	0xbdde1d0d	-0.10845385
33	0xbe00ba9c	-0.12571186
34	0xbe0cd493	-0.13752966
35	0xbe22f952	-0.1591542
36	0xbdfc39c5	-0.12315706
37	0xbe20975c	-0.15682739
38	0x3da70a47	0.08156257
39	0xbdd6e0a5	-0.10492066
40	0xbe292965	-0.16519697
41	0xbe4623d4	-0.19349605
42	0xbe1a2034	-0.15051347
43	0xbdd8cb72	-0.10585679
44	0xbe0d6ddb	-0.13811438
45	0xbe51b889	-0.20480551
46	0xbe110691	-0.14162661
47	0xbe0ce4da	-0.13759175
48	0xbdf97bb1	-0.121817954
49	0x3d354960	0.04425943
50	0xbd9a766d	-0.07542119
51	0xbe235ee2	-0.15954164
52	0xbdc3c711	-0.09559453
53	0xbdd1651c	-0.10224363
54	0xbe0fe152	-0.14050797
55	0xbe27c6af	-0.16384386
56	0xbdd3a4ce	-0.103341684
57	0xbd742f61	-0.059615497
58	0xbe17f3a6	-0.14839038
59	0xbde364e6	-0.11103229
60	0xbe7a0747	-0.24416839
61	0xbe36007d	-0.17773624
62	0xbe219d6d	-0.1578271
63	0xbde8075e	-0.1132953
64	0xbe72efcb	-0.23724286
65	0x3e5c0c48	0.2148906
66	0x3e15115c	0.14557403
67	0xbe544cd5	-0.20732434
68	0x3e72a9ba	0.23697558
69	0xbe87b3ae	-0.26504272
70	0x3e116e54	0.14202243
71	0x3e73581d	0.23764081
72	0x3e43bdad	0.19115324
73	0x3e44590b	0.19174592
74	0xbe85f48b	-0.26163134
75	0x3e33a546	0.17543516
76	0xbe237330	-0.1596191
77	0x3e5d7ede	0.21630427
78	0xbe6d92e6	-0.23200569
79	0x3e80f6c4	0.25188267
80	0xbe5619e5	-0.20908315
81	0x3dec51b5	0.11539022
82	0xbe0df323	-0.1386228
83	0xbe3784f5	-0.17921813
84	0x3e6789a0	0.22611094
85	0x3e5acec9	0.21367945
86	0x3e46cbf0	0.19413733
87	0x3e587c08	0.21141064
88	0x3e6b4be6	0.22978172
89	0xbe480203	-0.19532017
90	0xbe5f33ee	-0.21797153
91	0xbe78856a	-0.24269643
92	0xbe76d791	-0.2410567
93	0x3e807eba	0.25096685
94	0xbe7a238b	-0.24427621
95	0xbe84a7d6	-0.259093
96	0x3e8c25a8	0.2737248
97	0x3e8761f4	0.2644192
98	0x3e2c5459	0.16829051
99	0x3e56e848	0.20987046
100	0x3e7d086a	0.24710241
101	0x3e849871	0.25897554
102	0x3e1b5188	0.1516782
103	0x3e969cc6	0.29416484
104	0x3e6ddca4	0.23228699
105	0x3e926db9	0.28599337
106	0x3e6b8d42	0.23003104
107	0x3e88c786	0.26714724
108	0x3e881b32	0.26583248
109	0x3e8ebecd	0.27879944
110	0x3e96fdd8	0.29490542
111	0x3e965b49	0.2936652
112	0x3e91ea06	0.28498858
113	0x3da71ad8	0.08159417
114	0x3e3bfef1	0.18358971
115	0x3e78f284	0.24311262
116	0x3ea0962b	0.3136457
117	0x3e93fa3a	0.28901845
118	0x3e7b5517	0.24544178
119	0x3e7ca8f1	0.24673821
120	0x3e9d22a6	0.30690497
121	0x3e703c3a	0.23460475
122	0x3e940819	0.28912428
123	0x3e9b537a	0.30337125
124	0x3e65fa62	0.22458795
125	0x3e8f31fc	0.27967823
126	0x3e86df6c	0.26342332
127	0x3e870776	0.2637288

lstm.bias_hh_l0 f4 [128]
0	0x3e9faf76	0.31188554
1	0x3e754171	0.23950745
2	0x3deab5c1	0.11460448
3	0x3e6507a0	0.2236619
4	0x3e8ab84a	0.27093726
5	0x3e6a209c	0.22864002
6	0x3da430a4	0.0801709
7	0x3e9c10da	0.30481607
8	0x3e78462b	0.24245517
9	0x3e8af6e5	0.2714149
10	0x3e8a128d	0.26967278
11	0x3e7462b7	0.23865782
12	0x3e4b7e61	0.19872428
13	0x3e619fdc	0.22033638
14	0x3e819334	0.2530762
15	0x3e7ecaea	0.24882093
16	0x3e78274e	0.24233744
17	0x3e05db6f	0.13071989
18	0x3e0565d0	0.1302712
19	0x3e9e678f	0.30938384
20	0x3ea1a7fd	0.31573477
21	0x3e807d01	0.2509537
22	0x3e8d18d1	0.27557996
23	0x3e9f2532	0.31083065
24	0x3e9cbe46	0.30613917
25	0x3e607543	0.21919732
26	0x3e9c5a29	0.30537537
27	0x3e6fd898	0.23422468
28	0x3e97a29c	0.2961625
29	0x3e852e8e	0.2601208
30	0x3e7ffb0c	0.2499811
31	0x3e72b13d	0.23700424
32	0xbe02b5ab	-0.12764613
33	0xbd932710	-0.07185185
34	0xbe0654ab	-0.13118236
35	0xbe54f934	-0.20798188
36	0xbdac7124	-0.08420017
37	0xbdf29012	-0.118438855
38	0x3bd124ba	0.006382552
39	0xbd6d225e	-0.057894103
40	0xbe2cbe08	-0.16869366
41	0xbe1a622a	-0.15076509
42	0xbdf4045f	-0.11914896
43	0xbe29dd9e	-0.16588446
44	0xbe2ae362	-0.16688302
45	0xbe3ab05e	-0.18231341
46	0xbe19f44c	-0.15034598
47	0xbdf705ff	-0.120616905
48	0xbd86d56f	-0.06583678
49	0x3d636c7f	0.05552339
50	0xbde2b18f	-0.11069023
51	0xbdf957ba	-0.12174936
52	0xbe452628	-0.19252837
53	0xbe108f97	-0.14117275
54	0xbe1a2d1b	-0.15056269
55	0xbe02bd7b	-0.12767594
56	0xbda1c9f6	-0.07899849
57	0xbe1302bf	-0.14356516
58	0xbe17075b	-0.147489
59	0xbdd864c2	-0.10566093
60	0xbe30df5c	-0.17272705
61	0xbe6653d9	-0.22492923
62	0xbddc2036	-0.10748331
63	0xbe0fe925	-0.14053781
64	0xbe6aa698	-0.22915113
65	0x3e437cc2	0.1909056
66	0x3dd7fe57	0.10546558
67	0xbe826d70	-0.2547412
68	0x3e67e5db	0.22646277
69	0xbe3d1497	-0.18464886
70	0x3e128a45	0.14310558
71	0x3e3845a3	0.17995314
72	0x3e6bb191	0.23016955
73	0x3e7e1fea	0.24816862
74	0xbe36a88d	-0.17837735
75	0x3e8b28de	0.27179617
76	0xbe650a19	-0.22367133
77	0x3e1ab975	0.15109809
78	0xbe899a75	-0.26875654
79	0x3e4c65f7	0.19960772
80	0xbe65bec2	-0.2243605
81	0x3dea9ca1	0.11455656
82	0xbdc8aa89	-0.09798152
83	0xbe80cc06	-0.25155658
84	0x3e65a1ab	0.22424953
85	0x3e60a0f5	0.219364
86	0x3e779c6c	0.24180764
87	0x3e47b90c	0.19504184
88	0x3e62ad3d	0.22136398
89	0xbe7184e3	-0.23585849
90	0xbe70ac71	-0.23503281
91	0xbe5257f3	-0.20541362
92	0xbe436c46	-0.19084272
93	0x3e2ffb9c	0.17185825
94	0xbe496ae9	-0.19669689
95	0xbe4bc377	-0.19898783
96	0x3e96e1d9	0.29469183
97	0x3e60e786	0.21963319
98	0x3e42cfa4	0.19024521
99	0x3e8815ca	0.26579124
100	0x3e6f0355	0.23341115
101	0x3e86d80b	0.26336703
102	0x3de4c4f7	0.111703806
103	0x3e9533c6	0.29141062
104	0x3e981be8	0.2970879
105	0x3e9db61b	0.30802998
106	0x3e7c62fb	0.24647133
107	0x3e685a07	0.22690593
108	0x3e303bcb	0.17210309
109	0x3e481e26	0.1954275
110	0x3e98e80f	0.29864547
111	0x3e898bdb	0.26864514
112	0x3e73b9cf	0.23801349
113	0x3e20aa6e	0.15690014
114	0x3e2f44e4	0.17116123
115	0x3e66b217	0.22528873
116	0x3e728076	0.23681816
117	0x3e92eddf	0.28697106
118	0x3e890f16	0.26769322
119	0x3e8efb3d	0.27926055
120	0x3e61f5b2	0.22066382
121	0x3e93971d	0.28826228
122	0x3e862d1c	0.2620629
123	0x3e744a4f	0.23856471
124	0x3e97a377	0.296169
125	0x3e6f9f52	0.2340062
126	0x3e7c9f53	0.24670152
127	0x3e86fea2	0.26366144

lin.weight f4 [5, 32]
0	0xbe897dc4	-0.26853764
1	0x3e80ce58	0.25157428
2	0x3e4e27db	0.20132391
3	0xbe7d38f6	-0.2472876
4	0x3e694947	0.2278186
5	0xbe8112e5	-0.25209728
6	0x3e11a812	0.1422427
7	0x3e7794b4	0.2417782
8	0x3e81f205	0.2537996
9	0x3e84ffa9	0.25976303
10	0xbe7c170b	-0.24618165
11	0x3e626d0f	0.22111915
12	0xbe8086b0	-0.25102758
13	0x3e630237	0.22168814
14	0xbe863929	-0.26215485
15	0x3e84fb0c	0.25972784
16	0xbe5bd576	-0.21468148
17	0x3e0d7a4f	0.13816188
18	0xbe4e50a5	-0.20147951
19	0xbe829f40	-0.25512123
20	0x3e6130be	0.2199125
21	0x3e650bbd	0.22367759
22	0x3e82dad0	0.25557566
23	0x3e8cf128	0.27527738
24	0x3e809552	0.25113922
25	0xbe802c2f	-0.2503371
26	0xbe8295bb	-0.2550486
27	0xbe6dc8bc	-0.23221105
28	0xbe84b6e1	-0.25920776
29	0x3e7e2023	0.24816947
30	0xbe82d1e8	-0.2555077
31	0xbe70c468	-0.23512423
32	0x3e1d430f	0.15357612
33	0xbe31ae2b	-0.17351596
34	0xbdde1e4c	-0.108456224
35	0x3e2a8bdf	0.16654919
36	0xbe3379a6	-0.17526874
37	0x3e015047	0.1262828
38	0xbd3da7a1	-0.04630244
39	0xbe35f7a8	-0.17770255
40	0xbe579952	-0.21054581
41	0xbe5544fb	-0.20827095
42	0x3e2105ec	0.15724915
43	0xbe1cf8da	-0.15329304
44	0x3e3b841a	0.18312111
45	0xbe557b1f	-0.20847748
46	0x3dd79b63	0.105276845
47	0xbe176cc8	-0.1478759
48	0x3e33595b	0.17514555
49	0xbe0177b1	-0.12643315
50	0x3e173b2e	0.14768669
51	0x3e383472	0.17988756
52	0xbe4f5780	-0.20248222
53	0xbe157258	-0.145944
54	0xbdfbd199	-0.12295837
55	0xbe4fcf97	-0.20294033
56	0xbe01c079	-0.12671079
57	0x3e234b30	0.1594665
58	0x3e44da15	0.19223817
59	0x3e400c13	0.18754606
60	0x3e2df0a8	0.16986334
61	0xbe46d56a	-0.19417349
62	0x3e41137b	0.18855087
63	0x3e080331	0.13282467
64	0x3e0aa0a4	0.13537842
65	0xbe57f058	-0.21087778
66	0xbde7d2e5	-0.11319522
67	0x3e27430a	0.16334167
68	0xbe4c4a09	-0.19950117
69	0x3e60167e	0.2188358
70	0xbe286fba	-0.1644887
71	0xbe4b4325	-0.19849832
72	0xbe1c2ff3	-0.15252666
73	0xbe103864	-0.14084011
74	0x3e2646a3	0.16237883
75	0xbe660d34	-0.22465974
76	0x3e04ad63	0.12956767
77	0xbe239a00	-0.15976715
78	0x3e08e312	0.1336787
79	0xbe1807a4	-0.14846665
80	0x3e4a6c2c	0.19767827
81	0xbe060cd1	-0.13090827
82	0x3d91fc80	0.07128239
83	0x3e22b36c	0.15888757
84	0xbe6b2c7d	-0.2296619
85	0xbe59e753	-0.2127965
86	0xbe5e265a	-0.21694317
87	0xbe30cd53	-0.17265825
88	0xbe1c5dcb	-0.15270154
89	0x3e616ee5	0.22014959
90	0x3e47c237	0.19507681
91	0x3e1a2c70	0.15056014
92	0x3e684133	0.22681122
93	0xbe4b724d	-0.19867821
94	0x3e3303fb	0.17481987
95	0x3e6a6379	0.22889508
96	0x3e40360c	0.18770617
97	0xbe58bae3	-0.21165042
98	0xbdd39201	-0.103305824
99	0x3e0da864	0.13833767
100	0xbe133a0c	-0.14377612
101	0x3e24985c	0.16073745
102	0xbd7ba45c	-0.061436042
103	0xbe2f2345	-0.17103298
104	0xbe125d4f	-0.14293407
105	0xbe4cd710	-0.20003915
106	0x3e233c11	0.15940882
107	0xbe524f62	-0.20538095
108	0x3e17eeb2	0.14837149
109	0xbe6059b8	-0.21909225
110	0x3e15f4b2	0.14644125
111	0xbe0a8c0e	-0.13529989
112	0x3e16f1af	0.14740632
113	0xbe06adcf	-0.1315224
114	0x3e0531d1	0.13007285
115	0x3e0e45b7	0.13893782
116	0xbe132d01	-0.14372636
117	0xbe6468d6	-0.22305617
118	0xbe26219b	-0.16223757
119	0xbe2f37a4	-0.17111069
120	0xbe3a693f	-0.1820421
121	0x3e4d1109	0.2002603
122	0x3e117f54	0.14208728
123	0x3e4faa77	0.20279871
124	0x3e6879f6	0.22702774
125	0xbe1a4eb9	-0.15069093
126	0x3e13dd3f	0.14439867
127	0x3e038d92	0.12846974
128	0x3e2af101	0.16693498
129	0xbe1bc423	-0.15211539
130	0xbe034d65	-0.12822492
131	0x3e63ebb1	0.22257878
132	0xbe57b1ff	-0.21063994
133	0x3e18e8fb	0.14932625
134	0xbe0f46d6	-0.13991866
135	0xbe08fac9	-0.13376917
136	0xbe1abbd6	-0.15110716
137	0xbe29880f	-0.16555808
138	0x3e34bce7	0.17650186
139	0xbe62f391	-0.22163226
140	0x3deef0e8	0.11667043
141	0xbe202688	-0.15639699
142	0x3e575657	0.2102903
143	0xbe3fe878	-0.18741024
144	0x3e60c64b	0.21950643
145	0xbe1d13f3	-0.15339641
146	0x3e092645	0.13393505
147	0x3e638379	0.22218122
148	0xbe48a6f3	-0.19594936
149	0xbe22059d	-0.15822454
150	0xbe680d1b	-0.2266125
151	0xbe25db6c	-0.16196984
152	0xbe4e4f8a	-0.20147529
153	0x3e3fd4c3	0.18733506
154	0x3e55f04c	0.20892447
155	0x3e4406a5	0.1914316
156	0x3e35cd78	0.17754161
157	0xbe00a349	-0.12562288
158	0x3e56bf4e	0.20971414
159	0x3e4edd4a	0.20201603

lin.bias f4 [5]
0	0x3e46165f	0.19344471
1	0xbde86540	-0.11347437
2	0xbdc66f12	-0.09689154
3	0xbdcfa495	-0.101388134
4	0xbdd68131	-0.1047386
