checkpoints/RELAX_G_space_False_pretrain_2_batch_60.pth (torch_old, 36112 bytes, 7 tensors)

emb.weight f4 [5, 32]
0	0x3b3e6dc5	0.0029057127
1	0xbe15d37c	-0.14631456
2	0x3d01bc1e	0.031673543
3	0x3e2521f3	0.16126232
4	0xbce08e0c	-0.027411483
5	0xbde5f8da	-0.11229105
6	0x3c86f6a5	0.016475031
7	0xbc41398e	-0.011793507
8	0x3b94f955	0.0045463243
9	0xbd8bb4b4	-0.06821576
10	0x3ccf6cee	0.025320496
11	0xbe0c12a4	-0.13678986
12	0xbdb522cb	-0.08844527
13	0xbce6ddd5	-0.02818195
14	0x3bb1fb60	0.0054315776
15	0x3d93684b	0.07197627
16	0x3dbbd0f4	0.09170714
17	0x3e72703e	0.2367563
18	0xbde9e039	-0.1141972
19	0x3e030726	0.12795696
20	0xbd4c3910	-0.049859107
21	0x3cef450b	0.029207727
22	0xbde9c68a	-0.114148214
23	0x3d993c1f	0.0748217
24	0x3d99aed5	0.0750405
25	0x3d1c30c3	0.03813244
26	0x3da4e301	0.0805111
27	0xbd90f0d2	-0.07077183
28	0x3e0574ea	0.1303288
29	0xbc15d355	-0.009144624
30	0xbd95710c	-0.072969526
31	0x3d989597	0.07450407
32	0xbe22ff43	-0.15917687
33	0x3e6e952e	0.23299095
34	0xbe0b2637	-0.13588797
35	0xbe8334a8	-0.2562611
36	0x3e51611a	0.20447198
37	0x3e549105	0.20758446
38	0xbddf4753	-0.10902276
39	0xbe097709	-0.13424315
40	0x3e27c821	0.16384937
41	0x3e21b2e9	0.15790905
42	0x3dfeaa69	0.12434847
43	0x3e4d7ca7	0.20067082
44	0x3e33827b	0.17530243
45	0x3e54f16e	0.20795223
46	0xbe2e33c7	-0.17011939
47	0xbe247224	-0.16059166
48	0xbe511a6a	-0.20420232
49	0xbe2f48a3	-0.17117552
50	0x3e4cdc06	0.20005807
51	0xbe4c7462	-0.19966272
52	0x3e25dd66	0.16197738
53	0x3ddfbb4c	0.10924396
54	0x3e3db7f1	0.185272
55	0xbe25e512	-0.16200665
56	0xbe49ac38	-0.19694602
57	0x3dd2fc3d	0.10302017
58	0xbe20931d	-0.1568112
59	0x3e5219da	0.20517674
60	0xbe29f187	-0.16596042
61	0xbe01f3b0	-0.12690616
62	0x3e4601c5	0.19336613
63	0xbe43633f	-0.19080828
64	0xbe4b66fe	-0.19863507
65	0x3e6f7444	0.23384196
66	0xbe4b80ff	-0.19873427
67	0xbe4c60d0	-0.19958806
68	0x3e525406	0.20539865
69	0x3e4eb51e	0.20186278
70	0xbe2ff3ad	-0.17182799
71	0xbe04b7bd	-0.12960716
72	0x3e3bca36	0.18338856
73	0x3e71dd6c	0.23619622
74	0x3e4199f0	0.18906379
75	0x3e69318c	0.22772807
76	0x3e5242f8	0.20533359
77	0x3e1ed2af	0.15510057
78	0xbe21e110	-0.15808511
79	0xbe346ad2	-0.17618874
80	0xbe22fe70	-0.15917373
81	0xbe496681	-0.19668008
82	0x3e4e2865	0.20132597
83	0xbe86a8b4	-0.26300585
84	0x3e1062ab	0.14100139
85	0x3e215159	0.15753688
86	0x3e3fb113	0.18719892
87	0xbe72897a	-0.23685256
88	0xbe4c1ca3	-0.19932799
89	0x3e3e6c6c	0.18596047
90	0xbe5d9d9c	-0.21642154
91	0x3e71a4eb	0.23598067
92	0xbe6b6126	-0.22986278
93	0xbe1ac9ac	-0.15115994
94	0x3e576508	0.21034634
95	0xbe3e1185	-0.1856137
96	0xbe4e612e	-0.20154259
97	0x3e7a5a47	0.244485
98	0xbe50a355	-0.20374806
99	0xbe488b2f	-0.19584344
100	0x3e115961	0.14194252
101	0x3e6a7f53	0.22900133
102	0xbe47c38f	-0.19508193
103	0xbdffcff1	-0.124908336
104	0x3e3ba267	0.1832367
105	0x3e37c33a	0.17945567
106	0x3db3f265	0.087864675
107	0x3e771d0c	0.24132174
108	0x3e4b095a	0.19827786
109	0x3e14000f	0.14453147
110	0xbe3cc194	-0.18433219
111	0xbe4cfc4e	-0.20018122
112	0xbe500cce	-0.20317385
113	0xbe2616c3	-0.1621962
114	0x3e4437b6	0.19161877
115	0xbe628ffb	-0.22125237
116	0x3e245f39	0.1605195
117	0x3e26f9fe	0.16306302
118	0x3e475268	0.19465029
119	0xbe4fd2ec	-0.20295304
120	0xbe2e01cd	-0.16992874
121	0x3db7613c	0.08954093
122	0xbe4434a6	-0.19160709
123	0x3e238c87	0.15971576
124	0xbe5c2943	-0.21500115
125	0xbe2f4681	-0.17116739
126	0x3e3f819b	0.18701784
127	0xbe2770fa	-0.16351691
128	0xbe4ee983	-0.20206265
129	0x3e6696ad	0.22518416
130	0xbe3a336e	-0.18183681
131	0xbe8435d3	-0.25822315
132	0x3e3b0db8	0.18266952
133	0x3e4beda9	0.19914879
134	0xbe1e0e8a	-0.15435234
135	0xbe45611f	-0.1927533
136	0x3e40986c	0.18808144
137	0x3e18097f	0.14847372
138	0x3e06a3b8	0.13148391
139	0x3e6198e0	0.22030973
140	0x3e59a799	0.2125534
141	0x3e390370	0.18067718
142	0xbe53ca37	-0.20682608
143	0xbe6999c0	-0.22812557
144	0xbe59c424	-0.21266228
145	0xbe1fd94e	-0.15610239
146	0x3e633734	0.22189027
147	0xbe7a196b	-0.24423759
148	0x3e45eebd	0.19329353
149	0x3df4d176	0.11954014
150	0x3e5ae517	0.21376453
151	0xbe4efb61	-0.20213081
152	0xbe190d13	-0.14946394
153	0x3e068427	0.1313635
154	0xbe5fbc8a	-0.21849266
155	0x3e491d33	0.19640045
156	0xbe52b84f	-0.2057812
157	0xbe4471fb	-0.19184105
158	0x3e2fe46e	0.17176983
159	0xbe35f8ef	-0.17770742

lstm.weight_ih_l0 f4 [128, 32]
0	0xbdf7589e	-0.12077449
1	0x3e23f164	0.16010052
2	0xbe162c8a	-0.14665428
3	0xbe6f59af	-0.23374055
4	0x3dd50e0f	0.10403072
5	0x3e63dfed	0.2225339
6	0xbe221592	-0.15828541
7	0xbdf51cd8	-0.11968392
8	0x3d8363f1	0.06415547
9	0x3e275d64	0.1634422
10	0x3dc1028a	0.094243124
11	0x3e35c876	0.17752251
12	0x3e3c95d7	0.18416534
13	0x3e01e0a1	0.12683345
14	0xbda3fdbe	-0.08007382
15	0xbe45adab	-0.1930453
16	0xbe285611	-0.16439082
17	0xbdc87211	-0.097873814
18	0x3e1b5323	0.15168433
19	0xbe6bfd84	-0.23045927
20	0x3db9b4ca	0.09067686
21	0x3e05c051	0.13061644
22	0x3e3d7154	0.18500262
23	0xbe48009b	-0.19531481
24	0xbe2aa4f0	-0.16664481
25	0x3dfaf295	0.122533
26	0xbe40985e	-0.18808123
27	0x3e2cc624	0.1687246
28	0xbe7577b1	-0.2397144
29	0xbdf07354	-0.11740747
30	0x3dda00a4	0.106446534
31	0xbe1b89bd	-0.15189262
32	0xbdfa759a	-0.12229462
33	0x3e441df9	0.19152059
34	0xbe0d3fec	-0.13793916
35	0xbe622207	-0.22083293
36	0x3e287782	0.16451839
37	0x3e514a8f	0.20438598
38	0xbe00f319	-0.12592734
39	0xbde44b16	-0.11147134
40	0x3d94fb5f	0.07274508
41	0x3e250f12	0.1611903
42	0x3df90755	0.121596016
43	0x3e09fe91	0.13476016
44	0x3de1cca3	0.110253595
45	0x3e0f667f	0.14003943
46	0xbe129bac	-0.14317197
47	0xbe079cd1	-0.13243414
48	0xbe0f1983	-0.13974576
49	0xbd96b15e	-0.07358049
50	0x3e3bf76e	0.18356106
51	0xbe295361	-0.16535713
52	0x3da5b716	0.080915615
53	0x3d6b1103	0.05738927
54	0x3e1d7ba1	0.15379192
55	0xbe268c40	-0.16264439
56	0xbe24cdd8	-0.16094148
57	0x3dec489d	0.115372874
58	0xbdde008f	-0.1083995
59	0x3e239360	0.15974188
60	0xbe2a4667	-0.16628419
61	0xbd8b2012	-0.06793226
62	0x3e298e4e	0.16558191
63	0xbdf08b2b	-0.11745294
64	0xbdc6a813	-0.09700026
65	0x3e661094	0.22467262
66	0xbde3d604	-0.111248046
67	0xbe7be153	-0.24597673
68	0x3d877b08	0.06615263
69	0x3e482134	0.19543916
70	0xbdef8a93	-0.11696353
71	0xbd444070	-0.047913015
72	0x3d805186	0.06265549
73	0x3da613f6	0.08109276
74	0x3d473a94	0.04863985
75	0x3e343a5d	0.17600389
76	0x3e1f4b91	0.1555617
77	0x3de63a15	0.11241547
78	0xbd3141fd	-0.043275822
79	0xbe31e414	-0.17372161
80	0xbe23111a	-0.15924492
81	0xbe39930e	-0.18122503
82	0x3e0e096a	0.13870779
83	0xbe302b1d	-0.17203946
84	0x3e08d626	0.13362941
85	0x3d02c749	0.031928334
86	0x3e087643	0.13326363
87	0xbe049cc9	-0.12950434
88	0xbdb7278b	-0.08943089
89	0x3d3e67ff	0.046485897
90	0xbdf35985	-0.11882309
91	0x3daf55db	0.085612975
92	0xbe231bbb	-0.15928547
93	0xbe02578e	-0.12728712
94	0x3e15879a	0.14602509
95	0xbddb1be1	-0.10698677
96	0xbddcc38d	-0.10779486
97	0x3e05ff1d	0.13085599
98	0xbe06d07a	-0.13165465
99	0xbe0eeb5f	-0.13956974
100	0x3d8584ca	0.06519468
101	0x3e27814d	0.16357918
102	0xbe03db47	-0.12876616
103	0xbd6cb11f	-0.057786103
104	0x3dbba262	0.091618314
105	0x3e0b097c	0.13577837
106	0x3dc2f469	0.09519274
107	0x3e352f42	0.17693809
108	0x3e1abeb3	0.15111808
109	0x3d2f5652	0.04280693
110	0xbdab0412	-0.08350386
111	0xbe27710c	-0.16351718
112	0xbdae9152	-0.085238114
113	0xbe04205f	-0.12902974
114	0x3de1d3a1	0.11026693
115	0xbdf02611	-0.117260106
116	0x3dd73658	0.10508412
117	0x3d9e54d2	0.07731022
118	0x3e2eaddf	0.17058514
119	0xbe27f80f	-0.1640322
120	0xbe244929	-0.16043533
121	0x3d1b61fc	0.037935242
122	0xbde415d3	-0.11136975
123	0x3deea2ba	0.116521314
124	0xbe3740a6	-0.17895755
125	0xbddd654f	-0.10810339
126	0x3da1357d	0.0787153
127	0xbdd4a463	-0.10382917
128	0xbe13c385	-0.14430054
129	0x3e45e421	0.19325306
130	0xbe1f6ca5	-0.15568788
131	0xbe3cca9d	-0.18436666
132	0x3e15ca23	0.1462789
133	0x3e200213	0.15625791
134	0xbe021812	-0.12704495
135	0xbe044775	-0.12917884
136	0x3d4ffaa9	0.050776158
137	0x3dc975a9	0.09836895
138	0x3db9371e	0.09043716
139	0x3e11f06b	0.14251868
140	0x3e084537	0.13307653
141	0x3e08d35f	0.13361882
142	0xbd8ecb6c	-0.069723934
143	0xbdc659e5	-0.09685115
144	0xbe1c8edb	-0.1528887
145	0xbe21ef9c	-0.1581406
146	0x3e4ecd9b	0.2019562
147	0xbe1126d7	-0.14174972
148	0x3da106c7	0.07862621
149	0x3e04ca3f	0.12967776
150	0x3e5a224d	0.21302147
151	0xbde21536	-0.11039202
152	0xbe1cca63	-0.1531158
153	0x3d259cb6	0.040432654
154	0xbe2f204e	-0.17102167
155	0x3e28103d	0.16412444
156	0xbe3637ba	-0.17794695
157	0xbdc3aaf1	-0.09554089
158	0x3e08e560	0.1336875
159	0xbdea0067	-0.11425858
160	0xbe012833	-0.12612991
161	0x3e7a0899	0.24417342
162	0xbe0dd141	-0.13849355
163	0xbe50af4f	-0.20379375
164	0x3e21c57b	0.15797989
165	0x3e66a2b6	0.22523007
166	0xbdc5447f	-0.09632205
167	0xbd96eebb	-0.07369753
168	0x3dec1460	0.11527324
169	0x3e20f275	0.1571749
170	0x3e06876a	0.13137594
171	0x3e4b88f2	0.19876459
172	0x3e22876e	0.15871975
173	0x3e21978e	0.1578047
174	0xbd954dd9	-0.07290239
175	0xbe24c709	-0.16091551
176	0xbe370c68	-0.17875826
177	0xbe40c77e	-0.188261
178	0x3e508c77	0.20366083
179	0xbe6ce0e7	-0.23132668
180	0x3e1328ac	0.14370984
181	0x3df18c99	0.11794395
182	0x3e142dab	0.14470546
183	0xbe16104d	-0.14654656
184	0xbe1771c6	-0.14789495
185	0x3d2b66b2	0.041845985
186	0xbe4c546a	-0.19954076
187	0x3e274a46	0.16336927
188	0xbe20d942	-0.15707877
189	0xbdab8dac	-0.08376631
190	0x3e0d9511	0.13826396
191	0xbe5a2b19	-0.21305503
192	0xbe278602	-0.16359714
193	0x3e55bdb8	0.20873153
194	0xbe00d42c	-0.12580937
195	0xbe80651b	-0.25077137
196	0x3e22ff3c	0.15917677
197	0x3e3391c3	0.17536072
198	0xbd98d8d8	-0.07463235
199	0xbdce3d4a	-0.10070284
200	0x3e06f8e6	0.13180885
201	0x3deae546	0.11469512
202	0x3dec58a7	0.115403466
203	0x3e82d9ca	0.25556785
204	0x3e4a4a28	0.19754851
205	0x3dc38b9d	0.095481135
206	0xbdf920be	-0.12164448
207	0xbe0e6184	-0.13904387
208	0xbe6a56e1	-0.22884704
209	0xbe1c17bc	-0.15243429
210	0x3e0f7ea6	0.14013156
211	0xbe27285f	-0.16323994
212	0x3daee007	0.085388236
213	0x3d6dd8a6	0.05806794
214	0x3e241318	0.16022909
215	0xbe367788	-0.17819035
216	0xbe4977c0	-0.19674587
217	0x3d988f15	0.07449166
218	0xbe0ee1ed	-0.13953371
219	0x3ddbea44	0.10738042
220	0xbe661ec8	-0.2247268
221	0xbdcc1ffd	-0.09967039
222	0x3e34dac8	0.17661583
223	0xbe3e72cc	-0.18598479
224	0xbe131c9e	-0.14366385
225	0x3e73ed5e	0.23821017
226	0xbd95765d	-0.07297967
227	0xbe7b703c	-0.24554533
228	0x3df89b06	0.121389434
229	0x3e64d1de	0.22345683
230	0xbda4cc03	-0.08046725
231	0xbdef23e7	-0.1167677
232	0x3e2345aa	0.15944543
233	0x3e2c1d6e	0.16808102
234	0x3df21497	0.118203335
235	0x3e5c3bd1	0.21507193
236	0x3ddd5798	0.10807723
237	0x3da76275	0.08173076
238	0xbe0414d5	-0.12898572
239	0xbe1439b2	-0.14475134
240	0xbdf1dcc2	-0.11809684
241	0xbe48cde9	-0.19609798
242	0x3e1f0541	0.15529348
243	0xbe43da93	-0.19126348
244	0x3e00953e	0.12556931
245	0x3e09b7a6	0.13448963
246	0x3e122152	0.14270523
247	0xbe3009fe	-0.17191312
248	0xbdca46dd	-0.09876797
249	0x3d7bc08b	0.06146292
250	0xbe1c45f5	-0.15261061
251	0x3ddba956	0.10725658
252	0xbe204d87	-0.15654574
253	0xbda7faad	-0.082021095
254	0x3e19fa84	0.1503697
255	0xbdfbfa66	-0.12303619

lstm.weight_hh_l0 f4 [128, 32]
0	0x3d1a6a9c	0.037699327
1	0xbd1374d6	-0.036000095
2	0x3c96223f	0.018326877
3	0x3b9dfe85	0.004821601
4	0xbcafcc81	-0.02145982
5	0xbce4da97	-0.027936263
6	0x3cc6187f	0.024181603
7	0x3d2c5f12	0.042082854
8	0xbcd3b3dd	-0.025842601
9	0xbb1bfe10	-0.0023802556
10	0xbd040da7	-0.032239582
11	0xbd5e6c3e	-0.054302447
12	0xbc4abe41	-0.012374462
13	0x3c09c8bc	0.008409675
14	0x3c41a4d2	0.011819081
15	0xbca7e265	-0.020493696
16	0xbd8c0d09	-0.06838424
17	0x3c515b01	0.012778045
18	0x3d816515	0.06318108
19	0xbdd02d97	-0.101649456
20	0xbba229c5	-0.004948827
21	0x3d37c8a5	0.044869084
22	0x3d86501d	0.06558249
23	0x3d3f1a36	0.046655856
24	0xbd4153a3	-0.047198903
25	0xbd02c614	-0.031927183
26	0x3ccd4c14	0.025060691
27	0x3d6203a6	0.05517926
28	0x3d6ad5bf	0.05733275
29	0xbb0dcf56	-0.0021638474
30	0xbd80bebf	-0.06286382
31	0x3b0fc680	0.0021938384
32	0xbcc8babf	-0.02450311
33	0xbd88f312	-0.06686987
34	0x3d0e643f	0.03476357
35	0x3cb8ccb0	0.02255854
36	0xbd216711	-0.039404932
37	0x3b9ddb8a	0.004817431
38	0xbc268f7a	-0.010166043
39	0x3d3886f7	0.045050588
40	0xbce76364	-0.028245635
41	0x3c258952	0.0101035405
42	0xbcfbebb7	-0.030752046
43	0xbbb1d4e8	-0.0054269917
44	0x3c17f29a	0.009274149
45	0xbd438aac	-0.04773967
46	0x3d1d953f	0.03847241
47	0x3c29eb74	0.010371078
48	0xbc948d59	-0.018133806
49	0xbd5704c4	-0.05249478
50	0x3d3a78bb	0.045525294
51	0xbd9b3701	-0.075788505
52	0xbd7f53b4	-0.062335685
53	0x3d479619	0.04872713
54	0x3d5bc4e9	0.053654585
55	0x3c02726c	0.007961851
56	0xbd6bb7d9	-0.057548378
57	0xbcbdcc9c	-0.023168854
58	0x3c697a5a	0.014250362
59	0x3d5a2978	0.053262204
60	0x3d73925d	0.059465755
61	0xbb8921d1	-0.0041849394
62	0xbc5551d1	-0.013019995
63	0x3d88e7f3	0.06684866
64	0x3c5b4b47	0.013384647
65	0xbd8b1851	-0.06791747
66	0x3a9b3aef	0.0011843125
67	0x3d829712	0.063764706
68	0x3c5af8be	0.013364969
69	0xbc9615f3	-0.018321013
70	0x3b1d5212	0.0024005217
71	0x3d71c8e5	0.05902948
72	0x3ccb7ffa	0.024841297
73	0xbd524d40	-0.051343203
74	0xbc92e101	-0.017929556
75	0xbc91a131	-0.017777057
76	0x3d505855	0.05086549
77	0x3c1520d6	0.009102067
78	0x3c121203	0.008915427
79	0x3d59dd18	0.053189367
80	0xbba6ef94	-0.005094478
81	0xbd35c2f8	-0.04437539
82	0x3d37b2f6	0.044848405
83	0xbd80774c	-0.06272754
84	0x3cb59705	0.022166738
85	0x3c91adf8	0.01778315
86	0x3d66aa79	0.05631492
87	0xbc8a43c8	-0.016878024
88	0x3acbf02e	0.001555925
89	0xbd14d8e1	-0.036339644
90	0x3cfeb01d	0.031089837
91	0x3d71755d	0.058949817
92	0xbd101b48	-0.035182267
93	0x3cece49f	0.028917609
94	0x3c2d8448	0.01059062
95	0x3c4d0dfc	0.012515541
96	0x3d524fd1	0.05134565
97	0xbd174268	-0.036928564
98	0xbc29b963	-0.010359141
99	0x3c2584a1	0.010102422
100	0x3bc98d22	0.0061508575
101	0x3d81db1f	0.06340622
102	0x3d2aa435	0.041660506
103	0x3d077820	0.033073545
104	0xbd61c424	-0.055118695
105	0xbcfc74ab	-0.03081735
106	0xbd0bb73d	-0.034110297
107	0xbae89d76	-0.0017747122
108	0xbca054a5	-0.019571612
109	0x3c33a597	0.010964773
110	0x3d265505	0.040608425
111	0x3b834294	0.0040057395
112	0xbd35b868	-0.044365317
113	0xbbb703b6	-0.005585159
114	0xbcd48eeb	-0.025947055
115	0xbca76366	-0.020433139
116	0xbd2c00b3	-0.041992854
117	0xbcdaa685	-0.02669073
118	0x3d9fdba7	0.07805567
119	0x3d6f2e34	0.058393672
120	0xbd03930c	-0.032122657
121	0xbd4e554c	-0.050374314
122	0x3bd22b15	0.006413827
123	0x3d895671	0.067059405
124	0x3c52dbf7	0.0128698265
125	0xbc61ed70	-0.01378952
126	0xbcb5e9c5	-0.022206197
127	0x3d23961b	0.039938074
128	0x3cf572ab	0.029961905
129	0xbc357f3b	-0.011077697
130	0x3d920910	0.07130635
131	0x3d52bcb7	0.051449504
132	0xbc53213b	-0.012886341
133	0x3d10d562	0.035359748
134	0xbcd332d1	-0.025781067
135	0x3c821c3b	0.015882602
136	0xbcb326d2	-0.021869097
137	0xbcb2333f	-0.021752952
138	0xbc311d7f	-0.010810255
139	0xbcea4f21	-0.028602185
140	0x3ce3aec2	0.027793292
141	0xbce15993	-0.027508533
142	0x3d28646b	0.04111139
143	0x3d7eea7a	0.062235333
144	0xbd413c55	-0.047176678
145	0xbc864f37	-0.016395194
146	0x3d72d194	0.0592819
147	0xbdd2d129	-0.102938004
148	0xbd84feac	-0.06493887
149	0xbc504aa9	-0.012713113
150	0x3d7278c0	0.059197187
151	0x3d8045a1	0.06263281
152	0x3a86b631	0.0010277686
153	0xbcc0ca0e	-0.023533847
154	0x3d276a80	0.04087305
155	0x3cecfa32	0.028927896
156	0xba58c823	-0.0008269569
157	0x3cf2ae93	0.02962426
158	0xbbf58267	-0.007492352
159	0xbb5edaa5	-0.0034004834
160	0xbb5bd7aa	-0.0033545294
161	0xbbcb7026	-0.0062084375
162	0xbb9d5f17	-0.0048025954
163	0x3be7c2ee	0.007072798
164	0xbd56ad20	-0.0524112
165	0x3cb88c91	0.022527965
166	0x3c15d675	0.009145369
167	0x3ca081d4	0.019593157
168	0xbd367192	-0.044541903
169	0xbcaca3c4	-0.021074183
170	0xbcab74e5	-0.020929763
171	0x3bf756ad	0.0075481744
172	0xbc420293	-0.011841434
173	0x3c917bfa	0.017759312
174	0x3cefcda1	0.029272856
175	0xbc92408d	-0.017853046
176	0xbcf76801	-0.03020096
177	0xbd77b7a7	-0.06047788
178	0x3ce0433b	0.027375808
179	0xbd706435	-0.058689315
180	0xbc3f644f	-0.01168163
181	0x3d4b33b0	0.04960984
182	0x3c3df1cb	0.0115932925
183	0x3cf4b4b4	0.029871322
184	0xbd293cb7	-0.041317668
185	0xbc515d4e	-0.012778593
186	0x3ce28925	0.027653286
187	0x3c96fdd5	0.018431583
188	0x3d163b5e	0.03667771
189	0x3d823969	0.06358606
190	0xbd31563e	-0.043295138
191	0x3d1dbd02	0.03851033
192	0x3d958429	0.07300598
193	0xbd70481e	-0.058662526
194	0x3da2393e	0.07921074
195	0x3d50276a	0.05081884
196	0x38f25d37	0.00011556822
197	0x3cb2faee	0.021848168
198	0x3c03ffb3	0.008056569
199	0xbc1c37f1	-0.009534822
200	0x3bdd5053	0.00675396
201	0x3d08ba05	0.033380527
202	0x3b60f65d	0.0034326531
203	0xbd56b602	-0.05241967
204	0x3ce75eeb	0.028243503
205	0xbd9a419e	-0.07532047
206	0x3d859ca3	0.06524017
207	0x3db7e3ed	0.0897902
208	0xbc5fc35e	-0.013657419
209	0xbd31fe03	-0.043455135
210	0x3d93301f	0.07186913
211	0xbddbd04f	-0.10733091
212	0xbd92eadd	-0.07173703
213	0x3d9dcda2	0.07705237
214	0x3d4c9b34	0.0499527
215	0x3cf9ddba	0.030501235
216	0xbdba5f2e	-0.09100185
217	0xbd65b96b	-0.05608503
218	0x3d9f2d8d	0.0777236
219	0x3c57f3e5	0.013180708
220	0xba4533f4	-0.0007522695
221	0xbb21816d	-0.0024643794
222	0xbd0015ab	-0.031270664
223	0xbb61bf76	-0.0034446395
224	0x3cc14292	0.023591314
225	0xbd8d63b7	-0.06903785
226	0x3d1751fb	0.036943417
227	0x3d7d49fd	0.06183814
228	0xbd70fb27	-0.058833268
229	0x3d100cae	0.035168342
230	0xbd61c692	-0.055121012
231	0xbd3d5b7f	-0.046229836
232	0xbdac7894	-0.08421436
233	0x3c211862	0.0098324735
234	0x3c7fe2c1	0.015618027
235	0xbcde2388	-0.027116552
236	0x3d9fee2d	0.078091
237	0xbd0dc9b0	-0.034616172
238	0x3cc8a2c1	0.02449167
239	0x3cecb84b	0.028896471
240	0xbd711200	-0.058855057
241	0xbd23f14f	-0.04002505
242	0x3c3d614b	0.011558841
243	0xbdfac7a4	-0.1224511
244	0xbd680ca2	-0.056652673
245	0x3c7efe5a	0.015563572
246	0x3cd44383	0.025911098
247	0x3dc713db	0.09720584
248	0xbdbbe80f	-0.09175121
249	0xbcc95883	-0.024578338
250	0x3da4a0bd	0.08038471
251	0x3dd756ce	0.105146036
252	0xbb6f8a1a	-0.003655082
253	0x3d8eabbb	0.06966349
254	0xbd0698af	-0.032860454
255	0x3dbcb1d6	0.09213607

lstm.bias_ih_l0 f4 [128]
0	0x3d6bfecd	0.057616044
1	0x3d573fd4	0.052551106
2	0x3dae62af	0.08514916
3	0x3c1ccdef	0.009570583
4	0x3d0089b0	0.03138131
5	0x3daa784c	0.08323726
6	0x3e0d8284	0.13819319
7	0x3db7f38f	0.08982002
8	0x3d87e31c	0.066351146
9	0x3dd0ed79	0.10201544
10	0x3bae0843	0.0053110435
11	0x3c081747	0.008306331
12	0x3d9f970e	0.07792483
13	0x3d02ae92	0.031904764
14	0x3b858fea	0.004075994
15	0x3d9f3cf7	0.077753
16	0x3e054a1d	0.13016553
17	0x3dd8c8c2	0.105851665
18	0x3d0f6ac2	0.03501392
19	0x3d4bd249	0.04976109
20	0x3da52d95	0.08065335
21	0x3d45a864	0.048256293
22	0x3d7e952e	0.062153988
23	0x3d19baad	0.037531544
24	0x3da0fa97	0.07860296
25	0x3d1cdbe0	0.038295627
26	0x3db2552c	0.087076515
27	0x3d61eb04	0.05515577
28	0x3db477da	0.08811922
29	0x3d0aad0d	0.03385644
30	0x3d1fcbc0	0.03901267
31	0x3d97d72f	0.0741409
32	0x3d7a0d7e	0.061048023
33	0x3d6ce401	0.05783463
34	0x3a2b60b6	0.00065375434
35	0x3d8412e8	0.064489186
36	0x3d8cf90d	0.0688344
37	0x3ce1ced5	0.027564446
38	0xbd6b32ad	-0.057421375
39	0xbd2ef322	-0.04271234
40	0xbc8fefc5	-0.017570386
41	0xbc4d8469	-0.012543776
42	0xbd35fd6f	-0.044431146
43	0x3d94a278	0.07257551
44	0x3d0d3668	0.034475714
45	0x3d7e1e34	0.062040523
46	0xbc1cdf38	-0.009574704
47	0x3d62bb15	0.055354197
48	0x3d1df0db	0.038559776
49	0xbc0188fb	-0.007906194
50	0x3d224202	0.03961373
51	0xbdb91bfd	-0.090385415
52	0x3d4731e9	0.048631582
53	0xbbf75852	-0.0075483704
54	0x3c1459eb	0.009054641
55	0xbad5893d	-0.001629151
56	0xbacae48b	-0.0015479488
57	0xbba78b45	-0.005113038
58	0x3c950e71	0.018195363
59	0x3c241627	0.010015047
60	0xbd48a6f4	-0.048987344
61	0xbc676fba	-0.014125759
62	0x3cc21bca	0.023694891
63	0x3d8be725	0.06831197
64	0x3d936313	0.07196631
65	0xbdb78010	-0.08959973
66	0x3dcb97b2	0.09941043
67	0x3d9c9c78	0.076470315
68	0xbdd9b948	-0.10631043
69	0x3d689782	0.056785114
70	0xbd914122	-0.07092501
71	0xbd9f84f0	-0.07789028
72	0xbd6cafba	-0.057784773
73	0x3d713f2e	0.058898143
74	0xbd35ff17	-0.044432726
75	0xbd14178c	-0.03615527
76	0x3dc99107	0.09842115
77	0xbda92bc5	-0.082603015
78	0x3d74e084	0.059784427
79	0x3d9bd3f1	0.07608784
80	0xbdcf8e62	-0.10134579
81	0xbdc45813	-0.09587111
82	0x3dd69ebd	0.10479496
83	0xbd8a68ba	-0.06758256
84	0xbd88420d	-0.06653223
85	0x3dc0591f	0.093919985
86	0x3ddb4550	0.1070658
87	0x3d360f61	0.04444826
88	0xbcc56980	-0.024098158
89	0xbd0806fc	-0.033209786
90	0x3dc9fcbf	0.098626606
91	0x3dd61d5f	0.10454821
92	0x3d97dc1f	0.07415032
93	0x3db223c2	0.086982265
94	0xbd9258f0	-0.0714587
95	0x3da853ad	0.08219085
96	0x3cff4273	0.031159615
97	0xbbb2591b	-0.005442751
98	0x3daf0676	0.08546154
99	0x3d611c04	0.05495836
100	0x3c8c6c7f	0.017141579
101	0x3b994015	0.0046768286
102	0x3d409284	0.04701473
103	0x3e05f50a	0.13081756
104	0xbcda1e59	-0.026625799
105	0x3d4e200a	0.050323524
106	0x3d257763	0.04039706
107	0xbc177fc7	-0.009246773
108	0x3d324eb7	0.0435321
109	0x3c7f814e	0.0155947935
110	0x3d15e6d6	0.036597095
111	0x3c486d60	0.012233108
112	0x3dbe6200	0.09296036
113	0x3dd3f575	0.103495516
114	0x3c82c1f6	0.015961628
115	0x3d69009e	0.056885354
116	0x3c33b137	0.010967544
117	0x3d453bb8	0.048152655
118	0x3da2e7b3	0.07954349
119	0x3b7a6943	0.0038209714
120	0xbc00da2b	-0.007864515
121	0x3dbff292	0.093724385
122	0x3c7dd7ba	0.015493328
123	0x3d2e0856	0.04248842
124	0x3d7bbcb6	0.061459266
125	0x3c985935	0.018597225
126	0x3db01c9d	0.085992076
127	0x3d9d2909	0.076738425

lstm.bias_hh_l0 f4 [128]
0	0x3df7ff30	0.1210922
1	0x3d0c8c6f	0.034313615
2	0x3cb494a3	0.022043532
3	0x3c19b0b0	0.0093805045
4	0x3dc9be6f	0.098507755
5	0x3da49456	0.08036105
6	0x3e1bc627	0.15212308
7	0x3e11eef6	0.14251313
8	0x3c959e19	0.018263863
9	0x3d86a892	0.06575121
10	0x3c860fa7	0.016364885
11	0x3da1918c	0.07889089
12	0x3de51046	0.111847445
13	0x3dfd1f26	0.12359457
14	0x3ce50495	0.027956286
15	0x3def71a1	0.11691595
16	0x3db50435	0.08838693
17	0x3dc3bfcf	0.09558069
18	0x3d0c0f49	0.034194265
19	0x3d125af1	0.03573126
20	0x3db973b2	0.0905527
21	0x3d4b6b2c	0.049662754
22	0x3d9fbb7c	0.07799432
23	0x3df246f6	0.11829941
24	0x3d4e714b	0.050401013
25	0x3d9efbbc	0.07762858
26	0x3dee6a7a	0.116414025
27	0x3dc43d2e	0.095819816
28	0x3c981ab7	0.018567426
29	0x3db68e4f	0.08913862
30	0x3d4ed632	0.05049724
31	0x3d218103	0.039429676
32	0x3d94b075	0.07260219
33	0x3d9c5e91	0.076352246
34	0xbc1f9c87	-0.009741909
35	0x3d535c00	0.05160141
36	0xbc505ee5	-0.012717937
37	0x3cd134a6	0.0255378
38	0xbc8c328a	-0.017113943
39	0xbdb50536	-0.088388845
40	0xbd254189	-0.040345702
41	0x3c44a1f9	0.012001508
42	0x3bf281ce	0.007400728
43	0x3d3447d0	0.0440138
44	0x3d6cf2e1	0.057848815
45	0xbb3e736e	-0.00290605
46	0x3d77736e	0.060412817
47	0x3d6e577e	0.058188908
48	0x3cdb7b5e	0.026792224
49	0xbb90dafd	-0.0044206367
50	0x3d28da6e	0.041223936
51	0xbdf5cd4a	-0.120020464
52	0x3d0b301f	0.03398144
53	0x3d9c8e48	0.076443255
54	0x3d8e795c	0.06956741
55	0x3d88e143	0.0668359
56	0x3d1f2a8b	0.03885893
57	0x3cb9bfab	0.022674402
58	0x3d09f800	0.033683777
59	0x3daaab52	0.08333458
60	0xbc6c4fbb	-0.014423306
61	0xbbfad956	-0.007655303
62	0x3d525625	0.051351685
63	0xbbbea6d8	-0.005818229
64	0x3dedeef4	0.11617842
65	0xbdb1fc40	-0.08690691
66	0x3ce04d37	0.027380569
67	0x3d938fc9	0.07205159
68	0xbd15bba1	-0.03655589
69	0x3d8b8310	0.068121076
70	0xbca6bf5d	-0.020354921
71	0xbd78577b	-0.060630303
72	0xbd93e261	-0.07220913
73	0x3d5508df	0.052010413
74	0xbd2656ca	-0.040610112
75	0xbdbb693f	-0.091509335
76	0x3d9f15c5	0.07767824
77	0xbd8e6177	-0.06952184
78	0x3d93e210	0.072208524
79	0x3dad3a02	0.0845833
80	0xbce951d5	-0.028481403
81	0xbd7505e8	-0.059820086
82	0x3db8e886	0.09028725
83	0xbd8ab9b2	-0.067737
84	0xbda0a9de	-0.078448996
85	0x3d81fe38	0.063473165
86	0x3cbfc612	0.023409877
87	0x3dc5bab4	0.096547514
88	0xbdca5374	-0.09879199
89	0xbdcc1ea5	-0.099667825
90	0x3da196e2	0.07890107
91	0x3d6933e9	0.05693427
92	0x3d4840f9	0.048890088
93	0x3d9ece6e	0.07754217
94	0xbdbe3780	-0.092879295
95	0x3d86e5c8	0.06586796
96	0x3d88440a	0.066536024
97	0x3ceff15d	0.029289896
98	0x3d8f3855	0.06993166
99	0x3d19bf47	0.037535932
100	0x3ccda0ad	0.02510103
101	0x3d52c059	0.05145297
102	0x3d83c060	0.06433177
103	0x3ddf7d79	0.10912604
104	0x3c77546d	0.015095812
105	0x3d2ae39d	0.041720975
106	0xbca5f965	-0.020260522
107	0x3d938dbe	0.072047696
108	0xbc255904	-0.010092024
109	0x3d164785	0.0366893
110	0x3d9d3f17	0.07678049
111	0x3d66922e	0.05629175
112	0x3d1e7398	0.038684458
113	0x3da2a52f	0.079416625
114	0x3af078f5	0.0018346595
115	0x3da6b4d6	0.081399605
116	0x3d95096b	0.07277187
117	0x3dce244c	0.10065517
118	0x3badb68d	0.0053013028
119	0x3cad4999	0.021153258
120	0x3bc2d79d	0.0059461133
121	0x3da047bb	0.078261815
122	0x3d200248	0.039064676
123	0x3d85f78b	0.06541356
124	0x3d88bfa6	0.06677179
125	0x3d879c8e	0.06621657
126	0x3d369118	0.044571966
127	0x3db5a16c	0.088686794

lin.weight f4 [5, 32]
0	0x3e122a9c	0.14274067
1	0xbda4dc5a	-0.08049841
2	0x3dc92791	0.09822
3	0x3db71d3a	0.089411214
4	0xbde8f169	-0.1137417
5	0x3e10b709	0.14132322
6	0xbe229c0e	-0.15879843
7	0xbe01e8fb	-0.12686531
8	0xbd9d6ba4	-0.076865464
9	0x3de5570b	0.11198243
10	0xbc9182d4	-0.017762579
11	0xbdcb4343	-0.099249385
12	0x3dd34969	0.10316736
13	0xbdfffb79	-0.124991365
14	0x3da76869	0.081742115
15	0x3e17a2ed	0.14808245
16	0xbe1b86c7	-0.15188132
17	0xbde9c72f	-0.114149444
18	0x3e224f1c	0.1585049
19	0x3e0149ad	0.12625761
20	0xbe017488	-0.1264211
21	0x3e2b7971	0.16745545
22	0x3dceff8a	0.10107334
23	0x3dda93f1	0.10672749
24	0xbe0ef620	-0.13961077
25	0xbdecf201	-0.11569596
26	0x3e1ff329	0.15620102
27	0x3e01c836	0.1267403
28	0x3de4bf81	0.11169339
29	0x3d8a504a	0.06753595
30	0xbe082648	-0.13295853
31	0x3e0735df	0.13204144
32	0xbdf13c6a	-0.11779101
33	0x3e007300	0.12543869
34	0xbdfc7768	-0.123274624
35	0xbd1cc27d	-0.038271416
36	0x3db47ea6	0.08813219
37	0xbdf03d13	-0.11730399
38	0x3e09bafb	0.13450234
39	0x3e0e5206	0.13898477
40	0x3cfef5ec	0.031123124
41	0xbdbd63d3	-0.092475556
42	0xbbaf8ad6	-0.0053571267
43	0x3dadbdba	0.08483453
44	0xbdff24e3	-0.124582075
45	0x3d90acc0	0.070641994
46	0xbdd3b16f	-0.10336577
47	0xbd848f1d	-0.06472609
48	0x3da51b4b	0.08061846
49	0x3dc1a9e9	0.09456236
50	0xbdd86c2d	-0.10567508
51	0xbd8f9594	-0.07010952
52	0x3d7263dd	0.05917727
53	0xbdabd398	-0.08389968
54	0xbdb22219	-0.0869791
55	0xbe0c41ea	-0.13697019
56	0x3dd3add5	0.1033589
57	0x3e044c6a	0.12919775
58	0xbe0541ee	-0.13013431
59	0xbdeda157	-0.11603039
60	0xbdaaa0c9	-0.083314486
61	0xbe04c8ce	-0.12967226
62	0x3d4c9f9c	0.049956903
63	0xbda27be9	-0.0793379
64	0xbdf5813e	-0.119875416
65	0x3db24128	0.08703834
66	0xbdf3d8c7	-0.11906581
67	0xbde7a23d	-0.11310241
68	0x3d834fa5	0.06411675
69	0xbd8011f5	-0.06253425
70	0x3db5f88c	0.08885297
71	0x3e41e667	0.18935548
72	0x3dabf4b0	0.0839628
73	0xbe074f51	-0.1321385
74	0x3de4609e	0.11151241
75	0x3dc08cdd	0.094018675
76	0xbe04b826	-0.12960872
77	0x3df56b9f	0.11983418
78	0xbe0d5045	-0.13800152
79	0xbe16478a	-0.14675727
80	0x3e139124	0.14410836
81	0x3e2552db	0.16144888
82	0xbda60a9c	-0.08107492
83	0xbde105ae	-0.109874114
84	0x3ddaa8e9	0.10676748
85	0xbdb6761e	-0.08909248
86	0xbe1814c7	-0.14851676
87	0xbd9add8e	-0.075617895
88	0x3df4d3a5	0.119544305
89	0x3e0a2401	0.13490297
90	0xbd9efcdd	-0.077630736
91	0xbd8a0954	-0.067400604
92	0xbde047c7	-0.109511904
93	0xbe1a886c	-0.15091103
94	0x3db4be83	0.088254
95	0xbd99307f	-0.07479953
96	0xbdcc27a7	-0.099685006
97	0x3e0f00da	0.13965169
98	0xbde03724	-0.10948017
99	0xbdef9eb4	-0.11700192
100	0x3de22a0a	0.110431746
101	0xbdb8b8ae	-0.090196
102	0x3deef399	0.11667556
103	0x3e1cb225	0.15302332
104	0x3e0246eb	0.12722366
105	0xbe0f5f93	-0.14001302
106	0x3de991ae	0.11404739
107	0x3daa9d9c	0.08330843
108	0xbe11a07e	-0.14221379
109	0x3e0dc480	0.1384449
110	0xbdf0c1af	-0.11755692
111	0xbd8cc3a1	-0.06873251
112	0x3d904db4	0.07046071
113	0x3df4147c	0.119179696
114	0xbdcf7a8e	-0.10130797
115	0xbd7e0865	-0.062019724
116	0x3e06a64b	0.13149373
117	0xbe1a06e6	-0.15041694
118	0xbddeddd2	-0.108821526
119	0xbe0cbf1a	-0.13744774
120	0x3dc47a1f	0.09593605
121	0x3db51893	0.08842578
122	0xbd910009	-0.07080085
123	0xbd9a3190	-0.075289845
124	0xbe047f7c	-0.12939256
125	0xbdac8a64	-0.084248334
126	0x3e123e7a	0.14281645
127	0xbd8b2011	-0.067932256
128	0xbdfba85e	-0.12287973
129	0x3e07ebe3	0.13273577
130	0xbe05fa5c	-0.13083786
131	0xbe00937a	-0.12556258
132	0x3dde1bf0	0.108451724
133	0xbdd181f5	-0.102298655
134	0x3dfd3549	0.12363679
135	0x3e232c94	0.15934974
136	0x3da0321e	0.07822059
137	0xbd80d372	-0.0629033
138	0x3d854448	0.06507164
139	0x3dfb8004	0.122802764
140	0xbd82b710	-0.06382573
141	0x3e11ef33	0.14251404
142	0xbd7dfc5b	-0.062008243
143	0xbdea8da4	-0.11452797
144	0x3dbcfd84	0.09228042
145	0x3e0091e2	0.1255565
146	0xbe01b9d4	-0.12668544
147	0xbdd9056f	-0.105967395
148	0x3da406bb	0.08009096
149	0xbe0130b1	-0.1261623
150	0xbdea81ce	-0.114505395
151	0xbe1824ac	-0.14857739
152	0x3dfb0d1d	0.122583605
153	0x3e136864	0.1439529
154	0xbd8b4840	-0.0680089
155	0xbdb29d9d	-0.087214686
156	0xbda5c574	-0.08094302
157	0xbe167cc2	-0.14696029
158	0x3d6cd0e6	0.05781641
159	0xbda6332e	-0.081152305

lin.bias f4 [5]
0	0xb9851774	-0.0002538521
1	0xbd9e1981	-0.07719708
2	0xbd766a73	-0.06016011
3	0xbdcacc5e	-0.09902261
4	0xbdb093de	-0.086219534
