checkpoints/RELAX_G_space_False_pretrain_1_batch_0.pth (torch_old, 36090 bytes, 7 tensors)

emb.weight f4 [5, 32]
000000 d0 bc d7 3d fd 1a 09 3e 48 f8 89 3d fa a1 22 3e
       0.1053406 0.13389201 0.06736809 0.15882102
000010 07 03 14 be 24 de 09 3e 2e 98 f2 3d d2 a6 07 3e
       -0.1445428 0.13463646 0.11845432 0.1324723
000020 d5 8c a8 3d 86 0b 4f 3c 91 5b 21 be e8 c3 1e 3e
       0.082299866 0.012637025 -0.15757586 0.1550442
000030 7d 6a b6 bd a3 cd 97 3d e7 9a a7 bd a6 a2 ac bd
       -0.0890703 0.07412269 -0.08183842 -0.0842946
000040 64 11 97 bd e8 26 c2 3d 68 c3 f2 3d ce 58 9a bd
       -0.07376364 0.09480077 0.11853677 -0.075364694
000050 70 fa 03 be d6 5f a3 bd a1 1e 9c bd cb 94 0d be
       -0.12888503 -0.07977264 -0.076230295 -0.13826291
000060 aa 58 10 be a4 17 21 3e e4 16 72 3d 27 fe 16 3e
       -0.14096323 0.15731674 0.05910386 0.14745389
000070 1c 67 51 3d 58 4b ad 3d f9 58 a5 3d 06 68 d0 bd
       0.051123723 0.08461636 0.08073611 -0.10176091
000080 ff be 0a be 52 01 b0 bd 2d 29 1d be 93 7c 1c be
       -0.13549422 -0.08594002 -0.15347739 -0.15281896
000090 a1 66 02 3e 80 5f 06 be f7 d9 05 be 90 bf 06 be
       0.12734462 -0.13122368 -0.13071428 -0.13159013
0000a0 53 4d b3 bd e2 b6 b7 bd 3c 12 de 3d 7a da ed bd
       -0.08754983 -0.08970429 0.10843322 -0.11613937
0000b0 e8 68 ef 3d ee 65 d2 bd b0 b6 12 3e 21 e9 df 3d
       0.11689931 -0.10273348 0.14327502 0.10933138
0000c0 84 05 90 3d 98 41 21 be f6 09 e2 bd 97 07 ae bd
       0.07032302 -0.15747678 -0.11037056 -0.084975414
0000d0 3b 61 1f 3e eb d9 17 3e 59 ba 12 3e 9c 1b a5 bd
       0.15564434 0.14829223 0.14328898 -0.08061907
0000e0 49 ae e8 3d f3 ce ba bd 30 36 bc bd f0 80 a2 bd
       0.11361367 -0.09121504 -0.09190023 -0.07934749
0000f0 be 1c c4 bd e7 de 1d be 12 61 08 be 7e 9e 1c 3e
       -0.09575795 -0.15417062 -0.1331828 0.15294835
000100 ad 2d 1e be a6 eb 01 be 3f 93 17 be 65 60 ec bd
       -0.15447111 -0.12687549 -0.14802264 -0.11541823
000110 e2 81 11 3e ae d0 18 bd 10 85 05 be c8 b8 ba bd
       0.14209703 -0.037308387 -0.1303904 -0.091172755
000120 d6 14 1b be 80 ff e5 bd a3 29 23 3e ee 53 c1 bd
       -0.15144667 -0.112303734 0.15933852 -0.094398364
000130 9c 9b fd 3d 8e e3 eb bd 88 db 22 3e 7c f5 fe 3d
       0.12383196 -0.11518012 0.15904057 0.12449166
000140 e1 7c 15 3e 4c 2d cf bd b6 42 9b bd 06 f2 f6 bd
       0.14598419 -0.101160616 -0.075810835 -0.12057881
000150 94 06 ff 3d 3e 51 05 3e d3 b8 c6 3d be b1 fd bd
       0.124524266 0.13019273 0.09703221 -0.12387417
000160 8c 04 e3 3d 00 53 0d be 02 b2 1e be 9b 3b 14 be
       0.110848516 -0.13801193 -0.15497592 -0.14475863
000170 ee 81 07 be eb 4f 9f bd a8 6a 23 be 7a 29 cc 3d
       -0.13233158 -0.07778915 -0.15958655 0.099688485
000180 75 99 0d be 4b ec c8 bd b8 76 ef bd cb b4 e8 bd
       -0.1382807 -0.09810694 -0.11692566 -0.113626085
000190 ae 70 0c 3e 91 38 e1 bd ce fb c6 bd 16 78 0e be
       0.13714859 -0.10997117 -0.09715997 -0.13912997
0001a0 a4 cb fc bd 0c 51 24 be d1 d9 06 3e 3d 34 0a be
       -0.12343529 -0.16046542 0.13169028 -0.1349649
0001b0 bb 7b c0 3d de d7 f6 bd 8d 02 f0 3d b0 a6 13 3e
       0.093986 -0.12052892 0.117192365 0.14419055
0001c0 39 bc ce 3d 55 a8 b2 bd 0d 04 fc bd 61 6b ce bd
       0.100944944 -0.08723513 -0.1230546 -0.10079075
0001d0 3a e1 be 3d af 1d ce 3d e7 78 bf 3d c9 a8 d7 bd
       0.09320302 0.100642554 0.09349232 -0.1053024
0001e0 1f a1 04 3e 95 5c cc bd 40 2c 23 be 82 54 0d be
       0.12952088 -0.09978596 -0.15934849 -0.13801768
0001f0 da 82 98 bd 9b d9 d6 bd 8e 64 ea bd 44 9f 22 3e
       -0.07446833 -0.10490724 -0.114449605 0.15881068
000200 8c d3 9e bd dd 9a b8 bd 13 cb 07 be 3c 62 da bd
       -0.07755193 -0.09013913 -0.1326106 -0.10663268
000210 25 0c 12 3e 52 cd ea bd 3f 5d 01 be 02 6a 67 bd
       0.14262445 -0.11464943 -0.12633227 -0.05649758
000220 dd 77 17 be 41 65 c6 bd 10 e1 98 3d 61 d4 86 bd
       -0.14791818 -0.096872814 0.07464802 -0.06583477
000230 c4 6c af 3d 78 b6 10 be 29 d4 e2 3d e7 ff b2 3d
       0.08565667 -0.14132106 0.110756226 0.08740216
000240 f4 6b 1d 3e 06 07 93 bd 0e f3 16 be 51 9a fb bd
       0.15373212 -0.07179074 -0.14741156 -0.12285293
000250 07 5a e3 3d c1 e5 0f 3e a5 89 10 3e fc 54 f9 bd
       0.11101156 0.14052488 0.14115007 -0.121744126
000260 d9 5b ae 3d a0 db 20 be 79 ed af bd 6d 12 09 be
       0.08513612 -0.1570878 -0.08590216 -0.13385935
000270 41 33 e8 bd 13 bb 10 be 65 83 07 be 05 2d a1 3d
       -0.11337901 -0.14133863 -0.13233717 0.07869915

lstm.weight_ih_l0 f4 [128, 32]
000000 13 1c b0 bd 06 b3 c9 bd b6 0c d0 bd b5 1e 0d be
       -0.08599105 -0.09848599 -0.101586744 -0.13781245
000010 22 ec 90 3d 22 e2 be bd 6c 25 a5 bd a5 9c f2 bd
       0.07076289 -0.09320475 -0.08063778 -0.11846284
000020 f9 1a aa bd e0 e1 6f bd 75 de 7d 3d 78 07 ae bd
       -0.08305926 -0.05856502 0.06197973 -0.08497518
000030 23 f1 ed 3d 9b f3 ac bd e9 55 b0 3d 22 90 ed 3d
       0.11618259 -0.084449016 0.08610136 0.11599757
000040 1c 17 9f 3d b5 3c b7 bd ee f1 15 be 48 81 04 be
       0.0776808 -0.08947126 -0.1464307 -0.12939942
000050 45 39 8b 3d 4d a2 a6 3d 8e 9d a5 3d d1 59 d4 bd
       0.06798033 0.08136425 0.08086692 -0.103686936
000060 f3 23 0f 3e 86 70 85 bd 79 74 b5 bd 30 fd c7 bd
       0.13978557 -0.06515603 -0.08860106 -0.097650886
000070 a5 dc fc bd 4a a0 0a be c7 9a d6 bd be 6f 05 3e
       -0.12346772 -0.13537708 -0.1047874 0.13030908
000080 ab 61 13 be 86 70 20 be 82 fb de bd 7d 23 a4 bd
       -0.14392726 -0.15667924 -0.10887815 -0.08014581
000090 b0 55 8a 3d 73 c2 f2 bd f0 12 dd bd f7 31 b0 bd
       0.06754625 -0.118534945 -0.10794628 -0.0860328
0000a0 f8 8a 16 be 88 0c 6e bd 49 d4 ee 3d d0 5d cf bd
       -0.1470145 -0.05811742 0.11661584 -0.10125315
0000b0 36 d9 d0 3d 59 af 23 be e1 89 cc 3d ac 8b e7 3d
       0.1019768 -0.15984859 0.09987236 0.11305937
0000c0 b3 0d b2 3d 1f 86 e1 bd 33 19 ff bd 83 95 80 bd
       0.08694019 -0.1101191 -0.12455978 -0.06278517
0000d0 11 40 cd 3d 6b 3c 0e 3e 0f c7 d8 3d e4 9e 00 be
       0.10021985 0.13890235 0.105848424 -0.12560612
0000e0 72 39 1a 3e cf 77 03 be 41 b8 e3 bd 3b 88 11 be
       0.15060976 -0.12838672 -0.11119128 -0.14212124
0000f0 0c 38 02 be 26 2a 1b be c5 56 1a be f9 ea 1a 3e
       -0.12716693 -0.15152797 -0.15072162 0.15128697
000100 b1 05 be bd e8 04 eb 3c 02 da ae bc fb 65 9d 3b
       -0.09278429 0.028688863 -0.021344189 0.004803417
000110 1a 43 73 3d 47 98 86 3a b7 da 9b bd af 74 3a bd
       0.059390165 0.0010268771 -0.07610076 -0.045521434
000120 1d 9d be bc 77 cc 83 bd 29 1f 16 3d d0 f4 0e 3d
       -0.023268277 -0.06435483 0.03665081 0.03490144
000130 e1 48 c4 3d 44 6a f9 bc e7 59 b4 3d 15 f6 75 3d
       0.09584213 -0.03044618 0.0880621 0.060049135
000140 91 9a 0c 3d 09 29 0f bd 0f 1e 06 bd d8 67 85 bd
       0.034327094 -0.034951244 -0.03274351 -0.06513947
000150 1a 33 43 3d 4f 3b c2 3d 25 5b e6 3c 78 8b f2 bd
       0.047656156 0.094839685 0.028119633 -0.11843008
000160 14 84 b8 bc cf 3e 0f bc 11 fa 4a bd 6b e4 11 bc
       -0.022523917 -0.008743002 -0.04955489 -0.008904557
000170 49 bb 9a bd 87 27 4d bc a6 89 30 bd d7 56 a5 3c
       -0.07555253 -0.012521631 -0.04310002 0.02018301
000180 6d 05 7f bd 10 35 93 bd 59 1f 64 bd b8 0c 12 be
       -0.062261034 -0.07187855 -0.055693958 -0.14262664
000190 9b a3 ae 3d 58 e5 71 bd f8 5f a3 bd 9f 6c 0f be
       0.08527299 -0.05905661 -0.07977289 -0.1400628
0001a0 0f c3 90 bd f3 56 9c bd e4 c4 b5 3d f1 8f eb bd
       -0.070684545 -0.07633772 0.088754445 -0.11502064
0001b0 55 23 fb 3d f5 ef 0c be 36 6b 0b 3e 7e c0 18 3e
       0.122625984 -0.13763411 0.13615116 0.1491718
0001c0 c8 b9 6d 3d be 00 0e be 1c f7 86 bd 8f e4 c1 bd
       0.058038503 -0.1386747 -0.06590101 -0.09467422
0001d0 1b 92 c1 3d 33 c6 a7 3d 53 d1 c0 3d 63 88 90 bd
       0.094516955 0.081921004 0.094149254 -0.07057264
0001e0 df f3 10 3e f1 60 f7 bd ed 49 c9 bd 87 d0 eb bd
       0.1415553 -0.12079037 -0.09828553 -0.11514383
0001f0 98 25 0a be d7 33 dd bd 0d be f6 bd 3a a7 d2 3d
       -0.13490903 -0.10800903 -0.12047968 0.10285802
000200 22 42 f9 bd 64 89 81 bd 09 d3 ca bd bc 2b 7c bd
       -0.12170817 -0.06325033 -0.09903533 -0.061565146
000210 44 5b 07 3e 71 ab df bd b9 45 f9 bd 64 7d 0a be
       0.13218409 -0.10921372 -0.12171502 -0.13524395
000220 59 32 05 be 5f 88 ff bd a7 2e 06 3e cf 5b aa bd
       -0.13007487 -0.124771826 0.13103734 -0.08318292
000230 64 09 a5 3d 34 0e c9 bd d4 94 96 3d 6a 3f 10 3e
       0.08058432 -0.09817162 0.073526055 0.1408669
000240 66 56 9d 3d a8 66 83 bd 2b 3b bc bd cd 04 98 bd
       0.07682495 -0.064160645 -0.09190973 -0.07422791
000250 6c ad 9d 3d f9 83 c6 3d cb 6c 16 3e 6c 93 f0 bd
       0.07699093 0.096931405 0.14689939 -0.117468685
000260 f4 56 8d 3d 40 63 87 bd 20 f0 ca bd 87 b0 1e be
       0.069013506 -0.06610727 -0.099090815 -0.15497027
000270 c9 f4 b9 bd ab b2 21 be 51 83 ca bd e6 ad cd 3d
       -0.09079892 -0.15790813 -0.09888328 0.10042934
000280 9a 08 0c be f0 2f 1a be 99 a7 a9 bd 2f b6 dd bd
       -0.13675156 -0.15057349 -0.0828392 -0.108257644
000290 b2 30 1e 3e 44 25 bc bd 78 12 03 be 32 e9 0f be
       0.15448263 -0.09186795 -0.12800014 -0.140538
0002a0 c7 51 17 be d5 91 c5 bd 3b c2 11 3e e1 d7 3f bd
       -0.1477729 -0.09646956 0.1423425 -0.046836738
0002b0 46 83 21 3e 8e 07 0f be d4 0a b6 3d 28 33 0a 3e
       0.15772733 -0.13967726 0.08888784 0.13496077
0002c0 04 90 02 3e 72 e7 72 bd 4f 0c f2 bd 6b c8 19 be
       0.1275025 -0.059302755 -0.11818754 -0.1501786
0002d0 9b a0 08 3e 16 b0 9e 3d 1c 3c ca 3d a5 e7 b1 bd
       0.13342516 0.077484295 0.09874746 -0.08686761
0002e0 f8 ff 09 3e cd 30 b1 bd f2 ed 80 bd b9 e6 84 bd
       0.1347655 -0.08651886 -0.062953845 -0.06489319
0002f0 c5 40 e9 bd a7 89 d6 bd 3d d2 b6 bd 28 b9 0f 3e
       -0.11389307 -0.10475474 -0.089268185 0.14035475
000300 b6 89 8e 3d e3 ed 4f 3d bb f3 41 3d ac ba 77 3d
       0.0695986 0.050763976 0.04735158 0.06048076
000310 c8 22 0f be 6b cd 8f 3d 65 1d b4 3d b8 74 be 3d
       -0.13978112 0.07021602 0.08794669 0.09299606
000320 53 cf a7 3b ae 3b d6 bd 7f a0 66 bd 48 47 55 3d
       0.0051211505 -0.10460602 -0.056305405 0.052069932
000330 cb 8c d0 bc 3a 9b 91 3d 9b 97 1a bd d9 de c7 bd
       -0.02545776 0.07109685 -0.03774224 -0.09759302
000340 8d 88 fc bc 3b 52 f4 3d 64 44 da 3d e2 55 0a bd
       -0.030826831 0.11929747 0.10657576 -0.03377331
000350 4b 36 b3 bd bc 2c 97 bd 8e 64 9d 3c bf 8b de bd
       -0.0875059 -0.07381579 0.019212987 -0.10866498
000360 97 25 d3 bd b2 83 04 3e 4b 59 41 bc 9e 0a f9 3d
       -0.10309904 0.12940863 -0.011801074 0.12160228
000370 ce a3 7e bd 8d 4c 55 3d 50 1b ac 3c 1c 5d 97 bd
       -0.062167935 0.052074958 0.021009117 -0.07390806
000380 05 ee 84 bd 13 fb ac bd c2 30 c9 bd 6d 29 b2 bd
       -0.06490711 -0.08446326 -0.09823753 -0.086993076
000390 4f 31 10 3e f6 35 15 be a2 22 09 be bb 73 09 be
       0.1408131 -0.14571366 -0.13392118 -0.13423054
0003a0 d2 b2 0f be 37 08 9e bd c7 2b e5 3d 6a 05 00 be
       -0.14033058 -0.077164106 0.111899905 -0.12502065
0003b0 57 5d ff 3d 25 ed 12 be c8 4c a0 3d dd 30 1e 3e
       0.12468975 -0.14348276 0.07827145 0.15448327
0003c0 59 84 a2 3d 08 d8 df bd b5 2f 14 be 5e 27 85 bd
       0.079353996 -0.109298766 -0.14471324 -0.06501649
0003d0 b0 3e 04 3e 7c 46 a0 3d 1b d5 b8 3d 7c 6f 99 bd
       0.12914538 0.07825944 0.09025022 -0.07491967
0003e0 2c 9a 19 3e 61 fb 1d be ee c3 b0 bd f4 4b 16 be
       0.15000218 -0.15427925 -0.086311206 -0.14677411
0003f0 20 0a a5 bd c3 88 c3 bd f8 ff e9 bd 0a 8d a0 3d
       -0.08058572 -0.095475696 -0.11425775 0.07839401

lstm.weight_hh_l0 f4 [128, 32]
000000 98 c1 7d bd 8e fe 82 3d 98 00 16 be b9 76 18 3e
       -0.061952204 0.06396209 -0.14648664 0.14889039
000010 af d1 e7 3d d8 2e 0b be ad 4f 20 3e 84 6f 00 3e
       0.11319291 -0.13592088 0.15655394 0.1254254
000020 0a d4 6b 3d dd da 0f bc 29 80 a4 bd 47 9f 81 bd
       0.057575263 -0.008780208 -0.08032257 -0.06329208
000030 bc de 0d 3e 34 63 79 3d 6e cd da bd 90 cf eb 3d
       0.13854498 0.060885623 -0.10683714 0.11514199
000040 e2 24 f1 bd fa 74 1a 3e c8 ef ae 3d 98 ba ff bd
       -0.11774613 0.15083686 0.085418284 -0.12486762
000050 47 96 c1 3d f3 f7 00 3e e4 f6 4c 3d f5 95 45 bd
       0.09452491 0.12594585 0.05004014 -0.048238713
000060 e5 08 e7 3d 7e 3f f6 bd 7e 7a 15 be 3e 68 97 bd
       0.11280993 -0.12023829 -0.14597508 -0.073929295
000070 25 54 ed 3d 77 cd d6 bd 62 ce 77 bd 23 40 06 be
       0.11588315 -0.10488408 -0.060499556 -0.13110404
000080 b3 d7 d7 bd 37 45 86 3d 7a 01 0d be a7 4d ad 3d
       -0.10539188 0.065561704 -0.13770095 0.08462077
000090 26 32 67 3d 5d 66 02 be 22 2c ba 3d e8 dc b0 3d
       0.05644431 -0.12734361 0.09090449 0.086358845
0000a0 ca e3 c9 3d 3f d3 16 bd 6a 3c 81 bd f0 c9 95 bd
       0.098579004 -0.036822554 -0.06310351 -0.07313907
0000b0 35 75 ff 3d f7 cc c2 3d 95 92 64 bc 64 03 df 3d
       0.12473527 0.0951175 -0.0139509635 0.108893186
0000c0 53 68 a4 bd 7f 75 21 3e 62 fc 7a 3d 3d 52 0f be
       -0.08027711 0.15767477 0.061275847 -0.13996215
0000d0 dd 26 4b 3d 79 66 da 3d 4f 8a ec bb df 35 e7 bd
       0.04959761 0.10664076 -0.007218636 -0.11289572
0000e0 32 7e 99 3d b6 b1 02 be 22 31 63 bd 22 45 77 3c
       0.07494773 -0.12763104 -0.05546678 0.015092166
0000f0 70 f3 0f 3e e1 08 68 bd cb f1 ec 3b 2d 54 0a be
       0.14057708 -0.056649093 0.0072309724 -0.13508673
000100 78 82 ea bd 27 51 a9 3d a2 67 f5 bc 5f 46 9f bd
       -0.11450666 0.08267432 -0.029956643 -0.07777094
000110 db ae 31 3d 19 8c e0 bd fc 47 04 3d 16 63 cd 3d
       0.043379646 -0.109642215 0.032295212 0.10028665
000120 0a ca df 3d e5 ba cd 3d ea f1 e2 bd db d8 03 3e
       0.10927208 0.10045413 -0.11081298 0.12875693
000130 49 9d 17 3d 1b e6 6c 3d fe 09 83 bd 75 9e de 3c
       0.037015233 0.057836633 -0.0639839 0.027175168
000140 62 93 63 bd d4 d5 95 3d d2 f1 94 3d d3 e8 96 bd
       -0.055560477 0.07316175 0.07272686 -0.073686264
000150 43 53 ac 3d f5 e0 cb 3d 2e 12 17 3d 1f 21 5b 3d
       0.084143184 0.099550165 0.036882572 0.053498384
000160 3f cb 31 3d 68 48 78 bd 2b 22 08 bd 59 78 ff bd
       0.04340672 -0.060615927 -0.03323571 -0.12474126
000170 c4 28 f1 bd 93 b5 f2 3d 26 9f df bd 33 e0 d4 bd
       -0.117753536 0.11851039 -0.10919027 -0.10394325
000180 ea 70 d0 bd bf c1 cb 3d 90 1f d2 bd 36 42 4b 3c
       -0.10177787 0.099490635 -0.10259926 0.012405923
000190 5e 39 d5 3d 2a e7 10 be b5 a3 74 3d f8 99 d1 3d
       0.104113325 -0.14150682 0.059726436 0.10234445
0001a0 03 23 bc 3d ed 56 f3 3d 23 a6 9a bd fc 50 c1 3d
       0.091863655 0.11881814 -0.07551219 0.09439275
0001b0 5f 3b 96 3d 28 9f 16 3e f6 43 09 be c9 41 e9 3d
       0.07335543 0.14709151 -0.13404831 0.11389501
0001c0 27 81 78 bd e4 ac 0f 3e be bd a3 3d cd 85 c1 bd
       -0.060670044 0.14030796 0.07995175 -0.094493486
0001d0 b4 66 82 3d ab e1 1c 3e f3 23 19 3e 84 ef 6b 3d
       0.06367245 0.1532046 0.1495512 0.057601467
0001e0 df 45 14 3e 2d d2 12 be 78 43 84 bd bb 0e 0b be
       0.14479779 -0.14337988 -0.06458181 -0.13579838
0001f0 c3 8e 32 bc 20 9a 15 3c b3 32 8a bd e1 4c 09 be
       -0.010898295 0.009130985 -0.06747951 -0.13408233
000200 0a b1 eb bd 9a 2e dd 3d f9 4c c7 bd c5 f5 02 3e
       -0.11508377 0.10799904 -0.09731478 0.12789066
000210 11 ab 12 3e 04 a0 bc bd 79 44 af 3d 50 e3 80 3d
       0.14323069 -0.09210208 0.08557982 0.062933564
000220 89 57 ec 3d f3 b9 42 bb 67 b6 f5 bd ee 2b 8a bc
       0.115401335 -0.0029712885 -0.11997681 -0.01686665
000230 d8 0d f8 3d 37 d0 ff 3d d9 2a dd bc d8 1e 95 3d
       0.121120155 0.12490886 -0.02699797 0.072812736
000240 5d 27 c3 bd 8f 58 81 3d d6 a3 e9 3d 57 a3 7c bd
       -0.09528992 0.06315719 0.11408202 -0.06167921
000250 cd 4a b3 3d 2e 8e cd 3d 85 58 af bc c7 da 9d 3c
       0.087545015 0.10036884 -0.021404514 0.01926936
000260 f1 3d 77 3d 7a ab 23 be dd 39 d4 bd 55 a8 7c bd
       0.060361806 -0.15983382 -0.10362599 -0.06168397
000270 4d c7 7b 3d c3 46 3b bd 5b 03 c2 bd ca bc cc bd
       0.061469365 -0.04572178 -0.09473296 -0.09996946
000280 fb c5 09 be bd 32 12 3e 5e 82 8d bd 2f e3 9a 3d
       -0.1345443 0.14277168 -0.06909631 0.07562863
000290 ab ad ad 3d 7e 87 e7 bd 1b e0 03 3e 1b 41 ae 3d
       0.0848039 -0.1130514 0.12878458 0.08508512
0002a0 af 73 0b 3d 09 cb 71 bb 0b 1a e9 bb 4b 1b bd bc
       0.03404587 -0.00368947 -0.0071137003 -0.023084303
0002b0 65 b6 12 3e 78 c2 58 3d 26 7b 89 bc 8f 78 9b 3c
       0.1432739 0.052919835 -0.016782355 0.018978385
0002c0 71 aa 80 bd f1 3a d8 3d 3a cb a3 3d 8d 25 80 bd
       -0.06282509 0.10558117 0.07997747 -0.06257162
0002d0 5c 04 41 3b 49 91 19 3e ae 59 56 bc 3f e1 9c bd
       0.0029452061 0.14996828 -0.013082905 -0.0766015
0002e0 dc 1e 87 3d 72 c6 8c bd d7 e2 fe bd 27 4e ab 3c
       0.06597683 -0.06873788 -0.1244561 0.02091129
0002f0 c1 6c d2 3d 79 1a f0 bd c2 91 aa bc 0a 5a b3 bd
       0.102746494 -0.11723799 -0.020821456 -0.08757408
000300 2c 47 61 3d a4 0a d1 bd a4 64 4e bd 64 59 b2 3d
       0.054999515 -0.10207108 -0.050388947 0.08708456
000310 f6 15 71 bd 25 f4 8f 3d b2 97 64 3d 95 e9 06 bd
       -0.058858834 0.07028989 0.05580873 -0.032937605
000320 cd b3 ef bd 46 ca a7 bd 7c 45 46 3d e6 b6 0e bd
       -0.11704216 -0.081928775 0.04840611 -0.034842394
000330 86 fe eb 3b f0 d5 df bd c7 95 bb 3d 3e 2a bb bc
       0.0072019724 -0.10929477 0.09159427 -0.022847291
000340 24 35 8e 3d ee 24 14 bc a1 81 eb 3c 11 df 9c 3d
       0.069437295 -0.009042008 0.028748335 0.07659734
000350 4b e0 e1 bd dc 69 fc bc 54 19 cd bd e4 ea 8c bd
       -0.110291086 -0.030812196 -0.100145966 -0.06880739
000360 77 0d e0 bd dd 6f 21 3d a3 12 b3 3d 02 d0 9c 3d
       -0.10940068 0.03941332 0.08743789 0.07656862
000370 82 97 0e 3d a7 68 5c bd a3 6c 73 3d e8 47 f0 3c
       0.034812458 -0.05381074 0.059429776 0.029331163
000380 22 b7 04 be 14 ad 95 3d 9c 30 e8 bd a1 8c 63 3d
       -0.12960485 0.07308403 -0.113373965 0.055554036
000390 11 38 2b 3d 21 12 b4 bd 09 9b a6 3d 0a b3 f7 3d
       0.041801516 -0.0879252 0.08135039 0.12094696
0003a0 e2 f3 ee 3c 1d e4 3d 3c 68 b4 a1 bd 19 2d cb bc
       0.029169027 0.011590031 -0.07895738 -0.024801778
0003b0 ea f0 69 3d d0 d2 18 3e 29 87 f9 3c 54 05 d4 3d
       0.05711452 0.14924169 0.030459957 0.10352579
0003c0 ee 73 1b be 16 7a 89 3d 06 aa 82 3d 5d ae d2 bd
       -0.15180942 0.06712739 0.06380086 -0.102871634
0003d0 01 e8 29 bb a8 ab b8 3d d8 51 e5 3b 9a 27 90 bd
       -0.0025925639 0.09017116 0.006998282 -0.070388034
0003e0 60 d1 3d 3d db 84 85 bd 74 51 0b be 99 69 b9 bc
       0.046342254 -0.06519481 -0.1360529 -0.02263336
0003f0 8b a7 58 3d f0 01 15 be 38 a1 1f bc cd 34 4f bd
       0.052894156 -0.1455152 -0.009743027 -0.050587464

lstm.bias_ih_l0 f4 [128]
000000 d0 e3 04 3e 54 77 0d 3e 88 a6 b5 3d 6d 71 bd 3d
       0.12977529 0.13815051 0.08869654 0.0925015
000010 d0 fa 1b 3e 02 53 12 3e e8 7c e7 3d 0e 36 b4 3d
       0.15232396 0.14289477 0.11303121 0.087993726
000020 c6 27 8a 3d dc 61 14 3e 86 66 05 3e 95 79 93 3d
       0.067458674 0.14490455 0.13027391 0.07200924
000030 99 e9 e7 3d d6 38 ba 3d 6f 12 20 3e 53 47 81 3d
       0.11323852 0.09092872 0.15632032 0.06312432
000040 78 9d c0 3d 71 b2 dd 3d 01 50 46 3d c8 2f b9 3d
       0.09405035 0.108250506 0.04841614 0.09042317
000050 ad 5e 09 3e bc 86 d0 3d 6a 10 e1 3d ee d2 04 3e
       0.13415022 0.101819485 0.10989459 0.12971088
000060 47 23 88 3d 54 4c 05 3e a5 71 04 3e fa e5 d9 3d
       0.066473536 0.13017398 0.12933977 0.10639568
000070 c4 50 1c 3e 39 a1 7b 3d 7f 0a de 3d 47 c5 04 3e
       0.15265185 0.06143305 0.10841846 0.1296588
000080 9d 87 d3 bc 9f 4f 4e bd 26 1e 1a be 73 86 83 bd
       -0.025821501 -0.0503689 -0.15050563 -0.064221285
000090 18 be e7 bc 02 61 8c bd f5 aa 84 3d 65 e1 af bc
       -0.028288886 -0.0685444 0.0647792 -0.021469781
0000a0 be 22 81 bd c6 4f ce bd fd 49 68 bd e8 ea 15 bc
       -0.06305455 -0.10073809 -0.056711186 -0.009150244
0000b0 1c 27 8c bd 7f d9 e5 bd f5 04 4c bd e1 79 20 bd
       -0.06843397 -0.11223125 -0.049809415 -0.039178733
0000c0 f5 eb 50 bd 66 aa 12 3d 6b 94 a7 bd c7 9a 9a bd
       -0.051006276 0.035807036 -0.08182605 -0.07549053
0000d0 6f 6a 73 3a d6 f9 91 bc ea 16 38 bd 0d f8 86 bd
       0.0009285574 -0.017819326 -0.044943728 -0.06590281
0000e0 33 a9 7b bc 33 95 ac 3c ce d0 75 bd e4 06 a1 bc
       -0.015360164 0.021067237 -0.060013585 -0.019656606
0000f0 7e b3 1b be 22 23 9f bd fe 27 87 bd 8b 74 c2 bc
       -0.1520519 -0.07770373 -0.06599425 -0.023737213
000100 28 f3 0b be 9e d1 ec 3d cc a0 44 3c 3b 75 77 bd
       -0.13666975 0.11563419 0.012001228 -0.060414534
000110 46 f9 01 3e 3c 52 11 be c0 28 e3 3d dc f2 09 3e
       0.12692747 -0.14191526 0.11091757 0.1347155
000120 ca 50 a5 3d 5c 0f 98 3d 48 fe 17 be 7e b1 40 3d
       0.0807205 0.074248046 -0.14843094 0.04704427
000130 d6 72 a6 bc ae 66 f5 3d e1 2c cd bd 0d 55 01 3e
       -0.02031843 0.11982475 -0.100183256 0.126301
000140 b2 70 d7 bd a5 cf b9 3d 14 ee 71 bc c8 1f 90 bd
       -0.10519542 0.09072808 -0.014766235 -0.07037312
000150 91 c3 e8 3d 05 48 d4 3d 56 56 9a 3d 7c 38 d6 3d
       0.11365426 0.10365299 0.075359985 0.10459992
000160 39 0e d4 3d 18 b4 b0 bd f1 bb eb bd 52 b9 01 be
       0.10354275 -0.086281 -0.11510456 -0.1266835
000170 f8 2b e1 bd 22 51 e7 3d d7 44 07 be 3c 5f 0c be
       -0.109947145 0.11294772 -0.13209854 -0.13708204
000180 e4 58 fd 3d 76 ef fa 3d ed 6c 98 3d 08 c4 71 3d
       0.1237047 0.12252705 0.07442651 0.05902484
000190 0e b1 ba 3d 22 62 d3 3d 8e ae eb 3d 07 5c 15 3e
       0.09115802 0.10321452 0.11507903 0.14585887
0001a0 d6 8d 90 3d e8 38 08 3e c9 a4 99 3d 93 64 e1 3d
       0.07058303 0.13302958 0.075021334 0.11005511
0001b0 14 3a 04 3e 3d af f9 3d 44 31 0b 3e 12 72 05 3e
       0.1291278 0.12191627 0.13593012 0.13031796
0001c0 50 4f 0d 3e b7 15 3c 3d 70 56 ae 3d c9 89 bc 3d
       0.13799787 0.045919146 0.085125804 0.09205968
0001d0 22 13 23 3e e9 98 0b 3e f4 b5 b9 3d b6 59 c4 3d
       0.15925267 0.1363255 0.09067908 0.095874235
0001e0 c0 24 18 3e 69 85 b3 3d b8 26 10 3e 3f 60 19 3e
       0.14857769 0.0876568 0.1407727 0.14978121
0001f0 5a 73 99 3d ab 1e 01 3e 11 24 e4 3d 32 62 db 3d
       0.07492705 0.12609355 0.111396916 0.10712089

lstm.bias_hh_l0 f4 [128]
000000 5a 89 21 3e 97 18 be 3d 7f 87 c3 3c 20 7f 94 3d
       0.15775052 0.09282034 0.02386832 0.0725081
000010 d5 51 e3 3d b0 33 8d 3d 1e e8 30 3d bf 65 1b 3e
       0.110995926 0.06894624 0.043190114 0.15175532
000020 18 9e a0 3d 0d 76 ea 3d c7 bd e3 3d a3 09 a4 3d
       0.07842654 0.11448298 0.111201815 0.080096506
000030 cf 83 7f 3d 70 51 79 3d 33 7e b9 3d c9 e5 a7 3d
       0.06238156 0.06086868 0.09057274 0.08198125
000040 13 ce bc 3d 78 6c c3 3d a1 f0 11 3d df c8 1e 3e
       0.09218993 0.09542173 0.035629872 0.15506314
000050 71 8d 20 3e dc eb c0 3d d1 01 f2 3d b2 a0 20 3e
       0.15678956 0.094199866 0.11816753 0.156863
000060 3d b8 13 3e 5e db 8a 3d 7b 6f 1c 3e 79 48 9c 3d
       0.1442575 0.06780122 0.15276901 0.076310106
000070 c3 16 15 3e c5 00 d8 3d 60 6e bf 3d ce e5 9d 3d
       0.14559464 0.10547022 0.09347224 0.077098474
000080 63 60 38 bd 9a cb 64 3b 3d 9e 13 be 36 86 e7 bd
       -0.045013797 0.0034911395 -0.14415832 -0.113048956
000090 d2 c8 2e 3c 65 09 f7 bc 24 68 2a bc 6b 5c d1 3c
       0.0106679965 -0.030155847 -0.010400806 0.025556764
0000a0 04 4c 88 bd f4 98 6d bd c9 a3 cf bc 23 ad 8d bd
       -0.06655124 -0.058007196 -0.025346654 -0.06917789
0000b0 2e 12 c7 bd 2a c9 b7 bd db bb 6f bd f7 e4 b5 bc
       -0.097202644 -0.08973916 -0.058528762 -0.022203906
0000c0 32 04 a3 3b 7f cd 40 3d 8c cf ef bd 71 69 1a bd
       0.0049748654 0.047070976 -0.11709508 -0.037698213
0000d0 68 9e c4 bd 16 71 68 bd 07 46 61 bd ad 96 f3 bc
       -0.09600526 -0.056748472 -0.054998424 -0.029734934
0000e0 7e 2d 13 3c 7f c8 80 bd a7 1f 72 bd 9f 0c 6a bc
       0.008983014 -0.062882416 -0.059112217 -0.014285236
0000f0 3d 17 a5 bd d5 c9 ff bd 60 35 80 bc 1d d0 50 bd
       -0.08061073 -0.12489668 -0.015650451 -0.050979722
000100 f5 a9 03 be 8e b2 bb 3d 37 41 e6 bc b1 d6 dc bd
       -0.12857802 0.09164916 -0.028107269 -0.10783137
000110 cb 6a ee 3d fe fd 7b bd a2 60 e5 3d cb c0 9d 3d
       0.11641463 -0.061521523 0.11200072 0.07702788
000120 89 38 f5 3d 8e ce 05 3e 7f 7b 85 bd ce d8 12 3e
       0.11973674 0.13067076 -0.06517696 0.14340517
000130 83 ca ac bd b7 b7 5f 3d 71 38 0c be f5 9a 97 3d
       -0.084370635 0.054618564 -0.13693406 0.074026026
000140 6d ba f6 bd 90 1a b8 3d d1 f7 d3 3c f6 22 12 be
       -0.12047277 0.089894414 0.025875004 -0.14271149
000150 a6 f3 e4 3d 5e ec df 3d 55 f7 fb 3d 83 b2 b4 3d
       0.11179285 0.10933755 0.12303034 0.08823111
000160 e7 d0 c2 3d ec dc 01 be 7b 56 07 be b2 17 b7 bd
       0.09512501 -0.12681931 -0.13216583 -0.089400664
000170 d3 aa 74 bd e6 9a 0a 3d 60 18 ad bd 0d a6 9d bd
       -0.059733223 0.03383913 -0.08451915 -0.07697687
000180 d5 24 14 3e b4 36 9f 3d 86 63 c5 3d aa 68 eb 3d
       0.14467175 0.07774106 0.09638123 0.114945725
000190 e4 a6 9e 3d 87 60 dc 3d 70 d0 99 3d 07 8a 12 3e
       0.077466756 0.10760599 0.075104594 0.14310466
0001a0 1d a2 0a 3e ad c9 1e 3e 3c 50 bb 3d 86 fa 8e 3d
       0.13538404 0.1550662 0.09146163 0.06981377
0001b0 e7 fd 10 3d b5 e0 1d 3d b1 05 0f 3e 65 a6 d7 3d
       0.03539839 0.038544375 0.13967015 0.10529784
0001c0 25 6a ba 3d e5 44 f8 3d 59 e2 94 3d f2 08 98 3d
       0.09102277 0.121225156 0.07269735 0.07423581
0001d0 89 ce a8 3d 34 80 09 3e 21 48 e7 3d 63 7a 03 3e
       0.082425185 0.13427812 0.11293054 0.12839656
0001e0 9f 54 7f 3d b4 b4 10 3e 82 e1 e8 3d 36 07 ae 3d
       0.06233656 0.14131433 0.11371137 0.08497469
0001f0 3a 06 16 3e 07 b4 a4 3d 09 e5 c1 3d e1 3e db 3d
       0.14650813 0.0804215 0.09467513 0.107053526

lin.weight f4 [5, 32]
000000 62 e1 1a be 73 d3 09 3e ca 5e cb 3d c1 7c fc bd
       -0.15125039 0.13459568 0.09930189 -0.123284824
000010 34 df d9 3d 0b 4c 09 be 3f 34 4f 3d c2 11 f9 3d
       0.10638276 -0.13407914 0.050586935 0.1216159
000020 e6 5f f1 3d c6 19 10 3e 16 8d 00 be 8c 7f d0 3d
       0.11785869 0.14072332 -0.1255382 0.10180578
000030 02 7b f8 bd fc 38 a9 3d 6c cd 15 be c9 78 08 3e
       -0.12132837 0.08262822 -0.14629143 0.13327326
000040 e6 2b b9 bd 25 39 2d 3d 6e d9 c5 bd d3 05 0c be
       -0.09041576 0.042290825 -0.09660612 -0.13674097
000050 7b 26 cb 3d 44 4b d0 3d 10 40 0d 3e b0 9b 1c 3e
       0.09919449 0.10170606 0.13793969 0.15293765
000060 fb a1 04 3e 8b a6 0b be f4 41 0d be dc bc e6 bd
       0.12952416 -0.1363775 -0.1379469 -0.11266491
000070 6f 1b 0f be 12 30 f0 3d f7 95 0b be 84 c8 ee bd
       -0.13975309 0.11727919 -0.13631426 -0.11659339
000080 cd 3c c2 3d e7 62 e9 bd 1c ba 5e bd a9 db cd 3d
       0.09484253 -0.11395817 -0.054376706 0.100516625
000090 5a 7c e4 bd 6d 67 8a 3d 21 57 88 bc b6 65 eb bd
       -0.11156531 0.06758008 -0.016643109 -0.11494009
0000a0 58 5b 0b be 8e 63 16 be c8 10 c1 3d 4c 55 bb bd
       -0.13609064 -0.14686415 0.09427029 -0.091471285
0000b0 76 cf e6 3d ed 63 09 be 5d e7 46 3d 9c 8e a2 bd
       0.11270039 -0.13417025 0.04856049 -0.07937357
0000c0 69 78 df 3d db d3 bd bd b7 d3 bb 3d 7a 33 f4 3d
       0.10911638 -0.09268924 0.09171241 0.11923881
0000d0 26 3b 0d be d5 db a8 bd 60 90 81 bd c8 07 0c be
       -0.13792095 -0.08245055 -0.063263655 -0.13674843
0000e0 44 04 83 bd d4 37 d8 3d 6c c3 07 3e 0b 3a 00 3e
       -0.06397298 0.10557523 0.13258141 0.12522142
0000f0 c2 34 dc 3d a5 0b fb bd 4d b6 01 3e 55 cd 96 3d
       0.1075225 -0.122580804 0.12667198 0.07363383
000100 d7 04 5b 3d 80 0e 04 be c3 00 99 bd 07 aa a9 3d
       0.053471413 -0.12896156 -0.074708484 0.08284383
000110 4c ad ea bd 53 03 0d 3e d0 be e9 bd 27 49 e8 bd
       -0.11458835 0.137708 -0.11413348 -0.11342078
000120 69 e5 7b bd a0 77 70 bd 99 38 a1 3d b2 f9 13 be
       -0.06149808 -0.058707833 0.07872123 -0.1445072
000130 41 79 59 3d f8 62 8f bd a9 2d 61 3d 64 10 70 bd
       0.053094152 -0.07001299 0.054975186 -0.05860938
000140 04 9a de 3d 4e 64 a2 bd 9f 27 f0 3c f2 64 9c 3d
       0.1086922 -0.07929288 0.029315768 0.07636441
000150 bf 92 15 be ef 72 01 be b5 14 0d be 85 3a b8 bd
       -0.1460676 -0.126415 -0.1377743 -0.08995537
000160 09 0e 8a bd 8f a0 12 3e 98 35 ea 3d b4 96 89 3d
       -0.06740958 0.1431906 0.114360034 0.067181975
000170 21 d7 16 3e a8 a2 e9 bd 9d c1 bc 3d 88 2f 17 3e
       0.14730503 -0.11407977 0.09216616 0.14764225
000180 07 20 f0 3d 44 fd 0f be ed c7 81 bd ce e8 84 3d
       0.11724859 -0.14061457 -0.06336961 0.064897165
000190 07 6b 8e bd c1 9c b5 3d 2b 59 cc bc 69 44 c9 bd
       -0.069540076 0.08867789 -0.024944862 -0.09827501
0001a0 a3 b5 90 bd 5a 99 02 be b3 15 b0 3d 6c 73 08 be
       -0.070658945 -0.12753811 0.08597889 -0.1332528
0001b0 85 6c 9e 3d 1b 69 1b be 54 57 9b 3d da 5e 67 bd
       0.07735542 -0.15176813 0.07585016 -0.056486942
0001c0 8a aa 92 3d 91 98 c3 bd 59 df af 3d 3f f8 87 3d
       0.07161434 -0.09550584 0.08587522 0.06639146
0001d0 47 08 91 bd 70 02 18 be 12 c6 b7 bd 04 7f c8 bd
       -0.07081657 -0.1484468 -0.08973326 -0.09789851
0001e0 35 4d db bd 81 3d 06 3e fb 1f 92 3d 93 fb 04 3e
       -0.107080854 0.131094 0.07135006 0.12986593
0001f0 40 f5 1e 3e 07 f2 9b bd 29 44 92 3d e0 b2 65 3d
       0.15523243 -0.076145224 0.07141907 0.05607879
000200 14 d9 b7 3d db 38 9b bd a9 d6 cf bd c0 2c 17 3e
       0.08976951 -0.07579204 -0.10148365 0.14763165
000210 c4 17 08 be 91 ba 91 3d 1c 53 bc bd b3 b2 66 bd
       -0.13290316 0.07115663 -0.09195539 -0.056322765
000220 1d 04 a4 bd 0d 76 b4 bd bf ce ca 3d ed 35 13 be
       -0.08008597 -0.08811579 0.09902715 -0.1437604
000230 f7 96 50 3d 3c b9 bd bd 41 41 09 3e 51 19 da bd
       0.05092522 -0.09263846 0.13403799 -0.1064936
000240 95 e3 11 3e e7 04 de bd 09 c2 d3 3d 3c 54 15 3e
       0.14246972 -0.10840779 0.10339744 0.14582914
000250 0a 18 f5 bd 2b 65 a1 bd 12 50 19 be 10 03 b1 bd
       -0.11967476 -0.078806244 -0.1497195 -0.08643162
000260 a2 05 fc bd 61 92 e4 3d d4 98 08 3e 99 3e ea 3d
       -0.12305762 0.11160732 0.1333955 0.11437721
000270 2c ac cf 3d 68 51 52 bd 44 4c 08 3e db ab fe 3d
       0.10140261 -0.051347166 0.13310343 0.124351226

lin.bias f4 [5]
000000 67 29 e1 3d 12 80 b9 bd cd d9 3c bd 06 98 6b bd
       0.10994225 -0.090576306 -0.04610615 -0.057518028
000010 65 98 26 bd
       -0.04067268
