mle/2.5_epochs_9.15625_gen_score.pt (torch_old, 36350 bytes, 7 tensors)

emb.weight f4 [6, 32]
00000000: 42be cbbd 6b68 ac3d d9c5 c2bd 7a7a 833e
00000010: bdd3 bf3b 43a1 43be 4bc2 0ebe 58ed 273e
00000020: 2bfe 88bd ccca 413e a01f df3d 496a 813d
00000030: 85e9 a7bd 8224 0dbe 4db7 123d 2228 29be
00000040: 331d 583e d005 d3bd e7cd 04be 8a75 b83d
00000050: fe70 15be 9a5f 58bd 9dde 193d 641d e5bd
00000060: e039 88bd c5d7 32be 0ea2 83bd b519 113e
00000070: 4629 0bbe 5b08 4ebe 201a 08be 1eff cbbd
00000080: ab08 db3d 1e9b 1c3e ce1a 49bd b415 6a3e
00000090: 9c2f efbd 3d69 6dbe 38fe 8cbe eb3c 38be
000000a0: 4b6d 5b3e 3f64 5f3e 8057 71be 72b0 64be
000000b0: cce9 ee3d ab41 323e bf69 51be 9124 a7bc
000000c0: 7510 983d 2373 b73d ff5c f93d 1ccd 29be
000000d0: a8e5 bebd 63f4 853d 62a6 3abe 1815 653e
000000e0: 28d8 483e d70c 0c3e fa6f 283e 395c 4abe
000000f0: 2b0b 803e 5cad 4d3d ec18 9c3d e30d 2fbd
00000100: d776 423e 5e27 063e 40d6 98bd f1cd 603e
00000110: 075f eebd d9d9 9dbe 32ae 70be bf15 2ebe
00000120: d6e1 2f3e c333 763e 2596 8ebe 0f3d 54be
00000130: d980 c73d 05c2 4d3e 36ea fbbd 06ee 413c
00000140: 9167 b83d 3aed 3a3e c93a 173e 65b4 cebd
00000150: fdfa a4bd 4c1b 1d3e 0c2f ffbd f62c 613e
00000160: d994 163e 368f c63d 639a 583e 6122 48be
00000170: d688 4f3e 91ab 5e3c 90e0 ff3d 3a1f d7bc
00000180: 511e 503e 2fda 0c3e 467e 18bd a4d7 933e
00000190: 21c8 cfbd c6ac 74be 315c 54be 7c37 0fbe
000001a0: e92f 6c3e c3b4 983e 8509 95be 2817 78be
000001b0: bb26 ed3d 1a50 393e 7c47 55be 6892 263d
000001c0: 1df4 153e 89b7 b13d dc58 303e d40c 21be
000001d0: 146b a2bd 4c31 0b3e e7fa 46be 4fc3 313e
000001e0: 8973 3f3e c92f 103e c535 123e a75b 15be
000001f0: f4c2 713e 2325 393d c369 9e3d b6ac 723c
00000200: 1bd3 e53d f003 163e 5146 acbd ef76 813e
00000210: c214 3bbe 3061 97be d49e 87be 7df4 4cbe
00000220: 7e01 683e 373a 973e b97c 83be 0daa 6fbe
00000230: 2db0 f23d a8af 4b3e 90a6 1dbe 1bd4 d43c
00000240: 9142 113e b1e2 cf3d d059 023e bdea 19be
00000250: c71c 86bc f2c3 c93d 6fe8 39be 774e 233e
00000260: e640 5f3e 9215 233e 3bca 383e f084 33be
00000270: 8f0e 5c3e 6019 853d 7680 013e b7b1 6cbd
00000280: b895 4d3e ada6 69be e780 7b3e fe7f 86be
00000290: 6d91 1fbe eb3d 803e 0df2 3c3e 08ce 6bbe
000002a0: 9a62 d93d 1922 6abe 688e a0bc a219 bcbd
000002b0: 9766 343e 56ff 5a3e 8eb5 10be 7e53 683e
000002c0: 0816 84be 873d 483e 3a76 6f3e 8a2f 50be
000002d0: 3339 843e 59f7 303e bf80 04be 11b7 253e
000002e0: 4996 4a3e b5dd 573e 5733 493e b567 3ebe
000002f0: 02a3 233e 1b21 873e fb55 783e f51d 753e
-0.09948398 0.08418354 -0.09510393 0.2567938 0.0058540986 -0.19104485 -0.13941304 0.16399133
-0.06689104 0.18925017 0.10894704 0.063191004 -0.08198837 -0.13783458 0.03581934 -0.16519216
0.21104889 -0.10303843 -0.1296917 0.09006794 -0.14593884 -0.052825548 0.037565816 -0.111872464
-0.06651664 -0.17465122 -0.06427394 0.14169963 -0.13589963 -0.20120375 -0.13291216 -0.09960769
0.10695013 0.15293548 -0.04909783 0.22859842 -0.11679003 -0.23184676 -0.27537704 -0.17991988
0.2142841 0.21815585 -0.23568535 -0.22332934 0.11665687 0.17407863 -0.20450495 -0.020403178
0.07425014 0.089575075 0.12175941 -0.1658215 -0.09321147 0.06540754 -0.18227533 0.22371328
0.19613707 0.13676773 0.16448966 -0.19761743 0.2500852 0.050214157 0.07621941 -0.042737853
0.18990646 0.13100955 -0.0746274 0.2195356 -0.11639219 -0.30830267 -0.2350395 -0.17000483
0.17175993 0.24043183 -0.27848926 -0.20726417 0.097413726 0.20093544 -0.123005316 0.011836534
0.09004129 0.18254557 0.14768519 -0.10093001 -0.08055685 0.15342444 -0.12460145 0.21989807
0.14705218 0.09695284 0.21152644 -0.19544365 0.20267043 0.013590709 0.12494004 -0.026260007
0.20324065 0.13755105 -0.0372298 0.28875458 -0.101455934 -0.23894033 -0.20738293 -0.1398601
0.23065151 0.2982541 -0.29108825 -0.24227583 0.11579653 0.18096963 -0.2082805 0.040666968
0.14643903 0.08677585 0.17221397 -0.1572755 -0.0793058 0.13593024 -0.19431649 0.1735966
0.18696417 0.14080729 0.14278324 -0.14585744 0.23609525 0.045201432 0.07735016 0.014811685
0.11221906 0.1464994 -0.08411849 0.25286052 -0.18269637 -0.29566336 -0.26488364 -0.2001514
0.22656819 0.29536602 -0.25681093 -0.23404713 0.11850009 0.19891226 -0.1539557 0.025980046
0.1418555 0.1015066 0.12729573 -0.15030952 -0.016371144 0.09851827 -0.18155073 0.159479
0.218021 0.15926197 0.18045895 -0.1753118 0.21489929 0.064989805 0.1264666 -0.05778667
0.20076644 -0.22817488 0.24560891 -0.26269525 -0.1558282 0.2504724 0.1845171 -0.23027813
0.1061451 -0.2286457 -0.019599155 -0.091845766 0.1761726 0.21386465 -0.14131758 0.226881
-0.25798059 0.19554721 0.23384944 -0.20330635 0.2582489 0.17281856 -0.12939738 0.16183116
0.19783892 0.21080668 0.19648491 -0.18594249 0.15980151 0.26392445 0.24251549 0.23937209

lstm.weight_ih_l0 f4 [128, 32]
00000000: 446b 513e 6afe 3b3e ea05 b2bd 58ed f53d
00000010: 5df4 28be 88df f3bd ab3d 45be f922 15be
00000020: 3df6 473e 2046 553e 4608 83be 57ad 55be
00000030: 0a6b 8e3d 69d2 193e 3356 18be a946 b8bd
00000040: b851 de3d c71c c53d 6190 3c3e a8ea 38be
00000050: 40f1 c8bd ebf6 fe3d caad 1cbe 1ca8 6a3e
00000060: e500 5a3e 1fa7 633e 99c6 3c3e 8b3d 67be
00000070: daa4 813e d6cd 643d 0df6 933d eff3 9fbc
00000080: 71ae 273e 4650 253e ce9c bcbd 29a2 1a3e
00000090: 8fde f1bd 91f3 56be 9577 00be 8ccf 11be
000000a0: 4949 163e cb55 5d3e a2ff 3abe 77d4 4abe
000000b0: e710 203d 76d5 1d3e 6305 21be ee28 38bd
000000c0: 2081 ae3d b007 c93d 2032 df3d ac90 06be
000000d0: c971 99bd 0d9b b93d c102 09be 76b2 2e3e
000000e0: bb7c 3d3e 2c05 0d3e 06dd 2f3e 2391 43be
000000f0: 2cd0 7c3e 345c 53bc 9754 873d 9f91 ccbd
00000100: 0fb2 1f3e 5af6 a8bd a664 9c3d abbb 28bd
00000110: c985 19be 3e72 493d 30ef 04be 27fe 57be
00000120: f811 1c3e 1372 c73d 9d63 70be 5bf4 1bbe
00000130: bac8 223e d4c1 223e faa6 45be 846e 353e
00000140: ed14 ecbd 0ed8 3f3e 5e1e 163e 8449 51be
00000150: 74c2 0a3e 3d14 343e 4968 55be 7f8b 5b3e
00000160: 9c0b 163e d94b 773e 4fab 3d3e e8b3 34be
00000170: 259d 483e 6d84 543e 1778 143e cba6 dd3d
00000180: ef9d 193e f346 e23d 65c7 cbbd 3087 053e
00000190: bf1b e3bd b81f b5bd f2f7 12be cca0 43be
000001a0: d210 1e3e 86dd 213e 2bcf 73be 3ce2 5dbe
000001b0: 99d7 053e 3f0b 2e3e 412e fcbd f209 1dbd
000001c0: 52ba b63d 51d4 f83d 20e6 193e 39fa 1abe
000001d0: b9a6 efbd e030 193e 3cc8 fbbd d4d7 863e
000001e0: c96e 5b3e d6bd 1b3e 3008 393e 0eee 39be
000001f0: c478 903e ef41 cc3b 6d29 743d 9992 b2bd
00000200: 49f5 ed3d 3b10 09be e30f 253e 0173 1dbe
00000210: 61bb f1bd 7e36 0e3e d80c 9e3d b98c 42be
00000220: ea26 433e 3b8f f6bd e924 4bbe e51f 3bbe
00000230: 98d3 573e a7ab 533e 5412 02be fff2 5e3e
00000240: 908d 24be fde4 fd3d 7190 443e df89 0cbe
00000250: b547 593e 3257 c13d 20ae cfbd 9f6d 1d3e
00000260: 6573 303e 4d07 743e b25a 2b3e f634 28be
00000270: 60b7 263e 62fe 733e 6ab0 153e bbc6 003e
00000280: 4122 1d3e 55f1 a3bd 3988 203e 95b4 6fbc
00000290: 3f55 cebd 6976 15bd d435 e8bd a231 54be
000002a0: 267d 3e3e 854f 823d 89dc 84be 5723 49be
000002b0: 8749 463e 83e2 623e 7503 44be e6d6 ce3d
000002c0: b5ad 82bd 2b31 203e 518a 413e c654 23be
000002d0: 9ab3 a93d f001 1a3e e5dc 18be db77 1e3e
000002e0: e86a 053e dbac 8b3e dd38 513e 971f 52be
000002f0: e050 5a3e bab1 5b3e ebba 513e 13f3 163e
00000300: 6a74 5a3e 3827 7cbe 4882 803e 21c7 89be
00000310: df0f 03be 2721 8b3e e740 573e 6da8 2fbe
00000320: 3235 a03d 9fe2 54be 2875 85bd 0f00 b3bd
00000330: 1a54 4c3e 0ec2 1b3e 015a 05be 8969 733e
00000340: 912c 42be 931d 803e d912 573e 049a 27be
00000350: 9ecf 773e d7ab 133e d1da 0bbe 92e0 133e
00000360: d343 143e c361 523e db53 093e 1b38 55be
00000370: 924f 4d3e c920 403e 6562 2e3e 8a7f 7f3e
00000380: dffd 253e 1fe8 72be 1908 723e 02c9 2dbe
00000390: 9d8e bcbd 5008 f93d f6a3 d63d 38c2 2ebe
000003a0: f950 053e aab3 25be c2ec 7cbd 522f eebd
000003b0: 3fbb 1b3e 8d90 4f3e 855b 88bd 3150 253e
000003c0: 2ffb 4fbe d97e 323e bbdb 503e dc87 37be
000003d0: d143 713e 5de6 063e 822a efbd 8669 183e
000003e0: 8d5f 073e 1153 6e3e 4ae8 413e 26a4 4fbe
000003f0: 2621 293e 51dd 4d3e fe5d 593e b76f 373e
0.20451075 0.1835877 -0.08692534 0.1200816 -0.16499467 -0.119078696 -0.19261806 -0.14564122
0.19527526 0.20827532 -0.2559225 -0.20866905 0.0695401 0.15021671 -0.14876632 -0.08997852
0.1085543 0.096246295 0.18414451 -0.18058264 -0.0981164 0.124494396 -0.1530067 0.22915691
0.21289404 0.2223172 0.18435134 -0.2258207 0.25321084 0.055860363 0.07224665 -0.019525496
0.16375138 0.16143903 -0.092095956 0.15100922 -0.11810028 -0.2099135 -0.12545617 -0.14239329
0.14676394 0.21614759 -0.18261579 -0.19807611 0.03907862 0.1541346 -0.15724711 -0.04496091
0.085207224 0.098159194 0.108982325 -0.13141125 -0.07492406 0.09062777 -0.13379957 0.17060265
0.18504612 0.13771504 0.17174158 -0.19098334 0.24688786 -0.012900401 0.06607931 -0.099887125
0.15595268 -0.08250113 0.07636385 -0.0411946 -0.14992441 0.049181215 -0.12981868 -0.21093045
0.1524123 0.09738555 -0.234755 -0.15229933 0.15896884 0.15894252 -0.19301978 0.1771794
-0.11527429 0.18734762 0.14660022 -0.204382 0.1355074 0.17585845 -0.20840563 0.21439932
0.14652866 0.24150027 0.1852238 -0.17646754 0.19591196 0.20753641 0.14498936 0.10822829
0.15001653 0.11048689 -0.09950141 0.13039851 -0.110892765 -0.088439405 -0.14352396 -0.19104308
0.15436104 0.1580716 -0.23809497 -0.21668333 0.13070525 0.16996478 -0.1231351 -0.038339563
0.089222565 0.12149871 0.15029192 -0.15134515 -0.11701722 0.1496005 -0.12294051 0.2633654
0.2142898 0.15209135 0.1806953 -0.18157217 0.28217137 0.006233446 0.05960982 -0.087193675
0.1161905 -0.13385098 0.16119342 -0.15375902 -0.11803318 0.13887975 0.077172935 -0.18998994
0.19057813 -0.12039038 -0.19838299 -0.18273886 0.2107681 0.20670949 -0.12702304 0.21772383
-0.16069627 0.12397192 0.19195725 -0.13724469 0.2121876 0.09440459 -0.101406336 0.15373848
0.1723152 0.2383091 0.16733816 -0.16426453 0.1628089 0.23827508 0.14618078 0.1257581
0.15345098 -0.08005015 0.15676965 -0.014630456 -0.10074853 -0.036489878 -0.11338392 -0.20722058
0.18602428 0.063628234 -0.25949505 -0.19642387 0.19363986 0.2215672 -0.19141944 0.100995824
-0.06380788 0.15643756 0.1890042 -0.15950307 0.082862094 0.15039802 -0.14928015 0.15475409
0.13029063 0.27280316 0.20431848 -0.20519863 0.21319914 0.21454516 0.2048146 0.14741163
0.21333471 -0.24624336 0.25099397 -0.26909736 -0.12799023 0.2717373 0.21020852 -0.17154093
0.07822646 -0.20789574 -0.065164864 -0.087402456 0.19953957 0.15210745 -0.13022615 0.23770727
-0.18962313 0.25022563 0.21003284 -0.16367346 0.24200293 0.1442102 -0.1365769 0.14441136
0.14478998 0.20545106 0.13410895 -0.20822184 0.20049885 0.18762507 0.17029722 0.24950996
0.16210125 -0.2372136 0.23635902 -0.1697121 -0.09206889 0.121597886 0.10480492 -0.17066276
0.1301917 -0.16181818 -0.061749227 -0.116301194 0.15208147 0.20269985 -0.06658081 0.16143872
-0.20310663 0.17431201 0.2039632 -0.1792292 0.23561026 0.13173814 -0.116780296 0.14884004
0.13220043 0.23273875 0.18936267 -0.20277461 0.16516551 0.20103957 0.21227261 0.1791371

lstm.weight_hh_l0 f4 [128, 32]
00000000: 566f 28bd 77f0 e73d 222b 7d3c ded4 d43d
00000010: 27f6 a6bd da6f 76bd b522 e33c ede5 52bd
00000020: 5310 35bd 1c8b a03c 3cc5 83bd 2b8f d13d
00000030: 96f9 10bb 9132 073d a484 c23d fcc4 2b3c
00000040: dc2d 703c c4e8 edbc 48c5 9abc b2f2 243d
00000050: a765 c33c 948a 0ebd 1028 17bd 2eca 193d
00000060: 5f58 bc3b bbb1 f1bd 6969 4cbc 1c9e 85bd
00000070: 12d4 f5bc fe9b 6e3c d2e6 0fbd 2c2c 19bd
00000080: b77a 23bd 5315 b03d 90ef 293d 148e b53c
00000090: 722d 24bd 27b4 41bc 5dc9 4cbc 92c4 903d
000000a0: 2612 593c 8d78 17bc 759f 443d c605 d6ba
000000b0: 9ccd eebb 005e 203d 7ca9 92bc 43dd 63bc
000000c0: e971 1dbc d995 4cbd 9d62 133d 436c fb3c
000000d0: e38e 503c 46a0 bfbc 74b7 0b3d 6680 b33b
000000e0: fa14 cfbc 4916 7dbc 2d81 1a3d 784a 023c
000000f0: 10cb 95bc 9401 c2bc 39c4 7a3d 947e b0bc
00000100: 452e 96bd 5d79 4d3d 1b15 b43d 7c1c 7f3b
00000110: a61e 77bc f57a 9cbd 2f38 7cbd 1c8f 92bc
00000120: 634b 5d3d 12cc 11bb fc03 98bc d9d7 a83d
00000130: bdde 463d 5c11 62bd 9e92 af3d e545 053c
00000140: 4252 9b3d 1a9e 9dbd 71ec bebc f3cd 143d
00000150: b8f4 cebc b161 2fbd 239d 27bd e76f 863b
00000160: bf3b c03d d676 57bd c5f4 81bc a251 0cbc
00000170: e7cf 35bc 3cfe ce3c b1d4 a03a 8e65 a5bd
00000180: 1e79 e2bd 31d5 8c3d b418 193b 51a4 d93d
00000190: 3d32 913c 87c1 41bd c9b9 b2bc d8fc eb3c
000001a0: b810 2fbc 040a a3bb 1404 28bd cfee 953d
000001b0: 4eff ae3c 0243 23bd d8e2 b53d aa3b 1b3d
000001c0: 4114 d03c 1e59 693b 5efc 543c 263d 763d
000001d0: c7af e1bb 5c27 a0bb 0c55 a6bb f072 ba3d
000001e0: b559 693d 3f1d ddbd 2072 f4bc c493 85bd
000001f0: 1771 0cbd 53fb f13c c873 cabc 8239 6fbc
00000200: 302c cebd 31c3 7e3d f383 923c 77b1 be3d
00000210: 7ae2 c4bd fee6 77bd 332c 53bd 0cbc 1ebc
00000220: 2761 2f3d 471b 05bc 181a 85bd 9f59 cb3d
00000230: a562 c23d e6d1 a43c 008d 733d 4af1 be3d
00000240: 62f7 223d da78 74bc a7b9 97bc 6448 b13d
00000250: 43e9 aabc 270a bcbd b29e 85bd 5e14 8f3d
00000260: d136 923d 9d66 b2bd f553 0cbd d1a4 94bd
00000270: 0e28 dbbc 6e85 40bd b30a babc 71bd 56bd
00000280: 06c0 d0bd 9408 f53d 864a 4d3d 9274 b73c
00000290: b844 2cbc a4ae 5bbd 8a2a 0fbd 1831 bbbd
000002a0: b8f5 823d af43 d43b 205f 09bc d1a0 8f3d
000002b0: 0cfe cb3d 01c2 cd3c 604c fb3d d20b 6f3d
000002c0: 3fec 1cbc 0bc6 cabd a693 0ebd 9d98 9d3d
000002d0: 9276 2c3d 82ce 5bbd 0812 f6bc 91c0 5c3d
000002e0: 00d1 aa3d 306c 38bd cb5e c8bd 99eb 7ebc
000002f0: 3ef0 ddbd 8c75 2ebd f1d7 4cbd f321 2bbd
00000300: 8aa1 9bbd 000e 283e e94e a03d 6ca5 be3d
00000310: 3190 60bd c81b 4abd 8f19 94bd 8162 9ebd
00000320: fbe3 d93c 98e5 003b 2dfb a2bd c23f 513d
00000330: 865a c33c 8b46 41bc 9007 e73d 9007 c63d
00000340: 68a7 b13d 1e94 09be aa01 88bd 2994 3e3d
00000350: 48ec bb3d 1a48 a6bd 79a8 8cbd 6af2 193e
00000360: 4d48 a93d 03d9 d4bd 4c02 a6bd 6947 8bbd
00000370: 294a eebd 1cd2 b4bd e4ce a7bd b0af ddbd
00000380: e6cf dcbd 1ade 0f3e 2ea9 613d d714 223e
00000390: 97b4 9dbd 9f4c f5bd 6d1a ddbc 2a00 6ebd
000003a0: cdb4 fb3b b196 163d 5842 93bd b5d3 7d3d
000003b0: 0532 663d 68ca bcbd 6e49 8d3d 2702 ab3d
000003c0: 5223 9c3d a108 bcbd 7a00 81bd 8bef 663d
000003d0: ea77 753d 1832 a1bd 9a0a 9ebd e542 c23d
000003e0: dd83 0d3d e8b1 e8bd 4ada a5bd bf1f 14bd
000003f0: 0bbd a3bd f23f 88bc 8057 b3bd 6f2c 0dbd
-0.041121803 0.11325162 0.015452178 0.10392164 -0.081524186 -0.060165264 0.02772651 -0.051488806
-0.04420502 0.019597583 -0.06434104 0.10232385 -0.002212142 0.03300721 0.094979554 0.010483976
0.014659371 -0.029041655 -0.0188929 0.040270515 0.023852183 -0.034800127 -0.03690344 0.03754633
0.0057478393 -0.118014775 -0.012476304 -0.065242976 -0.03000835 0.014563559 -0.035132237 -0.03739564
-0.039911952 0.08597817 0.04148823 0.022162475 -0.040082403 -0.011822737 -0.012499181 0.07068743
0.013248956 -0.00924505 0.048003633 -0.0016328625 -0.007287694 0.039152145 -0.017903082 -0.013907733
-0.009609678 -0.049947593 0.035982717 0.030691272 0.012729379 -0.023391854 0.0341105 0.005477953
-0.025278557 -0.015447208 0.037720848 0.007952325 -0.018285304 -0.023682393 0.06122229 -0.021544732
-0.07333044 0.05016457 0.08793088 0.003892689 -0.015082991 -0.0764064 -0.06157702 -0.017890505
0.054026973 -0.002224688 -0.018556587 0.08244295 0.048552264 -0.055192336 0.08572887 0.00813434
0.07584049 -0.07696171 -0.023306103 0.03632922 -0.025263175 -0.042817775 -0.04092134 0.0041026953
0.09386396 -0.052603565 -0.015863786 -0.008564385 -0.011096931 0.025267713 0.0012270418 -0.08076011
-0.110582575 0.068766005 0.0023360671 0.10627044 0.01772415 -0.047303703 -0.021817105 0.028807089
-0.010685138 -0.004975559 -0.041019514 0.0732094 0.021361973 -0.039858826 0.08881158 0.037898697
0.025400283 0.0035606096 0.012999622 0.06011691 -0.0068874094 -0.0048875045 -0.0050760563 0.09103954
0.056970317 -0.10796594 -0.029839575 -0.06522325 -0.03428754 0.029538786 -0.024713412 -0.014601113
-0.10067022 0.062197868 0.017885184 0.093111925 -0.096135095 -0.060523026 -0.051555824 -0.009688389
0.04281726 -0.008124179 -0.064991176 0.09929203 0.09491471 0.020119619 0.05946064 0.09323366
0.039786704 -0.014921391 -0.018521143 0.086563855 -0.020863181 -0.09181624 -0.06524409 0.069863066
0.07139362 -0.08710978 -0.034259755 -0.07257999 -0.026752498 -0.04700225 -0.02271018 -0.05242676
-0.101928756 0.11964527 0.0501199 0.022394452 -0.010514431 -0.053633347 -0.034952678 -0.09140223
0.063945234 0.006477795 -0.008384496 0.07013095 0.09960565 0.025116922 0.12270427 0.058360882
-0.00957781 -0.09901055 -0.034808777 0.07695124 0.042105265 -0.053663738 -0.030037895 0.053894583
0.08340645 -0.04502505 -0.09783705 -0.015559101 -0.10836838 -0.04259257 -0.050010625 -0.041780423
-0.075991705 0.1641159 0.07827551 0.093088955 -0.05482501 -0.0493429 -0.072314374 -0.07733632
0.026597967 0.0019668099 -0.07958064 0.051086195 0.023846876 -0.011796604 0.11280739 0.09669411
0.08674508 -0.13435408 -0.066409424 0.046528015 0.091759264 -0.08119221 -0.06868071 0.1503388
0.082657434 -0.10392954 -0.08105907 -0.0680073 -0.11635239 -0.08829138 -0.08193758 -0.10824525
-0.10781841 0.14049569 0.055092983 0.15828262 -0.077004604 -0.11977505 -0.02699014 -0.058105625
0.0076814652 0.036764804 -0.071903884 0.061969478 0.056200046 -0.092182934 0.06898771 0.0835002
0.07623924 -0.09181333 -0.06298919 0.05638079 0.059928812 -0.07870883 -0.07716866 0.09485415
0.034549583 -0.11362058 -0.08098276 -0.036163088 -0.079950415 -0.016632054 -0.08756924 -0.034466203

lstm.bias_ih_l0 f4 [128]
00000000: ec63 d83d c7ea 913d fc07 033e 3c42 293e
00000010: 67cb b63d ce4c b83d 1493 ad3d 5b44 1a3d
00000020: eb8f 033e bb24 083e 5d30 5e3d 5e14 cc3d
00000030: 9e3d b53d e510 b13d 275a 063e 8fb4 b63d
00000040: d807 8a3d 844b a53d 51dd bd3d 8ac5 fb3d
00000050: da7d 8f3d 79fb 013e 0653 993d fcd0 ca3d
00000060: cd3e 093e dc76 043e 069d 133e 9a3e 803d
00000070: 878a cd3d acfb 9e3d f71d dd3d 7ce4 193e
00000080: 8d94 a63d 3c28 7e3d ef8c d43d c0a7 3f3d
00000090: 5c7f 953d 2a83 983c d2fc 483d cbbb 4d3c
000000a0: 1ea8 c33c bcf9 943c 9abe 013d 1108 d53c
000000b0: 7641 433d 8665 953c cff7 6a3d cece 8b3d
000000c0: 1fd9 2f3d f21f 903c 76a2 9a3c 4f81 a23d
000000d0: 5fd1 ca3b 991d 433c 43c8 843c 496f 9e3d
000000e0: 677a b03c 70ad e13d 3e41 c2bb df53 c33c
000000f0: ac7b 6a3d 3620 983d 442f 5839 1ad4 be3d
00000100: fcd6 0cbe 15f6 f93d 7980 0a3e c3a6 b63d
00000110: 701c 84bd d315 acbd cda1 aabd 30b2 80bd
00000120: d68f 663d 1e8d 8b3d feeb cdbd faa0 e93d
00000130: 36b1 d63d c0a6 52bd 400c d83d 705c f13d
00000140: d760 f03c 8aab 00be 4e5a dcbd 6913 e43d
00000150: 3f34 903d f52c a0bd ff10 f2bc 89fa dd3d
00000160: 99c5 073e 9a11 18be 9021 a3bd 719d 0fbd
00000170: 850a d3bd b134 08bd 33ae 51bd d937 a4bd
00000180: 7e23 863d 58d5 033e b19f ea3d 9ff9 063e
00000190: 6656 6e3d 17ee 023e 62cc eb3d e9b4 573d
000001a0: fceb 173e 8c3d 1f3e 680e 003e 526a 0b3e
000001b0: b488 ef3d fb2b 0b3e 70d0 bb3d 0112 1f3d
000001c0: d72d 313e 24f7 9c3d 3060 363d e188 963d
000001d0: e889 6a3d 2904 e33d cb02 033e b621 e83d
000001e0: 5cfa 0b3e a1e6 ae3d cec4 f73d aced d73d
000001f0: 3ad2 a53d 0c81 833d 2ff5 853d e9b8 be3d
0.105659336 0.07124858 0.12796015 0.16529173 0.08925515 0.08999024 0.084753186 0.037662845
0.12847869 0.13295262 0.05424534 0.09964822 0.08849643 0.086458005 0.13120328 0.089211576
0.06739777 0.08071044 0.092707284 0.12293537 0.07006426 0.12693585 0.074865386 0.09903142
0.13402863 0.12935966 0.14415368 0.0626194 0.100361876 0.07762846 0.10796731 0.15028566
0.081338026 0.06205009 0.103784434 0.04679084 0.072996825 0.018617231 0.049069233 0.01255698
0.023883875 0.018185489 0.031675912 0.026004823 0.04766985 0.018236887 0.057365235 0.06826554
0.042931672 0.017593358 0.018876296 0.0793482 0.0061895098 0.011908912 0.016208773 0.0773607
0.021542741 0.11019409 -0.0059281876 0.023843704 0.05724685 0.07428019 0.00020616973 0.09317799
-0.13753885 0.122051395 0.13525571 0.08918526 -0.064507365 -0.084026 -0.08331642 -0.062839866
0.056289516 0.06814025 -0.100547776 0.11407657 0.10483019 -0.051428556 0.105492115 0.11785209
0.029343052 -0.12565437 -0.10759412 0.11136515 0.07041215 -0.07821075 -0.02954912 0.108388014
0.13258971 -0.14850464 -0.07965386 -0.035062257 -0.10304741 -0.033253375 -0.05119152 -0.080184646
0.06549738 0.12874353 0.1145624 0.1318116 0.058187865 0.12786137 0.11513592 0.052662764
0.14836115 0.15550822 0.12505496 0.13614777 0.11695996 0.13590996 0.09170616 0.03883553
0.17302643 0.07664326 0.044525325 0.07350326 0.057260424 0.11084778 0.12794034 0.11334555
0.13669723 0.08540083 0.120980844 0.10543379 0.08096738 0.06421098 0.06540906 0.093126126

lstm.bias_hh_l0 f4 [128]
00000000: 8841 bf3d c0d4 ba3d 9807 0d3e 6b0d bb3d
00000010: 6238 9f3d e5dc 7f3d 4dc2 4a3d de68 973d
00000020: e55f b53d 947f 183e a1ff 273d d4ee 163e
00000030: c53b 403d 92dc 763d 7849 eb3d 5f1c de3d
00000040: 8606 6a3d 8398 193e 7272 b83d c188 363d
00000050: dba1 fe3d 935d a43d d3ac d13d 785b 9e3d
00000060: 5672 d63d 721a 1a3e 3924 973d fa5b ea3c
00000070: 519a ae3d 6d7c ac3d 8a93 fe3d a39c fc3d
00000080: b2c3 173d a3a4 d13c 0a17 363d 8c09 c43d
00000090: 6f62 f93c 6169 153d e897 f83a 7096 443d
000000a0: d6e2 513d 3514 803b c794 33bb 52cb 2c3d
000000b0: f2cf ae3d 45f7 ec3c 9c57 7f3d 9252 903d
000000c0: bbd5 ab3d c27c 8f3d 4559 783c bce6 063c
000000d0: a974 833d 998d 24bb d446 2e3d 17d3 433d
000000e0: f0b0 6f3c 3d58 d23d 8c00 f43c b168 fb3c
000000f0: 4c83 683d 7e77 973d 3bf4 8e3c 5f9e bf3d
00000100: ee37 eebd d598 ab3d dd9c ee3d 45f2 033e
00000110: fc36 e2bd 7a6f e7bd 48d0 e3bc 52e6 7abd
00000120: d36d 2a3d 58a2 7a3c 6ee6 4fbd 142e 0b3e
00000130: a7d4 903d 5d3b 8ebc d232 923d e38e af3d
00000140: da8c 363d d91c 99bd 29d9 c5bd af7d 403d
00000150: 133a 353b 063d 5dbd 4f24 5bbd 6dce ad3d
00000160: d8da 863d 9264 a6bd 9dfa d0bd 365e dabd
00000170: 7bb7 00be 9829 61bd e48b 96bd 3d9c 02be
00000180: f8f7 853d e3cc e03d e626 f93d 4ece 403d
00000190: 239d 9e3d a80d e83d 81d7 723d edfa 853d
000001a0: 3bea d13d cc32 af3d 9bd5 b53d 54ea 8b3d
000001b0: 0037 ce3d e638 ff3d 2002 fa3d 6b03 f03d
000001c0: 9143 d33d 8149 7e3d 1b17 633d e65e 053e
000001d0: 6acb 1d3e bf2c 0f3e f358 d53d 8206 993d
000001e0: 2402 573d 4241 153e c4d6 573d a4db 873d
000001f0: adc1 a23d bbe8 1c3e 7c79 693d 3e98 da3d
0.09338671 0.0912261 0.13772428 0.09133419 0.07774426 0.06246652 0.049501706 0.07393049
0.08856181 0.14892417 0.04101527 0.14739543 0.046932 0.060268946 0.114886224 0.10845255
0.057135127 0.14999585 0.09006204 0.044564012 0.12433215 0.0802566 0.10238042 0.0773229
0.104710266 0.1504915 0.07379956 0.028608311 0.08525527 0.0842217 0.124304846 0.123345636
0.037051864 0.0255912 0.044455566 0.095721334 0.030442445 0.03647745 0.001896617 0.04799503
0.05124172 0.003908659 -0.002740191 0.04218609 0.08535756 0.028926501 0.06233941 0.07046999
0.08390375 0.070062175 0.015158002 0.008233722 0.064187355 -0.0025108813 0.042548016 0.047808733
0.0146295875 0.10270736 0.029785417 0.03068957 0.05676584 0.07395838 0.017450443 0.09356379
-0.116317615 0.0837876 0.11651013 0.12885387 -0.11045644 -0.11300559 -0.027809277 -0.061254807
0.041608643 0.015297495 -0.050756864 0.13591796 0.0707181 -0.017362291 0.071385995 0.08572175
0.04456792 -0.074762054 -0.09660561 0.04699486 0.0027653023 -0.054013275 -0.053501423 0.08486638
0.0658471 -0.08124651 -0.10204051 -0.106625006 -0.12569992 -0.054971308 -0.07350901 -0.12754913
0.06541437 0.10976579 0.121656224 0.047071747 0.07744815 0.1133073 0.05928755 0.06542001
0.10249754 0.085546106 0.08878633 0.06831804 0.10069084 0.124620244 0.122074366 0.11719402
0.10315622 0.062081818 0.055441957 0.13024482 0.15409628 0.13981913 0.10417356 0.074719444
0.052492276 0.14575675 0.05269505 0.0663369 0.07947097 0.15323155 0.057000622 0.10673569

lin.weight f4 [6, 32]
00000000: 26aa 56be 6a6b 513e 3172 393e fb09 5c3e
00000010: e4ba e1bd 4b40 22be 852f a33d 9d8f 5c3c
00000020: 2976 c2bd 4f06 d2bc cfe8 2f3d db62 5b3e
00000030: 405a c8bb ca4c cf3d 597e 573e da87 3b3d
00000040: 9317 c0bd 3060 3ebe 02aa a0bd 2c01 2d3d
00000050: c592 4fbd eff9 9e3b 92a4 a83d 766a 2d3e
00000060: 0523 023e a69d 64be def0 14be 1464 3dbc
00000070: 3244 46be 359c 7f3d c1cd 203d 78ae 3fbe
00000080: 93da 253e abbd f5bd 5a28 0bbe 7025 06be
00000090: 2272 263e 846e f23d b9f2 e83d a8da 1c3e
000000a0: b580 12be da1a 2cbe b942 003e f1d5 fbbd
000000b0: 27de 03be 25f1 a03d ca23 b4bd f6bf 17be
000000c0: 6b24 b0bd 04e7 fe3d 65b5 103e c1f7 dfbd
000000d0: 298e 0ebe 0c71 173e dcc1 1f3e 42d0 1dbe
000000e0: 79c3 06be aca5 c03d 0fef 183e 87d3 113e
000000f0: 01db 313e 943e c93d c570 183e f5c0 2f3e
00000100: ab08 143e df99 40be 3ab6 d3bd b84f 23be
00000110: 6a24 083e 1287 f53d eadd 233e 42d1 e03d
00000120: 6dd4 15be e6d3 27be 331e 0c3e 506f efbd
00000130: 23f6 0cbe 6cc5 fa3d 9484 eabd c13d 22be
00000140: 0624 cdbd ff83 093e 21a7 d33d ed25 12be
00000150: 8386 11be dc9d 013e cc83 343e dd72 07be
00000160: 0f70 39be 73f9 0f3e ee5a 003e 84f3 103e
00000170: c3ee eb3d a31b 213e 2ea0 243e 706c 0e3e
00000180: 9327 f03d eee8 29be 9da1 e2bd cdfe 6bbd
00000190: df5b 0d3e 2b28 203e 90cd 143e 9530 273e
000001a0: cefa dbbd ff26 17be 6539 973d 5249 cebd
000001b0: 02bc cabd 045e 293e 74e3 c7bd 4051 e0bd
000001c0: 63dd 0fbe 67cc f63d d9aa 243e 8377 00be
000001d0: 96b7 0dbe 22f8 e23d fa47 043e f855 1abe
000001e0: 9e31 3abe 14ff 053e c3bf 113e 961e 1e3e
000001f0: 48a6 2b3e 3174 173e b9b0 203e bf67 2d3e
00000200: 605b 483e 9210 d2bd 0ed1 11be 67c4 27be
00000210: 5ac9 233e 8214 413e 9f05 de3d 36de 313e
00000220: e0e3 f9bd 185e 30be eea1 1b3e d13e 08be
00000230: 6842 f4bd 0d12 0b3e 6a44 00be 1b42 edbd
00000240: 918e 1ebe 2b77 ce3d d4dc 0a3e 77c3 efbd
00000250: 1496 06be 0695 ba3d 1371 eb3d bac2 2bbe
00000260: 6181 0abe 4780 063e 6ed6 123e 2473 ce3d
00000270: 31bc 3f3e de43 1d3e f107 313e 66c0 cd3d
00000280: c5d1 433c 3d6c 84bd 05e6 fc3d 4e17 8abc
00000290: b5b2 18be 81ed c8bd 0edd 43be 9403 13be
000002a0: a142 463e 465e 343e 9041 35be 579b ad3c
000002b0: f0a6 323e fe95 54be 6547 b7bd 97c3 023e
000002c0: f082 693e 296d c5bd 4968 17be e460 383e
000002d0: fcfc 3b3e 106c 37be 85b0 61be edd1 573d
000002e0: 01c5 bb3d bde0 19ba 47f9 cfbd db68 30be
000002f0: 81eb 97bd 11f6 48be 59c0 1dbe b7f9 a1bd
-0.20963344 0.20451131 0.18109967 0.21488182 -0.11021975 -0.15844838 0.07968048 0.013461974
-0.094951935 -0.025637774 0.042946633 0.21424429 -0.0061142743 0.10122068 0.21044292 0.045783855
-0.093794964 -0.1859138 -0.078449264 0.042237446 -0.05067708 0.0048515717 0.08234514 0.16935143
0.12708671 -0.22325763 -0.14545009 -0.011559505 -0.19361952 0.06240483 0.039258722 -0.18718898
0.1619666 -0.11999067 -0.13589612 -0.13100219 0.16254476 0.118374854 0.11374421 0.15317786
-0.1430691 -0.16807118 0.12525453 -0.122966655 -0.12877713 0.07858495 -0.08795889 -0.14819321
-0.08600696 0.124464065 0.14131697 -0.10935927 -0.13921417 0.14789218 0.15601295 -0.15411475
-0.13160504 0.094065994 0.14934944 0.14240848 0.173687 0.09826389 0.14886768 0.17163451
0.14456432 -0.18808697 -0.10337491 -0.15948379 0.13295141 0.11988653 0.16002622 0.10977413
-0.14631815 -0.16389427 0.13683395 -0.11691153 -0.13765769 0.122446865 -0.114510685 -0.1584387
-0.100166366 0.13429259 0.10334612 -0.1427228 -0.14211468 0.12657875 0.17628402 -0.1322741
-0.18109153 0.14060001 0.12534687 0.14155394 0.115201496 0.15733199 0.16076729 0.13908553
0.11726298 -0.16592762 -0.110659815 -0.057616044 0.13804577 0.15640323 0.14531541 0.16327126
-0.107411966 -0.1476097 0.07383994 -0.100725785 -0.09899141 0.1653977 -0.0976018 -0.10952997
-0.14049296 0.120507054 0.16080798 -0.1254559 -0.13839564 0.11082484 0.12918082 -0.15071857
-0.1818299 0.13085586 0.14233308 0.15441355 0.1676265 0.14790417 0.15692414 0.16934107
0.19566107 -0.10257067 -0.14239904 -0.16383515 0.15994778 0.1885548 0.10840916 0.17369923
-0.12201667 -0.17223394 0.1519849 -0.13305213 -0.119267285 0.13581105 -0.12526098 -0.11584874
-0.15484072 0.10081323 0.13560802 -0.11707204 -0.13143188 0.09110455 0.114961766 -0.16773501
-0.13525917 0.13134871 0.14339611 0.10080555 0.18724133 0.1535792 0.17288186 0.10046463
0.011951868 -0.06465957 0.1234856 -0.016856816 -0.14911921 -0.09810925 -0.19127294 -0.14356834
0.19361354 0.17614087 -0.17700791 0.021192236 0.17446494 -0.20760342 -0.08949164 0.12769924
0.22803855 -0.09639961 -0.14785875 0.18005711 0.18358225 -0.17912316 -0.22039993 0.052690435
0.09168435 -0.00058699754 -0.10154968 -0.17227499 -0.07417966 -0.19625117 -0.15405406 -0.079089575

lin.bias f4 [6]
00000000: 72f5 a33d 9cc9 07bd 8443 5cbd 46ed a7bd
00000010: c281 73bc 9a5c 15bd
0.08005799 -0.033151254 -0.053775325 -0.08199553 -0.01486248 -0.036465265
